model/Pendulum-v1/2level/HAC_Pendulum-v1_solved_level_1_crtic.pth (torch, 21127 bytes, 5 tensors)

critic.0.weight f4 [64, 6]
00000000: ea2a f23e 8d1f 97be f8b2 0cbf 7025 a13d
00000010: 077f a3be 33d1 b83e d08b c3be 23a7 86be
00000020: c3d5 ffbe 27cf b2be 00f9 07c0 2b70 7f3f
00000030: 61db 21bf a6bc 38be ac28 0c3f e106 14be
00000040: c13d a0bf b7a5 323e f604 a63c c454 bc3b
00000050: 24ac e3bc 37d4 e7b7 86f7 1d41 2aad 6940
00000060: f2fd 86bf bdcb 03be a9e0 a43e c352 c83c
00000070: da0e 9a3f b9f0 82be bcac d1be 50c7 1bbf
00000080: e424 123e 1e03 84be 71e0 36bf 2155 b2bf
00000090: 86bb ff3e 408a 26be c973 1d3e 5889 65bb
000000a0: d234 7b3e 6776 85be 2e40 82bf c086 10be
000000b0: 4e16 2abc de1d 223e bc83 22be 8d4b 763e
000000c0: 6b7e e3be 342f edbe ff0e 20bf 28bb 09be
000000d0: 5af3 1ac0 6a2f 293f 1b48 13bf 2665 cebd
000000e0: 0149 08bf c123 5cbe 58d7 143f 2dde 97bf
000000f0: 5ed2 ccbd 2852 ebbe 1fa1 21bd 8185 ed3c
00000100: f555 49bc 9bcd cd3e 0307 0dbf 80ca 353e
00000110: b997 16bf c16b 6b3c a37d 6c3f 0229 8dbf
00000120: 4ef9 35bc e2a2 d939 740a 063c 5ef8 a1bb
00000130: 3483 6fc1 99b1 983f 757d b2bd 02df b2bc
00000140: 4f67 a13f c1f5 5d3e 126c a8bf 6431 39be
00000150: b2fd 93bb a0c3 df39 941e 74bb eb71 3f3b
00000160: d72f 5bc1 c708 b2c0 76b0 30bf 63fc 43bd
00000170: d9a2 1c3f aa01 c2bd e639 92bf d304 2fbf
00000180: cfc0 c4bd 9fee fdbd 41b9 8e3c 9b74 24bd
00000190: 226f 8dbd 57dd b73d 99f2 43bf 9a93 033e
000001a0: 1053 87be bf46 923e e874 983e 4401 613f
000001b0: 13a7 5a3e 061c ccbe d9cf 333f a46e f5be
000001c0: d63a 62be 61c2 a93f bc4b 8ebb b4a3 dd3a
000001d0: d05b 1cbc b732 973a adea 5841 553c 9c3f
000001e0: d70e 4bbe 3b61 d23d 0185 6bbe 18cf 613d
000001f0: 1a44 2640 f29b bf3f 0a5b a83c 3efd a23e
00000200: 84aa 413e 6bfa 21be 0e8d edbe 151b 75be
00000210: 76a0 0cbf 52d1 1b3e 3dc0 843e aea8 533e
00000220: ea2d 50bf 5852 023f 7658 52bf 62c5 6c3d
00000230: 1594 313e e012 a43e 6477 873e 8b13 51bd
00000240: 84af 8138 53d4 9fbb 0e19 88bc a396 c8bb
00000250: f1e5 3dc1 5c57 cc40 93cc 5dbc ecf4 103e
00000260: 3567 5ebf df7b 213e d524 2dbf 7995 60bf
00000270: eef5 2e3e 3256 0dbe 7c69 5d3e f17b ab3e
00000280: 5a3f 053f f42e 963e 17a5 31bf 79ab 6fbd
00000290: ec4b 6fbf 441f a93e 30da 51c0 a74c fdbe
000002a0: 0710 cd3d 6298 1d3d 2855 4a3f 604b b23e
000002b0: 1b9d 8cbf 5059 cc3d 829e 403e 34d3 1f3e
000002c0: 822f 74bf 9cf2 bd3e 5d58 a03e 575a 493d
000002d0: e368 023f 6829 cbbe 568f 2d3f 0b2f 423e
000002e0: ce0e 4dbf 2f29 c4be b509 f53e f4e9 c13c
000002f0: d239 8a3f fe43 5c3d cad4 f53e 3c6e 1bbe
00000300: 9820 c1bd 953c 4a3d 1ba0 4ebc ac28 843e
00000310: 99c1 383e e6b7 8fbe 9c2b 78bd 4f5a dbbb
00000320: 1521 04bf 9a2b 54bf cdfa f63e b009 523f
00000330: cde9 463f 92f6 d4bd 1ead eb3e 058d febd
00000340: 95f5 e03d 42ca 9e3f 81a1 223e 4123 7d3e
00000350: bde4 183f 7e78 853e 20ed 8dbe 886d 783e
00000360: cd0c 0bbf 3439 6cbe a659 0cbf 44e9 3e3e
00000370: 1816 fabe 3134 5abc afd7 bd3d 6b90 6e3d
00000380: dd24 e33d de20 4dbd a1e2 863d e64e 883c
00000390: b60b bdba bb87 2f3a 15d9 003c 6dfa d13a
000003a0: 64ce c440 ef92 a4c0 e77f 82be e6be 19bc
000003b0: 834b 29bf 58b0 273d 1b35 4abf ef7d 823e
000003c0: 94a0 c33e 5676 593e b2f1 7ebe 0b7a 043c
000003d0: 0912 09bf e3fa 2f3f e1c2 b63d fd77 dcbb
000003e0: 4d1d 683f 64af 813e 16e6 90bf 6551 04bf
000003f0: 74a2 af3c 765f 0e3e 6c2a 0a3f 98e7 ca3d
0.47298366 -0.2951626 -0.54960585 0.07868469 -0.31932852 0.36097106 -0.38192606 -0.2629939
-0.49967775 -0.3492367 -2.1245728 0.9978053 -0.6322537 -0.18040714 0.5474956 -0.14455749
-1.2518846 0.17446028 0.020266037 0.0057474095 -0.027792044 -2.7636166e-05 9.872931 3.651194
-1.0546248 -0.12870689 0.32202652 0.024453526 1.2035782 -0.25574282 -0.40952098 -0.60851
0.14271885 -0.25783628 -0.7143622 -1.3932229 0.49947757 -0.16263676 0.153762 -0.003502449
0.24531868 -0.26066896 -1.0175836 -0.14113903 -0.010381294 0.15831706 -0.15870565 0.24052258
-0.44432387 -0.46325076 -0.6252288 -0.134503 -2.421103 0.66087973 -0.575319 -0.10077886
-0.53236395 -0.21498014 0.5814109 -1.1864678 -0.10001062 -0.45961118 -0.039460298 0.028994324
-0.01228856 0.40195927 -0.55088824 0.17753029 -0.5882526 0.014368952 0.92379206 -1.102814
-0.011106802 0.00041510822 0.008181203 -0.0049429378 -14.969532 1.1929199 -0.08715335 -0.021834854
1.2609652 0.21675779 -1.315798 -0.18085247 -0.004516327 0.00042679626 -0.0037249671 0.0029212188
-13.69918 -5.5635715 -0.6901926 -0.047848117 0.61185986 -0.09472974 -1.1423919 -0.68366736
-0.09607088 -0.12399029 0.01742232 -0.040150266 -0.069059625 0.08977764 -0.7654205 0.12849274
-0.2643056 0.285696 0.29776692 0.87892556 0.21352796 -0.3986513 0.70239025 -0.47935975
-0.22092757 1.3262445 -0.0043425243 0.0016909749 -0.009543374 0.00115355 13.557294 1.2205912
-0.1982988 0.102724515 -0.22999956 0.05512914 2.5979066 1.4969466 0.020551223 0.31833833
0.18912703 -0.15818183 -0.4639668 -0.23936112 -0.54932344 0.15216568 0.25927916 0.20669815
-0.8132006 0.50906897 -0.8216623 0.057805426 0.17341645 0.3204565 0.26458275 -0.05104403
6.183892e-05 -0.004877606 -0.01661351 -0.006121473 -11.868638 6.385664 -0.013537544 0.1415593
-0.8687623 0.1576991 -0.67634326 -0.8772808 0.17086002 -0.13802412 0.2162227 0.33492997
0.5204979 0.29332697 -0.6939253 -0.05851314 -0.9347522 0.33031666 -3.278942 -0.49472544
0.100128226 0.0384754 0.7903619 0.34823132 -1.0985445 0.099779725 0.18810466 0.15607911
-0.9538499 0.3709916 0.31317416 0.04915842 0.50941294 -0.39680028 0.6779684 0.18963258
-0.80100715 -0.3831267 0.47858968 0.023671128 1.0798895 0.05377578 0.48013908 -0.1517877
-0.09430045 0.04937418 -0.012611414 0.2581228 0.18042602 -0.2806999 -0.060588464 -0.006694115
-0.5161298 -0.8287903 0.4823822 0.8204603 0.777005 -0.10398592 0.46030515 -0.12429241
0.10984341 1.2405474 0.15881921 0.2472048 0.59724027 0.2606849 -0.27719975 0.24260533
-0.5431641 -0.23068696 -0.5482429 0.18643671 -0.4884498 -0.013318107 0.09269654 0.058243196
0.110910155 -0.050080173 0.06586195 0.016639184 -0.0014423046 0.00066959456 0.007864256 0.0016020067
6.150194 -5.142936 -0.25488207 -0.009383893 -0.66130847 0.04093966 -0.7898728 0.25486705
0.3820845 0.21236548 -0.24896887 0.008085738 -0.53543144 0.687422 0.08923889 -0.006728171
0.9066971 0.25329125 -1.1320217 -0.516867 0.021439768 0.13903603 0.5397098 0.09907454

critic.0.bias f4 [64]
00000000: 4893 2d3e 3b5d 5abf d5b3 2fbe 6713 47bd
00000010: f6da 2c3e 535e babf 8aec b23e 2cb6 b83d
00000020: 27fc 53bf 56cf b1bf 36c9 66bd b42f 34bf
00000030: 2472 c5bd fa97 55be 88cc 8ebd cc21 1439
00000040: 987f 3d3f da82 a5bf e8b1 49bf f465 f8bc
00000050: 313c 82bf 61e3 8abf c43d a7bf cbdb 8dbe
00000060: 9311 71bd 4c5d 9bbc cb24 ddbf 1efd dbbe
00000070: f9d8 a8bd 64e8 9ebf 19d2 a6bd f331 40bf
00000080: 049c e3bc 2230 47bd 326c 9abf 6624 21bf
00000090: 98f9 80bc f566 653f 8818 7dbd 76c7 103f
000000a0: 7457 c5bf 7553 1cbe d2af 6cbe 44fb f93e
000000b0: cc46 79bf 7500 7ebe 6fee 813d cf8f 24bd
000000c0: 497a 8cbe 175d b83e 5d84 55bd d27f 5c3e
000000d0: 15c0 c1be 6ed9 d9bd e4fa ebbe 84e8 adbe
000000e0: 4a17 29bf d6a2 5dbf 6f13 84bf a8ee 6fbf
000000f0: aabc c0be 1304 3bbf 776f 89be ba2f 07be
0.16950715 -0.8529851 -0.17158444 -0.048602488 0.16880402 -1.4560035 0.3494609 0.090191215
-0.8280663 -1.3891399 -0.056344233 -0.7038529 -0.09640911 -0.20858756 -0.06972605 0.0001412697
0.7402282 -1.2930558 -0.7878709 -0.030322053 -1.0174619 -1.085064 -1.3065724 -0.2770675
-0.05885465 -0.018965386 -1.7276853 -0.4296655 -0.08244509 -1.241467 -0.08145542 -0.75076216
-0.027784355 -0.048629887 -1.2064269 -0.62946165 -0.015744016 0.89610225 -0.061790973 0.56554353
-1.5417314 -0.15266211 -0.23113945 0.48824513 -0.9737365 -0.24804862 0.06344306 -0.04017621
-0.27437046 0.36008522 -0.052128185 0.21533135 -0.3784186 -0.106371745 -0.46089852 -0.33966458
-0.6605116 -0.8657659 -1.0318431 -0.93723536 -0.3764394 -0.7305309 -0.26842853 -0.132018

critic.2.weight f4 [64, 64]
00000000: 2f70 09be 2573 ca3d e0ad 5d3f 0799 fcbe
00000010: ec03 05be 618a a23e 1a54 fa3c bb5c b03e
00000020: 174d 1d3f 0d03 c8bf 16d5 0f3e e440 3bbd
00000030: 0a30 91bf 37d9 1bbf f322 90be b110 0b3e
00000040: 87a3 5ebd da25 9abf 45c2 5cbf e4d8 d4be
00000050: eacc f1bf d5a4 e73e 0e81 0dbf 3fa5 0bbf
00000060: adbd f8be c5fe afbd ec04 8e3e 29bc c63e
00000070: 0022 a53e 9021 76bf f04e 78be 691b 193f
00000080: 0099 083e 9707 cbbe 3465 903f 8086 113f
00000090: 8cfa 223f dd20 bc3d 4e56 a1bb 78f7 213e
000000a0: eccd 113e 36d1 e83d 1a82 bcbd 0a79 a43e
000000b0: 5269 91be 0570 d43c bf94 7dbe fd26 37bf
000000c0: 2647 db3e 4e6f 94be 3832 5ebe e655 c53e
000000d0: cf4c c7bf 4306 1cbe e87a e93e 4ad0 5d3e
000000e0: b689 dcbf a49d 80bd dbb4 b2be 07b4 41be
000000f0: 3277 76bc 774c 213f cba4 9a3d fc57 603e
00000100: cf86 1d3e 2639 15be eec9 3cbd 8712 6f3e
00000110: 6722 303e a1f0 1d3d 9587 c53c d7db 333e
00000120: cefe e5bd 40b1 a7be 8bbd 6c3e b50b 923e
00000130: 1a81 7f3e 4c07 683d 8149 563d ab72 e23d
00000140: 128d 2c3e 72aa 69bd 49ea bb3e fcec a83e
00000150: be64 77bd 56de 9fbc 36e5 8abe 24b5 923e
00000160: 179d 74be 1cf5 2d3d ab63 093f 2001 7b3e
00000170: 7f60 a1bd 0214 033e 14de 4a3e f30d 133f
00000180: 45c1 a43c 87ba fa3e 46b4 ef3d 4ec7 bbbd
00000190: 1024 803e f0c1 aa3e 3e87 223e 086b b93d
000001a0: 2c20 613e 1bbc 86be 7242 a23e 080c 593d
000001b0: fc74 cd3d 4efe 463e 59a6 ce3d 0c4d 8d3d
000001c0: 585c 3a3d c3a3 803e 700b e93d 01a8 923d
000001d0: 4580 ee3d 8b3f bc3d ab0a cd3d 01cc 4a3e
000001e0: 9797 443e be82 9abd 3511 013e cd8d 803e
000001f0: 1ad8 b23e c4dd d9bd c988 2a3e 5771 ba3d
00000200: 72c6 6c3e 5b95 29be 7fdb 693f 35f9 4ebf
00000210: 305c 0ec0 656d 3fbf d07c 19bd ec2b f4be
00000220: cbba 0cc0 c1f2 74bf c5e3 47be 0c42 133d
00000230: 53e1 d7be 0dee 72be cf4d a0bf d2f1 6abe
00000240: 642c 64be 575b 6a3d f58c a23e e2c2 6ebf
00000250: 91b8 883e 1fc4 96be 7030 c1b8 45a9 453f
00000260: aec8 87bf 63b6 99be 40e9 5f3e 5a26 8a3f
00000270: 2d02 76be 0f5a 10c0 40f3 1ebe 4c12 5abc
00000280: b6f6 7f3e 06d5 3d3e e6f4 c03e ecf9 76be
00000290: 501f 103f ac53 2abe fd3b 82bf e589 f43e
000002a0: 3c66 173f 4745 98be 8175 78ba 2bc4 6ebd
000002b0: 735f 0ec0 4364 523e 2c4f 5b3d 1080 0bbd
000002c0: 94ff d33c bf21 7ebf b871 023f 47a7 843e
000002d0: 92cc e2be 4a81 983e ed69 213d 0877 893e
000002e0: f055 c0be 8fb2 d1bd f404 69be 3c92 b53d
000002f0: eb85 e5be 8238 963d f1fe b43e be0b af3e
00000300: 50e0 9abd 88d3 e1bd 84b5 38be 5760 0fbd
00000310: 665a 70be cea7 46bd 8377 183d 33fd b0bd
00000320: 10d6 f8bd 4245 21be b08c d1bc 922e 75bd
00000330: 19d0 4ebc 523d 623d 7645 11be 76f1 27bc
00000340: 635d 163d 75b8 98be 8573 593c eca2 acbe
00000350: cb71 8b3d 4cea 9cbd 2afe 48be a431 58bd
00000360: b5ba 8c3d aff5 20be 9555 f83d 7a21 973c
00000370: e504 25be 53ad 0abe 077e 72be 9f14 f8bd
00000380: f378 d83c 97e6 bdbc c728 4dbe 3e51 e3bd
00000390: bebc 673c 2474 b3bc b65c afbd 0f51 3cbe
000003a0: eb34 2dbd a341 3cbe 17f5 45be a628 993c
000003b0: 35bf 78be 9c60 acbd de30 dbbd 1ea8 08be
000003c0: d4b8 76be d81a 01bc f551 a6bd 60c9 8bbd
000003d0: e5bf 01bd e177 6ebe e640 3fbe 9458 573d
000003e0: 01cb 9abd f030 9abc 1e1b 41be d03d 7cbd
000003f0: d0b1 c8bd db0f f73c 77c2 6f3d 88e3 853d
-0.13421701 0.09885243 0.8659344 -0.493355 -0.12989777 0.317462 0.03055768 0.34445748
0.61445755 -1.5625931 0.1404613 -0.04571618 -1.1342785 -0.6087832 -0.28151664 0.13580586
-0.05435517 -1.2042801 -0.8623393 -0.41571724 -1.889066 0.45242944 -0.55275047 -0.5454902
-0.4858221 -0.08593515 0.2773813 0.3881543 0.32252502 -0.9614496 -0.24248862 0.5980745
0.13339615 -0.39654228 1.1280885 0.56845856 0.63663554 0.09185956 -0.0049236184 0.15817058
0.14238709 0.11368029 -0.092045024 0.32123595 -0.28400666 0.025932321 -0.24763773 -0.71543866
0.4282772 -0.2899117 -0.21698844 0.38542098 -1.5570315 -0.15236764 0.45601583 0.21661487
-1.7229526 -0.062800676 -0.34903607 -0.18916331 -0.015043067 0.630073 0.07550963 0.21908563
0.15383457 -0.14572582 -0.046091013 0.23346911 0.17200623 0.03855956 0.024112502 0.17564331
-0.11230241 -0.3275242 0.2311918 0.28524557 0.24951592 0.056647584 0.052316193 0.110570274
0.16850689 -0.057047315 0.36702183 0.32993305 -0.06039881 -0.019515198 -0.27128 0.28653824
-0.2388805 0.042470083 0.53667706 0.24512148 -0.07879733 0.12800601 0.19811279 0.5744316
0.02011169 0.48970434 0.11704306 -0.09168874 0.25027514 0.33351088 0.15871903 0.09053618
0.21984929 -0.26315388 0.3169132 0.05298999 0.100320786 0.19432947 0.10090322 0.06899461
0.045498222 0.2512494 0.11379135 0.071609505 0.11645559 0.09191807 0.100118004 0.19804384
0.19198452 -0.07544468 0.1260422 0.25108185 0.34930497 -0.106380016 0.16653742 0.09103649
0.23122576 -0.16560881 0.9135055 -0.8084901 -2.2243767 -0.747763 -0.037472546 -0.4768976
-2.198901 -0.95682913 -0.19520481 0.03595166 -0.42164096 -0.23723622 -1.2523745 -0.2294381
-0.22282559 0.057216015 0.31748167 -0.9326612 0.26703313 -0.29446504 -9.211979e-05 0.7721141
-1.0608118 -0.30021963 0.21866322 1.0792954 -0.24024267 -2.2554967 -0.1552248 -0.013310026
0.24996457 0.18538293 0.37686843 -0.24118775 0.5629778 -0.16633481 -1.0174557 0.47761455
0.5914037 -0.29740354 -0.00094779587 -0.05829255 -2.2245758 0.2054606 0.0535423 -0.034057677
0.025878705 -0.9927024 0.5095477 0.25908872 -0.442967 0.2978614 0.03940766 0.26848626
-0.37565565 -0.102391355 -0.22755796 0.088657826 -0.44828734 0.07334997 0.35350755 0.34188646
-0.075623155 -0.110266745 -0.18037993 -0.035003986 -0.23471984 -0.048499875 0.03722335 -0.08642044
-0.12150204 -0.15749076 -0.02557978 -0.059858866 -0.012622857 0.05523426 -0.14186653 -0.01025044
0.036710154 -0.2982823 0.013272171 -0.3371805 0.06808814 -0.07661876 -0.19628206 -0.052781716
0.06871549 -0.15718721 0.121256985 0.01844858 -0.16115148 -0.1354268 -0.23680888 -0.12113308
0.02642486 -0.023181243 -0.20035087 -0.1109948 0.014144121 -0.021905966 -0.08562605 -0.18390296
-0.042286795 -0.18384413 -0.19331776 0.01869614 -0.2429169 -0.08416864 -0.1070268 -0.13345382
-0.24093944 -0.007879935 -0.08121101 -0.068255186 -0.031677146 -0.23287918 -0.186771 0.05257471
-0.07558251 -0.018822163 -0.18858 -0.061582386 -0.0979954 0.030158928 0.058535066 0.06537539

critic.2.bias f4 [64]
00000000: 3080 c83e 79e2 383f 61fd 97bd 45ba 6ebd
00000010: 0258 12be 9db2 b7be c8f5 353f a0da a0bf
00000020: 3b91 e7bd 84b2 5bbf a961 fd3e c2a3 af3e
00000030: fb5d ea3e e0c8 7ebe cecf 3e3c 7a1b 7b3d
00000040: b272 83bd bede 963e 84f1 873d 4001 7a3e
00000050: cb9b a6bd 854c 8fbe 13e2 103f 5de4 31bf
00000060: 5464 9cbc ace5 973e 84a8 733f 4d46 d03d
00000070: 4bad f1be bc3c 61bd 53ee 123f f6a1 5b3e
00000080: f964 3abf 990a 52be 638d 2f3e e396 82bb
00000090: 331e bfbe d57e 573e d6f6 853e 08ad 3bbf
000000a0: 91c7 96bd 9b6c 58be 06de ed3e 3e3a 613d
000000b0: fee5 d53d 87f0 323f b450 3d3f 467c c83e
000000c0: c82e 253f 8923 3cbe 9130 bf3e 714c 853f
000000d0: 5bad c43d 1050 98be d630 973c 456a 7d3e
000000e0: 3769 d23d ac55 eb3d 7102 3b3e 9ba4 123f
000000f0: 86ce 0cbf 8d28 223c b639 4fbe 71f7 163f
0.391603 0.7222057 -0.07421375 -0.05828311 -0.14291385 -0.3587846 0.7107816 -1.2566719
-0.113069974 -0.8581927 0.4948857 0.34304625 0.45774826 -0.24881315 0.011646224 0.0613055
-0.06418361 0.29466814 0.06637862 0.2441454 -0.08135184 -0.27988067 0.5659496 -0.6948908
-0.019090809 0.29667413 0.9517901 0.10169659 -0.47202525 -0.05498956 0.57394904 0.21448502
-0.7281032 -0.20511855 0.17143779 -0.0039852723 -0.37327728 0.21044476 0.26164883 -0.733109
-0.07362283 -0.2113518 0.46458453 0.054987185 0.10444258 0.69898266 0.7395127 0.39157313
0.6452451 -0.1837293 0.3734174 1.0413953 0.096033774 -0.29748583 0.018455904 0.2474757
0.102739744 0.1149095 0.1826265 0.5728242 -0.5500263 0.009897363 -0.20236859 0.58971316

critic.4.weight f4 [1, 64]
00000000: 72cc c73f 5c95 fcbd bd6f 8a40 f5c9 e8bc
00000010: 95ec 4e3f 3f97 523f 8bd9 8fbe 508d d23e
00000020: 1b87 dc3f 48b5 4d3e 2f81 b3bf 1adc d03f
00000030: 0e90 173f 5be8 1540 741c dc3d 1262 ed3d
00000040: b308 463d 1c43 e33f aa3a a4be 7e00 1140
00000050: b956 bd3d 47ca 3bbe e7e1 e9bf 3d1a 3b3f
00000060: 9607 3bbe 7c1a 1040 3bd4 dfbd 738e 51bf
00000070: de51 0f3f 419e 16bc 756f 49be a374 813e
00000080: cab1 013f 186d cebd a5bd e33f 87ff eabd
00000090: 22e2 0940 19c4 a4bf a255 1bc0 00be 5bbf
000000a0: 607b 80bb 8b00 0d3e 270c 283f 8fd4 4c3e
000000b0: b82e 8abe 348f 18be 6669 21bf 4064 e8bd
000000c0: 0aad 3fbe 7205 1240 5cde 843f 43ec 35be
000000d0: 190a 9f3e e5f6 45bf 5be9 a3bc 15f1 da3f
000000e0: b019 2b3f 59e5 1740 1061 023f a15e 09c0
000000f0: e673 0e3e 9755 4abd a4ae 893b 7c3a 90bf
1.5609267 -0.123331755 4.32614 -0.028416613 0.80829746 0.82262033 -0.2809566 0.41123438
1.7228731 0.20088685 -1.4023799 1.631717 0.59204185 2.3423069 0.107476145 0.11590971
0.04834814 1.7754855 -0.32076007 2.265655 0.09245057 -0.18338881 -1.8272065 0.7308691
-0.18264613 2.2516165 -0.109291516 -0.81857985 0.55984294 -0.009193004 -0.19671424 0.252843
0.5066191 -0.10079402 1.779225 -0.11474519 2.154427 -1.2872344 -2.4271016 -0.8583679
-0.0039209574 0.13769738 0.65643543 0.2000296 -0.2698877 -0.14898378 -0.6305145 -0.11347246
-0.18718353 2.2815824 1.0380359 -0.17765908 0.3106239 -0.77329856 -0.020008733 1.7104822
0.6683607 2.3733733 0.50929356 -2.1464007 0.13911399 -0.04939803 0.004201727 -1.1267848
