model/Pendulum-v1/2level/HAC_Pendulum-v1_level_0_actor.pth (torch, 20611 bytes, 5 tensors)

actor.0.weight f4 [64, 4]
0	0xbf8ca931	-1.0989133
1	0xbe637823	-0.22213797
2	0x3f861298	1.0474424
3	0xbe06221b	-0.13098948
4	0x3f59ee38	0.8512912
5	0xbe3a9be1	-0.18223526
6	0x3e82fd5f	0.25583932
7	0xbe4e5f9c	-0.2015366
8	0xbedbf2fc	-0.4295882
9	0xbf127753	-0.57213324
10	0xbe8d1dd2	-0.27561814
11	0x3ee071b1	0.4383674
12	0x3f887a3e	1.0662305
13	0x3e4bd5b0	0.19905734
14	0x3e8356e9	0.25652245
15	0x3dc9639e	0.098334536
16	0x3ed8e51c	0.42362297
17	0x3f1a1d3e	0.6020087
18	0x3e6b9ba7	0.23008595
19	0xbeafff7d	-0.3437461
20	0xbfa78708	-1.3088083
21	0xbd44c2f6	-0.04803749
22	0x3fa500a3	1.2890819
23	0xbd6d8bd8	-0.057994694
24	0xbf911213	-1.1333641
25	0xbd0ad976	-0.033898793
26	0x3f35a290	0.70951176
27	0x3dc2fbca	0.09520681
28	0xbdf45510	-0.11930287
29	0x3eb97818	0.36224437
30	0xbf9d1af5	-1.2273852
31	0xbed14465	-0.40872493
32	0xbf7d1cc6	-0.9887203
33	0xbe70c667	-0.23513184
34	0x3f1507c1	0.58214957
35	0xbe237a6b	-0.15964667
36	0x3e7105ef	0.2353742
37	0x3f26a6f9	0.6509853
38	0x3f41f496	0.75763834
39	0xbd6684c8	-0.056278974
40	0xbc10d134	-0.00883894
41	0xbdd7042c	-0.104988426
42	0xbd93b30e	-0.07211886
43	0xbdc77641	-0.09739352
44	0xbeda5d73	-0.4264942
45	0xbd92ad8c	-0.07162008
46	0x3ef60c98	0.48056483
47	0xbf2c24f5	-0.6724389
48	0xbd2d73aa	-0.042346634
49	0xbe21fb72	-0.15818575
50	0x3eb1459e	0.34623426
51	0xbdc98a67	-0.09840851
52	0x3f1a4c96	0.6027311
53	0x3f08d640	0.5345192
54	0xbf79fa9b	-0.9764802
55	0xbef96cac	-0.48715723
56	0xbf80db56	-1.0066936
57	0xbe93c850	-0.28863764
58	0x3f9c4542	1.2208636
59	0x3e49174d	0.19637795
60	0xbf059485	-0.5217975
61	0x3ee5925f	0.44838235
62	0x3f9da54f	1.2316073
63	0xbf5bf049	-0.8591352
64	0x3f3a093f	0.7267036
65	0x3e4410d7	0.19147049
66	0x3ed2cb16	0.41170567
67	0xbd50b7e9	-0.05095664
68	0x3e55d7cb	0.208831
69	0x3e62323e	0.22089478
70	0x3fa99503	1.32486
71	0xbed54b84	-0.41659176
72	0xbf02f418	-0.5115371
73	0xbf831add	-1.0242573
74	0x3d1363b5	0.03598376
75	0xbc427492	-0.011868613
76	0xbd9b99e7	-0.07597714
77	0xbf45c682	-0.77256024
78	0xbe45e07f	-0.1932392
79	0x3f3df36b	0.7419955
80	0x3f12083f	0.5704383
81	0xbec0cd2c	-0.37656534
82	0xbf5a0bc7	-0.8517422
83	0xbf0ae35f	-0.5425319
84	0x3c6f71da	0.014614547
85	0x3e38ad98	0.18034971
86	0xbcc2c57e	-0.023775812
87	0x3cf7a0b2	0.030227993
88	0xbefd527d	-0.49476996
89	0xbf35c2b7	-0.71000236
90	0x3d4bf536	0.0497944
91	0x3f381a67	0.71915287
92	0x3f1f3e56	0.6220449
93	0xbe82a258	-0.25514483
94	0xbeb5f2a0	-0.3553667
95	0xbea0ef33	-0.31432495
96	0xbf42e5ac	-0.761317
97	0xbe85d410	-0.26138353
98	0x3ebcdc8c	0.36887014
99	0x3db3ef1d	0.087858416
100	0x3efd6e26	0.494981
101	0x3ee12c94	0.43979323
102	0xbe4ad436	-0.19807515
103	0x3bb4986d	0.0055113346
104	0xbed857e8	-0.42254567
105	0xbe015544	-0.12630183
106	0x3f327ad7	0.6971869
107	0xbd5aa741	-0.053382162
108	0x3f35cf7d	0.71019727
109	0xbeb32277	-0.34987232
110	0x3dba16e8	0.090864
111	0x3ec88792	0.39165932
112	0x3f6e2622	0.93026936
113	0x3f114ad1	0.56754786
114	0xbe8f28c7	-0.27960798
115	0xbeeb0032	-0.45898587
116	0xbef010dc	-0.46887863
117	0xbf0530f9	-0.5202785
118	0xbaa80961	-0.0012820178
119	0x3e826ed5	0.25475183
120	0xbf19141b	-0.59796304
121	0x3d87e892	0.06636156
122	0x3fbd18f5	1.4773241
123	0x3e89c2d7	0.26906464
124	0xbecb0edd	-0.39659777
125	0xbead2ebb	-0.33824715
126	0x3f4188b7	0.75599235
127	0xbe985fd7	-0.2976062
128	0xbd3c5bc3	-0.04598595
129	0x3e76c3ef	0.2409818
130	0xbdc3413e	-0.09533928
131	0xbf8553ce	-1.04162
132	0xbfaac8f1	-1.3342572
133	0xbe40a0cb	-0.18811338
134	0x3e99ec95	0.3006331
135	0x3d35ef2b	0.04441754
136	0x3da0b055	0.07846133
137	0xbe0b92d7	-0.13630234
138	0xbf23393e	-0.6375922
139	0x3e13053f	0.1435747
140	0xbebcf1e0	-0.36903286
141	0xbe07ae5a	-0.13250104
142	0x3f9aada7	1.2084244
143	0xbec4c29f	-0.38429734
144	0xbec77023	-0.3895274
145	0xbe6abf36	-0.22924504
146	0x3f50b995	0.81533176
147	0xbeab7789	-0.33489636
148	0xbea03202	-0.31288153
149	0x3e6040aa	0.21899667
150	0xbea6afe4	-0.3255607
151	0xbf1288d0	-0.5724001
152	0xbf8d1d3d	-1.1024548
153	0xbd9e52ca	-0.077306345
154	0x3f90ef1b	1.1322969
155	0xbe6a5fb4	-0.2288807
156	0xbe8b2dff	-0.2718353
157	0xbe8ffd30	-0.28122854
158	0x3f43483b	0.7628209
159	0x3e9ec35f	0.3100843
160	0xbe6a3450	-0.22871518
161	0x3eb6385d	0.35589877
162	0xbf790465	-0.9727233
163	0xbea00c59	-0.3125942
164	0xbf21ad56	-0.63155115
165	0xbe9924d3	-0.29910907
166	0xbd865298	-0.06558722
167	0x3f328533	0.69734496
168	0x3f0b75ff	0.5447692
169	0xbdcb7dba	-0.0993609
170	0x3f322585	0.695885
171	0x3dfa8f31	0.12234343
172	0xbf0d0923	-0.55092067
173	0xbea7920d	-0.32728615
174	0x3edb189d	0.42792216
175	0x3f0a818f	0.5410394
176	0xbf2ba0f1	-0.6704245
177	0x3d7d6b03	0.061869632
178	0xbd5d158f	-0.053975638
179	0x3d6c8c9f	0.057751294
180	0x3ed8dba8	0.42355084
181	0x3f58229e	0.8442782
182	0x3d519e75	0.051176507
183	0xbf58f841	-0.84753805
184	0xbf0a983e	-0.54138553
185	0xbf32cdfc	-0.6984556
186	0xbf771bd0	-0.96526814
187	0x3ee5fdd7	0.44920227
188	0x3f8974a3	1.073872
189	0xbdaeea1f	-0.08540749
190	0xbf8dd774	-1.1081376
191	0x3e54bcc3	0.20775132
192	0x3f330235	0.6992524
193	0x3efd4247	0.49464628
194	0x3f959486	1.1685951
195	0xbe9229ec	-0.2854761
196	0x3ec3fb18	0.38277507
197	0xbfa0b04a	-1.2553799
198	0xbec175d8	-0.3778522
199	0x3e436347	0.1908084
200	0x3ef7d748	0.48406434
201	0xbe540d14	-0.20708114
202	0xbf430667	-0.76181644
203	0x3e8f9fa4	0.28051484
204	0x3f109cb4	0.5648911
205	0x3eafa13e	0.34302706
206	0xbee0fa4f	-0.4394097
207	0xbf520a10	-0.82046604
208	0x3f76f02a	0.9646021
209	0xbf0e0047	-0.55469173
210	0xbf2769a6	-0.6539558
211	0x3f145eab	0.5795695
212	0x3f44550a	0.7669226
213	0x3edb2d93	0.42808208
214	0xbf04ab16	-0.51823556
215	0xbefe5ff0	-0.4968257
216	0xbf76ed4f	-0.96455854
217	0xbe73aa56	-0.23795447
218	0x3f602594	0.8755734
219	0xbe7e44e7	-0.24830972
220	0xbf3271d5	-0.69704944
221	0xbea69715	-0.3253714
222	0x3dfbc8c2	0.12294151
223	0x3ea2aa87	0.31770727
224	0x3f8bf539	1.0934211
225	0xbed0d22e	-0.40785354
226	0xbf865a7a	-1.0496361
227	0x3ee8032a	0.45314914
228	0xbf670026	-0.902346
229	0x3e1ad384	0.1511975
230	0x3f8469a0	1.0344734
231	0xbe1f4d65	-0.15556867
232	0x3e3070d6	0.17230543
233	0x3e80fbe6	0.25192183
234	0x3e03a4bd	0.12855811
235	0x3d8c5b9f	0.06853413
236	0xbe0305d7	-0.12795196
237	0xbec627d0	-0.3870225
238	0x3f55e600	0.8355408
239	0x3c487a2e	0.012236161
240	0xbf0d54d6	-0.55207574
241	0xbf0710ab	-0.5275981
242	0xbee95238	-0.4557054
243	0xbe8a63d7	-0.27029297
244	0x3fbd6753	1.4797157
245	0x3e945c8b	0.28976855
246	0xbdb07e1d	-0.08617804
247	0x3e89df9a	0.26928407
248	0x3f3dd51c	0.74153304
249	0xbebd7295	-0.37001482
250	0xbf819388	-1.0123148
251	0x3e179d2c	0.1480605
252	0xbc0e95f9	-0.008702748
253	0xbe3972a4	-0.18110138
254	0x3f6d6319	0.92729336
255	0xbd0ae873	-0.033913087

actor.0.bias f4 [64]
0	0x3dffaa8e	0.124837026
1	0xbeee4c44	-0.4654256
2	0xbed5066f	-0.4160647
3	0x3f22b51d	0.63557607
4	0xbfa9ac1c	-1.3255649
5	0x3e49bc2d	0.1970069
6	0x3f1a49a9	0.60268646
7	0xbfb89c50	-1.4422703
8	0x3ec96a11	0.39338735
9	0xbf5cd334	-0.8625977
10	0x3f893a8e	1.0720994
11	0x3eb1255a	0.3459881
12	0x3ed7ff1e	0.42186826
13	0xbf02ddd2	-0.5111972
14	0x3ce4431d	0.027864033
15	0xbec955fe	-0.3932342
16	0xbeaf385b	-0.34222683
17	0xbf1bf771	-0.6092444
18	0xbf0fd982	-0.56191266
19	0x3e981ccb	0.29709467
20	0x3e8b5a00	0.27217102
21	0x3ecc14c9	0.39859608
22	0x3e887597	0.26652214
23	0x3eafc11d	0.3432702
24	0x3dc66a5a	0.09688254
25	0xbe73fb84	-0.23826414
26	0x3f353339	0.70781285
27	0xbfcf7bff	-1.6209716
28	0xbe1a5d7b	-0.15074722
29	0xbec05d7a	-0.37571317
30	0xbebdb0a5	-0.37048832
31	0x3f26a11b	0.6508958
32	0x3e139397	0.1441177
33	0xbe87f6aa	-0.26555377
34	0x3e6d26ee	0.23159382
35	0xbf12dbe2	-0.57366765
36	0xbd142128	-0.036164433
37	0xbe31e588	-0.17372715
38	0x3e20ea48	0.15714371
39	0xbd86178a	-0.065474585
40	0xbfe94c6b	-1.8226446
41	0xbf040d59	-0.51582867
42	0xbff1670c	-1.8859572
43	0xbf99c907	-1.2014474
44	0xbfcd26eb	-1.6027502
45	0x3e8ce5eb	0.27519163
46	0xbf39aa54	-0.72525525
47	0x3ebcaf51	0.36852506
48	0xbf250e1f	-0.6447467
49	0x3e98f83e	0.29876894
50	0xbf0b0ce0	-0.5431652
51	0x3e2ad26d	0.16681834
52	0xbe84cf23	-0.25939283
53	0x3ee386b4	0.44438708
54	0x3e90adef	0.282577
55	0x3e858273	0.26076087
56	0xbec40be1	-0.38290313
57	0xbcb58040	-0.02215588
58	0xbe6b365b	-0.22969954
59	0x3df7eaa9	0.12105305
60	0xbf2c2d66	-0.6725677
61	0x3f19c50d	0.600663
62	0x3edae9d9	0.42756537
63	0xbfeeb6ca	-1.8649533

actor.2.weight f4 [64, 64]
0	0x3f6201d2	0.8828403
1	0xbf12d0a5	-0.57349616
2	0xbdacd74a	-0.08439501
3	0xbdced03e	-0.10098313
4	0xbf3b172f	-0.7308225
5	0x3f617e1e	0.88083065
6	0xbdd22250	-0.10260451
7	0xbf422d38	-0.7585025
8	0x3ec4a18d	0.38404503
9	0x3e70694e	0.2347767
10	0xbf39f53c	-0.7263982
11	0xbea6591d	-0.32489863
12	0xbf872f72	-1.0561354
13	0xbed71d47	-0.42014524
14	0x3e1b047b	0.15138428
15	0xbe9de120	-0.3083582
16	0xbe54b7a9	-0.20773186
17	0xbe9062c6	-0.28200358
18	0x3f027447	0.50958675
19	0x3ea772cb	0.32704768
20	0xbecc0464	-0.398471
21	0xbf6eccae	-0.93281066
22	0x3e3ffac4	0.18748003
23	0xbbca8e07	-0.0061814818
24	0x3e342cdf	0.17595242
25	0x3ba8dafc	0.005153058
26	0xbf98bd57	-1.1932782
27	0xbe982055	-0.29712167
28	0x3eec06d9	0.46098974
29	0x3df20e49	0.11819131
30	0xbe7352e6	-0.23762092
31	0xbfa43d18	-1.2831144
32	0xbf15f09e	-0.5857028
33	0x3e0ec8f5	0.13943847
34	0xbf241753	-0.6409809
35	0xbf50060c	-0.81259227
36	0xbe9ab179	-0.30213526
37	0xbeec3101	-0.46131137
38	0x3f043b0d	0.51652604
39	0x3eff0e6d	0.49815693
40	0xbed34469	-0.4126313
41	0x3d43f912	0.047844954
42	0xbf101e71	-0.5629645
43	0x3c3bea17	0.011469386
44	0x3f05d0c9	0.52271706
45	0xbfb286b9	-1.3947364
46	0x3ed4933c	0.4151858
47	0xbe02143b	-0.1270303
48	0xbf75e156	-0.9604696
49	0x3df369f0	0.1188544
50	0x3ea7bad9	0.3275974
51	0x3ec45472	0.38345677
52	0xbd0534bc	-0.032520995
53	0x3e023171	0.12714173
54	0x3f21a8f9	0.63148457
55	0x3e781ba1	0.2422929
56	0x3e5fbf88	0.21850407
57	0x3e836de1	0.25669768
58	0x3ee39fd3	0.44457874
59	0xbfd86ec2	-1.6908801
60	0x3ed99a88	0.4250071
61	0x3ec8ade9	0.39195183
62	0x3d9d0bf3	0.07668295
63	0xbf9cda91	-1.2254201
64	0xbf74ac12	-0.9557506
65	0xbe80810f	-0.25098464
66	0xbdc63026	-0.09677152
67	0x3e49f557	0.19722496
68	0xbeb97bac	-0.36227167
69	0x3d543ff8	0.051818818
70	0xbfbf3525	-1.4938093
71	0x3dadde51	0.08489669
72	0x3e5ff6d8	0.21871507
73	0xbeefbccf	-0.46823737
74	0x3d235a5f	0.039881106
75	0xbdaced7d	-0.08443735
76	0xbf5ffb0e	-0.87492454
77	0x3ef56d12	0.47934777
78	0xc01e91e6	-2.477655
79	0x3e062254	0.13099033
80	0x3e9b1154	0.30286658
81	0xbd86bd36	-0.06579058
82	0xbeecb996	-0.4623534
83	0x3ebff54e	0.3749184
84	0x3dcb0e93	0.09914889
85	0xbd12fd91	-0.03588635
86	0x3ecfbd1c	0.40573967
87	0x3e916b68	0.28402257
88	0xbfc56c3f	-1.5423659
89	0x3dabff81	0.08398343
90	0xbfee7dfe	-1.86322
91	0x3f0d5709	0.5521093
92	0x3f3a5518	0.7278609
93	0xbe8c3974	-0.27387583
94	0xbfeefedb	-1.8671526
95	0xbfeda7ff	-1.8566893
96	0x3e88badc	0.26705062
97	0xbe110f06	-0.14165887
98	0xbefef47d	-0.49795905
99	0xbe0a54b5	-0.13508876
100	0xbf165548	-0.5872388
101	0x3e87bf4d	0.26513138
102	0x3e12db8f	0.14341567
103	0x3da0e976	0.07857029
104	0x3e63d4de	0.22249171
105	0xbd10ab03	-0.03531934
106	0xbfb8f541	-1.4449846
107	0xbe401257	-0.18756996
108	0xbbf67872	-0.0075216824
109	0x3e994d7e	0.29941934
110	0xbe09999b	-0.13437502
111	0x3e914b92	0.28377968
112	0x3eb26e55	0.34849802
113	0xbd102dda	-0.035199977
114	0x3e4bc45b	0.19899122
115	0x3eb85ad9	0.3600681
116	0x3f0844de	0.53230083
117	0x3eb355b2	0.35026318
118	0x3ee2c5ce	0.44291538
119	0xbe8d3c90	-0.27585268
120	0x3ebbc43e	0.36673158
121	0xbf3dd0fc	-0.7414701
122	0xbbfd1206	-0.007723096
123	0x3cd329e4	0.025776811
124	0x3e3d54f7	0.18489443
125	0x3f5d583d	0.86462766
126	0x3cd570d7	0.026054783
127	0xc003104b	-2.0478694
128	0xbd7bb46a	-0.061451353
129	0xbdb7bb66	-0.0897129
130	0xbd74103c	-0.059585795
131	0x3aebc4cf	0.0017987731
132	0x3b923e50	0.0044629946
133	0xbcc23661	-0.02370757
134	0xbac217f7	-0.0014808167
135	0xbd8bf16d	-0.06833158
136	0x3b2faac9	0.0026804677
137	0xbd1309f8	-0.03589818
138	0xbd4749a0	-0.0486542
139	0xbdeddd7a	-0.11614509
140	0x3db28ef2	0.08718671
141	0xbe0f057d	-0.13966937
142	0x3d0af512	0.033925124
143	0x3d744b71	0.05964226
144	0xbe00b241	-0.12567998
145	0x3dabec1d	0.083946444
146	0x3d0acdd9	0.033887718
147	0xbd9d8b13	-0.07692542
148	0x3d950769	0.07276804
149	0x3d0ee6ab	0.03488795
150	0xbd77f5ec	-0.060537264
151	0xbd108e76	-0.03529211
152	0x3c41a443	0.011818948
153	0xbdeec74d	-0.11659107
154	0xbdc3eb7c	-0.095663995
155	0x3d818c8f	0.063256375
156	0xbdd2c92a	-0.10292275
157	0xbd6eaf5b	-0.0582727
158	0x3d067420	0.03282559
159	0xbcc9c22f	-0.024628727
160	0xbcf7f3d5	-0.030267635
161	0xbd922cb2	-0.07137431
162	0x3c0725fb	0.008248801
163	0x3d936ce0	0.07198501
164	0x3cfd3fef	0.030914275
165	0xbe080c03	-0.13285832
166	0xbda16177	-0.07879918
167	0xbe25b232	-0.16181257
168	0xbdd5f71f	-0.10447525
169	0x3c59d593	0.013295549
170	0xbe03388d	-0.12814541
171	0xbde405d1	-0.11133922
172	0xbdf0f3d2	-0.11765255
173	0xbe1c74f7	-0.15278994
174	0xbd0b68c8	-0.034035474
175	0xbde82eee	-0.11337076
176	0xbcce5b72	-0.025190089
177	0xbd9062d6	-0.070501015
178	0xbd75709b	-0.059921842
179	0xbc226e4c	-0.009913992
180	0xbd18acd6	-0.037274204
181	0x3a748d20	0.00093288906
182	0x3d8de211	0.06927884
183	0x3cc343fc	0.023836128
184	0xba8daeb5	-0.0010809513
185	0xbe20b72d	-0.15694876
186	0xbdd45fed	-0.10369859
187	0x3c189668	0.009313203
188	0xbe1d76e9	-0.15377392
189	0xbd79bdbe	-0.060971968
190	0xbd035778	-0.03206584
191	0xbdb868c7	-0.0900436
192	0x3f27768e	0.65415275
193	0xbf84c688	-1.0373087
194	0xbe588407	-0.21144114
195	0xc0528cb1	-3.2898371
196	0xbefc7cc9	-0.49313954
197	0x3f4717a9	0.7777048
198	0x3e8f852a	0.28031284
199	0xbf422dbd	-0.7585104
200	0x3f0d2481	0.55133826
201	0xbf83eb56	-1.0306194
202	0xbe807ee6	-0.25096816
203	0x3ec79942	0.38984114
204	0xbdebd1f5	-0.115146555
205	0x3de15f25	0.110044755
206	0x3df69911	0.12040914
207	0x3f2dea3c	0.6793554
208	0xbfcb0a35	-1.586249
209	0x3e67c779	0.22634687
210	0x3e2a75de	0.16646525
211	0x3e972dc1	0.29527095
212	0xbef8f92b	-0.486276
213	0xbee6868c	-0.45024526
214	0x3e90aaa0	0.28255177
215	0xbf5b3b06	-0.8563694
216	0xbd4bc591	-0.04974896
217	0xbf1cacf5	-0.6120141
218	0x3c8cd48c	0.017191194
219	0x3f15e896	0.5855802
220	0xbe3553d8	-0.17707765
221	0x3eb9bfe6	0.3627922
222	0xbebfa5e8	-0.37431264
223	0x3e31f428	0.17378294
224	0x3cdb3c05	0.026762018
225	0x3ecd7021	0.4012461
226	0xbf0dd0dc	-0.5539682
227	0x3f28aeb7	0.65891594
228	0x3f1debdd	0.61688024
229	0x3ca80d5e	0.020514186
230	0x3f5f7728	0.87291193
231	0x3e67396b	0.22580497
232	0xbf1cc00d	-0.61230546
233	0xbdb7b0f3	-0.08969297
234	0x3f89338f	1.071886
235	0xbecfab2d	-0.40560284
236	0xbf90a692	-1.1300833
237	0x3e93297c	0.28742588
238	0xbd233050	-0.039840996
239	0xbf9a83b7	-1.2071446
240	0xbf6f98e8	-0.9359269
241	0xbe6beaa3	-0.23038726
242	0xbf963ee9	-1.1737949
243	0xbf3d5a6c	-0.739661
244	0x3e636801	0.22207643
245	0xbf3a7726	-0.72838056
246	0x3f371e6c	0.71530795
247	0x3e0f6e3a	0.14006892
248	0xbee4999c	-0.44648445
249	0x3e831e17	0.25608894
250	0xbf81d5a8	-1.0143328
251	0x3c9bb1f4	0.019005753
252	0xbea6d38b	-0.3258327
253	0xc04f56b0	-3.239666
254	0xbf93cb03	-1.1546329
255	0xbf55470f	-0.8331155

actor.2.bias f4 [64]
0	0xbf0859f1	-0.5326224
1	0x3d9daadd	0.07698605
2	0x3c9dad00	0.019247532
3	0xbef3c4a1	-0.47610953
4	0xbf3461cc	-0.70461726
5	0xbe8957d1	-0.2682481
6	0x3d478dec	0.04871933
7	0x3f09ab4f	0.5377702
8	0xbd14cbe8	-0.036327273
9	0x3e993515	0.2992331
10	0x3e93fc69	0.2890351
11	0x3d79c54b	0.06097917
12	0xbda9eb37	-0.08296817
13	0x3dbbc346	0.09168105
14	0x3ca30386	0.019899141
15	0xbd644a34	-0.055734828
16	0x3c11af24	0.008891854
17	0xbe8bb9aa	-0.27290088
18	0xbf5fd56e	-0.8743504
19	0xbdb64784	-0.08900359
20	0xbdd5b257	-0.10434406
21	0x3e1f3554	0.15547687
22	0x3ec31c22	0.381074
23	0xbf61379e	-0.8797549
24	0x3ef782f3	0.48342094
25	0xbd88c2ad	-0.066777565
26	0x3ec20d50	0.37900782
27	0x3e145a11	0.14487483
28	0xbdf2ee64	-0.11861876
29	0xbdd71c0d	-0.10503397
30	0x3f23efaa	0.64037573
31	0x3e90f605	0.28312698
32	0xbd40636e	-0.046969824
33	0x3efb504e	0.49084705
34	0xbe363cdb	-0.17796652
35	0xbde1d7cc	-0.11027488
36	0x3b732e21	0.0037106352
37	0x3e0d730a	0.13813415
38	0xbc9b23f9	-0.018938052
39	0xbf939878	-1.1530905
40	0xbe28c4fc	-0.16481394
41	0x3e376c81	0.17912485
42	0x3ea6414d	0.32471696
43	0x3d68aaac	0.05680339
44	0xbfaa39bb	-1.3298868
45	0x3ed7bb76	0.4213521
46	0x3f0303ae	0.5117749
47	0x3ed5dacb	0.41768488
48	0xbdcbbd90	-0.099482656
49	0xbf782846	-0.9693645
50	0xbefc7103	-0.4930497
51	0xbded646a	-0.11591418
52	0xbf84c70c	-1.0373244
53	0x3d10921d	0.035295594
54	0x3f11b6a9	0.5691934
55	0x3eff87c9	0.49908283
56	0xbe2e3960	-0.17014074
57	0x3d8343bc	0.06409404
58	0xbdb3f54e	-0.087870225
59	0xbf67eed5	-0.90598804
60	0xbd7e66be	-0.0621097
61	0x3ed63bf3	0.41842613
62	0xbe0bdbce	-0.13658068
63	0x3e4fe44c	0.20301932

actor.4.weight f4 [1, 64]
0	0x400b0bd9	2.1725981
1	0x3f91b29f	1.1382636
2	0xbd5b404e	-0.053528123
3	0xc057c053	-3.3711135
4	0x3fc6d4a8	1.5533648
5	0x3efa9bfd	0.48947135
6	0xbee67146	-0.45008296
7	0x3ebee773	0.37285957
8	0xbb4902d5	-0.0030671854
9	0xbe9ad3aa	-0.30239612
10	0xbd9aa1bb	-0.07550379
11	0x409431f4	4.631098
12	0xbf4e5ea6	-0.8061317
13	0x3f06c0b3	0.52637786
14	0x3fd8609f	1.6904486
15	0x3fecdda3	1.8505138
16	0x3d1da175	0.038484056
17	0xc071aa88	-3.7760334
18	0xbf9c915e	-1.2231863
19	0xbdd8b79f	-0.10581898
20	0x3db6f88b	0.089341246
21	0x3f95d132	1.1704466
22	0x3ee51b40	0.44747353
23	0xbf533002	-0.8249513
24	0x3e8e2c07	0.27767965
25	0x3f1f1ce1	0.6215344
26	0x3f2b3e78	0.66892195
27	0xbf9d5f3a	-1.2294686
28	0x3f6e29f0	0.9303274
29	0xbeefa8b2	-0.46808392
30	0x3eb2a976	0.34894913
31	0xbf24a143	-0.64308566
32	0x3e739567	0.23787461
33	0x3f8d138a	1.1021588
34	0xbfc0775b	-1.5036424
35	0xbea0e8f1	-0.3142772
36	0xbbc1bd04	-0.005912425
37	0x3f301720	0.68785286
38	0x3e8a37b2	0.26995617
39	0xc000c404	-2.0119638
40	0xbd8c8503	-0.068613075
41	0xc00c1e26	-2.18934
42	0xc021c989	-2.5279257
43	0x3c6ec308	0.014572866
44	0xbfd2e65e	-1.6476552
45	0xbf4b8053	-0.7949268
46	0x3f9be8cb	1.2180418
47	0xbe3a0178	-0.18164623
48	0xbc9a6038	-0.018844709
49	0xbefcf484	-0.494053
50	0xbecbb90e	-0.39789623
51	0xbd859387	-0.06522279
52	0x3fe1fc01	1.765503
53	0xbde01605	-0.109417
54	0xbe963ced	-0.29343358
55	0x3fcfc904	1.623322
56	0x3f31a2dd	0.69389135
57	0xbff7110a	-1.9302075
58	0xbe318560	-0.17336035
59	0xbf8ce43e	-1.1007154
60	0xbb76055f	-0.0037539823
61	0x3f653351	0.8953143
62	0xbeb9b672	-0.36272007
63	0x3ed7bf50	0.42138147
