model/Pendulum-v1/2level/HAC_Pendulum-v1_level_1_actor.pth (torch, 20865 bytes, 6 tensors)

actor.0.weight f4 [64, 4]
-0.18989302 0.115675226 0.8359741 -0.3312835 0.13076338 0.29557434 -0.2873707 0.5145353
0.06673544 0.015558738 0.36089015 0.4917634 -0.10192682 -0.010080018 -0.6498826 0.006517549
-0.61455166 -0.14203247 -0.79642653 0.059654847 -0.4620287 -0.34691128 0.4938812 0.77751535
-0.6166746 -0.19809245 0.1031462 0.08582158 -0.83563125 -0.23252499 -0.25020033 -0.5031036
0.0611269 -0.10835651 0.37403038 -0.96872103 -0.1527532 -0.015918056 -0.058036443 0.4893362
-0.13761422 -0.039255485 -0.018339453 -0.3355045 0.26817763 0.026453637 -2.5860996 -0.7631618
0.43478894 -0.065628186 -0.35917678 -0.15134083 -0.2515138 -0.19094418 -0.14072381 -0.16972242
-0.5488341 0.010608182 -0.58523935 0.11877704 -0.26340806 0.03625279 0.023636173 -0.61851746
-0.18466595 0.0055034407 -1.0362309 0.005958904 -0.003230542 0.04992845 -0.25036353 -1.1303937
0.5605284 0.1110894 1.5149636 0.6958016 -0.21609753 -0.056085624 0.65444946 0.8977824
-0.27246818 -0.3266665 0.13101313 -0.25800422 0.26514393 -0.12117972 0.58337355 0.56414455
0.3501783 0.24104893 -0.35335955 0.8443973 0.03649713 -0.3153046 -0.13833901 0.206774
-0.48150173 -0.28132653 -0.043512408 -0.036894552 -0.8421424 -0.21376754 0.81491077 0.008926897
-0.5936821 -0.15675043 0.88465935 0.30556437 -0.09287765 -0.24164844 0.016089782 -0.25828245
-0.2086671 0.13685872 0.37885168 0.25626493 -0.23516221 -0.08982336 -0.6776544 0.6297679
0.25994402 -0.079382524 0.12482329 -0.07194745 0.22546743 -0.014440653 0.37917125 0.34738266
0.26076773 -0.1092312 -1.3525678 0.5769023 0.25849554 0.3297016 0.022476148 -0.30643463
0.22221644 -0.19942087 -0.4384534 -0.6029851 0.00082534767 0.19353229 0.5943136 0.86036247
0.18510982 0.06545753 0.76854616 -0.24788785 -0.037887637 0.03110011 -1.0331302 0.6156765
-0.0049797036 -0.004590137 -2.212812 -0.16705322 -0.6886243 -0.20627488 -0.5689545 1.3964733
-0.28108603 -0.10480762 0.842119 -1.1100788 -0.49822488 -0.18730806 0.6992086 -0.11571962
-0.21260528 -0.17235386 0.21035057 0.5171928 0.060495615 -0.0029011273 2.715745 -0.79211974
-0.39879444 -0.034350973 0.33911228 0.4262595 0.1806814 0.025334511 -0.2012608 1.0717654
0.05057049 -0.058640733 0.050027523 -0.06658468 0.1830591 0.065951385 -0.70925945 -0.44885316
-0.83360565 -0.22938037 0.52954596 -0.62176156 -0.43970802 -0.102775626 0.24398513 -1.057237
-1.1276987 -0.2680269 0.0878828 1.0804279 -0.06206435 0.04739493 -0.8854718 -0.23049681
-0.6729907 -0.16041853 -0.0456905 0.38715315 -0.16918571 -0.27062914 -0.06537802 -0.1386408
0.2804045 0.19381617 1.2762903 -0.25048384 -0.103919655 -0.019091584 -0.029483303 0.35515457
-0.22731645 0.24768785 -0.015015566 -0.6920792 0.6582006 0.11768104 0.37001947 -0.5445072
-0.19107065 0.025646327 1.3630415 -0.34235597 -0.833813 -0.22828716 -2.2146506 -0.9298394
-0.9601539 -0.21451846 -1.4190323 0.58215964 0.3034175 -0.061297018 -0.051644977 -0.3283237
0.10750812 0.02027479 0.011780045 -0.4122768 -0.47889578 -0.12011441 0.15059072 -0.22044176
00000000: 5173 42be 22e7 ec3d 6602 563f fe9d a9be
00000010: d6e6 053e 8555 973e 4122 93be 96b8 033f
00000020: 97ac 883d 14ea 7e3c 98c6 b83e 6ac8 fb3e
00000030: 02bf d0bd a926 25bc b55e 26bf 2a91 d53b
00000040: 4253 1dbf f670 11be 9ce2 4bbf a458 743d
00000050: 078f ecbe 5b9e b1be ffdd fc3e 3f0b 473f
00000060: 63de 1dbf bfd8 4abe 513e d33d 39c3 af3d
00000070: eeeb 55bf 081b 6ebe 421a 80be 66cb 00bf
00000080: 3360 7a3d 05ea ddbd e980 bf3e 1afe 77bf
00000090: 566b 1cbe 9566 82bc 9fb7 6dbd 468a fa3e
000000a0: beea 0cbe 5cca 20bd 9f3c 96bc 3fc7 abbe
000000b0: 944e 893e 4cb5 d83c a882 25c0 925e 43bf
000000c0: a89c de3e 1268 86bd 05e6 b7be 17f9 1abe
000000d0: 6bc6 80be df86 43be e719 10be b7cb 2dbe
000000e0: 6480 0cbf f1cd 2d3c 3fd2 15bf 6041 f33d
000000f0: 6cdd 86be ce7d 143d a6a0 c13c 2957 1ebf
00000100: 1219 3dbe 3556 b43b 37a3 84bf e942 c33b
00000110: 80b7 53bb c681 4c3d a62f 80be beb0 90bf
00000120: ca7e 0f3f d782 e33d 54ea c13f 0e20 323f
00000130: ac48 5dbe 0aba 65bd 008a 273f 11d5 653f
00000140: f380 8bbe d540 a7be 4e28 063e 2119 84be
00000150: f2c0 873e 132d f8bd f857 153f c76b 103f
00000160: 924a b33e 88d5 763e 8beb b4be 6c2a 583f
00000170: 047e 153d 9b6f a1be bea8 0dbe 90bc 533e
00000180: 6587 f6be 080a 90be 113a 32bd be1e 17bd
00000190: a596 57bf e1e5 5abe fe9d 503f 1f42 123c
000001a0: 8dfb 17bf 2f83 20be 0979 623f ef72 9c3e
000001b0: a336 bebd b072 77be b8ce 833c 993d 84be
000001c0: d4ac 55be b124 0c3e d9f8 c13e 2835 833e
000001d0: 5dce 70be 4ff5 b7bd c27a 2dbf 7838 213f
000001e0: 6217 853e 4e93 a2bd 5aa3 ff3d 2f59 93bd
000001f0: efe0 663e 7d98 6cbc bc22 c23e 24dc b13e
00000200: 5983 853e 9bb4 dfbd f120 adbf deaf 133f
00000210: 8759 843e a6ce a83e e61f b83c 00e5 9cbe
00000220: b58c 633e fc34 4cbe f77c e0be 3b5d 1abf
00000230: 255c 583a 542d 463e f024 183f b740 5c3f
00000240: 6e8d 3d3e 990e 863d 71bf 443f 50d6 7dbe
00000250: 1130 1bbd a8c5 fe3c 9c3d 84bf fa9c 1d3f
00000260: c82c a3bb dc68 96bb b69e 0dc0 0010 2bbe
00000270: af49 30bf b939 53be 01a7 11bf a3bf b23f
00000280: 82ea 8fbe 61a5 d6bd 1c95 573f 1017 8ebf
00000290: 5517 ffbe afcd 3fbe 56ff 323f 68fe ecbd
000002a0: 33b5 59be 887d 30be 2466 573e bf66 043f
000002b0: 40ca 773d d720 3ebb c4ce 2d40 5cc8 4abf
000002c0: c92e ccbe 9bb3 0cbd 20a0 ad3e af3e da3e
000002d0: 8b04 393e 528a cf3c 5017 4ebe 9c2f 893f
000002e0: 0123 4f3d 4431 70bd a9e9 4c3d 8c5d 88bd
000002f0: d873 3b3e 8511 873d 0792 35bf 15d0 e5be
00000300: 2e67 55bf b0e2 6abe 5390 073f c42b 1fbf
00000310: 6921 e1be 077c d2bd 3dd7 793e 8b53 87bf
00000320: 6e58 90bf d23a 89be e6fb b33d 764b 8a3f
00000330: 3037 7ebd 3021 423d 48ae 62bf 5b07 6cbe
00000340: 1e49 2cbf c144 24be f625 3bbd f038 c63e
00000350: 053f 2dbe e78f 8abe e9e4 85bd dbf7 0dbe
00000360: 2e91 8f3e bf77 463e 7b5d a33f 6b3f 80be
00000370: d4d3 d4bd f465 9cbc f886 f1bc d2d6 b53e
00000380: a5c5 68be e2a1 7d3e d903 76bc 1a2c 31bf
00000390: d67f 283f c202 f13d 3173 bd3e d364 0bbf
000003a0: 06a8 43be 3f18 d23c 2578 ae3f 4849 afbe
000003b0: c574 55bf 1cc4 69be d6bc 0dc0 f409 6ebf
000003c0: a5cc 75bf baaa 5bbe daa2 b5bf 6a08 153f
000003d0: 8a59 9b3e 9512 7bbd af89 53bd 0b1a a8be
000003e0: 382d dc3d 5117 a63c 1701 413c f215 d3be
000003f0: d431 f5be 8bfe f5bd 7434 1a3e 7cbb 61be

actor.0.bias f4 [64]
0.030538082 -0.822468 -0.28996006 -1.2628298 -0.07966732 -0.2821061 0.20627138 -0.38106188
0.24732949 -1.7243036 -0.99469286 0.5478743 -0.7778382 -0.15781735 -0.932573 -0.69149363
-0.9964706 -0.41869175 0.25358766 0.15815373 -1.0754535 -0.87259835 -0.33831638 -1.5842162
-0.18098567 -0.099478126 -0.27955344 -1.5697263 -0.42580533 0.23413806 -0.9955612 -0.32907817
-0.82712084 -0.76687247 -0.44533294 -0.62749183 -0.36571294 -0.33888692 -0.011481643 0.2662933
-0.3549855 -0.99625796 -0.124426395 0.039387483 0.15487944 -0.15653102 -0.47765037 -0.06805631
0.36026472 0.11473152 0.029629702 -0.59100235 -0.15904638 -0.6076558 -0.26112828 -2.0885303
-0.38110495 0.2912595 -0.8263666 0.35732284 -0.42466965 -0.40402204 -2.3512669 -0.13023813
00000000: 002b fa3c 438d 52bf a575 94be 68a4 a1bf
00000010: 9f28 a3bd 3670 90be ce38 533e 8b1a c3be
00000020: f143 7d3e fbb5 dcbf 31a4 7ebf 7d41 0c3f
00000030: 6720 47bf df9a 21be 1bbd 6ebf ba05 31bf
00000040: b218 7fbf c45e d6be 3ed6 813e 0df3 213e
00000050: 76a8 89bf 9b62 5fbf ce37 adbe 99c7 cabf
00000060: 4f54 39be 30bb cbbd a121 8fbe cbec c8bf
00000070: 2803 dabe e3c1 6f3e 19dd 7ebf ef7c a8be
00000080: 31be 53bf c151 44bf ae02 e4be 4ea3 20bf
00000090: ba3e bbbe 9682 adbe 801d 3cbc 9857 883e
000000a0: a9c0 b5be c30a 7fbf 44d3 febd c554 213d
000000b0: b798 1e3e ab49 20be 978e f4be 1b61 8bbd
000000c0: 9e74 b83e 5cf8 ea3d fdb9 f23c ee4b 17bf
000000d0: 0edd 22be 558f 1bbf 9bb2 85be 7baa 05c0
000000e0: 3020 c3be f71f 953e c38c 53bf 05f3 b63e
000000f0: 4d6e d9be fadb cebe 287b 16c0 255d 05be

actor.2.weight f4 [64, 64]
0.12864499 -0.030549789 0.31012818 0.9280423 -0.095254146 0.0069813896 -0.10092267 0.027596923
0.09006365 0.6453761 -0.28912026 -0.03823623 0.20197982 -0.006256615 0.1665862 0.083330765
0.5014431 -0.813826 -0.21290787 0.04748442 -0.10859015 0.1658851 0.20663543 0.012482848
0.04085754 0.19912106 -0.08309403 -0.69089526 0.43552184 0.21679844 0.089168124 -0.31429148
0.23693395 0.1019376 -0.2871117 -0.06478172 0.12262628 0.1118923 -0.10304726 0.0782553
-0.46423182 -0.08593514 -0.062843494 -0.2982426 0.18265817 0.29158255 -0.037862387 0.0343285
-0.087207705 -0.023058953 0.06802214 -0.13151139 0.21184532 -0.33881152 0.059752904 4.115176
0.1812599 -0.057196025 -0.07350713 0.0026776858 0.03772566 0.16116703 -0.8192212 0.39242896
0.06519447 -0.09201761 0.60500073 -0.76935446 -0.21745794 -0.4174162 0.12213006 0.4068377
-0.41953614 -0.44221264 -0.71581846 -2.7873523 -0.16545808 0.081297785 0.55081123 -0.009088894
-0.6893822 -0.05658362 -0.24114138 -0.3797043 -1.0704213 -0.3698239 -2.7845602 0.4566204
-0.20775934 -0.07295839 0.09272801 -0.78584224 -0.18376116 0.16072404 0.22226678 0.03448165
0.097999915 -0.48749417 -1.100688 0.44775802 -0.5433668 -0.50768566 0.34535512 0.16142125
0.47865972 0.52738947 0.07407737 -0.09895673 -0.35314798 -0.50934184 -0.2058402 0.23193842
-0.03465633 -0.04362745 0.099594735 -0.33174744 0.06510781 -1.278869 -1.0289499 -0.033596333
-0.18263824 0.3526278 -0.29749674 -0.116628304 0.6059235 -0.5247133 -0.72023916 0.2499288
0.042320132 -0.13849534 -0.06449263 -0.055126563 -0.1314052 -0.09543938 -0.13990803 -0.014477136
0.03850957 -0.08840504 -0.07358057 -0.096312165 -0.04760845 -0.12018545 -0.017755482 0.032423537
-0.08871477 -0.09093096 -0.04344904 0.017505871 0.015653675 -0.069262914 0.03613982 0.10099502
0.05214861 0.01615511 -0.058554746 -0.0509464 -0.16783497 0.033601794 0.05245908 -0.12952901
-0.13337168 -0.067871764 -0.09726498 0.069373086 -0.053326808 -0.12532842 0.014025769 0.0673983
0.01123513 -0.08368487 1.422016e-05 0.09007095 0.039043296 -0.07956891 -0.10248027 -0.06582627
-0.10130824 -0.03593431 -0.12406339 0.017576702 0.03407756 -0.0017371462 -0.09208102 0.09216357
-0.11889598 -0.017454974 -0.045848556 -0.07666886 -0.003060835 -0.019075118 -0.03457981 0.04148179
-0.12320397 -0.25470468 -0.019705653 -0.052604735 -0.011134558 -0.14845756 0.028701136 -0.12291485
-0.1611006 -0.14928593 -0.008855898 -0.020733034 -0.1443691 -0.11047125 -0.12917046 -0.038890924
0.06778803 -0.08181137 0.003290799 -0.18414865 0.058731075 0.001020572 -0.21492685 -0.10930126
-0.014348981 -0.15379767 -0.1488905 -0.053257763 0.075698614 0.061989523 0.071539745 -0.14523701
0.08127286 -0.10252163 0.001056734 0.06777415 -0.033149388 -0.08466811 -0.19168544 -0.2128412
0.0336054 -0.04895444 -0.019633556 -0.08833203 -0.005723696 0.02464374 -0.11049305 -0.00043942413
0.06460089 0.037521265 -0.023928352 -0.10835209 -0.11870026 -0.013208901 -0.21018153 -0.14271502
0.034195777 0.010456779 -0.050919037 -0.038664788 -0.105715975 0.011527202 -0.11499636 -0.11903315
00000000: 83bb 033e 8d43 fabc 1fc9 9e3e 2e94 6d3f
00000010: 9b14 c3bd 24c4 e43b 8bb0 cebd f112 e23c
00000020: 4a73 b83d 5e37 253f 9207 94be 989d 1cbd
00000030: ccd3 4e3e 4a04 cdbb 9395 2a3e 52a9 aa3d
00000040: 935e 003f e756 50bf 8504 5abe 067f 423d
00000050: 8364 debd c9dd 293e 3d98 533e dc84 4c3c
00000060: 3c5a 273d 64e6 4b3e 342d aabd 83de 30bf
00000070: b8fc de3e 6900 5e3e c79d b63d d0ea a0be
00000080: d09e 723e a9c4 d03d 4e00 93be 47ac 84bd
00000090: 7d23 fb3d ca27 e53d 710a d3bd 5144 a03d
000000a0: cbaf edbe c3fe afbd 17b4 80bd 41b3 98be
000000b0: be0a 3b3e 4f4a 953e 9715 1bbd 0b9c 0c3d
000000c0: f499 b2bd 21e6 bcbc 314f 8b3d ecaa 06be
000000d0: fbed 583e b478 adbe 76bf 743d 86af 8340
000000e0: 329c 393e 6146 6abd e88a 96bd 1d7c 2f3b
000000f0: 3986 1a3d f808 253e 7bb8 51bf 73ec c83e
00000100: ae84 853d bb73 bcbd 54e1 1a3f 6af4 44bf
00000110: 4bad 5ebe 93b7 d5be 531f fa3d 084d d03e
00000120: 71cd d6be b269 e2be e13f 37bf fb63 32c0
00000130: d86d 29be 747f a63d f701 0d3f 96e9 14bc
00000140: 5a7b 30bf 3ac4 67bd c4ed 76be 9a68 c2be
00000150: 9103 89bf 8f59 bdbe 3c36 32c0 26ca e93e
00000160: ddbe 54be 356b 95bd 2fe8 bd3d f52c 49bf
00000170: e32b 3cbe d894 243e e799 633e a13c 0d3d
00000180: 2eb4 c83d d698 f9be 58e3 8cbf 8a40 e53e
00000190: 161a 0bbf b0f7 01bf 63d2 b03e 9d4b 253e
000001a0: e312 f53e ff02 073f e0b5 973d d3a9 cabd
000001b0: d0cf b4be 3a64 02bf c6c7 52be 4481 6d3e
000001c0: ccf3 0dbd b2b2 32bd 53f8 cb3d cdda a9be
000001d0: 3e57 853d fbb1 a3bf a1b4 83bf 4f9c 09bd
000001e0: 8505 3bbe a28b b43e 7e51 98be d2da eebd
000001f0: cd1d 1b3f 9c53 06bf 9861 38bf 56ed 7f3e
00000200: e057 2d3d b9d1 0dbe b614 84bd 64cc 61bd
00000210: 168f 06be b975 c3bd 0d44 0fbe 8231 6dbc
00000220: 36bc 1d3d b40d b5bd 69b1 96bd 503f c5bd
00000230: 1401 43bd ca23 f6bd f273 91bc 8bce 043d
00000240: 17b0 b5bd 033a babd 9ff7 31bd 7968 8f3c
00000250: 233c 803c b7d9 8dbd 5907 143d 7ad6 ce3d
00000260: c899 553d b957 843c 1ad7 6fbd 2cad 50bd
00000270: eedc 2bbe 09a2 093d 55df 563d 41a3 04be
00000280: 9692 08be 5a00 8bbd dd32 c7bd 7a13 8e3d
00000290: 366d 5abd 1856 00be 57cc 653c 1f08 8a3d
000002a0: 8d13 383c f962 abbd 1f93 6e37 1e77 b83d
000002b0: ddeb 1f3d 06f5 a2bd 2de1 d1bd eccf 86bd
000002c0: b27a cfbd db2f 13bd f214 febd 04fd 8f3c
000002d0: e994 0b3d f4b0 e3ba f994 bcbd 41c0 bc3d
000002e0: bc7f f3bd bcfd 8ebc b2cb 3bbd 9004 9dbd
000002f0: 4a98 48bb 6c43 9cbc 8fa3 0dbd cfe8 293d
00000300: 5d52 fcbd a768 82be c06d a1bc 1078 57bd
00000310: b96d 36bc 4205 18be a51e eb3c c8ba fbbd
00000320: 8ef7 24be 69de 18be 5418 11bc 53d8 a9bc
00000330: 7ed5 13be c03e e2bd 4345 04be 174c 1fbd
00000340: 73d4 8a3d b88c a7bd 72aa 573b 7791 3cbe
00000350: ff8f 703d b7c4 853a c915 5cbe 57d9 dfbd
00000360: fd17 6bbc 237d 1dbe c076 18be d024 5abd
00000370: e007 9b3d bae8 7d3d 6e83 923d 03b9 14be
00000380: 6372 a63d dcf6 d1bd 1c82 8a3a 2ccd 8a3d
00000390: a7c7 07bd 7966 adbd 3049 44be 0bf3 59be
000003a0: d1a5 093d 7384 48bd 8dd6 a0bc 6ce7 b4bd
000003b0: d88d bbbb abe1 c93c 2e4a e2bd 8262 e6b9
000003c0: 794d 843d e6af 193d 6405 c4bc b3e7 ddbd
000003d0: 1f19 f3bd 256a 58bc d439 57be e323 12be
000003e0: df10 0c3d e952 2b3c 7b90 50bd f85e 1ebd
000003f0: 9e81 d8bd 97dc 3c3c 3683 ebbd a7c7 f3bd

actor.2.bias f4 [64]
0.09766 -0.61582434 -0.099173345 -0.0649888 -0.10293106 -0.27659434 0.1584963 -0.15132667
0.3058159 -0.5707441 -0.14397205 -0.05826382 -0.25143683 -0.048727468 -0.008281214 0.006533729
-0.33450288 -0.09964061 -0.3046487 -0.0027585153 -0.13798161 -0.08378851 0.18575597 -0.10648396
-0.14414884 -0.18115263 -0.03045697 -0.03384392 -0.96288735 -0.56099397 0.0122176735 -0.46001562
-0.5367879 -0.14450799 -0.021170491 -0.808858 -0.029286321 -0.11695656 0.14046323 -0.13006818
-0.3168051 -0.13479038 -0.017704777 -0.50095105 0.064909525 -0.85494435 -0.1529108 -0.11153288
0.048913095 0.050650887 0.10336563 0.101417564 -0.13284719 -0.1508255 -0.7405002 0.028965907
-1.8968234 0.10238413 -0.7819582 -0.28716505 -0.402874 -0.6121267 0.11183649 -0.10162119
00000000: f701 c83d aaa6 1dbf 651b cbbd d918 85bd
00000010: 85cd d2bd c69d 8dbe db4c 223e 61f5 1abe
00000020: e793 9c3e 491c 12bf 696d 13be 0ba6 6ebd
00000030: 54bc 80be 7496 47bd eead 07bc e418 d63b
00000040: f643 abbe 6010 ccbd eafa 9bbe 35c8 34bb
00000050: 0d4b 0dbe 4f99 abbd d036 3e3e 4314 dabd
00000060: c19b 13be 1380 39be e580 f9bc ec9f 0abd
00000070: c97f 76bf 4d9d 0fbf a32c 483c 2b87 ebbe
00000080: ef6a 09bf e7f9 13be bd6d adbc 5111 4fbf
00000090: dee9 efbc ec86 efbd 98d5 0f3e 9830 05be
000000a0: 4734 a2be 7d06 0abe 9c09 91bc 543e 00bf
000000b0: 49ef 843d a2dd 5abf a694 1cbe 5a6b e4bd
000000c0: 1959 483d 4e77 4f3d 5cb1 d33d 03b4 cf3d
000000d0: 1809 08be 0072 1abe 6c91 3dbf e949 ed3c
000000e0: 1ccb f2bf c5ae d13d 6a2e 48bf 4c07 93be
000000f0: 8045 cebe 56b4 1cbf 880a e53d c51e d0bd

actor.4.weight f4 [2, 64]
-0.025635697 0.3954397 0.06491118 0.026945915 -4.606615 0.8998244 0.06950586 0.12027975
-0.3636159 0.51152986 0.018879013 -0.016607061 -0.16425492 -0.0066521578 -0.12367206 -0.07921182
0.10201522 0.06357939 -2.2721224 0.1375615 -0.05075837 -0.017733373 0.065587945 -0.083028704
-0.996002 -1.8718216 -0.38904122 1.0421847e-05 -4.197511 -3.8571348 -1.7979964 -0.065513745
-2.8889494 0.022467302 1.1164957 -3.579296 0.5556704 0.16660948 -1.3999732 -0.03147564
0.142282 -0.18263684 0.18198913 0.014988475 -0.1275367 0.35964042 -0.35378897 -0.14299919
0.09829858 0.011399158 -2.0139177 0.14186591 0.06996677 -0.0009422399 0.52248406 0.09339473
0.3606728 -1.5033135 3.2923071 0.26101774 4.2557206 3.5393252 -0.38506195 0.23561466
0.111779466 0.18763393 0.03650566 0.05280477 5.137924 0.0082424255 -0.02763896 0.026712673
0.54003215 0.4970721 0.056418102 -0.063562855 0.2947437 -0.09209131 -0.033007123 0.034140892
-0.08401809 -0.060145967 2.9411812 0.15283132 -0.057659637 0.070094444 0.037846796 -0.0673818
3.3146484 3.036624 -0.08336189 0.53833264 -3.1801808 0.088655375 1.8456545 -0.5822973
4.5162015 -0.0016006685 1.1933761 0.18281671 -0.8406456 0.12881218 3.6083198 -0.030056162
-0.0019130349 -0.10421198 -0.1624963 -0.06889198 -0.028335223 -0.644656 -0.45385864 0.037798632
0.015804416 -0.23616163 2.4253507 -0.04317008 -0.036863126 -0.062599294 0.47782937 -0.04664877
0.022281189 2.9476 0.077711396 0.0073721907 -7.302369 1.2820172 0.14522628 -0.004294356
00000000: f401 d2bc 1377 ca3e 27f0 843d aebd dc3c
00000010: 6469 93c0 e45a 663f 1759 8e3d 3b55 f63d
00000020: dd2b babe 9ff3 023f 29a8 9a3c 880b 88bc
00000030: 7132 28be 58fa d9bb c747 fdbd cf39 a2bd
00000040: 5bed d03d e935 823d 746a 11c0 ecdc 0c3e
00000050: 02e8 4fbd 9445 91bc f952 863d f40a aabd
00000060: fdf9 7ebf da97 efbf 6930 c7be 7ed9 2e37
00000070: 0352 86c0 4cdb 76c0 bf24 e6bf 122c 86bd
00000080: 8ce4 38c0 590d b83c 55e9 8e3f 3013 65c0
00000090: 6a40 0e3f ad9b 2a3e 5232 b3bf 9aec 00bd
000000a0: 5fb2 113e 2705 3bbe 5c5b 3a3e 3892 753c
000000b0: fb98 02be ca22 b83e d423 b5be 616e 12be
000000c0: c450 c93d 89c3 3a3c 07e4 00c0 4c45 113e
000000d0: bd4a 8f3d a600 77ba 84c1 053f bc45 bf3d
000000e0: 1baa b83e 946c c0bf 29b5 5240 1ea4 853e
000000f0: dd2e 8840 4e84 6240 d726 c5be f844 713e
00000100: a2ec e43d 1c23 403e f586 153d d149 583d
00000110: e069 a440 3d0b 073c 1a6b e2bc 89d4 da3c
00000120: 8c3f 0a3f 3c80 fe3e ab16 673d 3e2d 82bd
00000130: a5e8 963e 5e9a bcbd 7a32 07bd 52d7 0b3d
00000140: ad11 acbd 9e5b 76bd 503c 3c40 d07f 1c3e
00000150: 832c 6cbd ad8d 8f3d 3e05 1b3d 78ff 89bd
00000160: 3323 5440 0c58 4240 a3b9 aabd 2bd0 093f
00000170: 1588 4bc0 f390 b53d 683e ec3f 7011 15bf
00000180: b984 9040 86cd d1ba 8cc0 983f 4e34 3b3e
00000190: 8d34 57bf 57e7 033e b6ee 6640 5738 f6bc
000001a0: cdbe faba 176d d5bd 6e65 26be 3d17 8dbd
000001b0: 451f e8bc 2d08 25bf 2960 e8be bdd2 1a3d
000001c0: 4378 813c 5bd4 71be f238 1b40 1cd3 30bd
000001d0: cafd 16bd 0f34 80bd 0da6 f43e c812 3fbd
000001e0: 0a87 b63c 7aa5 3c40 2727 9f3d 6b92 f13b
000001f0: 02ad e9c0 2419 a43f 33b6 143e abb7 8cbb

actor.4.bias f4 [2]
-0.027758704 -0.00059563544
00000000: 3966 e3bc 6b24 1cba
