model/MountainCarContinuous-v1/actor_level_1.pth (torch, 21505 bytes, 12 tensors)

layer1.weight f4 [64, 4]
0	0xbed54839	-0.41656664
1	0x3bdb6eb9	0.006696549
2	0x3ed54ff3	0.4166256
3	0xbd507547	-0.050893094
4	0xbd989c78	-0.07451719
5	0x3e3df89f	0.18551873
6	0xbe8e8b4d	-0.27840653
7	0x3e0afd95	0.13573296
8	0x3dac892c	0.08424601
9	0x3ecc85ea	0.39945918
10	0xbe8a2756	-0.26983136
11	0xbe89dd08	-0.26926446
12	0xbd11f524	-0.035634175
13	0x3e502f83	0.20330624
14	0x3d4e2405	0.05032732
15	0xbebeaf0a	-0.3724292
16	0x3ee924ce	0.45535892
17	0x3e881e28	0.26585507
18	0xbefb1cc6	-0.4904539
19	0x3dd8edd8	0.1059224
20	0xbe268e41	-0.16265203
21	0xbd3b9606	-0.04579737
22	0xbe90ae7c	-0.2825812
23	0x3eaa388a	0.3324626
24	0xbf05b840	-0.5223427
25	0xbdfe2e20	-0.124111414
26	0xbea58bca	-0.32333213
27	0xbec104ba	-0.3769892
28	0x3ee007d2	0.43755966
29	0x3e136fbc	0.14398092
30	0xbeea57f4	-0.45770228
31	0xbe2ad524	-0.16682869
32	0xbed8f948	-0.42377687
33	0x3e77f7a7	0.24215566
34	0xbe345f69	-0.17614521
35	0x3e396147	0.18103515
36	0xbec48e6f	-0.38389918
37	0xbed9ec10	-0.42562914
38	0xbefc8763	-0.49322042
39	0x3e82e7ec	0.25567567
40	0x3dcc8bb7	0.09987586
41	0xbed6f005	-0.41979995
42	0xbc0d9961	-0.008642525
43	0x3abc9c3f	0.0014389827
44	0x3ebc2f72	0.36754948
45	0xbbaae100	-0.0052148104
46	0xbe82e7b6	-0.25567406
47	0xbeffab72	-0.4993549
48	0xbe5c7191	-0.21527697
49	0x3ca77567	0.020441724
50	0xbd9cbead	-0.07653556
51	0xbdbb7631	-0.091534026
52	0xbeeeb509	-0.46622494
53	0x3d95cf9c	0.07314989
54	0xbdf50e17	-0.11965578
55	0x3eca0459	0.39456442
56	0xbedea85d	-0.43487826
57	0x3eedb061	0.4642363
58	0xbf0b316c	-0.54372287
59	0xbf096bf7	-0.53680366
60	0xbd6e4469	-0.05817071
61	0xbcaa765f	-0.020808397
62	0x3edc8e88	0.43077493
63	0xbdf4b7b2	-0.119490996
64	0xbec34d93	-0.38145122
65	0x3e8678e8	0.2626412
66	0x3efe9c2c	0.49728525
67	0x3e46518d	0.19367047
68	0x3e97ac7b	0.2962378
69	0x3d193d05	0.03741171
70	0x3eb5795d	0.35444155
71	0x3d06e7fd	0.032936085
72	0xbe970b2a	-0.29500705
73	0xbee73d0d	-0.45163766
74	0xbeecd103	-0.46253213
75	0x3cb5adb1	0.02217755
76	0x3ded8c98	0.11599082
77	0x3e801f6c	0.25023973
78	0xbefb3e33	-0.49070892
79	0xbef6f727	-0.48235437
80	0xbe9d5d4e	-0.30735248
81	0x3caec240	0.02133286
82	0x399ce800	0.00029927492
83	0x3ee7135e	0.45131963
84	0xbf0054fd	-0.5012968
85	0xbeaf1e30	-0.3420272
86	0xbf0cc8fd	-0.54994184
87	0x3e30c1e0	0.17261457
88	0x3c24aa80	0.010050416
89	0x3eb9f5ec	0.36320436
90	0xbdfc9498	-0.123330295
91	0xbea3b4c2	-0.31973845
92	0xbb85148b	-0.004061287
93	0xbd1616f8	-0.036643
94	0x3f052f45	0.5202525
95	0x3ea626a0	0.32451344
96	0x3d911048	0.070831835
97	0xbeec3c1e	-0.46139616
98	0x3d8d92b0	0.06912744
99	0xbea621b8	-0.324476
100	0xbef4a04f	-0.47778556
101	0x3d245cad	0.040127445
102	0xbf026337	-0.5093264
103	0xbf08b166	-0.5339569
104	0xbe243394	-0.160353
105	0x3edc0930	0.4297576
106	0x3ec799f4	0.38984644
107	0xbea247b6	-0.31695336
108	0xbe817388	-0.25283456
109	0xbe186080	-0.14880562
110	0x3e4132e0	0.18867064
111	0x3e0f1380	0.13972282
112	0xbf0775a7	-0.529139
113	0x3ede1b23	0.4338008
114	0x3e96184e	0.29315418
115	0x3e53c919	0.20682181
116	0x3e94de85	0.2907602
117	0xbe7fa34b	-0.24964635
118	0xbe53616f	-0.20642637
119	0xbef6cd4b	-0.482035
120	0x3e6c0c85	0.23051651
121	0xbef71145	-0.48255363
122	0x3dfb6b6f	0.12276351
123	0xbe0cdfbc	-0.13757223
124	0xbec31067	-0.38098451
125	0x3ea505e3	0.32231054
126	0x3f188956	0.5958456
127	0x3ea86e66	0.32896727
128	0xbdced108	-0.10098463
129	0x3cc58d40	0.024115205
130	0x3e8a5b62	0.27022845
131	0x3e93b2e8	0.28847432
132	0x3db9139f	0.090369456
133	0xbef0eaf0	-0.47054243
134	0x3e13828b	0.14405267
135	0xbe6d20f9	-0.2315711
136	0xbefabe9e	-0.48973554
137	0x3ea35a5e	0.31904882
138	0x3e447dd8	0.1918863
139	0x3ee9bf6c	0.45653856
140	0xbcaa06e0	-0.020755231
141	0xbece4956	-0.40290326
142	0x3ee9bd3e	0.45652193
143	0xbdb50940	-0.08839655
144	0x3d93a5ad	0.072093345
145	0xbeb64ce2	-0.35605532
146	0xbe1858f6	-0.14877686
147	0x3e4efc00	0.20213318
148	0xbea88da1	-0.32920554
149	0x3eb78444	0.35843098
150	0xbf166feb	-0.58764523
151	0x3dec3a1b	0.1153452
152	0x3d900584	0.07032302
153	0xbeb873b5	-0.36025777
154	0xbebad522	-0.36490732
155	0xbebd1d6b	-0.36936507
156	0xbe100cb0	-0.1406734
157	0x3e9aeede	0.30260366
158	0xbeba4428	-0.36380124
159	0xbe51d3f0	-0.20491004
160	0xbe83f4e1	-0.25772765
161	0x3bcafd07	0.006194714
162	0x3ec99122	0.3936854
163	0x3ee01819	0.43768385
164	0xbf04839f	-0.5176334
165	0x3da4743f	0.08029985
166	0x3ecbaa09	0.39778164
167	0x3eb8c922	0.36090952
168	0x3ee58f86	0.44836062
169	0x3e0d2ec0	0.13787365
170	0x3e54cab4	0.2078045
171	0x3e9dc6c8	0.3081572
172	0x3ea14a2b	0.31501898
173	0xbc86caf6	-0.016454201
174	0xbecb2439	-0.39676073
175	0x3dd1176f	0.10209548
176	0x3e8b7754	0.27239478
177	0xbc18b869	-0.009321311
178	0xbe8615f2	-0.26188618
179	0x3dbd1894	0.092332035
180	0xbe12b310	-0.1432612
181	0x3e240d44	0.16020685
182	0xbd88a948	-0.06672913
183	0xbece5a4c	-0.40303266
184	0x3ea120b7	0.31470272
185	0xbed737a8	-0.4203465
186	0xbf0aa49e	-0.54157436
187	0xbf0c7641	-0.5486794
188	0x3e94afc8	0.2904036
189	0xbe563398	-0.20918119
190	0x3ea49450	0.32144403
191	0xbd06bb60	-0.03289354
192	0xbca167a0	-0.019702733
193	0xbe0f6049	-0.14001574
194	0xbea54f27	-0.3228695
195	0x3e46aa0c	0.19400805
196	0x3e751653	0.23934297
197	0x3ec65cd0	0.38742685
198	0xbe809c5c	-0.25119293
199	0x3e92a4be	0.28641313
200	0xbcc532a0	-0.024071991
201	0x3eeeb52e	0.46622604
202	0x3e0f6df0	0.14006782
203	0x3e915cfe	0.2839126
204	0xbe2d99a9	-0.16953148
205	0x3da70f57	0.08157223
206	0xbea1a8b4	-0.31574023
207	0xbe611386	-0.21980104
208	0x3eb379ca	0.35053855
209	0xbea22d56	-0.31675214
210	0x3e24ec28	0.16105711
211	0xbefec42c	-0.49759042
212	0x3ee17036	0.44030923
213	0xbe38f8b0	-0.18063617
214	0xbe66b83c	-0.22531217
215	0xbe35579c	-0.17709202
216	0xbee7be92	-0.4526258
217	0x3ed7a778	0.42119956
218	0xbc1c3e0c	-0.0095362775
219	0x3e9dc2af	0.30812594
220	0xbf0b4a0f	-0.5440988
221	0xbed4a2f4	-0.41530573
222	0x3eaf4a93	0.34236583
223	0xbe9f9a99	-0.31172636
224	0xbecc0336	-0.398462
225	0xbe92f9f8	-0.28706336
226	0x3de21cd0	0.11040652
227	0xbea71c26	-0.32638663
228	0x3ee1e6de	0.4412145
229	0xbdccce20	-0.10000253
230	0x3ddefcf0	0.10888088
231	0x3e65a8bc	0.22427648
232	0xbd9cc34b	-0.07654437
233	0xbe8d2bdf	-0.27572533
234	0xbee53e26	-0.44773978
235	0xbe58fa7c	-0.21189302
236	0x3e7afa66	0.24509582
237	0xbe41d6bb	-0.1892957
238	0xbc7b9913	-0.01535632
239	0xbe88e448	-0.26736665
240	0xbe5c934a	-0.21540561
241	0x3ea47a65	0.3212463
242	0x3f0368a2	0.5133153
243	0xbe968320	-0.29396915
244	0xbe48924d	-0.1958706
245	0xbebdd13c	-0.37073696
246	0x3ed08ab5	0.40730825
247	0x3d5a68de	0.053322665
248	0xbe32f764	-0.17477185
249	0x3d590720	0.05298531
250	0xbd566180	-0.052339077
251	0x3db752f0	0.08951366
252	0x3de02ab0	0.10945642
253	0x3d244260	0.040102363
254	0xbe1a4edc	-0.15069145
255	0xbef30a00	-0.47468567

layer1.bias f4 [64]
0	0xbef3c2c7	-0.4760954
1	0x3d830025	0.06396512
2	0x3e1c06be	0.15236947
3	0x3dbccc69	0.09218676
4	0xbea0716c	-0.31336534
5	0x3e5662d7	0.20936142
6	0xbe6f87e2	-0.23391679
7	0xbea020cc	-0.31275022
8	0xbdf095ba	-0.11747308
9	0x3e96c089	0.29443768
10	0xbc712d32	-0.014720248
11	0xbed51068	-0.4161408
12	0x3eb73334	0.35781252
13	0x3e9ba5cb	0.30399927
14	0x3d80d268	0.06290132
15	0x3e622b5f	0.22086857
16	0x3ec71786	0.38885134
17	0x3ebd6f68	0.3699906
18	0x3d00c75a	0.031440116
19	0x3cf83e6c	0.030303203
20	0xbe8fdd74	-0.28098643
21	0xbe037cfe	-0.1284065
22	0xbef47b0e	-0.47750133
23	0x3ed2eb24	0.41195023
24	0xbeac3ffc	-0.33642566
25	0x3e1352df	0.14387082
26	0xbed6ded4	-0.4196688
27	0xbeb7810e	-0.35840648
28	0x3ea6ab65	0.3255264
29	0x3e6f9953	0.23398332
30	0x3e850637	0.25981304
31	0x3dc94a69	0.09828646
32	0xbeca9b4c	-0.39571607
33	0x3eb53474	0.3539158
34	0xbee3aca0	-0.4446764
35	0xbee43284	-0.4456979
36	0x3d9edf2b	0.0775741
37	0x3f057a87	0.52140087
38	0x3ece0d49	0.4024451
39	0xbef3b1c4	-0.47596562
40	0xbcbc553b	-0.02298986
41	0x3dc28ebf	0.09499883
42	0xbe53e04c	-0.20691031
43	0x3f0828cc	0.5318725
44	0x3ef2d098	0.4742477
45	0xbe8c7f58	-0.27440906
46	0x3ee664f6	0.44998902
47	0xbe818838	-0.2529924
48	0x3ea60bba	0.32430822
49	0x3e0cddfa	0.13756552
50	0xbe0c96e8	-0.13729441
51	0x3db4a90a	0.08821304
52	0xbda27730	-0.079328895
53	0xbe8d5cee	-0.27609962
54	0x3e7c6fc8	0.24652016
55	0x3ea06bb0	0.3133216
56	0xbef76c4e	-0.48324817
57	0xbe1dbad4	-0.154033
58	0x3ece2f29	0.40270355
59	0x3eebde4e	0.46068043
60	0x3e3ff139	0.18744363
61	0x3ebad4f1	0.36490586
62	0xbeaa89a6	-0.33308142
63	0xbe6ee5d4	-0.2332986

layer2.weight f4 [64, 64]
0	0x3c879f48	0.016555443
1	0x3dbc13ce	0.09183465
2	0x3d189449	0.03725079
3	0xbd74aeb7	-0.059736934
4	0x3daa1056	0.08303897
5	0xbdf0548f	-0.11734878
6	0x3d38ebc8	0.045146734
7	0xbdde17da	-0.10844393
8	0x393daaf0	0.00018088124
9	0xbc52114e	-0.012821509
10	0x3db51eac	0.08843741
11	0xb9ac9000	-0.00032913685
12	0x3dc7b0dc	0.0975053
13	0x3dd1e600	0.10248947
14	0xbc811855	-0.015758673
15	0xbd8dfaf7	-0.06932633
16	0x3c8be9e2	0.017079297
17	0xbd346c5b	-0.04404865
18	0x3d2a57c2	0.0415876
19	0x3c8b71b8	0.017021999
20	0x3d2cbeb4	0.042174056
21	0xbd007be1	-0.03136814
22	0x3cf76378	0.030198798
23	0xbdf87661	-0.12131954
24	0xbd930dea	-0.07180388
25	0x3d9d31d0	0.076755166
26	0x3cd2a5c8	0.025713816
27	0xbc5e0320	-0.01355055
28	0xbe00b886	-0.1257039
29	0xbdb0c033	-0.08630409
30	0xbd99796e	-0.07493864
31	0xbd38dbe6	-0.045131586
32	0x3dc239a4	0.0948365
33	0x3dc4cbb8	0.09609169
34	0x3c983af0	0.018582791
35	0xbdcbc214	-0.09949127
36	0xbb877ba2	-0.004134611
37	0x3d1d7f4e	0.038451485
38	0x3d9fd240	0.07803774
39	0x3d67c7e0	0.0565871
40	0xbdc77e24	-0.09740856
41	0xbb74f130	-0.0037375204
42	0x3c923470	0.01784727
43	0xbd5f2e60	-0.054487586
44	0xbd428903	-0.047493946
45	0x3dcd4774	0.10023394
46	0xbdddba86	-0.10826592
47	0xbd41c9e4	-0.04731168
48	0xbc87a4c6	-0.016558062
49	0xbda18094	-0.078858525
50	0x3da1d07e	0.07901095
51	0x3c76f147	0.015072173
52	0xbd22a6bc	-0.03970979
53	0x3c1410a0	0.009037167
54	0xbd4c4b0a	-0.04987625
55	0xbc485245	-0.012226646
56	0x3d213f08	0.039366752
57	0x3de0f60a	0.10984428
58	0xbd997033	-0.074921034
59	0xbd4bea14	-0.04978378
60	0xbdfff1ed	-0.124973156
61	0xbc06f72a	-0.008237639
62	0x3ce295b0	0.027659267
63	0xbd90bf2a	-0.07067712
64	0x3cd1f4c0	0.025629401
65	0x3c740487	0.0148936575
66	0x3c9fbf0a	0.019500274
67	0x3e234330	0.15943599
68	0xbc86a928	-0.016438082
69	0x3d8dc91c	0.06923124
70	0x3e221fd2	0.15832451
71	0xbcf54cb0	-0.029943794
72	0x3d9c0c7f	0.07619571
73	0x3e0aa4cc	0.13539428
74	0xbc9b7f14	-0.018981494
75	0x3da250a2	0.07925536
76	0x3e2a230f	0.16614936
77	0x3e409832	0.18808058
78	0x3e3fa587	0.18715487
79	0xbbf791f6	-0.0075552417
80	0xbd684511	-0.05670649
81	0x3d705c03	0.0586815
82	0x3d7d7572	0.061879583
83	0x3cd71d71	0.026259156
84	0x3db9a06a	0.090638
85	0x3c175017	0.0092354035
86	0x3c8d3b88	0.0172403
87	0xbdeb2fe4	-0.11483744
88	0x3d842e2a	0.064541176
89	0x3de9dd0a	0.11419113
90	0xbde7cb58	-0.113180816
91	0xbde6b55e	-0.11265062
92	0xbd8dd4cf	-0.06925356
93	0x3c898d5f	0.016791044
94	0x3d72f03c	0.059311137
95	0xbe0d3725	-0.13790567
96	0x3d69d9fc	0.05709265
97	0xbd3bb5ca	-0.045827664
98	0x3d82b750	0.0638262
99	0xbdcaa242	-0.098942295
100	0x3e2439a1	0.16037609
101	0x3e69d753	0.22836046
102	0x3e6b5903	0.22983174
103	0x3c6d7190	0.014492407
104	0x3a938cf1	0.0011257214
105	0x3db6b236	0.0892071
106	0x3dac688a	0.08418377
107	0x3da1ecf4	0.07906523
108	0x3e2374d4	0.15962535
109	0xbdb29c02	-0.087211624
110	0xbb8cb372	-0.0042938525
111	0x3dbdd3b2	0.09268893
112	0x3e4cf5cc	0.20015639
113	0x3dc8f0ac	0.098115295
114	0xbb508500	-0.0031817555
115	0x3dd95646	0.106121585
116	0x3ddffa0e	0.10936366
117	0xbce15be0	-0.02750963
118	0x3e35cc46	0.17753705
119	0x3d0ea342	0.034823664
120	0xbdaf9a34	-0.08574334
121	0xba950580	-0.0011369437
122	0x3e2e3477	0.17012201
123	0x3e32abe2	0.1744838
124	0xbcb3e717	-0.021960778
125	0x3c2bc9d1	0.0104851285
126	0x3c696c00	0.014246941
127	0x3db76676	0.0895509
128	0x3d6f5260	0.05842817
129	0x3ba9fb67	0.00518744
130	0xbcc13e56	-0.023589294
131	0xbe09c5d3	-0.1345437
132	0x3d3a9f00	0.04556179
133	0x3d88620b	0.06659325
134	0xbcadc3a2	-0.021211449
135	0xbc4446a0	-0.011979729
136	0xbce359e1	-0.027752819
137	0x3db802db	0.0898492
138	0xbdd33172	-0.10312165
139	0xbca40858	-0.02002351
140	0x3d36f644	0.04466845
141	0xbe0a803d	-0.13525482
142	0xbe008503	-0.1255074
143	0xbde94eb0	-0.113919616
144	0xbdd4860b	-0.10377129
145	0xbd197df2	-0.037473626
146	0xbcc72197	-0.02430801
147	0x3d73f24c	0.059557244
148	0xbd264194	-0.040589884
149	0xbd0648de	-0.032784335
150	0x3d9f0198	0.07763976
151	0x39cd7bbd	0.0003919284
152	0x3dc6204e	0.096741304
153	0xbe04ada3	-0.12956862
154	0x3dff5a56	0.12468402
155	0x3d60a244	0.05484225
156	0xbde2633c	-0.11054084
157	0x3d99d6e5	0.07511691
158	0xbd625ef0	-0.05526632
159	0x3b460500	0.0030215383
160	0x3c2489c0	0.010042608
161	0xbe15eb66	-0.14640579
162	0xbddf98b4	-0.10917798
163	0xbb127e00	-0.0022352934
164	0xbdcc0596	-0.09962003
165	0xbd563753	-0.052298855
166	0x3d9a36cf	0.07529985
167	0x3dd2140c	0.1025773
168	0xbc520dc0	-0.012820661
169	0xbd941920	-0.07231355
170	0xbc8ced88	-0.017203107
171	0xbdf004d9	-0.117196746
172	0x3d1aba8b	0.037775557
173	0x3d9093e4	0.07059458
174	0x3d3e5165	0.046464343
175	0xbd70f770	-0.058829725
176	0xbb913ad4	-0.0044320617
177	0x3d412e0a	0.047163047
178	0x3d3e2e60	0.046430945
179	0xbd463af9	-0.048396084
180	0xbd88f924	-0.06688145
181	0x3cba8008	0.022766128
182	0x3d89dfd7	0.06732147
183	0xbd8dce69	-0.06924135
184	0x3c609300	0.0137069225
185	0xbd46b0f0	-0.048508584
186	0x3dcf7528	0.10129768
187	0x3cd84bd1	0.02640334
188	0xbd9053bd	-0.07047222
189	0xbdc2151f	-0.09476685
190	0xbd218f48	-0.039443284
191	0x3c0b1d10	0.008490816
192	0x3d612c18	0.05497369
193	0xbcb13ee0	-0.021636426
194	0xbd15b1b4	-0.036546424
195	0x3d7ecf5c	0.062209472
196	0x3dff4ddc	0.12466022
197	0xbd97ebfa	-0.07418056
198	0xbd013fc0	-0.031554937
199	0xbde5251c	-0.11188719
200	0xbd902ea6	-0.070401475
201	0xbc9cab10	-0.019124538
202	0xbd5dbcbc	-0.05413507
203	0xbdb22db6	-0.08700125
204	0xbdc6e57e	-0.09711741
205	0xbc4e5d60	-0.0125955045
206	0x3d4d9d3c	0.05019878
207	0x3d69dc94	0.057095125
208	0x3d7f0570	0.062261045
209	0x3d3b3498	0.045704454
210	0x3ccd6e38	0.02507697
211	0xbc997730	-0.01873359
212	0x3df37768	0.11888009
213	0x3df06c3a	0.117393926
214	0xbd8a557e	-0.067545876
215	0xbd18ebcc	-0.03733425
216	0xbd44281c	-0.047889814
217	0xbd4413b4	-0.047870353
218	0x3d973ace	0.07384263
219	0x3dd81f52	0.10552849
220	0xbdbe53c8	-0.09293324
221	0x3b9be3c0	0.0047573745
222	0xbc003b80	-0.007826686
223	0xbdf8ab42	-0.1214204
224	0x3dcb863c	0.099377126
225	0x3c0d2680	0.008615136
226	0xbd92a8d2	-0.07161106
227	0x3dc353b0	0.095374465
228	0x3dc4ab78	0.096030176
229	0xbcfe4678	-0.031039461
230	0x3cb6cbe0	0.022314012
231	0x3da37c6e	0.079827175
232	0xbd97798a	-0.073962286
233	0x3d6d27e4	0.05789937
234	0xbdf1ff92	-0.11816324
235	0x3d28838c	0.041141078
236	0xbdae5e9a	-0.085141376
237	0x3d0854f8	0.033284158
238	0xbdb86120	-0.090029
239	0xbdb7c166	-0.08972435
240	0x3d1ef8b0	0.038811386
241	0x3d9434b0	0.07236612
242	0x3d4a8de4	0.049451724
243	0x3deac52e	0.1146339
244	0x3dc18bfe	0.094505295
245	0x3cdec458	0.027193233
246	0xb9866a00	-0.00025637448
247	0xbdd3e0fe	-0.10345648
248	0xbdb49100	-0.08816719
249	0x3d5d2920	0.053994298
250	0x3da791a4	0.081820756
251	0xbdba88ca	-0.09108122
252	0xbd6b4258	-0.057436317
253	0x3de41b12	0.11137976
254	0xbceaa098	-0.02864103
255	0xbcfcbc00	-0.030851364

layer2.bias f4 [64]
0	0xbcb765a3	-0.022387331
1	0x3c66cf67	0.0140875345
2	0x3bdb08db	0.0066844053
3	0xbdb75f54	-0.08953729
4	0xbd99a9c5	-0.07503084
5	0xbd2fcec1	-0.042921785
6	0xbd9f762e	-0.07786213
7	0xbd986d6c	-0.074427456
8	0x3ca070da	0.019585062
9	0x3e500c55	0.20317204
10	0xba891f47	-0.0010461592
11	0x3d459278	0.048235387
12	0x3d75b608	0.05998805
13	0xbd195ccc	-0.037442014
14	0xbced4b40	-0.028966546
15	0xbd894dc6	-0.06704287
16	0x3d92f54f	0.07175695
17	0xbc9f9a00	-0.019482613
18	0xbd97c113	-0.07409873
19	0x3e63748a	0.22212425
20	0x3d8fa552	0.07013954
21	0xbd1880a8	-0.03723207
22	0xbda98c2a	-0.08278687
23	0x3cf2e02e	0.029647913
24	0xbca7fd40	-0.020506501
25	0x3c6338f5	0.01386856
26	0x3db3a101	0.087709434
27	0xbc7c3485	-0.015393381
28	0x3d915d96	0.07097928
29	0x3cb5af70	0.022178382
30	0xbd376d7c	-0.044782147
31	0xbd75c1e5	-0.059999365
32	0x3daee4dc	0.08539745
33	0xbd7a2d10	-0.06107813
34	0x3e4c4e29	0.1995169
35	0x3d443be8	0.047908694
36	0xbcbf2f08	-0.023337856
37	0xbc84f808	-0.016231552
38	0xbd1e72e0	-0.038683772
39	0x3a2f9efb	0.000669941
40	0xbbe73dc6	-0.0070569245
41	0x3e0e3cd1	0.13890387
42	0xbdb93b8c	-0.09044561
43	0xbdd30d16	-0.1030523
44	0x3e3226c6	0.17397603
45	0x3d7ec59f	0.062200185
46	0x3dde961a	0.10868473
47	0x3d788a47	0.060678747
48	0xbdd1d4a7	-0.10245638
49	0x3da6382e	0.08116184
50	0x3dba964c	0.09110698
51	0xbdad71cf	-0.08468973
52	0xbe0140d6	-0.12622389
53	0xbd86a474	-0.06574336
54	0x3dd82fd9	0.10556001
55	0x3e3162f2	0.17322901
56	0x3ddb7bba	0.10716958
57	0x3db42881	0.08796788
58	0xbdfa4066	-0.12219314
59	0x3d115ec4	0.035490766
60	0xbdbe1ad0	-0.09282458
61	0xbda3db40	-0.08000803
62	0xbdb76547	-0.08954864
63	0xbd54afb8	-0.05192539

layer3.weight f4 [2, 64]
0	0x3d3d85ac	0.046270058
1	0xbe31098c	-0.17288798
2	0xbd9d2528	-0.076731026
3	0xbcbfd210	-0.023415595
4	0xbe2b1aed	-0.1670949
5	0x3db9de35	0.09075586
6	0x3de82cfa	0.113367036
7	0x3d874066	0.0660408
8	0x3d84d90f	0.06486713
9	0xbe0ba154	-0.1363576
10	0xbdb1b713	-0.08677497
11	0x3e4348e7	0.19070779
12	0xb9895800	-0.0002619624
13	0x3d5a2284	0.053255573
14	0xbdcac122	-0.099001184
15	0xbca7ed18	-0.020498797
16	0xbd623e25	-0.055235047
17	0x3dcbde62	0.099545255
18	0xbce558d4	-0.027996458
19	0xbdeec575	-0.11658756
20	0x3db6e3b7	0.08930152
21	0xbdbdc61e	-0.092663035
22	0xbde035cc	-0.10947761
23	0x3d32ee37	0.04368421
24	0x3d80e4b2	0.0629362
25	0x3ca34219	0.019928979
26	0x3d9910bd	0.07473896
27	0xbd0cd45f	-0.03438222
28	0x3c89c092	0.016815457
29	0x3dc12f26	0.09432821
30	0x3dc382c4	0.09546426
31	0xbd64eb1a	-0.055888273
32	0x3c890758	0.016727135
33	0xbd63ed71	-0.055646364
34	0x3e18512e	0.14874718
35	0x3d310f0c	0.04322724
36	0x3d74c475	0.05975767
37	0xbdc4c48a	-0.09607799
38	0xbe195d24	-0.14976937
39	0xbe07a76c	-0.1324746
40	0x3dcc5a61	0.09978176
41	0x3e2587c8	0.16165078
42	0x3d781c28	0.060573727
43	0x3dda8f1a	0.10671826
44	0x3e4a3084	0.1974507
45	0x3dee2668	0.11628419
46	0x3d5d1b03	0.05398084
47	0xbde3f809	-0.11131293
48	0xbc295e83	-0.010337475
49	0xbe4a2597	-0.19740902
50	0x3d58bc68	0.052914053
51	0x3dcce416	0.100044414
52	0x3d7c2dcb	0.06156711
53	0x3da4479c	0.08021471
54	0xbdfbe39e	-0.12299274
55	0xbe49cd97	-0.19707333
56	0x3e3f5ac8	0.18686974
57	0xbcfbeebb	-0.030753484
58	0x3c8d7dcd	0.0172719
59	0x3dce7b44	0.10082105
60	0x3c9ab8b8	0.018886909
61	0x3d49f798	0.04930839
62	0x3d3f4e16	0.046705328
63	0xbd8d5130	-0.06900251
64	0xbd21e881	-0.039528374
65	0xbe2bd3fb	-0.16780083
66	0x3db89ee9	0.09014685
67	0x3da0d058	0.078522384
68	0x3c01db95	0.007925888
69	0xbccee38b	-0.025254985
70	0xbdf61758	-0.12016171
71	0x3de1ce52	0.110256806
72	0xbc945c93	-0.01811055
73	0xbe234a62	-0.15946344
74	0xbc48b71d	-0.012250689
75	0xbe2f1ba2	-0.17100385
76	0x3d8b895a	0.06813307
77	0xbcfca603	-0.03084088
78	0xbc038d10	-0.008029237
79	0x3dee3bec	0.11632523
80	0xbd5ad6d6	-0.05342754
81	0xbdb75f92	-0.089537755
82	0x3d45fcdc	0.04833685
83	0xbe52c2d6	-0.20582137
84	0xbbfe57cb	-0.0077619306
85	0x3cbb9510	0.022898227
86	0x3d915a95	0.07097355
87	0xbe3220c4	-0.17395312
88	0xbc83ad48	-0.016073838
89	0x3d922eee	0.071378574
90	0xbd5ba1d6	-0.053621136
91	0xbc06758e	-0.008206738
92	0xbd977300	-0.073949814
93	0xbd9af9c6	-0.07567172
94	0xbc4a732e	-0.012356563
95	0x3d7d615b	0.061860424
96	0x3c3f5745	0.0116785215
97	0xbdc6562d	-0.096844055
98	0xbe0e23ce	-0.13880846
99	0xbdda7a32	-0.10667838
100	0x3cccbc85	0.024992237
101	0xbdd10122	-0.10205294
102	0x3d80138e	0.0625373
103	0xbe10e12a	-0.14148393
104	0xbd9e6d00	-0.07735634
105	0xbd800d30	-0.06252515
106	0x3dbb0b64	0.09133032
107	0xbd0ccf6c	-0.0343775
108	0xbe1ca15c	-0.15295929
109	0x3d43af34	0.04777451
110	0x3d7d6fce	0.061874203
111	0xbd41f7a0	-0.047355294
112	0xbd5db3f7	-0.054126706
113	0xbd9076d0	-0.07053912
114	0x3d518bea	0.051158823
115	0x3d19ce30	0.03755015
116	0xbd5efff4	-0.054443315
117	0xbd58db28	-0.05294338
118	0xbd1e9d71	-0.038724367
119	0xbe6272a6	-0.22114047
120	0x3d072ef1	0.03300375
121	0x3ce0cd63	0.027441686
122	0xbc97a99a	-0.01851349
123	0xbcb67ea8	-0.022277191
124	0x3d5728c4	0.05252911
125	0xbdb2542a	-0.08707459
126	0x3db3009e	0.08740352
127	0xbdf02756	-0.11726253

layer3.bias f4 [2]
0	0x3de45ee2	0.1115091
1	0xbcf67959	-0.03008716

actor.0.weight f4 [64, 4]
0	0xbed54839	-0.41656664
1	0x3bdb6eb9	0.006696549
2	0x3ed54ff3	0.4166256
3	0xbd507547	-0.050893094
4	0xbd989c78	-0.07451719
5	0x3e3df89f	0.18551873
6	0xbe8e8b4d	-0.27840653
7	0x3e0afd95	0.13573296
8	0x3dac892c	0.08424601
9	0x3ecc85ea	0.39945918
10	0xbe8a2756	-0.26983136
11	0xbe89dd08	-0.26926446
12	0xbd11f524	-0.035634175
13	0x3e502f83	0.20330624
14	0x3d4e2405	0.05032732
15	0xbebeaf0a	-0.3724292
16	0x3ee924ce	0.45535892
17	0x3e881e28	0.26585507
18	0xbefb1cc6	-0.4904539
19	0x3dd8edd8	0.1059224
20	0xbe268e41	-0.16265203
21	0xbd3b9606	-0.04579737
22	0xbe90ae7c	-0.2825812
23	0x3eaa388a	0.3324626
24	0xbf05b840	-0.5223427
25	0xbdfe2e20	-0.124111414
26	0xbea58bca	-0.32333213
27	0xbec104ba	-0.3769892
28	0x3ee007d2	0.43755966
29	0x3e136fbc	0.14398092
30	0xbeea57f4	-0.45770228
31	0xbe2ad524	-0.16682869
32	0xbed8f948	-0.42377687
33	0x3e77f7a7	0.24215566
34	0xbe345f69	-0.17614521
35	0x3e396147	0.18103515
36	0xbec48e6f	-0.38389918
37	0xbed9ec10	-0.42562914
38	0xbefc8763	-0.49322042
39	0x3e82e7ec	0.25567567
40	0x3dcc8bb7	0.09987586
41	0xbed6f005	-0.41979995
42	0xbc0d9961	-0.008642525
43	0x3abc9c3f	0.0014389827
44	0x3ebc2f72	0.36754948
45	0xbbaae100	-0.0052148104
46	0xbe82e7b6	-0.25567406
47	0xbeffab72	-0.4993549
48	0xbe5c7191	-0.21527697
49	0x3ca77567	0.020441724
50	0xbd9cbead	-0.07653556
51	0xbdbb7631	-0.091534026
52	0xbeeeb509	-0.46622494
53	0x3d95cf9c	0.07314989
54	0xbdf50e17	-0.11965578
55	0x3eca0459	0.39456442
56	0xbedea85d	-0.43487826
57	0x3eedb061	0.4642363
58	0xbf0b316c	-0.54372287
59	0xbf096bf7	-0.53680366
60	0xbd6e4469	-0.05817071
61	0xbcaa765f	-0.020808397
62	0x3edc8e88	0.43077493
63	0xbdf4b7b2	-0.119490996
64	0xbec34d93	-0.38145122
65	0x3e8678e8	0.2626412
66	0x3efe9c2c	0.49728525
67	0x3e46518d	0.19367047
68	0x3e97ac7b	0.2962378
69	0x3d193d05	0.03741171
70	0x3eb5795d	0.35444155
71	0x3d06e7fd	0.032936085
72	0xbe970b2a	-0.29500705
73	0xbee73d0d	-0.45163766
74	0xbeecd103	-0.46253213
75	0x3cb5adb1	0.02217755
76	0x3ded8c98	0.11599082
77	0x3e801f6c	0.25023973
78	0xbefb3e33	-0.49070892
79	0xbef6f727	-0.48235437
80	0xbe9d5d4e	-0.30735248
81	0x3caec240	0.02133286
82	0x399ce800	0.00029927492
83	0x3ee7135e	0.45131963
84	0xbf0054fd	-0.5012968
85	0xbeaf1e30	-0.3420272
86	0xbf0cc8fd	-0.54994184
87	0x3e30c1e0	0.17261457
88	0x3c24aa80	0.010050416
89	0x3eb9f5ec	0.36320436
90	0xbdfc9498	-0.123330295
91	0xbea3b4c2	-0.31973845
92	0xbb85148b	-0.004061287
93	0xbd1616f8	-0.036643
94	0x3f052f45	0.5202525
95	0x3ea626a0	0.32451344
96	0x3d911048	0.070831835
97	0xbeec3c1e	-0.46139616
98	0x3d8d92b0	0.06912744
99	0xbea621b8	-0.324476
100	0xbef4a04f	-0.47778556
101	0x3d245cad	0.040127445
102	0xbf026337	-0.5093264
103	0xbf08b166	-0.5339569
104	0xbe243394	-0.160353
105	0x3edc0930	0.4297576
106	0x3ec799f4	0.38984644
107	0xbea247b6	-0.31695336
108	0xbe817388	-0.25283456
109	0xbe186080	-0.14880562
110	0x3e4132e0	0.18867064
111	0x3e0f1380	0.13972282
112	0xbf0775a7	-0.529139
113	0x3ede1b23	0.4338008
114	0x3e96184e	0.29315418
115	0x3e53c919	0.20682181
116	0x3e94de85	0.2907602
117	0xbe7fa34b	-0.24964635
118	0xbe53616f	-0.20642637
119	0xbef6cd4b	-0.482035
120	0x3e6c0c85	0.23051651
121	0xbef71145	-0.48255363
122	0x3dfb6b6f	0.12276351
123	0xbe0cdfbc	-0.13757223
124	0xbec31067	-0.38098451
125	0x3ea505e3	0.32231054
126	0x3f188956	0.5958456
127	0x3ea86e66	0.32896727
128	0xbdced108	-0.10098463
129	0x3cc58d40	0.024115205
130	0x3e8a5b62	0.27022845
131	0x3e93b2e8	0.28847432
132	0x3db9139f	0.090369456
133	0xbef0eaf0	-0.47054243
134	0x3e13828b	0.14405267
135	0xbe6d20f9	-0.2315711
136	0xbefabe9e	-0.48973554
137	0x3ea35a5e	0.31904882
138	0x3e447dd8	0.1918863
139	0x3ee9bf6c	0.45653856
140	0xbcaa06e0	-0.020755231
141	0xbece4956	-0.40290326
142	0x3ee9bd3e	0.45652193
143	0xbdb50940	-0.08839655
144	0x3d93a5ad	0.072093345
145	0xbeb64ce2	-0.35605532
146	0xbe1858f6	-0.14877686
147	0x3e4efc00	0.20213318
148	0xbea88da1	-0.32920554
149	0x3eb78444	0.35843098
150	0xbf166feb	-0.58764523
151	0x3dec3a1b	0.1153452
152	0x3d900584	0.07032302
153	0xbeb873b5	-0.36025777
154	0xbebad522	-0.36490732
155	0xbebd1d6b	-0.36936507
156	0xbe100cb0	-0.1406734
157	0x3e9aeede	0.30260366
158	0xbeba4428	-0.36380124
159	0xbe51d3f0	-0.20491004
160	0xbe83f4e1	-0.25772765
161	0x3bcafd07	0.006194714
162	0x3ec99122	0.3936854
163	0x3ee01819	0.43768385
164	0xbf04839f	-0.5176334
165	0x3da4743f	0.08029985
166	0x3ecbaa09	0.39778164
167	0x3eb8c922	0.36090952
168	0x3ee58f86	0.44836062
169	0x3e0d2ec0	0.13787365
170	0x3e54cab4	0.2078045
171	0x3e9dc6c8	0.3081572
172	0x3ea14a2b	0.31501898
173	0xbc86caf6	-0.016454201
174	0xbecb2439	-0.39676073
175	0x3dd1176f	0.10209548
176	0x3e8b7754	0.27239478
177	0xbc18b869	-0.009321311
178	0xbe8615f2	-0.26188618
179	0x3dbd1894	0.092332035
180	0xbe12b310	-0.1432612
181	0x3e240d44	0.16020685
182	0xbd88a948	-0.06672913
183	0xbece5a4c	-0.40303266
184	0x3ea120b7	0.31470272
185	0xbed737a8	-0.4203465
186	0xbf0aa49e	-0.54157436
187	0xbf0c7641	-0.5486794
188	0x3e94afc8	0.2904036
189	0xbe563398	-0.20918119
190	0x3ea49450	0.32144403
191	0xbd06bb60	-0.03289354
192	0xbca167a0	-0.019702733
193	0xbe0f6049	-0.14001574
194	0xbea54f27	-0.3228695
195	0x3e46aa0c	0.19400805
196	0x3e751653	0.23934297
197	0x3ec65cd0	0.38742685
198	0xbe809c5c	-0.25119293
199	0x3e92a4be	0.28641313
200	0xbcc532a0	-0.024071991
201	0x3eeeb52e	0.46622604
202	0x3e0f6df0	0.14006782
203	0x3e915cfe	0.2839126
204	0xbe2d99a9	-0.16953148
205	0x3da70f57	0.08157223
206	0xbea1a8b4	-0.31574023
207	0xbe611386	-0.21980104
208	0x3eb379ca	0.35053855
209	0xbea22d56	-0.31675214
210	0x3e24ec28	0.16105711
211	0xbefec42c	-0.49759042
212	0x3ee17036	0.44030923
213	0xbe38f8b0	-0.18063617
214	0xbe66b83c	-0.22531217
215	0xbe35579c	-0.17709202
216	0xbee7be92	-0.4526258
217	0x3ed7a778	0.42119956
218	0xbc1c3e0c	-0.0095362775
219	0x3e9dc2af	0.30812594
220	0xbf0b4a0f	-0.5440988
221	0xbed4a2f4	-0.41530573
222	0x3eaf4a93	0.34236583
223	0xbe9f9a99	-0.31172636
224	0xbecc0336	-0.398462
225	0xbe92f9f8	-0.28706336
226	0x3de21cd0	0.11040652
227	0xbea71c26	-0.32638663
228	0x3ee1e6de	0.4412145
229	0xbdccce20	-0.10000253
230	0x3ddefcf0	0.10888088
231	0x3e65a8bc	0.22427648
232	0xbd9cc34b	-0.07654437
233	0xbe8d2bdf	-0.27572533
234	0xbee53e26	-0.44773978
235	0xbe58fa7c	-0.21189302
236	0x3e7afa66	0.24509582
237	0xbe41d6bb	-0.1892957
238	0xbc7b9913	-0.01535632
239	0xbe88e448	-0.26736665
240	0xbe5c934a	-0.21540561
241	0x3ea47a65	0.3212463
242	0x3f0368a2	0.5133153
243	0xbe968320	-0.29396915
244	0xbe48924d	-0.1958706
245	0xbebdd13c	-0.37073696
246	0x3ed08ab5	0.40730825
247	0x3d5a68de	0.053322665
248	0xbe32f764	-0.17477185
249	0x3d590720	0.05298531
250	0xbd566180	-0.052339077
251	0x3db752f0	0.08951366
252	0x3de02ab0	0.10945642
253	0x3d244260	0.040102363
254	0xbe1a4edc	-0.15069145
255	0xbef30a00	-0.47468567

actor.0.bias f4 [64]
0	0xbef3c2c7	-0.4760954
1	0x3d830025	0.06396512
2	0x3e1c06be	0.15236947
3	0x3dbccc69	0.09218676
4	0xbea0716c	-0.31336534
5	0x3e5662d7	0.20936142
6	0xbe6f87e2	-0.23391679
7	0xbea020cc	-0.31275022
8	0xbdf095ba	-0.11747308
9	0x3e96c089	0.29443768
10	0xbc712d32	-0.014720248
11	0xbed51068	-0.4161408
12	0x3eb73334	0.35781252
13	0x3e9ba5cb	0.30399927
14	0x3d80d268	0.06290132
15	0x3e622b5f	0.22086857
16	0x3ec71786	0.38885134
17	0x3ebd6f68	0.3699906
18	0x3d00c75a	0.031440116
19	0x3cf83e6c	0.030303203
20	0xbe8fdd74	-0.28098643
21	0xbe037cfe	-0.1284065
22	0xbef47b0e	-0.47750133
23	0x3ed2eb24	0.41195023
24	0xbeac3ffc	-0.33642566
25	0x3e1352df	0.14387082
26	0xbed6ded4	-0.4196688
27	0xbeb7810e	-0.35840648
28	0x3ea6ab65	0.3255264
29	0x3e6f9953	0.23398332
30	0x3e850637	0.25981304
31	0x3dc94a69	0.09828646
32	0xbeca9b4c	-0.39571607
33	0x3eb53474	0.3539158
34	0xbee3aca0	-0.4446764
35	0xbee43284	-0.4456979
36	0x3d9edf2b	0.0775741
37	0x3f057a87	0.52140087
38	0x3ece0d49	0.4024451
39	0xbef3b1c4	-0.47596562
40	0xbcbc553b	-0.02298986
41	0x3dc28ebf	0.09499883
42	0xbe53e04c	-0.20691031
43	0x3f0828cc	0.5318725
44	0x3ef2d098	0.4742477
45	0xbe8c7f58	-0.27440906
46	0x3ee664f6	0.44998902
47	0xbe818838	-0.2529924
48	0x3ea60bba	0.32430822
49	0x3e0cddfa	0.13756552
50	0xbe0c96e8	-0.13729441
51	0x3db4a90a	0.08821304
52	0xbda27730	-0.079328895
53	0xbe8d5cee	-0.27609962
54	0x3e7c6fc8	0.24652016
55	0x3ea06bb0	0.3133216
56	0xbef76c4e	-0.48324817
57	0xbe1dbad4	-0.154033
58	0x3ece2f29	0.40270355
59	0x3eebde4e	0.46068043
60	0x3e3ff139	0.18744363
61	0x3ebad4f1	0.36490586
62	0xbeaa89a6	-0.33308142
63	0xbe6ee5d4	-0.2332986

actor.2.weight f4 [64, 64]
0	0x3c879f48	0.016555443
1	0x3dbc13ce	0.09183465
2	0x3d189449	0.03725079
3	0xbd74aeb7	-0.059736934
4	0x3daa1056	0.08303897
5	0xbdf0548f	-0.11734878
6	0x3d38ebc8	0.045146734
7	0xbdde17da	-0.10844393
8	0x393daaf0	0.00018088124
9	0xbc52114e	-0.012821509
10	0x3db51eac	0.08843741
11	0xb9ac9000	-0.00032913685
12	0x3dc7b0dc	0.0975053
13	0x3dd1e600	0.10248947
14	0xbc811855	-0.015758673
15	0xbd8dfaf7	-0.06932633
16	0x3c8be9e2	0.017079297
17	0xbd346c5b	-0.04404865
18	0x3d2a57c2	0.0415876
19	0x3c8b71b8	0.017021999
20	0x3d2cbeb4	0.042174056
21	0xbd007be1	-0.03136814
22	0x3cf76378	0.030198798
23	0xbdf87661	-0.12131954
24	0xbd930dea	-0.07180388
25	0x3d9d31d0	0.076755166
26	0x3cd2a5c8	0.025713816
27	0xbc5e0320	-0.01355055
28	0xbe00b886	-0.1257039
29	0xbdb0c033	-0.08630409
30	0xbd99796e	-0.07493864
31	0xbd38dbe6	-0.045131586
32	0x3dc239a4	0.0948365
33	0x3dc4cbb8	0.09609169
34	0x3c983af0	0.018582791
35	0xbdcbc214	-0.09949127
36	0xbb877ba2	-0.004134611
37	0x3d1d7f4e	0.038451485
38	0x3d9fd240	0.07803774
39	0x3d67c7e0	0.0565871
40	0xbdc77e24	-0.09740856
41	0xbb74f130	-0.0037375204
42	0x3c923470	0.01784727
43	0xbd5f2e60	-0.054487586
44	0xbd428903	-0.047493946
45	0x3dcd4774	0.10023394
46	0xbdddba86	-0.10826592
47	0xbd41c9e4	-0.04731168
48	0xbc87a4c6	-0.016558062
49	0xbda18094	-0.078858525
50	0x3da1d07e	0.07901095
51	0x3c76f147	0.015072173
52	0xbd22a6bc	-0.03970979
53	0x3c1410a0	0.009037167
54	0xbd4c4b0a	-0.04987625
55	0xbc485245	-0.012226646
56	0x3d213f08	0.039366752
57	0x3de0f60a	0.10984428
58	0xbd997033	-0.074921034
59	0xbd4bea14	-0.04978378
60	0xbdfff1ed	-0.124973156
61	0xbc06f72a	-0.008237639
62	0x3ce295b0	0.027659267
63	0xbd90bf2a	-0.07067712
64	0x3cd1f4c0	0.025629401
65	0x3c740487	0.0148936575
66	0x3c9fbf0a	0.019500274
67	0x3e234330	0.15943599
68	0xbc86a928	-0.016438082
69	0x3d8dc91c	0.06923124
70	0x3e221fd2	0.15832451
71	0xbcf54cb0	-0.029943794
72	0x3d9c0c7f	0.07619571
73	0x3e0aa4cc	0.13539428
74	0xbc9b7f14	-0.018981494
75	0x3da250a2	0.07925536
76	0x3e2a230f	0.16614936
77	0x3e409832	0.18808058
78	0x3e3fa587	0.18715487
79	0xbbf791f6	-0.0075552417
80	0xbd684511	-0.05670649
81	0x3d705c03	0.0586815
82	0x3d7d7572	0.061879583
83	0x3cd71d71	0.026259156
84	0x3db9a06a	0.090638
85	0x3c175017	0.0092354035
86	0x3c8d3b88	0.0172403
87	0xbdeb2fe4	-0.11483744
88	0x3d842e2a	0.064541176
89	0x3de9dd0a	0.11419113
90	0xbde7cb58	-0.113180816
91	0xbde6b55e	-0.11265062
92	0xbd8dd4cf	-0.06925356
93	0x3c898d5f	0.016791044
94	0x3d72f03c	0.059311137
95	0xbe0d3725	-0.13790567
96	0x3d69d9fc	0.05709265
97	0xbd3bb5ca	-0.045827664
98	0x3d82b750	0.0638262
99	0xbdcaa242	-0.098942295
100	0x3e2439a1	0.16037609
101	0x3e69d753	0.22836046
102	0x3e6b5903	0.22983174
103	0x3c6d7190	0.014492407
104	0x3a938cf1	0.0011257214
105	0x3db6b236	0.0892071
106	0x3dac688a	0.08418377
107	0x3da1ecf4	0.07906523
108	0x3e2374d4	0.15962535
109	0xbdb29c02	-0.087211624
110	0xbb8cb372	-0.0042938525
111	0x3dbdd3b2	0.09268893
112	0x3e4cf5cc	0.20015639
113	0x3dc8f0ac	0.098115295
114	0xbb508500	-0.0031817555
115	0x3dd95646	0.106121585
116	0x3ddffa0e	0.10936366
117	0xbce15be0	-0.02750963
118	0x3e35cc46	0.17753705
119	0x3d0ea342	0.034823664
120	0xbdaf9a34	-0.08574334
121	0xba950580	-0.0011369437
122	0x3e2e3477	0.17012201
123	0x3e32abe2	0.1744838
124	0xbcb3e717	-0.021960778
125	0x3c2bc9d1	0.0104851285
126	0x3c696c00	0.014246941
127	0x3db76676	0.0895509
128	0x3d6f5260	0.05842817
129	0x3ba9fb67	0.00518744
130	0xbcc13e56	-0.023589294
131	0xbe09c5d3	-0.1345437
132	0x3d3a9f00	0.04556179
133	0x3d88620b	0.06659325
134	0xbcadc3a2	-0.021211449
135	0xbc4446a0	-0.011979729
136	0xbce359e1	-0.027752819
137	0x3db802db	0.0898492
138	0xbdd33172	-0.10312165
139	0xbca40858	-0.02002351
140	0x3d36f644	0.04466845
141	0xbe0a803d	-0.13525482
142	0xbe008503	-0.1255074
143	0xbde94eb0	-0.113919616
144	0xbdd4860b	-0.10377129
145	0xbd197df2	-0.037473626
146	0xbcc72197	-0.02430801
147	0x3d73f24c	0.059557244
148	0xbd264194	-0.040589884
149	0xbd0648de	-0.032784335
150	0x3d9f0198	0.07763976
151	0x39cd7bbd	0.0003919284
152	0x3dc6204e	0.096741304
153	0xbe04ada3	-0.12956862
154	0x3dff5a56	0.12468402
155	0x3d60a244	0.05484225
156	0xbde2633c	-0.11054084
157	0x3d99d6e5	0.07511691
158	0xbd625ef0	-0.05526632
159	0x3b460500	0.0030215383
160	0x3c2489c0	0.010042608
161	0xbe15eb66	-0.14640579
162	0xbddf98b4	-0.10917798
163	0xbb127e00	-0.0022352934
164	0xbdcc0596	-0.09962003
165	0xbd563753	-0.052298855
166	0x3d9a36cf	0.07529985
167	0x3dd2140c	0.1025773
168	0xbc520dc0	-0.012820661
169	0xbd941920	-0.07231355
170	0xbc8ced88	-0.017203107
171	0xbdf004d9	-0.117196746
172	0x3d1aba8b	0.037775557
173	0x3d9093e4	0.07059458
174	0x3d3e5165	0.046464343
175	0xbd70f770	-0.058829725
176	0xbb913ad4	-0.0044320617
177	0x3d412e0a	0.047163047
178	0x3d3e2e60	0.046430945
179	0xbd463af9	-0.048396084
180	0xbd88f924	-0.06688145
181	0x3cba8008	0.022766128
182	0x3d89dfd7	0.06732147
183	0xbd8dce69	-0.06924135
184	0x3c609300	0.0137069225
185	0xbd46b0f0	-0.048508584
186	0x3dcf7528	0.10129768
187	0x3cd84bd1	0.02640334
188	0xbd9053bd	-0.07047222
189	0xbdc2151f	-0.09476685
190	0xbd218f48	-0.039443284
191	0x3c0b1d10	0.008490816
192	0x3d612c18	0.05497369
193	0xbcb13ee0	-0.021636426
194	0xbd15b1b4	-0.036546424
195	0x3d7ecf5c	0.062209472
196	0x3dff4ddc	0.12466022
197	0xbd97ebfa	-0.07418056
198	0xbd013fc0	-0.031554937
199	0xbde5251c	-0.11188719
200	0xbd902ea6	-0.070401475
201	0xbc9cab10	-0.019124538
202	0xbd5dbcbc	-0.05413507
203	0xbdb22db6	-0.08700125
204	0xbdc6e57e	-0.09711741
205	0xbc4e5d60	-0.0125955045
206	0x3d4d9d3c	0.05019878
207	0x3d69dc94	0.057095125
208	0x3d7f0570	0.062261045
209	0x3d3b3498	0.045704454
210	0x3ccd6e38	0.02507697
211	0xbc997730	-0.01873359
212	0x3df37768	0.11888009
213	0x3df06c3a	0.117393926
214	0xbd8a557e	-0.067545876
215	0xbd18ebcc	-0.03733425
216	0xbd44281c	-0.047889814
217	0xbd4413b4	-0.047870353
218	0x3d973ace	0.07384263
219	0x3dd81f52	0.10552849
220	0xbdbe53c8	-0.09293324
221	0x3b9be3c0	0.0047573745
222	0xbc003b80	-0.007826686
223	0xbdf8ab42	-0.1214204
224	0x3dcb863c	0.099377126
225	0x3c0d2680	0.008615136
226	0xbd92a8d2	-0.07161106
227	0x3dc353b0	0.095374465
228	0x3dc4ab78	0.096030176
229	0xbcfe4678	-0.031039461
230	0x3cb6cbe0	0.022314012
231	0x3da37c6e	0.079827175
232	0xbd97798a	-0.073962286
233	0x3d6d27e4	0.05789937
234	0xbdf1ff92	-0.11816324
235	0x3d28838c	0.041141078
236	0xbdae5e9a	-0.085141376
237	0x3d0854f8	0.033284158
238	0xbdb86120	-0.090029
239	0xbdb7c166	-0.08972435
240	0x3d1ef8b0	0.038811386
241	0x3d9434b0	0.07236612
242	0x3d4a8de4	0.049451724
243	0x3deac52e	0.1146339
244	0x3dc18bfe	0.094505295
245	0x3cdec458	0.027193233
246	0xb9866a00	-0.00025637448
247	0xbdd3e0fe	-0.10345648
248	0xbdb49100	-0.08816719
249	0x3d5d2920	0.053994298
250	0x3da791a4	0.081820756
251	0xbdba88ca	-0.09108122
252	0xbd6b4258	-0.057436317
253	0x3de41b12	0.11137976
254	0xbceaa098	-0.02864103
255	0xbcfcbc00	-0.030851364

actor.2.bias f4 [64]
0	0xbcb765a3	-0.022387331
1	0x3c66cf67	0.0140875345
2	0x3bdb08db	0.0066844053
3	0xbdb75f54	-0.08953729
4	0xbd99a9c5	-0.07503084
5	0xbd2fcec1	-0.042921785
6	0xbd9f762e	-0.07786213
7	0xbd986d6c	-0.074427456
8	0x3ca070da	0.019585062
9	0x3e500c55	0.20317204
10	0xba891f47	-0.0010461592
11	0x3d459278	0.048235387
12	0x3d75b608	0.05998805
13	0xbd195ccc	-0.037442014
14	0xbced4b40	-0.028966546
15	0xbd894dc6	-0.06704287
16	0x3d92f54f	0.07175695
17	0xbc9f9a00	-0.019482613
18	0xbd97c113	-0.07409873
19	0x3e63748a	0.22212425
20	0x3d8fa552	0.07013954
21	0xbd1880a8	-0.03723207
22	0xbda98c2a	-0.08278687
23	0x3cf2e02e	0.029647913
24	0xbca7fd40	-0.020506501
25	0x3c6338f5	0.01386856
26	0x3db3a101	0.087709434
27	0xbc7c3485	-0.015393381
28	0x3d915d96	0.07097928
29	0x3cb5af70	0.022178382
30	0xbd376d7c	-0.044782147
31	0xbd75c1e5	-0.059999365
32	0x3daee4dc	0.08539745
33	0xbd7a2d10	-0.06107813
34	0x3e4c4e29	0.1995169
35	0x3d443be8	0.047908694
36	0xbcbf2f08	-0.023337856
37	0xbc84f808	-0.016231552
38	0xbd1e72e0	-0.038683772
39	0x3a2f9efb	0.000669941
40	0xbbe73dc6	-0.0070569245
41	0x3e0e3cd1	0.13890387
42	0xbdb93b8c	-0.09044561
43	0xbdd30d16	-0.1030523
44	0x3e3226c6	0.17397603
45	0x3d7ec59f	0.062200185
46	0x3dde961a	0.10868473
47	0x3d788a47	0.060678747
48	0xbdd1d4a7	-0.10245638
49	0x3da6382e	0.08116184
50	0x3dba964c	0.09110698
51	0xbdad71cf	-0.08468973
52	0xbe0140d6	-0.12622389
53	0xbd86a474	-0.06574336
54	0x3dd82fd9	0.10556001
55	0x3e3162f2	0.17322901
56	0x3ddb7bba	0.10716958
57	0x3db42881	0.08796788
58	0xbdfa4066	-0.12219314
59	0x3d115ec4	0.035490766
60	0xbdbe1ad0	-0.09282458
61	0xbda3db40	-0.08000803
62	0xbdb76547	-0.08954864
63	0xbd54afb8	-0.05192539

actor.4.weight f4 [2, 64]
0	0x3d3d85ac	0.046270058
1	0xbe31098c	-0.17288798
2	0xbd9d2528	-0.076731026
3	0xbcbfd210	-0.023415595
4	0xbe2b1aed	-0.1670949
5	0x3db9de35	0.09075586
6	0x3de82cfa	0.113367036
7	0x3d874066	0.0660408
8	0x3d84d90f	0.06486713
9	0xbe0ba154	-0.1363576
10	0xbdb1b713	-0.08677497
11	0x3e4348e7	0.19070779
12	0xb9895800	-0.0002619624
13	0x3d5a2284	0.053255573
14	0xbdcac122	-0.099001184
15	0xbca7ed18	-0.020498797
16	0xbd623e25	-0.055235047
17	0x3dcbde62	0.099545255
18	0xbce558d4	-0.027996458
19	0xbdeec575	-0.11658756
20	0x3db6e3b7	0.08930152
21	0xbdbdc61e	-0.092663035
22	0xbde035cc	-0.10947761
23	0x3d32ee37	0.04368421
24	0x3d80e4b2	0.0629362
25	0x3ca34219	0.019928979
26	0x3d9910bd	0.07473896
27	0xbd0cd45f	-0.03438222
28	0x3c89c092	0.016815457
29	0x3dc12f26	0.09432821
30	0x3dc382c4	0.09546426
31	0xbd64eb1a	-0.055888273
32	0x3c890758	0.016727135
33	0xbd63ed71	-0.055646364
34	0x3e18512e	0.14874718
35	0x3d310f0c	0.04322724
36	0x3d74c475	0.05975767
37	0xbdc4c48a	-0.09607799
38	0xbe195d24	-0.14976937
39	0xbe07a76c	-0.1324746
40	0x3dcc5a61	0.09978176
41	0x3e2587c8	0.16165078
42	0x3d781c28	0.060573727
43	0x3dda8f1a	0.10671826
44	0x3e4a3084	0.1974507
45	0x3dee2668	0.11628419
46	0x3d5d1b03	0.05398084
47	0xbde3f809	-0.11131293
48	0xbc295e83	-0.010337475
49	0xbe4a2597	-0.19740902
50	0x3d58bc68	0.052914053
51	0x3dcce416	0.100044414
52	0x3d7c2dcb	0.06156711
53	0x3da4479c	0.08021471
54	0xbdfbe39e	-0.12299274
55	0xbe49cd97	-0.19707333
56	0x3e3f5ac8	0.18686974
57	0xbcfbeebb	-0.030753484
58	0x3c8d7dcd	0.0172719
59	0x3dce7b44	0.10082105
60	0x3c9ab8b8	0.018886909
61	0x3d49f798	0.04930839
62	0x3d3f4e16	0.046705328
63	0xbd8d5130	-0.06900251
64	0xbd21e881	-0.039528374
65	0xbe2bd3fb	-0.16780083
66	0x3db89ee9	0.09014685
67	0x3da0d058	0.078522384
68	0x3c01db95	0.007925888
69	0xbccee38b	-0.025254985
70	0xbdf61758	-0.12016171
71	0x3de1ce52	0.110256806
72	0xbc945c93	-0.01811055
73	0xbe234a62	-0.15946344
74	0xbc48b71d	-0.012250689
75	0xbe2f1ba2	-0.17100385
76	0x3d8b895a	0.06813307
77	0xbcfca603	-0.03084088
78	0xbc038d10	-0.008029237
79	0x3dee3bec	0.11632523
80	0xbd5ad6d6	-0.05342754
81	0xbdb75f92	-0.089537755
82	0x3d45fcdc	0.04833685
83	0xbe52c2d6	-0.20582137
84	0xbbfe57cb	-0.0077619306
85	0x3cbb9510	0.022898227
86	0x3d915a95	0.07097355
87	0xbe3220c4	-0.17395312
88	0xbc83ad48	-0.016073838
89	0x3d922eee	0.071378574
90	0xbd5ba1d6	-0.053621136
91	0xbc06758e	-0.008206738
92	0xbd977300	-0.073949814
93	0xbd9af9c6	-0.07567172
94	0xbc4a732e	-0.012356563
95	0x3d7d615b	0.061860424
96	0x3c3f5745	0.0116785215
97	0xbdc6562d	-0.096844055
98	0xbe0e23ce	-0.13880846
99	0xbdda7a32	-0.10667838
100	0x3cccbc85	0.024992237
101	0xbdd10122	-0.10205294
102	0x3d80138e	0.0625373
103	0xbe10e12a	-0.14148393
104	0xbd9e6d00	-0.07735634
105	0xbd800d30	-0.06252515
106	0x3dbb0b64	0.09133032
107	0xbd0ccf6c	-0.0343775
108	0xbe1ca15c	-0.15295929
109	0x3d43af34	0.04777451
110	0x3d7d6fce	0.061874203
111	0xbd41f7a0	-0.047355294
112	0xbd5db3f7	-0.054126706
113	0xbd9076d0	-0.07053912
114	0x3d518bea	0.051158823
115	0x3d19ce30	0.03755015
116	0xbd5efff4	-0.054443315
117	0xbd58db28	-0.05294338
118	0xbd1e9d71	-0.038724367
119	0xbe6272a6	-0.22114047
120	0x3d072ef1	0.03300375
121	0x3ce0cd63	0.027441686
122	0xbc97a99a	-0.01851349
123	0xbcb67ea8	-0.022277191
124	0x3d5728c4	0.05252911
125	0xbdb2542a	-0.08707459
126	0x3db3009e	0.08740352
127	0xbdf02756	-0.11726253

actor.4.bias f4 [2]
0	0x3de45ee2	0.1115091
1	0xbcf67959	-0.03008716
