model/MountainCarContinuous-v1/actor_level_0.pth (torch, 21249 bytes, 10 tensors)

layer1.weight f4 [64, 4]
0.3593092 0.11246137 -0.44430578 0.17890553 0.10847831 -0.32207084 0.08807176 0.07195389
-0.081504524 -0.3935591 0.31376106 0.28353506 0.31335688 -0.08845106 0.10468089 0.21340959
-0.13281013 -0.17064345 0.4851851 0.53591245 -0.14262365 -0.35374492 0.14895861 0.51194763
-0.34393257 0.28137 -0.32468513 -0.41984528 0.4745915 -0.14606935 0.37026727 -0.3229382
0.32757297 0.1403465 -0.23704804 0.20666692 -0.071027465 0.34863427 -0.3681396 0.088000156
0.32927638 -0.22775263 -0.10682541 0.119517684 0.3873604 -0.43175864 0.03294748 -0.32993025
-0.35189235 0.07430847 0.42546886 -0.07154624 -0.32045296 -0.3648306 0.4554103 0.37560531
-0.38613817 0.13222538 -0.33970588 0.40784818 -0.041491687 -0.48268318 -0.44359183 0.48901474
0.26052278 -0.09919417 -0.3154279 -0.39089185 -0.4539841 0.30547827 -0.41638246 -0.24153332
-0.4029335 0.07177143 0.34859908 0.040866442 -0.22312099 0.24647063 0.47827262 0.19762224
-0.3103212 -0.40736616 -0.22651993 -0.4579895 0.4589466 0.18992859 -0.057729542 -0.44441617
0.31675217 -0.39215738 -0.31003255 0.30163246 0.19906561 0.08986157 -0.48448557 0.14374427
0.23785739 -0.35994354 0.0077413023 -0.16911507 0.3175081 -0.024520516 -0.09077984 0.08594614
-0.18549244 0.18847857 0.09771925 0.23553622 0.45888245 0.07790023 -0.35472578 -0.3652603
0.1138674 0.24696708 0.16329998 0.49404132 -0.12875453 -0.011930034 -0.0074460097 -0.49511495
0.34125656 0.53772867 0.111935 -0.058763854 -0.41234896 0.19010188 0.48002613 0.19692247
-0.20908284 -0.07782692 0.4624821 -0.026015818 0.33654994 0.3458212 0.4716149 0.4271074
-0.44315678 0.22482139 -0.12656426 -0.13973558 -0.01787401 -0.2850207 0.15948874 -0.29059836
0.27446404 0.30869043 -0.28135344 0.2337506 0.25325716 -0.38034666 0.46117288 -0.20511997
-0.1511684 -0.4885363 -0.23717704 0.42802355 0.2937278 0.18251465 -0.0867519 0.029988565
-0.18035978 -0.43838722 -0.1103074 0.27831405 -0.3717188 -0.5001613 -0.4279264 -0.18973614
-0.08020414 -0.26828873 0.2688808 -0.55906314 0.42582357 -0.41974497 0.2423476 0.1473581
-0.049597684 -0.10574343 0.37562 -0.002121108 0.42816025 0.36039716 0.4940462 0.20173776
0.11880721 -0.34532806 -0.4643184 0.08895811 0.16012053 -0.02384181 -0.10423866 0.33303228
-0.46990073 0.22299446 -0.47838727 -0.32559913 -0.27237204 -0.0033482183 0.31907552 -0.14097776
-0.17886119 0.32831475 -0.3631246 -0.21762577 -0.034052372 0.3403249 0.32266396 -0.23190583
0.37005067 0.28719777 0.20835501 -0.40684038 -0.20143223 -0.016966999 0.18696702 -0.3667863
0.5020565 0.026026743 -0.08813753 -0.23843786 0.06618475 -0.34184653 0.39688295 0.1863576
-0.36683956 0.022462144 0.31899372 0.33004668 0.18642817 0.36639988 -0.44646412 -0.16138595
0.45366675 -0.1566577 0.08833486 -0.28464186 -0.17978442 0.19454497 -0.071932256 -0.21723539
0.3073668 -0.013329685 -0.057506382 0.23080945 0.4362287 0.10780487 0.1827316 -0.30443332
0.35309413 -0.33218828 -0.3309721 0.4196938 -0.48226848 -0.45694238 0.12965328 -0.058536213
00000000: 60f7 b73e 2652 e63d 0c7c e3be 0333 373e
00000010: e029 de3d 78e6 a4be f85e b43d 905c 933d
00000020: d8eb a6bd 9480 c9be 4aa5 a03e 822b 913e
00000030: 5070 a03e d425 b5bd ef62 d63d 0b88 5a3e
00000040: 61ff 07be 28bd 2ebe 2e6a f83e 8f31 093f
00000050: ef0b 12be 0e1e b5be 9b88 183e 000f 033f
00000060: ee17 b0be bb0f 903e 213d a6be f6f5 d6be
00000070: a8fd f23e 3493 15be ac93 bd3e 2858 a5be
00000080: a5b7 a73e feb6 0f3e b9bc 72be 7ea0 533e
00000090: d976 91bd 3180 b23e cb7c bcbe 6d39 b43d
000000a0: ea96 a83e fc37 69be 48c7 dabd b0c5 f43d
000000b0: 1a54 c63e 780f ddbe f0f3 063d 9eec a8be
000000c0: 3c2b b4be 0a2f 983d 0ed7 d93e d686 92bd
000000d0: 6912 a4be 14cb babe 8a2b e93e 574f c03e
000000e0: e7b3 c5be 1766 073e eeed adbe 7ad1 d03e
000000f0: 30f3 29bd 4022 f7be 781e e3be 2460 fa3e
00000100: 3e63 853e 5026 cbbd c47f a1be fa22 c8be
00000110: 9b70 e8be a667 9c3e 1530 d5be 8354 77be
00000120: 4d4d cebe e6fc 923d 947b b23e 9263 273d
00000130: d479 64be cc62 7c3e 26e0 f43e 7c5d 4a3e
00000140: 6ce2 9ebe 4c92 d0be d7f4 67be 9a7d eabe
00000150: 0cfb ea3e a47c 423e d075 6cbd 848a e3be
00000160: 572d a23e dac8 c8be 96bc 9ebe 926f 9a3e
00000170: dbd7 4b3e 5809 b83d 7e0e f8be b331 133e
00000180: e390 733e 854a b8be c0aa fd3b 802c 2dbe
00000190: 6c90 a23e 40df c8bc c8ea b9bd 8804 b03d
000001a0: bbf1 3dbe 8700 413e 0821 c83d 6830 713e
000001b0: a4f2 ea3e 288a 9f3d 9e9e b5be 6603 bbbe
000001c0: 5033 e93d f0e4 7c3e 1c38 273e fcf2 fc3e
000001d0: 3ad8 03be 3076 43bc a8fd f3bb b57f fdbe
000001e0: 2eb9 ae3e 96a8 093f 2d3e e53d 5eb2 70bd
000001f0: 671f d3be 11aa 423e fcc5 f53e 0ba6 493e
00000200: d019 56be b863 9fbd 74ca ec3e 201f d5bc
00000210: 4650 ac3e 7a0f b13e 8277 f13e d2ad da3e
00000220: 72e5 e2be 9437 663e 109a 01be d816 0fbe
00000230: 846c 92bc 3cee 91be 0451 233e 4fc9 94be
00000240: 8d86 8c3e ac0c 9e3e 8f0d 90be 515c 6f3e
00000250: ecaa 813e ccbc c2be da1e ec3e f80a 52be
00000260: e4cb 1abe 6e21 fabe 8ade 72be e725 db3e
00000270: 7d63 963e 1fe5 3a3e fbaa b1bd 94aa f53c
00000280: 3cb0 38be 4a74 e0be d9e8 e1bd 2e7f 8e3e
00000290: ed51 bebe 920a 00bf 2b19 dbbe 314a 42be
000002a0: 1142 a4bd 245d 89be bfaa 893e c31e 0fbf
000002b0: 8c05 da3e d0e8 d6be f829 783e 0be5 163e
000002c0: f126 4bbd 0390 d8bd 4451 c03e 4902 0bbb
000002d0: d237 db3e fa85 b83e a0f3 fc3e 5894 4e3e
000002e0: 3251 f33d d7ce b0be 24bb edbe ab2f b63d
000002f0: a3f6 233e e64f c3bc 147b d5bd 3583 aa3e
00000300: d496 f0be a958 643e 2def f4be eeb4 a6be
00000310: 5974 8bbe c86d 5bbb de5d a33e 795c 10be
00000320: 6327 37be df18 a83e 78eb b9be 4ad9 5ebe
00000330: 807a 0bbd 113f ae3e 3634 a53e b978 6dbe
00000340: 4877 bd3e 960b 933e 045b 553e 624d d0be
00000350: 4044 4ebe 60fe 8abc 4874 3f3e 6acb bbbe
00000360: c686 003f 0936 d53c 7381 b4bd 0e29 74be
00000370: df8b 873d 8206 afbe 3e34 cb3e 87d4 3e3e
00000380: 65d2 bbbe 8802 b83c 2553 a33e e1fb a83e
00000390: 07e7 3e3e c498 bb3e f296 e4be 5c42 25be
000003a0: 0247 e83e e06a 20be e8e8 b43d 94bc 91be
000003b0: 6819 38be cc36 473e 3851 93bd f472 5ebe
000003c0: 2e5f 9d3e c064 5abc d08b 6bbd 5059 6c3e
000003d0: 5e59 df3e cdc8 dc3d fe1d 3b3e afde 9bbe
000003e0: c1c8 b43e 9514 aabe 2d75 a9be 1be2 d63e
000003f0: e5eb f6be 5af4 e9be d4c3 043e abc3 6fbd

layer1.bias f4 [64]
0.31335258 -0.22679126 -0.2506129 0.38948664 0.080378525 0.0085088555 0.44276357 -0.018389225
0.35908338 0.13232805 -0.29303187 0.0787729 0.03248709 0.34821588 -0.24424519 -0.432348
-0.22104847 -0.30348247 0.06751332 -0.2611214 0.19897795 -0.31551045 0.36241856 -0.20405684
0.097845525 -0.36468256 0.3158543 -0.3116172 -0.45784813 0.4972096 0.21124882 -0.12342454
-0.3604272 -0.40666986 -0.39414746 0.27752057 0.15251517 -0.08448917 0.318753 0.4566611
-0.15986274 0.43754932 0.12264479 0.23228012 0.38253292 -0.26584715 0.32050693 0.25764054
0.016612798 -0.24467786 -0.1978598 0.22522466 -0.2964102 -0.21336466 0.39287093 0.1830614
0.3081612 0.03638966 -0.19730145 -0.16743547 -0.45497543 0.20149915 0.38666517 -0.11234626
00000000: c06f a03e f83b 68be 5650 80be cb6a c73e
00000010: 7f9d a43d ba68 0b3c e8b1 e23e 00a5 96bc
00000020: c7d9 b73e 0181 073e 4608 96be b053 a13d
00000030: 2f11 053d 5a49 b23e 691b 7abe b85c ddbe
00000040: 885a 62be 0e62 9bbe 6c44 8a3d b4b1 85be
00000050: e0c0 4b3e 968a a1be ed8e b93e 47f4 50be
00000060: 3c63 c83d acb7 babe a8b7 a13e 4a8c 9fbe
00000070: 126b eabe 4292 fe3e 9c51 583e 01c6 fcbd
00000080: ea89 b8be 0837 d0be b2cd c9be 2d17 8e3e
00000090: f02c 1c3e a808 adbd 9833 a33e 7ccf e93e
000000a0: 0fb3 23be 7706 e03e 312d fb3d d7da 6d3e
000000b0: 5bdb c33e 1e1d 88be 7c19 a43e 76e9 833e
000000c0: 9017 883c d58c 7abe c29b 4abe 4ba1 663e
000000d0: 14c3 97be 447c 5abe 6126 c93e 7374 3b3e
000000e0: 4ec7 9d3e 530d 153d 6409 4abe 3474 2bbe
000000f0: 8af2 e8be cb55 4e3e faf8 c53e cc15 e6bd

layer2.weight f4 [64, 64]
0.019029748 -0.11905375 0.06639065 0.11285403 0.0019024643 -0.12734051 0.057685982 0.103722185
0.046507243 -0.009305571 0.107768506 0.03770116 0.044072624 0.056674927 0.0025283517 0.0008099675
0.058627024 0.16959642 0.01033828 -0.040873304 0.14928591 0.11218047 0.003929849 0.031720147
-0.05734776 0.03658402 0.046369754 -0.06439839 -0.026612043 0.029531432 -0.026778193 -0.03621306
0.0018408298 0.120135784 0.040719613 0.07291861 0.16893594 0.09057014 0.101640105 -0.075757645
-0.045763217 0.106438406 -0.08054772 0.0068964087 0.08555589 -0.043299347 0.14672339 0.14607154
0.07080568 0.081596226 -0.027142089 0.08357804 0.015217096 -0.034350485 -0.07705297 -0.16793072
0.03982799 0.14854215 0.10406028 0.045342475 -0.07638542 -0.08587594 0.00493216 0.124246694
-0.08015555 0.035720974 0.04444067 0.120026454 0.0015394539 0.08342418 0.1014394 -0.072276786
0.08402841 0.094035804 -0.07474561 -0.06539112 -0.11695339 0.09119724 -0.08322491 0.030633882
0.03431505 -0.08651616 0.01328212 -0.02493377 -0.044224843 -0.02063492 -0.005968362 -0.05977109
0.0114631355 -0.061690897 -0.018603295 -0.005016029 0.078573 0.027829766 -0.06715776 -0.0014567673
0.09343022 0.04190904 0.024227574 0.031459495 -0.038561493 -0.008368552 -0.10558221 -0.029102072
0.09701148 -0.09712434 0.054800212 0.10631031 -0.02467516 0.012522116 -0.041994125 -0.015529379
0.038100213 0.032795623 0.078294694 0.022046864 0.07061988 0.015074581 -0.015186518 -0.082180604
0.042878866 0.09288849 -0.06674957 0.030281842 -0.10379557 -0.10648289 -0.015749231 -0.112001285
0.09150036 0.0110351145 -0.11647649 0.054924652 0.1202199 -0.10894632 -0.002612606 0.098004
0.008238586 -0.093687214 0.01433295 0.039786473 0.008587272 -0.070419855 -0.0041587786 0.08315396
0.10253528 -0.050641 0.108655654 0.1231097 0.05274037 -0.095045716 0.09532349 -0.0966444
-0.014545305 0.06086892 -0.054091748 0.09366438 0.11461812 0.06573746 -0.10671611 -0.026379809
-0.0525565 0.045830324 0.051367074 0.069530666 -0.07161875 -0.02105011 0.04157008 -0.06368039
0.039732464 -0.061124302 0.12300106 -0.062696695 -0.005405019 -0.005013734 -0.12462662 0.10020954
0.11090639 0.0642796 0.046802025 -0.05991524 -0.06207104 0.066514656 -0.05464812 0.12682563
-0.050796274 -0.10818139 0.08538769 -0.09712316 0.053302154 -0.11204749 0.09512222 0.0074212714
-0.09495135 0.009436458 -0.005060777 -0.052662402 0.091979265 0.08723687 0.09217496 -0.059091374
0.024212122 -0.014380574 0.10843596 0.10434517 -0.060081884 -0.08104636 0.08780746 -0.09317987
0.06854059 -0.020020023 0.076695144 0.078829184 -0.1024297 0.0856265 -0.119413584 -0.005573824
-0.030835629 -0.0026945919 0.0232528 -0.08218752 0.004315108 -0.004403487 -0.08021057 0.094876155
0.07666379 0.03614275 -0.012130067 -0.077851176 -0.03697796 0.101955175 -0.08941917 -0.091147274
0.01635851 0.00959909 0.022642627 -0.027941957 0.07705669 -0.04948823 -0.012668401 -0.07771066
-0.04874575 0.047966823 -0.112580344 -0.08070205 0.06570992 0.08685197 -0.07610217 0.0014787465
0.026144564 -0.049734026 0.10738017 -0.033109233 0.07513563 0.052937925 -0.030730367 -0.092610806
00000000: 46e4 9b3c 74d2 f3bd d2f7 873d 0420 e73d
00000010: 1c5c f93a 8d65 02be 2348 6c3d 4c6c d43d
00000020: 617e 3e3d 6576 18bc bcb5 dc3d 886c 1a3d
00000030: 7f85 343d f823 683d b4b2 253b 0054 543a
00000040: e422 703d afaa 2d3e e461 293c c46a 27bd
00000050: 68de 183e e0be e53d f6c5 803b fcec 013d
00000060: 7ce5 6abd 20d9 153d 36ee 3d3d 4ee3 83bd
00000070: 8001 dabc e7eb f13c f15d dbbc 2554 14bd
00000080: 0048 f13a c009 f63d 9cc9 263d 5a56 953d
00000090: 8bfd 2c3e d67c b93d b028 d03d d326 9bbd
000000a0: 3672 3bbd 61fc d93d 34f6 a4bd 45fb e13b
000000b0: ed37 af3d a85a 31bd a83e 163e c793 153e
000000c0: 9102 913d ec1b a73d 1659 debc f72a ab3d
000000d0: 2051 793c 18b3 0cbd f3cd 9dbd 08f6 2bbe
000000e0: ad22 233d 6f1b 183e 8e1d d53d 08b9 393d
000000f0: f66f 9cbd badf afbd f59d a13b 0d75 fe3d
00000100: 9828 a4bd 2850 123d 6c07 363d 6ed0 f53d
00000110: 80c7 c93a 4cda aa3d 76bf cf3d da05 94bd
00000120: 1617 ac3d d895 c03d 3a14 99bd c8eb 85bd
00000130: 4285 efbd 9ec5 ba3d d271 aabd e8f3 fa3c
00000140: f08d 0c3d 622f b1bd 409d 593c e841 ccbc
00000150: 1c25 35bd 900a a9bc 4092 c3bb 88d2 74bd
00000160: e0cf 3b3c 98af 7cbd f065 98bc 805d a4bb
00000170: e2ea a03d 40fb e33c 028a 89bd 00f1 beba
00000180: 5858 bf3d d0a8 2b3d e878 c63c acdb 003d
00000190: a8f2 1dbd 401c 09bc 7c3b d8bd 7867 eebc
000001a0: f4ad c63d 20e9 c6bd 3076 603d 38b9 d93d
000001b0: 9023 cabc 9029 4d3c 0802 2cbd f06e 7ebc
000001c0: f80e 1c3d b454 063d f858 a03d a09b b43c
000001d0: 28a1 903d 60fb 763c e0d0 78bc 4e4e a8bd
000001e0: c0a1 2f3d 523c be3d 00b4 88bd a011 f83c
000001f0: c692 d4bd b413 dabd 8804 81bc ee60 e5bd
00000200: 8a64 bb3d a0cc 343c 3a8b eebd acf8 603d
00000210: da35 f63d 401f dfbd 4138 2bbb 52b6 c83d
00000220: 22fb 063c 15df bfbd c0d4 6a3c 24f7 223d
00000230: a1b1 0c3c 4938 90bd 5d46 88bb a04c aa3d
00000240: 04fe d13d f06c 4fbd db86 de3d f020 fc3d
00000250: 4906 583d 54a7 c2bd f638 c33d 80ed c5bd
00000260: 6e4f 6ebc b051 793d 4f8f 5dbd 1cd3 bf3d
00000270: e8bc ea3d 5da1 863d fa8d dabd 781a d8bc
00000280: 7c45 57bd 94b8 3b3d 4866 523d 1866 8e3d
00000290: daac 92bd 4871 acbc 6345 2a3d dd6a 82bd
000002a0: 82be 223d 7a5d 7abd fbe7 fb3d 2067 80bd
000002b0: 961c b1bb 404a a4bb 3e3c ffbd a93a cd3d
000002c0: e422 e33d 06a5 833d 7bb3 3f3d af69 75bd
000002d0: 343e 7ebd d638 883d b5d6 5fbd 94de 013e
000002e0: c10f 50bd 348e ddbd bedf ae3d 82e8 c6bd
000002f0: 5c53 5a3d 2879 e5bd 70cf c23d 232e f33b
00000300: da75 c2bd 609b 1a3c e0d4 a5bb 88b4 57bd
00000310: a05f bc3d 3ea9 b23d 3ac6 bc3d cc09 72bd
00000320: 8058 c63c 809c 6bbc ac13 de3d ecb2 d53d
00000330: 6c18 76bd a2fb a5bd 66d4 b33d 16d5 bebd
00000340: 025f 8c3d 0801 a4bc 5812 9d3d 3271 a13d
00000350: aac6 d1bd f25c af3d 1c8f f4bd a0a4 b6bb
00000360: 009b fcbc c097 30bb a87c be3c ee51 a8bd
00000370: c065 8d3b 204b 90bb 7045 a4bd 6e4e c23d
00000380: e801 9d3d 6c0a 143d 30bd 46bc 7070 9fbd
00000390: 3476 17bd e0cd d03d 6621 b7bd 6cab babd
000003a0: 4802 863c 8045 1d3c 087d b93c 88e6 e4bc
000003b0: e6cf 9d3d 2cb4 4abd 208f 4fbc c426 9fbd
000003c0: a0a9 47bd dc78 443d 8690 e6bd 1e47 a5bd
000003d0: ec92 863d 72df b13d 74db 9bbd 80d2 c13a
000003e0: 202d d63c e8b5 4bbd 22ea db3d 8c9d 07bd
000003f0: b6e0 993d 70d5 583d 40be fbbc bcaa bdbd

layer2.bias f4 [64]
0.13225576 -0.08126427 -0.10519089 -0.0016113073 0.056002684 0.005559184 0.110719815 0.082735166
-0.064078294 0.06108285 0.02633708 0.09350673 0.07767521 0.062958926 -0.11193594 0.020970311
0.014694356 0.046294075 -0.041574933 -0.062107705 0.111625865 -0.089541435 0.006181478 -0.10488516
-0.091261946 0.011787899 -0.120334014 0.088079184 0.04982148 0.018657807 0.03135664 -0.10702908
0.12171576 0.012171656 -0.103307664 0.04274687 0.10301837 -0.004382533 0.031662583 -0.10404922
-0.019415691 -0.018514872 -0.09469205 -0.04588175 -0.014696182 -0.033826124 0.063895985 0.08679973
0.03072387 0.037419364 0.09913533 -0.06879488 -0.09343578 0.13236114 0.069703445 -0.05272271
-0.038663853 -0.118897066 -0.010791713 -0.022362307 -0.105719864 -0.055269167 0.028381757 0.07599598
00000000: 0e6e 073e e26d a6bd 526e d7bd 8032 d3ba
00000010: 1263 653d d129 b63b 12c1 e23d 0e71 a93d
00000020: 7b3b 83bd 0332 7a3d dcc0 d73c 7580 bf3d
00000030: 2e14 9f3d 9cf0 803d ac3e e5bd eec9 ab3c
00000040: 99c0 703c db9e 3d3d 7a4a 2abd a664 7ebd
00000050: 1a9c e43d 8061 b7bd ff8d ca3b 08ce d6bd
00000060: 8be7 babd 0822 413c ae71 f6bd dc62 b43d
00000070: 9c11 4c3d 42d8 983c d26f 003d 1032 dbbd
00000080: 1d46 f93d a06b 473c f892 d3bd 5817 2f3d
00000090: 4cfb d23d 5a9b 8fbb a0b0 013d c217 d5bd
000000a0: a80d 9fbc 80ac 97bc e8ed c1bd 80ee 3bbd
000000b0: 41c8 70bc 438d 0abd e6db 823d 0fc4 b13d
000000c0: a0b0 fb3c 0c45 193d 7707 cb3d 54e4 8cbd
000000d0: 425b bfbd ae89 073e aec0 8e3d c5f3 57bd
000000e0: fd5d 1ebd 4e80 f3bd bacf 30bc 2831 b7bc
000000f0: a883 d8bd ec61 62bd dc80 e83c c8a3 9b3d

layer3.weight f4 [1, 64]
0.07580078 -0.121821746 0.031341333 -0.041549996 -0.052756224 -0.06418262 0.1400974 0.11701925
0.024536012 -0.103984624 -0.09166906 0.07780011 0.0564077 -0.06731115 -0.11339171 0.04420857
-0.12208815 0.10920097 -0.0018242305 0.052733153 0.118375935 -0.06459458 -0.06849575 0.074887395
-0.015494558 -0.0029999637 0.0818433 -0.07976345 -0.10869682 -0.037264016 -0.032571986 -0.032230023
0.12315481 0.105308354 0.047728732 -0.067428485 -0.070196174 0.02569537 0.018231526 0.11421533
-0.06413381 -0.09532577 0.0757456 0.030723006 -0.0054454105 -0.07790181 0.028849093 0.07916676
-0.077143885 -0.030242294 0.041447464 0.013482317 -0.02821353 0.083964095 -0.1263308 -0.08630569
0.041217458 -0.079801574 -0.10330345 -0.03119801 -0.032502323 0.010418624 -0.10899566 -0.03966776
00000000: 703d 9b3d ae7d f9bd c55f 003d 5430 2abd
00000010: e916 58bd 2d72 83bd b175 0f3e caa7 ef3d
00000020: bfff c83c e4f5 d4bd fdbc bbbd aa55 9f3d
00000030: c30b 673d 6eda 89bd ea39 e8bd 0c14 353d
00000040: 5a09 fabd c2a4 df3d 051b efba b8fe 573d
00000050: 156f f23d 2a4a 84bd 8047 8cbd 905e 993d
00000060: e3dc 7dbc 0a9b 44bb 769d a73d 055b a3bd
00000070: 709c debd 27a2 18bd 346a 05bd a103 04bd
00000080: 9738 fc3d e8ab d73d 347f 433d f217 8abd
00000090: 03c3 8fbd 197f d23c 485a 953c bae9 e93d
000000a0: 9658 83bd 283a c3bd 8220 9b3d d0ae fb3c
000000b0: 6a6f b2bb fc8a 9fbd ef54 ec3c 2f22 a23d
000000c0: 9dfd 9dbd b0be f7bc d1c4 293d f0e4 5c3c
000000d0: 1020 e7bc 5ef5 ab3d dc5c 01be 0ac1 b0bd
000000e0: a3d3 283d 026f a3bd c290 d3bd f892 ffbc
000000f0: 2821 05bd e0b2 2a3c 1e39 dfbd a97a 22bd

actor.0.weight f4 [64, 4]
0.3593092 0.11246137 -0.44430578 0.17890553 0.10847831 -0.32207084 0.08807176 0.07195389
-0.081504524 -0.3935591 0.31376106 0.28353506 0.31335688 -0.08845106 0.10468089 0.21340959
-0.13281013 -0.17064345 0.4851851 0.53591245 -0.14262365 -0.35374492 0.14895861 0.51194763
-0.34393257 0.28137 -0.32468513 -0.41984528 0.4745915 -0.14606935 0.37026727 -0.3229382
0.32757297 0.1403465 -0.23704804 0.20666692 -0.071027465 0.34863427 -0.3681396 0.088000156
0.32927638 -0.22775263 -0.10682541 0.119517684 0.3873604 -0.43175864 0.03294748 -0.32993025
-0.35189235 0.07430847 0.42546886 -0.07154624 -0.32045296 -0.3648306 0.4554103 0.37560531
-0.38613817 0.13222538 -0.33970588 0.40784818 -0.041491687 -0.48268318 -0.44359183 0.48901474
0.26052278 -0.09919417 -0.3154279 -0.39089185 -0.4539841 0.30547827 -0.41638246 -0.24153332
-0.4029335 0.07177143 0.34859908 0.040866442 -0.22312099 0.24647063 0.47827262 0.19762224
-0.3103212 -0.40736616 -0.22651993 -0.4579895 0.4589466 0.18992859 -0.057729542 -0.44441617
0.31675217 -0.39215738 -0.31003255 0.30163246 0.19906561 0.08986157 -0.48448557 0.14374427
0.23785739 -0.35994354 0.0077413023 -0.16911507 0.3175081 -0.024520516 -0.09077984 0.08594614
-0.18549244 0.18847857 0.09771925 0.23553622 0.45888245 0.07790023 -0.35472578 -0.3652603
0.1138674 0.24696708 0.16329998 0.49404132 -0.12875453 -0.011930034 -0.0074460097 -0.49511495
0.34125656 0.53772867 0.111935 -0.058763854 -0.41234896 0.19010188 0.48002613 0.19692247
-0.20908284 -0.07782692 0.4624821 -0.026015818 0.33654994 0.3458212 0.4716149 0.4271074
-0.44315678 0.22482139 -0.12656426 -0.13973558 -0.01787401 -0.2850207 0.15948874 -0.29059836
0.27446404 0.30869043 -0.28135344 0.2337506 0.25325716 -0.38034666 0.46117288 -0.20511997
-0.1511684 -0.4885363 -0.23717704 0.42802355 0.2937278 0.18251465 -0.0867519 0.029988565
-0.18035978 -0.43838722 -0.1103074 0.27831405 -0.3717188 -0.5001613 -0.4279264 -0.18973614
-0.08020414 -0.26828873 0.2688808 -0.55906314 0.42582357 -0.41974497 0.2423476 0.1473581
-0.049597684 -0.10574343 0.37562 -0.002121108 0.42816025 0.36039716 0.4940462 0.20173776
0.11880721 -0.34532806 -0.4643184 0.08895811 0.16012053 -0.02384181 -0.10423866 0.33303228
-0.46990073 0.22299446 -0.47838727 -0.32559913 -0.27237204 -0.0033482183 0.31907552 -0.14097776
-0.17886119 0.32831475 -0.3631246 -0.21762577 -0.034052372 0.3403249 0.32266396 -0.23190583
0.37005067 0.28719777 0.20835501 -0.40684038 -0.20143223 -0.016966999 0.18696702 -0.3667863
0.5020565 0.026026743 -0.08813753 -0.23843786 0.06618475 -0.34184653 0.39688295 0.1863576
-0.36683956 0.022462144 0.31899372 0.33004668 0.18642817 0.36639988 -0.44646412 -0.16138595
0.45366675 -0.1566577 0.08833486 -0.28464186 -0.17978442 0.19454497 -0.071932256 -0.21723539
0.3073668 -0.013329685 -0.057506382 0.23080945 0.4362287 0.10780487 0.1827316 -0.30443332
0.35309413 -0.33218828 -0.3309721 0.4196938 -0.48226848 -0.45694238 0.12965328 -0.058536213
00000000: 60f7 b73e 2652 e63d 0c7c e3be 0333 373e
00000010: e029 de3d 78e6 a4be f85e b43d 905c 933d
00000020: d8eb a6bd 9480 c9be 4aa5 a03e 822b 913e
00000030: 5070 a03e d425 b5bd ef62 d63d 0b88 5a3e
00000040: 61ff 07be 28bd 2ebe 2e6a f83e 8f31 093f
00000050: ef0b 12be 0e1e b5be 9b88 183e 000f 033f
00000060: ee17 b0be bb0f 903e 213d a6be f6f5 d6be
00000070: a8fd f23e 3493 15be ac93 bd3e 2858 a5be
00000080: a5b7 a73e feb6 0f3e b9bc 72be 7ea0 533e
00000090: d976 91bd 3180 b23e cb7c bcbe 6d39 b43d
000000a0: ea96 a83e fc37 69be 48c7 dabd b0c5 f43d
000000b0: 1a54 c63e 780f ddbe f0f3 063d 9eec a8be
000000c0: 3c2b b4be 0a2f 983d 0ed7 d93e d686 92bd
000000d0: 6912 a4be 14cb babe 8a2b e93e 574f c03e
000000e0: e7b3 c5be 1766 073e eeed adbe 7ad1 d03e
000000f0: 30f3 29bd 4022 f7be 781e e3be 2460 fa3e
00000100: 3e63 853e 5026 cbbd c47f a1be fa22 c8be
00000110: 9b70 e8be a667 9c3e 1530 d5be 8354 77be
00000120: 4d4d cebe e6fc 923d 947b b23e 9263 273d
00000130: d479 64be cc62 7c3e 26e0 f43e 7c5d 4a3e
00000140: 6ce2 9ebe 4c92 d0be d7f4 67be 9a7d eabe
00000150: 0cfb ea3e a47c 423e d075 6cbd 848a e3be
00000160: 572d a23e dac8 c8be 96bc 9ebe 926f 9a3e
00000170: dbd7 4b3e 5809 b83d 7e0e f8be b331 133e
00000180: e390 733e 854a b8be c0aa fd3b 802c 2dbe
00000190: 6c90 a23e 40df c8bc c8ea b9bd 8804 b03d
000001a0: bbf1 3dbe 8700 413e 0821 c83d 6830 713e
000001b0: a4f2 ea3e 288a 9f3d 9e9e b5be 6603 bbbe
000001c0: 5033 e93d f0e4 7c3e 1c38 273e fcf2 fc3e
000001d0: 3ad8 03be 3076 43bc a8fd f3bb b57f fdbe
000001e0: 2eb9 ae3e 96a8 093f 2d3e e53d 5eb2 70bd
000001f0: 671f d3be 11aa 423e fcc5 f53e 0ba6 493e
00000200: d019 56be b863 9fbd 74ca ec3e 201f d5bc
00000210: 4650 ac3e 7a0f b13e 8277 f13e d2ad da3e
00000220: 72e5 e2be 9437 663e 109a 01be d816 0fbe
00000230: 846c 92bc 3cee 91be 0451 233e 4fc9 94be
00000240: 8d86 8c3e ac0c 9e3e 8f0d 90be 515c 6f3e
00000250: ecaa 813e ccbc c2be da1e ec3e f80a 52be
00000260: e4cb 1abe 6e21 fabe 8ade 72be e725 db3e
00000270: 7d63 963e 1fe5 3a3e fbaa b1bd 94aa f53c
00000280: 3cb0 38be 4a74 e0be d9e8 e1bd 2e7f 8e3e
00000290: ed51 bebe 920a 00bf 2b19 dbbe 314a 42be
000002a0: 1142 a4bd 245d 89be bfaa 893e c31e 0fbf
000002b0: 8c05 da3e d0e8 d6be f829 783e 0be5 163e
000002c0: f126 4bbd 0390 d8bd 4451 c03e 4902 0bbb
000002d0: d237 db3e fa85 b83e a0f3 fc3e 5894 4e3e
000002e0: 3251 f33d d7ce b0be 24bb edbe ab2f b63d
000002f0: a3f6 233e e64f c3bc 147b d5bd 3583 aa3e
00000300: d496 f0be a958 643e 2def f4be eeb4 a6be
00000310: 5974 8bbe c86d 5bbb de5d a33e 795c 10be
00000320: 6327 37be df18 a83e 78eb b9be 4ad9 5ebe
00000330: 807a 0bbd 113f ae3e 3634 a53e b978 6dbe
00000340: 4877 bd3e 960b 933e 045b 553e 624d d0be
00000350: 4044 4ebe 60fe 8abc 4874 3f3e 6acb bbbe
00000360: c686 003f 0936 d53c 7381 b4bd 0e29 74be
00000370: df8b 873d 8206 afbe 3e34 cb3e 87d4 3e3e
00000380: 65d2 bbbe 8802 b83c 2553 a33e e1fb a83e
00000390: 07e7 3e3e c498 bb3e f296 e4be 5c42 25be
000003a0: 0247 e83e e06a 20be e8e8 b43d 94bc 91be
000003b0: 6819 38be cc36 473e 3851 93bd f472 5ebe
000003c0: 2e5f 9d3e c064 5abc d08b 6bbd 5059 6c3e
000003d0: 5e59 df3e cdc8 dc3d fe1d 3b3e afde 9bbe
000003e0: c1c8 b43e 9514 aabe 2d75 a9be 1be2 d63e
000003f0: e5eb f6be 5af4 e9be d4c3 043e abc3 6fbd

actor.0.bias f4 [64]
0.31335258 -0.22679126 -0.2506129 0.38948664 0.080378525 0.0085088555 0.44276357 -0.018389225
0.35908338 0.13232805 -0.29303187 0.0787729 0.03248709 0.34821588 -0.24424519 -0.432348
-0.22104847 -0.30348247 0.06751332 -0.2611214 0.19897795 -0.31551045 0.36241856 -0.20405684
0.097845525 -0.36468256 0.3158543 -0.3116172 -0.45784813 0.4972096 0.21124882 -0.12342454
-0.3604272 -0.40666986 -0.39414746 0.27752057 0.15251517 -0.08448917 0.318753 0.4566611
-0.15986274 0.43754932 0.12264479 0.23228012 0.38253292 -0.26584715 0.32050693 0.25764054
0.016612798 -0.24467786 -0.1978598 0.22522466 -0.2964102 -0.21336466 0.39287093 0.1830614
0.3081612 0.03638966 -0.19730145 -0.16743547 -0.45497543 0.20149915 0.38666517 -0.11234626
00000000: c06f a03e f83b 68be 5650 80be cb6a c73e
00000010: 7f9d a43d ba68 0b3c e8b1 e23e 00a5 96bc
00000020: c7d9 b73e 0181 073e 4608 96be b053 a13d
00000030: 2f11 053d 5a49 b23e 691b 7abe b85c ddbe
00000040: 885a 62be 0e62 9bbe 6c44 8a3d b4b1 85be
00000050: e0c0 4b3e 968a a1be ed8e b93e 47f4 50be
00000060: 3c63 c83d acb7 babe a8b7 a13e 4a8c 9fbe
00000070: 126b eabe 4292 fe3e 9c51 583e 01c6 fcbd
00000080: ea89 b8be 0837 d0be b2cd c9be 2d17 8e3e
00000090: f02c 1c3e a808 adbd 9833 a33e 7ccf e93e
000000a0: 0fb3 23be 7706 e03e 312d fb3d d7da 6d3e
000000b0: 5bdb c33e 1e1d 88be 7c19 a43e 76e9 833e
000000c0: 9017 883c d58c 7abe c29b 4abe 4ba1 663e
000000d0: 14c3 97be 447c 5abe 6126 c93e 7374 3b3e
000000e0: 4ec7 9d3e 530d 153d 6409 4abe 3474 2bbe
000000f0: 8af2 e8be cb55 4e3e faf8 c53e cc15 e6bd

actor.2.weight f4 [64, 64]
0.019029748 -0.11905375 0.06639065 0.11285403 0.0019024643 -0.12734051 0.057685982 0.103722185
0.046507243 -0.009305571 0.107768506 0.03770116 0.044072624 0.056674927 0.0025283517 0.0008099675
0.058627024 0.16959642 0.01033828 -0.040873304 0.14928591 0.11218047 0.003929849 0.031720147
-0.05734776 0.03658402 0.046369754 -0.06439839 -0.026612043 0.029531432 -0.026778193 -0.03621306
0.0018408298 0.120135784 0.040719613 0.07291861 0.16893594 0.09057014 0.101640105 -0.075757645
-0.045763217 0.106438406 -0.08054772 0.0068964087 0.08555589 -0.043299347 0.14672339 0.14607154
0.07080568 0.081596226 -0.027142089 0.08357804 0.015217096 -0.034350485 -0.07705297 -0.16793072
0.03982799 0.14854215 0.10406028 0.045342475 -0.07638542 -0.08587594 0.00493216 0.124246694
-0.08015555 0.035720974 0.04444067 0.120026454 0.0015394539 0.08342418 0.1014394 -0.072276786
0.08402841 0.094035804 -0.07474561 -0.06539112 -0.11695339 0.09119724 -0.08322491 0.030633882
0.03431505 -0.08651616 0.01328212 -0.02493377 -0.044224843 -0.02063492 -0.005968362 -0.05977109
0.0114631355 -0.061690897 -0.018603295 -0.005016029 0.078573 0.027829766 -0.06715776 -0.0014567673
0.09343022 0.04190904 0.024227574 0.031459495 -0.038561493 -0.008368552 -0.10558221 -0.029102072
0.09701148 -0.09712434 0.054800212 0.10631031 -0.02467516 0.012522116 -0.041994125 -0.015529379
0.038100213 0.032795623 0.078294694 0.022046864 0.07061988 0.015074581 -0.015186518 -0.082180604
0.042878866 0.09288849 -0.06674957 0.030281842 -0.10379557 -0.10648289 -0.015749231 -0.112001285
0.09150036 0.0110351145 -0.11647649 0.054924652 0.1202199 -0.10894632 -0.002612606 0.098004
0.008238586 -0.093687214 0.01433295 0.039786473 0.008587272 -0.070419855 -0.0041587786 0.08315396
0.10253528 -0.050641 0.108655654 0.1231097 0.05274037 -0.095045716 0.09532349 -0.0966444
-0.014545305 0.06086892 -0.054091748 0.09366438 0.11461812 0.06573746 -0.10671611 -0.026379809
-0.0525565 0.045830324 0.051367074 0.069530666 -0.07161875 -0.02105011 0.04157008 -0.06368039
0.039732464 -0.061124302 0.12300106 -0.062696695 -0.005405019 -0.005013734 -0.12462662 0.10020954
0.11090639 0.0642796 0.046802025 -0.05991524 -0.06207104 0.066514656 -0.05464812 0.12682563
-0.050796274 -0.10818139 0.08538769 -0.09712316 0.053302154 -0.11204749 0.09512222 0.0074212714
-0.09495135 0.009436458 -0.005060777 -0.052662402 0.091979265 0.08723687 0.09217496 -0.059091374
0.024212122 -0.014380574 0.10843596 0.10434517 -0.060081884 -0.08104636 0.08780746 -0.09317987
0.06854059 -0.020020023 0.076695144 0.078829184 -0.1024297 0.0856265 -0.119413584 -0.005573824
-0.030835629 -0.0026945919 0.0232528 -0.08218752 0.004315108 -0.004403487 -0.08021057 0.094876155
0.07666379 0.03614275 -0.012130067 -0.077851176 -0.03697796 0.101955175 -0.08941917 -0.091147274
0.01635851 0.00959909 0.022642627 -0.027941957 0.07705669 -0.04948823 -0.012668401 -0.07771066
-0.04874575 0.047966823 -0.112580344 -0.08070205 0.06570992 0.08685197 -0.07610217 0.0014787465
0.026144564 -0.049734026 0.10738017 -0.033109233 0.07513563 0.052937925 -0.030730367 -0.092610806
00000000: 46e4 9b3c 74d2 f3bd d2f7 873d 0420 e73d
00000010: 1c5c f93a 8d65 02be 2348 6c3d 4c6c d43d
00000020: 617e 3e3d 6576 18bc bcb5 dc3d 886c 1a3d
00000030: 7f85 343d f823 683d b4b2 253b 0054 543a
00000040: e422 703d afaa 2d3e e461 293c c46a 27bd
00000050: 68de 183e e0be e53d f6c5 803b fcec 013d
00000060: 7ce5 6abd 20d9 153d 36ee 3d3d 4ee3 83bd
00000070: 8001 dabc e7eb f13c f15d dbbc 2554 14bd
00000080: 0048 f13a c009 f63d 9cc9 263d 5a56 953d
00000090: 8bfd 2c3e d67c b93d b028 d03d d326 9bbd
000000a0: 3672 3bbd 61fc d93d 34f6 a4bd 45fb e13b
000000b0: ed37 af3d a85a 31bd a83e 163e c793 153e
000000c0: 9102 913d ec1b a73d 1659 debc f72a ab3d
000000d0: 2051 793c 18b3 0cbd f3cd 9dbd 08f6 2bbe
000000e0: ad22 233d 6f1b 183e 8e1d d53d 08b9 393d
000000f0: f66f 9cbd badf afbd f59d a13b 0d75 fe3d
00000100: 9828 a4bd 2850 123d 6c07 363d 6ed0 f53d
00000110: 80c7 c93a 4cda aa3d 76bf cf3d da05 94bd
00000120: 1617 ac3d d895 c03d 3a14 99bd c8eb 85bd
00000130: 4285 efbd 9ec5 ba3d d271 aabd e8f3 fa3c
00000140: f08d 0c3d 622f b1bd 409d 593c e841 ccbc
00000150: 1c25 35bd 900a a9bc 4092 c3bb 88d2 74bd
00000160: e0cf 3b3c 98af 7cbd f065 98bc 805d a4bb
00000170: e2ea a03d 40fb e33c 028a 89bd 00f1 beba
00000180: 5858 bf3d d0a8 2b3d e878 c63c acdb 003d
00000190: a8f2 1dbd 401c 09bc 7c3b d8bd 7867 eebc
000001a0: f4ad c63d 20e9 c6bd 3076 603d 38b9 d93d
000001b0: 9023 cabc 9029 4d3c 0802 2cbd f06e 7ebc
000001c0: f80e 1c3d b454 063d f858 a03d a09b b43c
000001d0: 28a1 903d 60fb 763c e0d0 78bc 4e4e a8bd
000001e0: c0a1 2f3d 523c be3d 00b4 88bd a011 f83c
000001f0: c692 d4bd b413 dabd 8804 81bc ee60 e5bd
00000200: 8a64 bb3d a0cc 343c 3a8b eebd acf8 603d
00000210: da35 f63d 401f dfbd 4138 2bbb 52b6 c83d
00000220: 22fb 063c 15df bfbd c0d4 6a3c 24f7 223d
00000230: a1b1 0c3c 4938 90bd 5d46 88bb a04c aa3d
00000240: 04fe d13d f06c 4fbd db86 de3d f020 fc3d
00000250: 4906 583d 54a7 c2bd f638 c33d 80ed c5bd
00000260: 6e4f 6ebc b051 793d 4f8f 5dbd 1cd3 bf3d
00000270: e8bc ea3d 5da1 863d fa8d dabd 781a d8bc
00000280: 7c45 57bd 94b8 3b3d 4866 523d 1866 8e3d
00000290: daac 92bd 4871 acbc 6345 2a3d dd6a 82bd
000002a0: 82be 223d 7a5d 7abd fbe7 fb3d 2067 80bd
000002b0: 961c b1bb 404a a4bb 3e3c ffbd a93a cd3d
000002c0: e422 e33d 06a5 833d 7bb3 3f3d af69 75bd
000002d0: 343e 7ebd d638 883d b5d6 5fbd 94de 013e
000002e0: c10f 50bd 348e ddbd bedf ae3d 82e8 c6bd
000002f0: 5c53 5a3d 2879 e5bd 70cf c23d 232e f33b
00000300: da75 c2bd 609b 1a3c e0d4 a5bb 88b4 57bd
00000310: a05f bc3d 3ea9 b23d 3ac6 bc3d cc09 72bd
00000320: 8058 c63c 809c 6bbc ac13 de3d ecb2 d53d
00000330: 6c18 76bd a2fb a5bd 66d4 b33d 16d5 bebd
00000340: 025f 8c3d 0801 a4bc 5812 9d3d 3271 a13d
00000350: aac6 d1bd f25c af3d 1c8f f4bd a0a4 b6bb
00000360: 009b fcbc c097 30bb a87c be3c ee51 a8bd
00000370: c065 8d3b 204b 90bb 7045 a4bd 6e4e c23d
00000380: e801 9d3d 6c0a 143d 30bd 46bc 7070 9fbd
00000390: 3476 17bd e0cd d03d 6621 b7bd 6cab babd
000003a0: 4802 863c 8045 1d3c 087d b93c 88e6 e4bc
000003b0: e6cf 9d3d 2cb4 4abd 208f 4fbc c426 9fbd
000003c0: a0a9 47bd dc78 443d 8690 e6bd 1e47 a5bd
000003d0: ec92 863d 72df b13d 74db 9bbd 80d2 c13a
000003e0: 202d d63c e8b5 4bbd 22ea db3d 8c9d 07bd
000003f0: b6e0 993d 70d5 583d 40be fbbc bcaa bdbd

actor.2.bias f4 [64]
0.13225576 -0.08126427 -0.10519089 -0.0016113073 0.056002684 0.005559184 0.110719815 0.082735166
-0.064078294 0.06108285 0.02633708 0.09350673 0.07767521 0.062958926 -0.11193594 0.020970311
0.014694356 0.046294075 -0.041574933 -0.062107705 0.111625865 -0.089541435 0.006181478 -0.10488516
-0.091261946 0.011787899 -0.120334014 0.088079184 0.04982148 0.018657807 0.03135664 -0.10702908
0.12171576 0.012171656 -0.103307664 0.04274687 0.10301837 -0.004382533 0.031662583 -0.10404922
-0.019415691 -0.018514872 -0.09469205 -0.04588175 -0.014696182 -0.033826124 0.063895985 0.08679973
0.03072387 0.037419364 0.09913533 -0.06879488 -0.09343578 0.13236114 0.069703445 -0.05272271
-0.038663853 -0.118897066 -0.010791713 -0.022362307 -0.105719864 -0.055269167 0.028381757 0.07599598
00000000: 0e6e 073e e26d a6bd 526e d7bd 8032 d3ba
00000010: 1263 653d d129 b63b 12c1 e23d 0e71 a93d
00000020: 7b3b 83bd 0332 7a3d dcc0 d73c 7580 bf3d
00000030: 2e14 9f3d 9cf0 803d ac3e e5bd eec9 ab3c
00000040: 99c0 703c db9e 3d3d 7a4a 2abd a664 7ebd
00000050: 1a9c e43d 8061 b7bd ff8d ca3b 08ce d6bd
00000060: 8be7 babd 0822 413c ae71 f6bd dc62 b43d
00000070: 9c11 4c3d 42d8 983c d26f 003d 1032 dbbd
00000080: 1d46 f93d a06b 473c f892 d3bd 5817 2f3d
00000090: 4cfb d23d 5a9b 8fbb a0b0 013d c217 d5bd
000000a0: a80d 9fbc 80ac 97bc e8ed c1bd 80ee 3bbd
000000b0: 41c8 70bc 438d 0abd e6db 823d 0fc4 b13d
000000c0: a0b0 fb3c 0c45 193d 7707 cb3d 54e4 8cbd
000000d0: 425b bfbd ae89 073e aec0 8e3d c5f3 57bd
000000e0: fd5d 1ebd 4e80 f3bd bacf 30bc 2831 b7bc
000000f0: a883 d8bd ec61 62bd dc80 e83c c8a3 9b3d

actor.4.weight f4 [1, 64]
0.07580078 -0.121821746 0.031341333 -0.041549996 -0.052756224 -0.06418262 0.1400974 0.11701925
0.024536012 -0.103984624 -0.09166906 0.07780011 0.0564077 -0.06731115 -0.11339171 0.04420857
-0.12208815 0.10920097 -0.0018242305 0.052733153 0.118375935 -0.06459458 -0.06849575 0.074887395
-0.015494558 -0.0029999637 0.0818433 -0.07976345 -0.10869682 -0.037264016 -0.032571986 -0.032230023
0.12315481 0.105308354 0.047728732 -0.067428485 -0.070196174 0.02569537 0.018231526 0.11421533
-0.06413381 -0.09532577 0.0757456 0.030723006 -0.0054454105 -0.07790181 0.028849093 0.07916676
-0.077143885 -0.030242294 0.041447464 0.013482317 -0.02821353 0.083964095 -0.1263308 -0.08630569
0.041217458 -0.079801574 -0.10330345 -0.03119801 -0.032502323 0.010418624 -0.10899566 -0.03966776
00000000: 703d 9b3d ae7d f9bd c55f 003d 5430 2abd
00000010: e916 58bd 2d72 83bd b175 0f3e caa7 ef3d
00000020: bfff c83c e4f5 d4bd fdbc bbbd aa55 9f3d
00000030: c30b 673d 6eda 89bd ea39 e8bd 0c14 353d
00000040: 5a09 fabd c2a4 df3d 051b efba b8fe 573d
00000050: 156f f23d 2a4a 84bd 8047 8cbd 905e 993d
00000060: e3dc 7dbc 0a9b 44bb 769d a73d 055b a3bd
00000070: 709c debd 27a2 18bd 346a 05bd a103 04bd
00000080: 9738 fc3d e8ab d73d 347f 433d f217 8abd
00000090: 03c3 8fbd 197f d23c 485a 953c bae9 e93d
000000a0: 9658 83bd 283a c3bd 8220 9b3d d0ae fb3c
000000b0: 6a6f b2bb fc8a 9fbd ef54 ec3c 2f22 a23d
000000c0: 9dfd 9dbd b0be f7bc d1c4 293d f0e4 5c3c
000000d0: 1020 e7bc 5ef5 ab3d dc5c 01be 0ac1 b0bd
000000e0: a3d3 283d 026f a3bd c290 d3bd f892 ffbc
000000f0: 2821 05bd e0b2 2a3c 1e39 dfbd a97a 22bd
