model/MountainCarContinuous-v1/critic_level_1.pth (torch, 21769 bytes, 10 tensors)

layer1.weight f4 [64, 6]
0.14298488 0.24940197 0.15494359 0.3567473 0.055300545 -0.026034407 0.19281591 -0.16936906
-0.39491987 0.36807403 -0.19018532 -0.2691679 -0.10815545 0.24219203 0.01557909 -0.14196697
0.37800694 0.10912742 -0.0172122 0.060219463 0.14941092 -0.2238248 -0.08135982 0.27024016
-0.08363301 -0.13816278 0.030498413 -0.29483637 0.3578839 0.028365457 -0.30948922 0.3898384
0.07540483 0.2754728 -0.15603645 0.08968499 -0.25004283 -0.0644118 0.28635484 0.36799347
-0.2192326 0.4438452 -0.13509353 0.015328704 -0.08506495 -0.27923524 -0.3750048 0.058509253
-0.322719 -0.3214272 -0.027568305 0.30154482 -0.10924898 0.32654804 0.39253 0.13804674
-0.053213704 -0.16105556 0.034491464 -0.05675958 0.030901058 -0.06269608 0.3206415 0.20817943
-0.2401217 0.39703003 0.17834 0.39967608 -0.40109575 0.03908554 0.47129318 -0.1293125
-0.4293855 0.07624137 0.40262085 0.20619124 0.10378582 0.20545636 0.21391983 0.21075876
0.12746225 0.3630475 -0.30672765 0.23655468 -0.39196366 -0.1760174 0.2689364 0.24091679
0.047721554 0.49125803 -0.051302552 -0.35742182 -0.08174323 -0.13032058 -0.46212754 -0.2385658
0.3861554 0.38555872 0.08571581 0.1643458 -0.33778536 0.12200488 0.2850197 0.12226013
0.024531152 -0.27949625 0.19060387 0.36763155 -0.092598066 0.07996299 -0.23164907 -0.2142274
-0.2532025 -0.037058584 0.16691944 0.0929997 -0.2747446 0.23861922 0.20859326 -0.15020816
0.29873243 -0.14947852 0.1467026 -0.22869022 0.05225151 -0.16863073 0.20509319 0.03826995
0.14441986 0.05181132 -0.30626538 0.019614764 -0.20427404 0.20314161 0.30831265 0.19152594
0.24647276 0.2728718 -0.11569459 0.2796337 0.240602 -0.29863954 -0.4852211 0.3094631
-0.26204094 0.38180262 0.18527326 0.46016204 0.3657345 0.040427644 0.043185987 0.36599395
-0.2785775 -0.25643343 0.13833228 0.48282075 0.19244568 0.40435436 0.098091334 -0.2789708
-0.19369671 0.29735819 -0.4390349 0.132545 -0.19751227 0.2432217 0.10442414 0.43602225
0.2887921 0.040656548 0.12952812 -0.3876429 -0.060496915 0.40490353 -0.028726907 -0.0955847
0.11921695 0.14097202 -0.34160042 0.28048354 -0.27334684 -0.08808753 0.20840512 -0.20052046
-0.08345488 0.019680854 0.12013131 -0.25914606 -0.5628359 0.2990725 0.57166934 0.18081355
-0.12635091 0.39859667 -0.2519716 -0.12660135 -0.122243404 0.36387756 -0.23467113 0.03235431
0.10713398 0.2602607 0.1375874 0.29778475 0.07869741 -0.3070891 0.11552982 -0.17568274
-0.022472676 -0.049659647 -0.34310275 0.078775115 -0.22081101 -0.19774106 0.3131297 0.28417367
0.06486096 -0.13018885 0.053136773 -0.18469043 -0.56807894 0.12102839 0.16891566 -0.19029124
0.15501551 0.15319096 0.2752242 0.55224526 -0.010557887 0.22257327 0.465023 -0.21130198
-0.14804627 0.004073634 0.2061507 0.32001933 0.34564376 0.24929501 -0.20842524 -0.107904546
-0.34590778 -0.20889658 -0.11422867 -0.3077328 -0.23940739 0.36458498 0.2605773 -0.0791096
0.22010635 0.32041508 -0.21050137 0.20591082 0.34679416 -0.39339024 -0.27500257 -0.12674327
00000000: a16a 123e 3b63 7f3e 88a9 1e3e 95a7 b63e
00000010: d382 623d 1c46 d5bc 8971 453e 156f 2dbe
00000020: f032 cabe 3374 bc3e f1bf 42be 60d0 89be
00000030: 9b80 ddbd 3001 783e 713f 7f3c ca5f 11be
00000040: 208a c13e 327e df3d 9a00 8dbc afa8 763d
00000050: 2dff 183e 5432 65be fa9f a6bd eb5c 8a3e
00000060: c947 abbd 8b7a 0dbe cfd7 f93c cbf4 96be
00000070: 8f3c b73e ad5e e83c 5f75 9ebe e698 c73e
00000080: d96d 9a3d c50a 8d3e 05c8 1fbe c4ac b73d
00000090: 9d05 80be 55ea 83bd 1a9d 923e a469 bc3e
000000a0: 837e 60be ae3f e33e f555 0abe 3f25 7b3c
000000b0: 8836 aebd ecf7 8ebe a100 c0be 66a7 6f3d
000000c0: 6d3b a5be 1b92 a4be edd6 e1bc 1564 9a3e
000000d0: eebd dfbd 4e31 a73e b1f9 c83e 205c 0d3e
000000e0: 9df6 59bd c0eb 24be ec46 0d3d bc7c 68bd
000000f0: 3724 fd3c cd66 80bd 1f2b a43e fd2c 553e
00000100: 77e2 75be 8547 cb3e c39e 363e 58a2 cc3e
00000110: 6c5c cdbe 2918 203d 574d f13e 7f6a 04be
00000120: 6bd8 dbbe 6f24 9c3d 5224 ce3e cc23 533e
00000130: a98d d43d 2763 523e cd0d 5b3e 25d1 573e
00000140: 7785 023e 5de1 b93e 680b 9dbe 643b 723e
00000150: 76af c8be e83d 34be 08b2 893e e4b2 763e
00000160: ad77 433d 2c86 fb3e a022 52bd feff b6be
00000170: ff68 a7bd c272 05be fb9b ecbe 984a 74be
00000180: 29b6 c53e f467 c53e c58b af3d 444a 283e
00000190: 34f2 acbe b2dd f93d 1aee 913e 8563 fa3d
000001a0: 8ef5 c83c 221a 8fbe a92d 433e 343a bc3e
000001b0: 0ea4 bdbd a3c3 a33d 6a35 6dbe 6d5e 5bbe
000001c0: c2a3 81be beca 17bd eeec 2a3e a076 be3d
000001d0: 53ab 8cbe 9958 743e 7999 553e 2bd0 19be
000001e0: 75f3 983e e610 19be 3539 163e c52d 6abe
000001f0: ae05 563d 89ad 2cbe f303 523e f3c0 1c3d
00000200: cde2 133e 1b38 543d d1ce 9cbe 24af a03c
00000210: 372d 51be 5b04 503e 28db 9d3e 601f 443e
00000220: 5b63 7c3e dab5 8b3e 49f1 ecbd 262c 8f3e
00000230: 5f60 763e 48e7 98be e66e f8be f371 9e3e
00000240: 3b2a 86be a27b c33e 46b8 3d3e 5c9a eb3e
00000250: 8d41 bb3e 7597 253d cae3 303d 8f63 bb3e
00000260: b6a1 8ebe 3e4b 83be faa6 0d3e 4834 f73e
00000270: 7b10 453e 8907 cf3e 1ce4 c83d 43d5 8ebe
00000280: 6e58 46be 553f 983e 2fc9 e0be e0b9 073e
00000290: a840 4abe 1c0f 793e 53dc d53d 4f3e df3e
000002a0: 8fdc 933e 7b87 263d 05a3 043e 2179 c6be
000002b0: 9dcb 77bd 844f cf3e b154 ebbc e9c1 c3bd
000002c0: 0428 f43d f85a 103e 40e6 aebe 8a9b 8f3e
000002d0: 1ef4 8bbe 3c67 b4bd 2768 553e 3c55 4dbe
000002e0: 64ea aabd be39 a13c 6707 f63d cbae 84be
000002f0: 0316 10bf 0820 993e ec58 123f 3027 393e
00000300: 2262 01be dd14 cc3e 6c02 81be c9a3 01be
00000310: c05a fabd 294e ba3e a14d 70be f485 043d
00000320: 0f69 db3d e440 853e b6e3 0c3e 3e77 983e
00000330: 1c2c a13d c83a 9dbe e69a ec3d 2de6 33be
00000340: 9e18 b8bc ea67 4bbd 2aab afbe d954 a13d
00000350: 481c 62be a27c 4abe 8952 a03e 367f 913e
00000360: d3d5 843d 3a50 05be f2a5 593d 7d1f 3dbe
00000370: 9f6d 11bf bcdd f73d 3af8 2c3e b5db 42be
00000380: 63bc 1e3e 17de 1c3e 30ea 8c3e f25f 0d3f
00000390: fdfa 2cbc 3fea 633e 7f17 ee3e 8c5f 58be
000003a0: 7199 17be 1e7c 853b 2b19 533e 93d9 a33e
000003b0: 38f8 b03e 3147 7f3e 6d6d 55be 0ffd dcbd
000003c0: d31a b1be fce8 55be b9f0 e9bd 278f 9dbe
000003d0: 3627 75be e2aa ba3e 636a 853e 3704 a2bd
000003e0: 8f63 613e 720d a43e ac8d 57be 49da 523e
000003f0: 018f b13e 726a c9be 23cd 8cbe fdc8 01be

layer1.bias f4 [64]
-0.29790485 -0.14517634 0.44739762 -0.32551092 0.028803976 -0.26530614 0.21994528 -0.07642751
0.37308183 -0.25767788 -0.33083776 0.39825773 -0.05481485 0.46957502 0.21508625 0.20314719
-0.38216335 0.29359928 0.13818276 0.35945284 -0.17215037 -0.0659635 0.25802428 0.10554267
-0.10190517 0.095827885 -0.34000784 -0.038823362 -0.24781996 -0.3666518 0.49088857 -0.1340781
-0.03711678 0.26387694 0.3906194 0.19920482 0.21455532 0.25193304 0.112452134 -0.28268775
0.005610526 -0.15212002 0.26951638 0.1815731 0.4391934 -0.36303094 0.21612245 0.2000863
0.42931908 -0.059257008 0.4453414 0.4048875 -0.37886375 0.46524143 0.14733616 -0.31884587
-0.2990062 0.12631391 -0.26818627 0.02112067 0.26171872 0.19513099 -0.0205673 0.28318945
00000000: fc86 98be 1ba9 14be 4d11 e53e 5ea9 a6be
00000010: 51f6 eb3c 35d6 87be 5639 613e 0786 9cbd
00000020: 9504 bf3e 5bee 83be 9163 a9be 70e8 cb3e
00000030: 8985 60bd 236c f03e 923f 5c3e d105 503e
00000040: eaaa c3be a552 963e c87f 0d3e 340a b83e
00000050: 3048 30be df17 87bd c21b 843e c126 d83d
00000060: a8b3 d0bd 6941 c43d 8215 aebe 3f05 1fbd
00000070: 84c4 7dbe c9b9 bbbe bf55 fb3e c54b 09be
00000080: c407 18bd e11a 873e 44ff c73e 59fc 4b3e
00000090: 64b4 5b3e 5efd 803e 4e4d e63d 73bc 90be
000000a0: 81d8 b73b 5ac5 1bbe 0dfe 893e 4cee 393e
000000b0: f5dd e03e 31df b9be 344f 5d3e 6ce3 4c3e
000000c0: b6cf db3e 7ab7 72bd ca03 e43e 6a4d cf3e
000000d0: 6efa c1be 2034 ee3e 4adf 163e c43f a3be
000000e0: 5717 99be 6f58 013e b64f 89be 4105 ad3c
000000f0: ffff 853e 6bd0 473e c17c a8bc 35fe 903e

layer2.weight f4 [64, 64]
0.03657049 0.015303417 0.13645823 -0.10512903 0.1807752 -0.02764234 0.17040417 0.02614828
-0.04978059 -0.033306748 -0.08420998 0.078385726 0.18275546 0.1779453 0.048061684 -0.003609901
-0.04324034 0.08837949 0.0063292314 0.019829761 -0.12212299 0.039577838 0.07597077 -0.11886863
0.022725228 0.1814149 -0.030791521 0.04622549 0.028945655 0.12259059 0.021142598 -0.16850813
-0.016617024 0.015871508 0.08244095 0.068779625 -0.17091414 0.12110237 0.043120343 0.122882694
-0.03056664 -0.03678526 0.024953645 0.14232816 0.11188777 -0.07543513 0.109359905 -0.019305354
0.114423886 -0.13584003 0.18193169 -0.06428821 0.030038655 0.0510817 0.15043467 0.07269487
-0.010872424 0.11090374 -0.055389583 0.13378805 0.12377742 -0.030527862 0.117459215 0.05417359
-0.047687456 0.034565732 -0.08640612 -0.062123075 -0.03932454 -0.012147829 0.08779937 -0.091600955
0.0051816744 -0.062236667 0.047980994 -0.10821938 0.11175367 0.110842876 -0.0881283 -0.10845266
0.12425156 0.046543412 -0.0052972436 0.02092518 -0.07413973 -0.052849367 0.10531654 -0.12130292
-0.01918429 0.07256875 0.018359408 -0.05126148 0.034608185 0.07297094 0.028302917 0.019678071
-0.08834703 -0.06524861 -0.104175515 -0.13486162 -0.006738201 0.018780615 0.09511915 -0.016227022
-0.0015835762 -0.039115265 0.082798176 -0.11119272 0.11163457 0.12043013 -0.12967236 0.06777884
-0.11614329 -0.053495213 -0.021046182 0.022373812 0.10517746 0.09586225 -0.045646686 0.10957332
0.035870895 0.013687596 0.09978987 0.086298764 -0.02204144 -0.09359512 -0.12426311 0.062363844
0.03650728 0.016759798 -0.09005681 0.080463216 -0.11436649 -0.112572104 -0.00687553 -0.08306742
-0.10627216 -0.08898379 0.07278848 0.1197765 -0.059764206 0.034034163 -0.05395232 -0.119846195
0.09660277 0.05340661 -0.062835336 -0.031534612 -0.020067722 -0.06985244 0.1136533 -0.044080347
0.09789719 -0.018059447 -0.008559719 -0.025975779 0.013967425 0.029546022 -0.087582946 0.045594603
0.012960732 0.059797496 -0.027442157 0.054606095 0.10133086 -0.0034139305 0.080669016 0.10889241
-0.10786912 -0.048937216 -0.088973045 0.037100405 0.0872989 -0.088381305 -0.055931717 -0.08002333
-0.03639494 -0.07682738 -0.046037883 0.080283165 0.10454717 -0.07770337 -0.050840527 -0.089312494
-0.12274596 0.045199886 -0.04417613 -0.0030259937 0.026576713 -0.00068953633 -0.11172098 -0.118360534
0.0922845 -0.025875598 0.030094914 0.05518265 0.07904221 -0.11938205 0.005214282 -0.10925479
0.038820527 -0.08976039 -0.10237458 -0.13103814 0.070944324 -0.021811992 -0.08294023 0.0145435035
0.0076319277 0.071646474 -0.03817071 0.027211428 0.10009639 -0.028761864 0.09837646 -0.08951646
-0.11242714 -0.0019432694 -0.054534853 -0.050407346 -0.023670912 0.021352917 -0.13082631 0.023794085
-0.0016324222 -0.10580297 0.056840066 -0.124653846 -0.10216902 -0.073381335 0.10424332 0.093537495
0.05426593 0.057066932 -0.07801621 0.048034556 -0.096949555 0.09136577 -0.007281415 0.10925314
0.093996465 -0.024215221 0.10995247 0.10322521 -0.0583916 -0.0002804477 0.10412134 -0.11700995
-0.060426816 -0.08844491 -0.09448783 0.016766673 -0.119808845 -0.009398306 0.05164835 0.010297864
00000000: f0ca 153d 2fbb 7a3c b5bb 0b3e e44d d7bd
00000010: 221d 393e 3072 e2bc 6e7e 2e3e eb34 d63c
00000020: bbe6 4bbd a86c 08bd 4876 acbd b288 a03d
00000030: 3f24 3b3e 4b37 363e 54dc 443d 1794 6cbb
00000040: c81c 31bd 4e00 b53d 7165 cf3b 0672 a23c
00000050: 9e1b fabd 5f1c 223d 9096 9b3d 6571 f3bd
00000060: 422a ba3c d4c4 393e 803e fcbc f056 3d3d
00000070: 701f ed3c c610 fb3d 3e33 ad3c 658d 2cbe
00000080: 6d20 88bc f704 823c cdd6 a83d 55dc 8c3d
00000090: 1e04 2fbe 8504 f83d f59e 303d eca9 fb3d
000000a0: e466 fabc 24ac 16bd 966b cc3c 79be 113e
000000b0: 6a25 e53d bc7d 9abd 16f8 df3d 4326 9ebc
000000c0: 1257 ea3d a619 0bbe 4d4c 3a3e 89a9 83bd
000000d0: a013 f63c 0b3b 513d 8c0b 1a3e 0ce1 943d
000000e0: 4022 32bc 8021 e33d 30e0 62bd bcff 083e
000000f0: 047f fd3d 9115 fabc 758e f03d 20e5 5d3d
00000100: ec53 43bd cc94 0d3d b1f5 b0bd c474 7ebd
00000110: c512 21bd b007 47bc 28d0 b33d 4899 bbbd
00000120: 09cb a93b e0eb 7ebd b887 443d 1fa2 ddbd
00000130: 1cdf e43d 9701 e33d 9c7c b4bd 6e1c debd
00000140: 9a77 fe3d 4ea4 3e3d 8094 adbb 486b ab3c
00000150: 92d6 97bd 9478 58bd 33b0 d73d aa6d f8bd
00000160: 5f28 9dbc ed9e 943d 7866 963c 8ff7 51bd
00000170: 50c1 0d3d ca71 953d 85db e73c e833 a13c
00000180: 4aef b4bd 10a1 85bd f959 d5bd 2a19 0abe
00000190: 20cc dcbb ced9 993c d4cd c23d 88ee 84bc
000001a0: 0090 cfba 5437 20bd 1792 a93d 02b9 e3bd
000001b0: aaa0 e43d 12a4 f63d d5c8 04be a2cf 8a3d
000001c0: 89dc edbd cc1d 5bbd 0b69 acbc 4949 b73c
000001d0: 4867 d73d 6d53 c43d 05f8 3abd fa67 e03d
000001e0: 5ced 123d f041 603c a25e cc3d 68bd b03d
000001f0: 4090 b4bc ccae bfbd a87d febd 3b71 7f3d
00000200: a888 153d d84b 893c b46f b8bd e6c9 a43d
00000210: fa38 eabd 348c e6bd 204c e1bb 401f aabd
00000220: 38a5 d9bd 223d b6bd 2012 953d 624d f53d
00000230: 50cb 74bd 6867 0b3d 1cfd 5cbd ec71 f5bd
00000240: acd7 c53d e4c0 5a3d d0af 80bd 702a 01bd
00000250: 1065 a4bc cc0e 8fbd 10c3 e83d 988d 34bd
00000260: 527e c83d 68f1 93bc 103e 0cbc 28cb d4bc
00000270: a0d7 643c 800a f23c b05e b3bd 68c1 3a3d
00000280: 4059 543c 38ee 743d 60ce e0bc a4aa 5f3d
00000290: 8e86 cf3d 40bc 5fbb cc35 a53d fc02 df3d
000002a0: 7cea dcbd 6472 48bd 8037 b6bd 98f6 173d
000002b0: c4c9 b23d 4201 b5bd a818 65bd 46e3 a3bd
000002c0: dc12 15bd ac57 9dbd 3892 3cbd 806b a43d
000002d0: d41c d63d f222 9fbd 283e 50bd 78e9 b6bd
000002e0: 3c62 fbbd 8423 393d 08f2 34bd c04f 46bb
000002f0: 68b7 d93c 00c2 34ba f8cd e4bd 0267 f2bd
00000300: a8ff bc3d 10f9 d3bc 9c89 f63c 3407 623d
00000310: e2e0 a13d 947e f4bd 91dc aa3b fac0 dfbd
00000320: 4602 1f3d 4cd4 b7bd c4a9 d1bd dd2e 06be
00000330: 424b 913d 10af b2bc 91dc a9bd e047 6e3c
00000340: 4015 fa3b 63bb 923d e458 1cbd 80ea de3c
00000350: 56ff cc3d 009e ebbc 9979 c93d 6854 b7bd
00000360: 3340 e6bd 4db5 feba f05f 5fbd ef77 4ebd
00000370: 80e9 c1bc 50ec ae3c 55f7 05be d0eb c23c
00000380: 00f7 d5ba 3aaf d8bd 21d1 683d 844a ffbd
00000390: fe3d d1bd f448 96bd 867d d53d 9690 bf3d
000003a0: f445 5e3d 04bf 693d f6c6 9fbd e2bf 443d
000003b0: 7d8d c6bd fa1d bb3d f098 eebb 1cc0 df3d
000003c0: 3881 c03d 005f c6bc c32e e13d bd67 d33d
000003d0: 082c 6fbd 0e09 93b9 923d d53d eaa2 efbd
000003e0: 1c82 77bd 9b22 b5bd d682 c1bd 435a 893c
000003f0: 575e f5bd 5afb 19bc 388d 533d 5fb8 283c

layer2.bias f4 [64]
-0.0004330258 -0.025501655 0.058402047 -0.0651425 0.014493361 0.068284325 0.074728295 -0.028095135
0.0067262147 -0.061251678 -0.10050361 0.11978224 -0.033500254 -0.025218993 0.19576062 0.11513632
0.009777669 -0.047596827 -0.008935541 0.06291149 -0.07322 0.11963947 0.17507227 0.1432244
0.023031604 -0.09225914 -0.031749487 -0.075414896 0.055467177 0.075357094 -0.122584075 0.028180555
-0.0017471341 0.033782184 -0.006655622 0.15593739 -0.010080576 -0.09451897 -0.10824067 0.036819667
0.07128267 0.0031254522 0.028636377 -0.10846505 0.14288601 0.03805425 0.07665536 -0.11358601
0.16463213 -0.13041064 0.06852835 0.1576015 -0.013375301 -0.010791602 0.15731256 0.10655138
-0.07042848 0.029349018 0.07452103 -0.096099734 0.1410326 -0.0238787 -0.024818022 0.022581166
00000000: bd07 e3b9 d9e8 d0bc fc36 6f3d 6e69 85bd
00000010: 9075 6d3c a7d8 8b3d 260b 993d c527 e6bc
00000020: 9467 dc3b 0ae3 7abd d6d4 cdbd 6450 f53d
00000030: 9037 09bd 1098 cebc 7975 483e 97cc eb3d
00000040: 8432 203c e4f4 42bd 6066 12bc bdd7 803d
00000050: 5ef4 95bd 8a05 f53d 2546 333e 6ba9 123e
00000060: c6ac bc3c 5cf2 bcbd c00b 02bd 2073 9abd
00000070: 8d31 633d d254 9a3d 5c0d fbbd e8da e63c
00000080: 1800 e5ba 305f 0a3d 6717 dabb 0dae 1f3e
00000090: 0029 25bc 2993 c1bd 49ad ddbd 38d0 163d
000000a0: a6fc 913d 63d4 4c3b d696 ea3c ed22 debd
000000b0: b650 123e c6de 1b3d 7cfd 9c3d c89f e8bd
000000c0: 5395 283e 5e8a 05be 9758 8c3d 4a62 213e
000000d0: 1424 5bbc 42cf 30bc 8b16 213e 9c37 da3d
000000e0: cf3c 90bd 5a6d f03c 7b9e 983d f0cf c4bd
000000f0: da6a 103e 439d c3bc 2a4f cbbc 23fc b83c

layer3.weight f4 [1, 64]
0.19143239 -0.07425077 0.026542276 -0.033098534 0.12491131 -0.07548813 0.106068045 0.17985734
0.044065807 0.14339527 0.052524194 0.20793231 0.037752777 -0.04341033 0.080953404 0.046762016
0.0917346 -0.062481537 0.093373 0.19022483 0.067899615 0.11317933 0.11387694 0.08447899
-0.07941837 0.11504313 0.07541837 0.12156662 0.15157762 0.15279451 -0.014403134 -0.057419136
0.16106805 -0.2084742 -0.07891347 0.093799874 -0.05120568 -0.0056983377 -0.017868634 0.16252652
-0.15564379 -0.052987505 -0.027708909 0.08355163 0.16395113 0.0001063939 0.12559724 0.10392785
0.14962824 0.05342551 -0.008759158 0.076283395 0.08839882 -0.008752184 0.13575993 0.17701787
-0.19309883 -0.08449059 -0.042907167 -0.03422174 -0.30025473 -0.008146549 0.1860945 -0.07320388
00000000: da06 443e ca10 98bd 306f d93c 5492 07bd
00000010: 80d1 ff3d 8599 9abd 343a d93d 862c 383e
00000020: 597e 343d 36d6 123e 9c23 573d 35ec 543e
00000030: a8a2 1a3d 08cf 31bd e6ca a53d 8789 3f3d
00000040: 5adf bb3d a4ec 7fbd 583a bf3d 4cca 423e
00000050: f40e 8b3d 91ca e73d 5038 e93d 5203 ad3d
00000060: 19a6 a2bd bc9b eb3d f274 9a3d ecf7 f83d
00000070: 2a37 1b3e 2a76 1c3e 1ffb 6bbc 5430 6bbd
00000080: 06ef 243e 437a 55be 639d a1bd 261a c03d
00000090: 0cbd 51bd 1fb9 babb 3e61 92bc 5a6d 263e
000000a0: 1661 1fbe 6d09 59bd cbfd e2bc 1e1d ab3d
000000b0: cee2 273e ca1f df38 909c 003e 20d8 d43d
000000c0: 2538 193e b5d4 5a3d 9282 0fbc 783a 9c3d
000000d0: 710a b53d 5265 0fbc a704 0b3e 2c44 353e
000000e0: b3bb 45be 6709 adbd 6dbf 2fbd 182c 0cbd
000000f0: fdba 99be 1a79 05bc 8e8f 3e3e eaeb 95bd

critic.0.weight f4 [64, 6]
0.14298488 0.24940197 0.15494359 0.3567473 0.055300545 -0.026034407 0.19281591 -0.16936906
-0.39491987 0.36807403 -0.19018532 -0.2691679 -0.10815545 0.24219203 0.01557909 -0.14196697
0.37800694 0.10912742 -0.0172122 0.060219463 0.14941092 -0.2238248 -0.08135982 0.27024016
-0.08363301 -0.13816278 0.030498413 -0.29483637 0.3578839 0.028365457 -0.30948922 0.3898384
0.07540483 0.2754728 -0.15603645 0.08968499 -0.25004283 -0.0644118 0.28635484 0.36799347
-0.2192326 0.4438452 -0.13509353 0.015328704 -0.08506495 -0.27923524 -0.3750048 0.058509253
-0.322719 -0.3214272 -0.027568305 0.30154482 -0.10924898 0.32654804 0.39253 0.13804674
-0.053213704 -0.16105556 0.034491464 -0.05675958 0.030901058 -0.06269608 0.3206415 0.20817943
-0.2401217 0.39703003 0.17834 0.39967608 -0.40109575 0.03908554 0.47129318 -0.1293125
-0.4293855 0.07624137 0.40262085 0.20619124 0.10378582 0.20545636 0.21391983 0.21075876
0.12746225 0.3630475 -0.30672765 0.23655468 -0.39196366 -0.1760174 0.2689364 0.24091679
0.047721554 0.49125803 -0.051302552 -0.35742182 -0.08174323 -0.13032058 -0.46212754 -0.2385658
0.3861554 0.38555872 0.08571581 0.1643458 -0.33778536 0.12200488 0.2850197 0.12226013
0.024531152 -0.27949625 0.19060387 0.36763155 -0.092598066 0.07996299 -0.23164907 -0.2142274
-0.2532025 -0.037058584 0.16691944 0.0929997 -0.2747446 0.23861922 0.20859326 -0.15020816
0.29873243 -0.14947852 0.1467026 -0.22869022 0.05225151 -0.16863073 0.20509319 0.03826995
0.14441986 0.05181132 -0.30626538 0.019614764 -0.20427404 0.20314161 0.30831265 0.19152594
0.24647276 0.2728718 -0.11569459 0.2796337 0.240602 -0.29863954 -0.4852211 0.3094631
-0.26204094 0.38180262 0.18527326 0.46016204 0.3657345 0.040427644 0.043185987 0.36599395
-0.2785775 -0.25643343 0.13833228 0.48282075 0.19244568 0.40435436 0.098091334 -0.2789708
-0.19369671 0.29735819 -0.4390349 0.132545 -0.19751227 0.2432217 0.10442414 0.43602225
0.2887921 0.040656548 0.12952812 -0.3876429 -0.060496915 0.40490353 -0.028726907 -0.0955847
0.11921695 0.14097202 -0.34160042 0.28048354 -0.27334684 -0.08808753 0.20840512 -0.20052046
-0.08345488 0.019680854 0.12013131 -0.25914606 -0.5628359 0.2990725 0.57166934 0.18081355
-0.12635091 0.39859667 -0.2519716 -0.12660135 -0.122243404 0.36387756 -0.23467113 0.03235431
0.10713398 0.2602607 0.1375874 0.29778475 0.07869741 -0.3070891 0.11552982 -0.17568274
-0.022472676 -0.049659647 -0.34310275 0.078775115 -0.22081101 -0.19774106 0.3131297 0.28417367
0.06486096 -0.13018885 0.053136773 -0.18469043 -0.56807894 0.12102839 0.16891566 -0.19029124
0.15501551 0.15319096 0.2752242 0.55224526 -0.010557887 0.22257327 0.465023 -0.21130198
-0.14804627 0.004073634 0.2061507 0.32001933 0.34564376 0.24929501 -0.20842524 -0.107904546
-0.34590778 -0.20889658 -0.11422867 -0.3077328 -0.23940739 0.36458498 0.2605773 -0.0791096
0.22010635 0.32041508 -0.21050137 0.20591082 0.34679416 -0.39339024 -0.27500257 -0.12674327
00000000: a16a 123e 3b63 7f3e 88a9 1e3e 95a7 b63e
00000010: d382 623d 1c46 d5bc 8971 453e 156f 2dbe
00000020: f032 cabe 3374 bc3e f1bf 42be 60d0 89be
00000030: 9b80 ddbd 3001 783e 713f 7f3c ca5f 11be
00000040: 208a c13e 327e df3d 9a00 8dbc afa8 763d
00000050: 2dff 183e 5432 65be fa9f a6bd eb5c 8a3e
00000060: c947 abbd 8b7a 0dbe cfd7 f93c cbf4 96be
00000070: 8f3c b73e ad5e e83c 5f75 9ebe e698 c73e
00000080: d96d 9a3d c50a 8d3e 05c8 1fbe c4ac b73d
00000090: 9d05 80be 55ea 83bd 1a9d 923e a469 bc3e
000000a0: 837e 60be ae3f e33e f555 0abe 3f25 7b3c
000000b0: 8836 aebd ecf7 8ebe a100 c0be 66a7 6f3d
000000c0: 6d3b a5be 1b92 a4be edd6 e1bc 1564 9a3e
000000d0: eebd dfbd 4e31 a73e b1f9 c83e 205c 0d3e
000000e0: 9df6 59bd c0eb 24be ec46 0d3d bc7c 68bd
000000f0: 3724 fd3c cd66 80bd 1f2b a43e fd2c 553e
00000100: 77e2 75be 8547 cb3e c39e 363e 58a2 cc3e
00000110: 6c5c cdbe 2918 203d 574d f13e 7f6a 04be
00000120: 6bd8 dbbe 6f24 9c3d 5224 ce3e cc23 533e
00000130: a98d d43d 2763 523e cd0d 5b3e 25d1 573e
00000140: 7785 023e 5de1 b93e 680b 9dbe 643b 723e
00000150: 76af c8be e83d 34be 08b2 893e e4b2 763e
00000160: ad77 433d 2c86 fb3e a022 52bd feff b6be
00000170: ff68 a7bd c272 05be fb9b ecbe 984a 74be
00000180: 29b6 c53e f467 c53e c58b af3d 444a 283e
00000190: 34f2 acbe b2dd f93d 1aee 913e 8563 fa3d
000001a0: 8ef5 c83c 221a 8fbe a92d 433e 343a bc3e
000001b0: 0ea4 bdbd a3c3 a33d 6a35 6dbe 6d5e 5bbe
000001c0: c2a3 81be beca 17bd eeec 2a3e a076 be3d
000001d0: 53ab 8cbe 9958 743e 7999 553e 2bd0 19be
000001e0: 75f3 983e e610 19be 3539 163e c52d 6abe
000001f0: ae05 563d 89ad 2cbe f303 523e f3c0 1c3d
00000200: cde2 133e 1b38 543d d1ce 9cbe 24af a03c
00000210: 372d 51be 5b04 503e 28db 9d3e 601f 443e
00000220: 5b63 7c3e dab5 8b3e 49f1 ecbd 262c 8f3e
00000230: 5f60 763e 48e7 98be e66e f8be f371 9e3e
00000240: 3b2a 86be a27b c33e 46b8 3d3e 5c9a eb3e
00000250: 8d41 bb3e 7597 253d cae3 303d 8f63 bb3e
00000260: b6a1 8ebe 3e4b 83be faa6 0d3e 4834 f73e
00000270: 7b10 453e 8907 cf3e 1ce4 c83d 43d5 8ebe
00000280: 6e58 46be 553f 983e 2fc9 e0be e0b9 073e
00000290: a840 4abe 1c0f 793e 53dc d53d 4f3e df3e
000002a0: 8fdc 933e 7b87 263d 05a3 043e 2179 c6be
000002b0: 9dcb 77bd 844f cf3e b154 ebbc e9c1 c3bd
000002c0: 0428 f43d f85a 103e 40e6 aebe 8a9b 8f3e
000002d0: 1ef4 8bbe 3c67 b4bd 2768 553e 3c55 4dbe
000002e0: 64ea aabd be39 a13c 6707 f63d cbae 84be
000002f0: 0316 10bf 0820 993e ec58 123f 3027 393e
00000300: 2262 01be dd14 cc3e 6c02 81be c9a3 01be
00000310: c05a fabd 294e ba3e a14d 70be f485 043d
00000320: 0f69 db3d e440 853e b6e3 0c3e 3e77 983e
00000330: 1c2c a13d c83a 9dbe e69a ec3d 2de6 33be
00000340: 9e18 b8bc ea67 4bbd 2aab afbe d954 a13d
00000350: 481c 62be a27c 4abe 8952 a03e 367f 913e
00000360: d3d5 843d 3a50 05be f2a5 593d 7d1f 3dbe
00000370: 9f6d 11bf bcdd f73d 3af8 2c3e b5db 42be
00000380: 63bc 1e3e 17de 1c3e 30ea 8c3e f25f 0d3f
00000390: fdfa 2cbc 3fea 633e 7f17 ee3e 8c5f 58be
000003a0: 7199 17be 1e7c 853b 2b19 533e 93d9 a33e
000003b0: 38f8 b03e 3147 7f3e 6d6d 55be 0ffd dcbd
000003c0: d31a b1be fce8 55be b9f0 e9bd 278f 9dbe
000003d0: 3627 75be e2aa ba3e 636a 853e 3704 a2bd
000003e0: 8f63 613e 720d a43e ac8d 57be 49da 523e
000003f0: 018f b13e 726a c9be 23cd 8cbe fdc8 01be

critic.0.bias f4 [64]
-0.29790485 -0.14517634 0.44739762 -0.32551092 0.028803976 -0.26530614 0.21994528 -0.07642751
0.37308183 -0.25767788 -0.33083776 0.39825773 -0.05481485 0.46957502 0.21508625 0.20314719
-0.38216335 0.29359928 0.13818276 0.35945284 -0.17215037 -0.0659635 0.25802428 0.10554267
-0.10190517 0.095827885 -0.34000784 -0.038823362 -0.24781996 -0.3666518 0.49088857 -0.1340781
-0.03711678 0.26387694 0.3906194 0.19920482 0.21455532 0.25193304 0.112452134 -0.28268775
0.005610526 -0.15212002 0.26951638 0.1815731 0.4391934 -0.36303094 0.21612245 0.2000863
0.42931908 -0.059257008 0.4453414 0.4048875 -0.37886375 0.46524143 0.14733616 -0.31884587
-0.2990062 0.12631391 -0.26818627 0.02112067 0.26171872 0.19513099 -0.0205673 0.28318945
00000000: fc86 98be 1ba9 14be 4d11 e53e 5ea9 a6be
00000010: 51f6 eb3c 35d6 87be 5639 613e 0786 9cbd
00000020: 9504 bf3e 5bee 83be 9163 a9be 70e8 cb3e
00000030: 8985 60bd 236c f03e 923f 5c3e d105 503e
00000040: eaaa c3be a552 963e c87f 0d3e 340a b83e
00000050: 3048 30be df17 87bd c21b 843e c126 d83d
00000060: a8b3 d0bd 6941 c43d 8215 aebe 3f05 1fbd
00000070: 84c4 7dbe c9b9 bbbe bf55 fb3e c54b 09be
00000080: c407 18bd e11a 873e 44ff c73e 59fc 4b3e
00000090: 64b4 5b3e 5efd 803e 4e4d e63d 73bc 90be
000000a0: 81d8 b73b 5ac5 1bbe 0dfe 893e 4cee 393e
000000b0: f5dd e03e 31df b9be 344f 5d3e 6ce3 4c3e
000000c0: b6cf db3e 7ab7 72bd ca03 e43e 6a4d cf3e
000000d0: 6efa c1be 2034 ee3e 4adf 163e c43f a3be
000000e0: 5717 99be 6f58 013e b64f 89be 4105 ad3c
000000f0: ffff 853e 6bd0 473e c17c a8bc 35fe 903e

critic.2.weight f4 [64, 64]
0.03657049 0.015303417 0.13645823 -0.10512903 0.1807752 -0.02764234 0.17040417 0.02614828
-0.04978059 -0.033306748 -0.08420998 0.078385726 0.18275546 0.1779453 0.048061684 -0.003609901
-0.04324034 0.08837949 0.0063292314 0.019829761 -0.12212299 0.039577838 0.07597077 -0.11886863
0.022725228 0.1814149 -0.030791521 0.04622549 0.028945655 0.12259059 0.021142598 -0.16850813
-0.016617024 0.015871508 0.08244095 0.068779625 -0.17091414 0.12110237 0.043120343 0.122882694
-0.03056664 -0.03678526 0.024953645 0.14232816 0.11188777 -0.07543513 0.109359905 -0.019305354
0.114423886 -0.13584003 0.18193169 -0.06428821 0.030038655 0.0510817 0.15043467 0.07269487
-0.010872424 0.11090374 -0.055389583 0.13378805 0.12377742 -0.030527862 0.117459215 0.05417359
-0.047687456 0.034565732 -0.08640612 -0.062123075 -0.03932454 -0.012147829 0.08779937 -0.091600955
0.0051816744 -0.062236667 0.047980994 -0.10821938 0.11175367 0.110842876 -0.0881283 -0.10845266
0.12425156 0.046543412 -0.0052972436 0.02092518 -0.07413973 -0.052849367 0.10531654 -0.12130292
-0.01918429 0.07256875 0.018359408 -0.05126148 0.034608185 0.07297094 0.028302917 0.019678071
-0.08834703 -0.06524861 -0.104175515 -0.13486162 -0.006738201 0.018780615 0.09511915 -0.016227022
-0.0015835762 -0.039115265 0.082798176 -0.11119272 0.11163457 0.12043013 -0.12967236 0.06777884
-0.11614329 -0.053495213 -0.021046182 0.022373812 0.10517746 0.09586225 -0.045646686 0.10957332
0.035870895 0.013687596 0.09978987 0.086298764 -0.02204144 -0.09359512 -0.12426311 0.062363844
0.03650728 0.016759798 -0.09005681 0.080463216 -0.11436649 -0.112572104 -0.00687553 -0.08306742
-0.10627216 -0.08898379 0.07278848 0.1197765 -0.059764206 0.034034163 -0.05395232 -0.119846195
0.09660277 0.05340661 -0.062835336 -0.031534612 -0.020067722 -0.06985244 0.1136533 -0.044080347
0.09789719 -0.018059447 -0.008559719 -0.025975779 0.013967425 0.029546022 -0.087582946 0.045594603
0.012960732 0.059797496 -0.027442157 0.054606095 0.10133086 -0.0034139305 0.080669016 0.10889241
-0.10786912 -0.048937216 -0.088973045 0.037100405 0.0872989 -0.088381305 -0.055931717 -0.08002333
-0.03639494 -0.07682738 -0.046037883 0.080283165 0.10454717 -0.07770337 -0.050840527 -0.089312494
-0.12274596 0.045199886 -0.04417613 -0.0030259937 0.026576713 -0.00068953633 -0.11172098 -0.118360534
0.0922845 -0.025875598 0.030094914 0.05518265 0.07904221 -0.11938205 0.005214282 -0.10925479
0.038820527 -0.08976039 -0.10237458 -0.13103814 0.070944324 -0.021811992 -0.08294023 0.0145435035
0.0076319277 0.071646474 -0.03817071 0.027211428 0.10009639 -0.028761864 0.09837646 -0.08951646
-0.11242714 -0.0019432694 -0.054534853 -0.050407346 -0.023670912 0.021352917 -0.13082631 0.023794085
-0.0016324222 -0.10580297 0.056840066 -0.124653846 -0.10216902 -0.073381335 0.10424332 0.093537495
0.05426593 0.057066932 -0.07801621 0.048034556 -0.096949555 0.09136577 -0.007281415 0.10925314
0.093996465 -0.024215221 0.10995247 0.10322521 -0.0583916 -0.0002804477 0.10412134 -0.11700995
-0.060426816 -0.08844491 -0.09448783 0.016766673 -0.119808845 -0.009398306 0.05164835 0.010297864
00000000: f0ca 153d 2fbb 7a3c b5bb 0b3e e44d d7bd
00000010: 221d 393e 3072 e2bc 6e7e 2e3e eb34 d63c
00000020: bbe6 4bbd a86c 08bd 4876 acbd b288 a03d
00000030: 3f24 3b3e 4b37 363e 54dc 443d 1794 6cbb
00000040: c81c 31bd 4e00 b53d 7165 cf3b 0672 a23c
00000050: 9e1b fabd 5f1c 223d 9096 9b3d 6571 f3bd
00000060: 422a ba3c d4c4 393e 803e fcbc f056 3d3d
00000070: 701f ed3c c610 fb3d 3e33 ad3c 658d 2cbe
00000080: 6d20 88bc f704 823c cdd6 a83d 55dc 8c3d
00000090: 1e04 2fbe 8504 f83d f59e 303d eca9 fb3d
000000a0: e466 fabc 24ac 16bd 966b cc3c 79be 113e
000000b0: 6a25 e53d bc7d 9abd 16f8 df3d 4326 9ebc
000000c0: 1257 ea3d a619 0bbe 4d4c 3a3e 89a9 83bd
000000d0: a013 f63c 0b3b 513d 8c0b 1a3e 0ce1 943d
000000e0: 4022 32bc 8021 e33d 30e0 62bd bcff 083e
000000f0: 047f fd3d 9115 fabc 758e f03d 20e5 5d3d
00000100: ec53 43bd cc94 0d3d b1f5 b0bd c474 7ebd
00000110: c512 21bd b007 47bc 28d0 b33d 4899 bbbd
00000120: 09cb a93b e0eb 7ebd b887 443d 1fa2 ddbd
00000130: 1cdf e43d 9701 e33d 9c7c b4bd 6e1c debd
00000140: 9a77 fe3d 4ea4 3e3d 8094 adbb 486b ab3c
00000150: 92d6 97bd 9478 58bd 33b0 d73d aa6d f8bd
00000160: 5f28 9dbc ed9e 943d 7866 963c 8ff7 51bd
00000170: 50c1 0d3d ca71 953d 85db e73c e833 a13c
00000180: 4aef b4bd 10a1 85bd f959 d5bd 2a19 0abe
00000190: 20cc dcbb ced9 993c d4cd c23d 88ee 84bc
000001a0: 0090 cfba 5437 20bd 1792 a93d 02b9 e3bd
000001b0: aaa0 e43d 12a4 f63d d5c8 04be a2cf 8a3d
000001c0: 89dc edbd cc1d 5bbd 0b69 acbc 4949 b73c
000001d0: 4867 d73d 6d53 c43d 05f8 3abd fa67 e03d
000001e0: 5ced 123d f041 603c a25e cc3d 68bd b03d
000001f0: 4090 b4bc ccae bfbd a87d febd 3b71 7f3d
00000200: a888 153d d84b 893c b46f b8bd e6c9 a43d
00000210: fa38 eabd 348c e6bd 204c e1bb 401f aabd
00000220: 38a5 d9bd 223d b6bd 2012 953d 624d f53d
00000230: 50cb 74bd 6867 0b3d 1cfd 5cbd ec71 f5bd
00000240: acd7 c53d e4c0 5a3d d0af 80bd 702a 01bd
00000250: 1065 a4bc cc0e 8fbd 10c3 e83d 988d 34bd
00000260: 527e c83d 68f1 93bc 103e 0cbc 28cb d4bc
00000270: a0d7 643c 800a f23c b05e b3bd 68c1 3a3d
00000280: 4059 543c 38ee 743d 60ce e0bc a4aa 5f3d
00000290: 8e86 cf3d 40bc 5fbb cc35 a53d fc02 df3d
000002a0: 7cea dcbd 6472 48bd 8037 b6bd 98f6 173d
000002b0: c4c9 b23d 4201 b5bd a818 65bd 46e3 a3bd
000002c0: dc12 15bd ac57 9dbd 3892 3cbd 806b a43d
000002d0: d41c d63d f222 9fbd 283e 50bd 78e9 b6bd
000002e0: 3c62 fbbd 8423 393d 08f2 34bd c04f 46bb
000002f0: 68b7 d93c 00c2 34ba f8cd e4bd 0267 f2bd
00000300: a8ff bc3d 10f9 d3bc 9c89 f63c 3407 623d
00000310: e2e0 a13d 947e f4bd 91dc aa3b fac0 dfbd
00000320: 4602 1f3d 4cd4 b7bd c4a9 d1bd dd2e 06be
00000330: 424b 913d 10af b2bc 91dc a9bd e047 6e3c
00000340: 4015 fa3b 63bb 923d e458 1cbd 80ea de3c
00000350: 56ff cc3d 009e ebbc 9979 c93d 6854 b7bd
00000360: 3340 e6bd 4db5 feba f05f 5fbd ef77 4ebd
00000370: 80e9 c1bc 50ec ae3c 55f7 05be d0eb c23c
00000380: 00f7 d5ba 3aaf d8bd 21d1 683d 844a ffbd
00000390: fe3d d1bd f448 96bd 867d d53d 9690 bf3d
000003a0: f445 5e3d 04bf 693d f6c6 9fbd e2bf 443d
000003b0: 7d8d c6bd fa1d bb3d f098 eebb 1cc0 df3d
000003c0: 3881 c03d 005f c6bc c32e e13d bd67 d33d
000003d0: 082c 6fbd 0e09 93b9 923d d53d eaa2 efbd
000003e0: 1c82 77bd 9b22 b5bd d682 c1bd 435a 893c
000003f0: 575e f5bd 5afb 19bc 388d 533d 5fb8 283c

critic.2.bias f4 [64]
-0.0004330258 -0.025501655 0.058402047 -0.0651425 0.014493361 0.068284325 0.074728295 -0.028095135
0.0067262147 -0.061251678 -0.10050361 0.11978224 -0.033500254 -0.025218993 0.19576062 0.11513632
0.009777669 -0.047596827 -0.008935541 0.06291149 -0.07322 0.11963947 0.17507227 0.1432244
0.023031604 -0.09225914 -0.031749487 -0.075414896 0.055467177 0.075357094 -0.122584075 0.028180555
-0.0017471341 0.033782184 -0.006655622 0.15593739 -0.010080576 -0.09451897 -0.10824067 0.036819667
0.07128267 0.0031254522 0.028636377 -0.10846505 0.14288601 0.03805425 0.07665536 -0.11358601
0.16463213 -0.13041064 0.06852835 0.1576015 -0.013375301 -0.010791602 0.15731256 0.10655138
-0.07042848 0.029349018 0.07452103 -0.096099734 0.1410326 -0.0238787 -0.024818022 0.022581166
00000000: bd07 e3b9 d9e8 d0bc fc36 6f3d 6e69 85bd
00000010: 9075 6d3c a7d8 8b3d 260b 993d c527 e6bc
00000020: 9467 dc3b 0ae3 7abd d6d4 cdbd 6450 f53d
00000030: 9037 09bd 1098 cebc 7975 483e 97cc eb3d
00000040: 8432 203c e4f4 42bd 6066 12bc bdd7 803d
00000050: 5ef4 95bd 8a05 f53d 2546 333e 6ba9 123e
00000060: c6ac bc3c 5cf2 bcbd c00b 02bd 2073 9abd
00000070: 8d31 633d d254 9a3d 5c0d fbbd e8da e63c
00000080: 1800 e5ba 305f 0a3d 6717 dabb 0dae 1f3e
00000090: 0029 25bc 2993 c1bd 49ad ddbd 38d0 163d
000000a0: a6fc 913d 63d4 4c3b d696 ea3c ed22 debd
000000b0: b650 123e c6de 1b3d 7cfd 9c3d c89f e8bd
000000c0: 5395 283e 5e8a 05be 9758 8c3d 4a62 213e
000000d0: 1424 5bbc 42cf 30bc 8b16 213e 9c37 da3d
000000e0: cf3c 90bd 5a6d f03c 7b9e 983d f0cf c4bd
000000f0: da6a 103e 439d c3bc 2a4f cbbc 23fc b83c

critic.4.weight f4 [1, 64]
0.19143239 -0.07425077 0.026542276 -0.033098534 0.12491131 -0.07548813 0.106068045 0.17985734
0.044065807 0.14339527 0.052524194 0.20793231 0.037752777 -0.04341033 0.080953404 0.046762016
0.0917346 -0.062481537 0.093373 0.19022483 0.067899615 0.11317933 0.11387694 0.08447899
-0.07941837 0.11504313 0.07541837 0.12156662 0.15157762 0.15279451 -0.014403134 -0.057419136
0.16106805 -0.2084742 -0.07891347 0.093799874 -0.05120568 -0.0056983377 -0.017868634 0.16252652
-0.15564379 -0.052987505 -0.027708909 0.08355163 0.16395113 0.0001063939 0.12559724 0.10392785
0.14962824 0.05342551 -0.008759158 0.076283395 0.08839882 -0.008752184 0.13575993 0.17701787
-0.19309883 -0.08449059 -0.042907167 -0.03422174 -0.30025473 -0.008146549 0.1860945 -0.07320388
00000000: da06 443e ca10 98bd 306f d93c 5492 07bd
00000010: 80d1 ff3d 8599 9abd 343a d93d 862c 383e
00000020: 597e 343d 36d6 123e 9c23 573d 35ec 543e
00000030: a8a2 1a3d 08cf 31bd e6ca a53d 8789 3f3d
00000040: 5adf bb3d a4ec 7fbd 583a bf3d 4cca 423e
00000050: f40e 8b3d 91ca e73d 5038 e93d 5203 ad3d
00000060: 19a6 a2bd bc9b eb3d f274 9a3d ecf7 f83d
00000070: 2a37 1b3e 2a76 1c3e 1ffb 6bbc 5430 6bbd
00000080: 06ef 243e 437a 55be 639d a1bd 261a c03d
00000090: 0cbd 51bd 1fb9 babb 3e61 92bc 5a6d 263e
000000a0: 1661 1fbe 6d09 59bd cbfd e2bc 1e1d ab3d
000000b0: cee2 273e ca1f df38 909c 003e 20d8 d43d
000000c0: 2538 193e b5d4 5a3d 9282 0fbc 783a 9c3d
000000d0: 710a b53d 5265 0fbc a704 0b3e 2c44 353e
000000e0: b3bb 45be 6709 adbd 6dbf 2fbd 182c 0cbd
000000f0: fdba 99be 1a79 05bc 8e8f 3e3e eaeb 95bd
