model/MountainCarContinuous-v1/2level/HAC_MountainCarContinuous-v1_level_1_actor.pth (torch, 20865 bytes, 6 tensors)

actor.0.weight f4 [64, 4]
0	0x3ebdee79	0.37096003
1	0x40170e0e	2.3602328
2	0xbf639218	-0.88894796
3	0xbe963653	-0.2933832
4	0x3d342ca0	0.04398787
5	0x39245000	0.00015670061
6	0x3e7d59a0	0.2474122
7	0xbe88e8a6	-0.26739997
8	0x3e8fc946	0.28083247
9	0x3ef93dd8	0.48679996
10	0x3ef6e9cc	0.48225248
11	0x3e56c284	0.2097264
12	0x3d956a61	0.07295681
13	0x3d0df990	0.03466183
14	0x3e2bec28	0.16789305
15	0x3e31b8b1	0.1735561
16	0x3d9631c2	0.07333709
17	0xbe9eec3f	-0.31039616
18	0x3ebcbbeb	0.3686212
19	0xbe884e90	-0.26622438
20	0x3e18464e	0.14870569
21	0x3f07b0f9	0.53004414
22	0x3bb5e34b	0.005550777
23	0x3f25f830	0.6483183
24	0x3d8db188	0.06918627
25	0x3ea5eaca	0.32405692
26	0x3d2c0f60	0.04200685
27	0x3efca990	0.49348116
28	0xbdfcc58d	-0.12342367
29	0x3f121be4	0.5707381
30	0x3e9886a8	0.29790235
31	0x3f349f55	0.7055562
32	0xbf118b44	-0.5685313
33	0x3f354d55	0.70821124
34	0x3ecd35da	0.40080148
35	0x3f4cbea7	0.7997841
36	0x3def53b5	0.11685888
37	0x3dabf989	0.083972044
38	0x3e23000d	0.15917988
39	0xbe84b531	-0.25919488
40	0xbe71d35c	-0.23615783
41	0xbfdb702f	-1.7143611
42	0x3f285420	0.65753365
43	0x3ef6d5ca	0.48209983
44	0xbbcafbc8	-0.0061945654
45	0xbf8a469c	-1.0802798
46	0x3da127d9	0.078689285
47	0x3c4e1a2a	0.01257948
48	0xbe30efd9	-0.17278995
49	0x3f8520ca	1.0400631
50	0x3f2e7ea6	0.68162
51	0x3f99c456	1.2013042
52	0x3ea4a931	0.32160333
53	0x3da5284b	0.08064326
54	0x3e778526	0.24171886
55	0xbdd91a6f	-0.10600745
56	0x3ee73dcf	0.45164344
57	0xbf95b593	-1.1696037
58	0x3f1334c8	0.5750241
59	0x3ea51094	0.3223921
60	0x3d8400b8	0.064454496
61	0xbee55f46	-0.4479925
62	0xbe678388	-0.22608769
63	0x3efc950e	0.4933247
64	0x3e6e2d52	0.23259476
65	0xc0113140	-2.268631
66	0xbeb0d585	-0.34537902
67	0xbf04a489	-0.5181356
68	0xbe081e26	-0.1329275
69	0xbe0418f9	-0.12900151
70	0x3d84c413	0.06482711
71	0xbe11a584	-0.14223295
72	0x3b826e80	0.003980458
73	0xbe977d94	-0.29587996
74	0x3ea61bd8	0.32443118
75	0x3e85bc9c	0.2612046
76	0x3e79c825	0.24392755
77	0x3fd7055d	1.6798512
78	0x3db9ce5c	0.09072563
79	0xbf3aa4f7	-0.72907966
80	0xbe9a91a2	-0.30189234
81	0x3fbffe6f	1.4999522
82	0x3e99d140	0.30042458
83	0xbf91ae09	-1.1381236
84	0xbe2d5e12	-0.16930416
85	0xc0475ae9	-3.1149237
86	0x3ecaab89	0.39583996
87	0xbfad656b	-1.3546575
88	0xbdb91626	-0.090374276
89	0x3e84e7fc	0.2595824
90	0x3e5d9722	0.21639684
91	0x3e5813a8	0.21101248
92	0x3f06e9f7	0.5270075
93	0x3fa711e4	1.3052335
94	0xbe2af8b6	-0.16696438
95	0x3f3a8d00	0.728714
96	0x3e33de5c	0.17565292
97	0x3ec261ca	0.37965232
98	0x3ef202ae	0.4726767
99	0x3e66f9ac	0.2255618
100	0x3f2cfc76	0.67572725
101	0x408b364c	4.350378
102	0xbebc794d	-0.36811295
103	0xbf1cc04c	-0.6123092
104	0x3e1f6d19	0.15568961
105	0xbe3cd156	-0.1843923
106	0x3e123a30	0.1428001
107	0xbda743cb	-0.08167227
108	0xbec875fb	-0.39152512
109	0xbf9d130b	-1.2271436
110	0x3eb8438d	0.35989037
111	0x3f02af3a	0.51048625
112	0x3ea5d863	0.32391652
113	0xbe71108d	-0.2354147
114	0x3db80548	0.08985382
115	0x3e39790b	0.1811258
116	0xbbcf7fe1	-0.006332383
117	0x4080464d	4.0085816
118	0xbd2b180b	-0.041770976
119	0x3f3ae4a1	0.7300511
120	0xbe54e074	-0.20788747
121	0xc0050e0e	-2.0789828
122	0xbef4dde4	-0.4782554
123	0xbe8dd393	-0.2770048
124	0x3ebc2dd4	0.36753714
125	0x4009a466	2.150659
126	0x3e7380bd	0.23779579
127	0xbf2c0183	-0.67189807
128	0x3eb48bcf	0.35262915
129	0x40895be9	4.2924695
130	0xbe8e8e9c	-0.27843177
131	0xbd8315a4	-0.06400612
132	0x3e3b4fc8	0.18292153
133	0xbe8ec72c	-0.2788633
134	0x3ee11700	0.4396286
135	0xbe424234	-0.18970567
136	0xbe5115cb	-0.2041847
137	0xc0be77de	-5.952132
138	0xbb9c53d4	-0.0047707353
139	0xbe8177bb	-0.2528666
140	0x3ded31af	0.11581742
141	0x3f1557a1	0.58336836
142	0xbd3fb639	-0.04680464
143	0xbe8c6074	-0.27417338
144	0x3f0a2812	0.5396739
145	0x3fbfbd1b	1.4979585
146	0xbf00cbdc	-0.50311065
147	0x3de7d0ab	0.11319097
148	0xbdfcb623	-0.12339427
149	0x3d869adf	0.06572508
150	0x3e8f37c7	0.27972242
151	0xbdc63312	-0.0967771
152	0x3e2fb58c	0.17159098
153	0xbf260751	-0.64854914
154	0xbe7cc37e	-0.2468395
155	0xbed79ddb	-0.42112622
156	0xbcaa8434	-0.020814992
157	0xc0214892	-2.5200543
158	0xbe98e3dd	-0.29861346
159	0xbc2c98ec	-0.010534506
160	0x3e014ebe	0.12627694
161	0x3e9dcf30	0.30822134
162	0x3e7c8558	0.24660242
163	0x3de0db53	0.10979333
164	0x3e32fd6d	0.17479487
165	0x4081553d	4.041655
166	0x3d3e638b	0.04648165
167	0xbf0c6639	-0.5484348
168	0xbe16fb54	-0.14744312
169	0xbfdc24ff	-1.719879
170	0xbf31e1db	-0.69485253
171	0xbfc1a8f4	-1.5129685
172	0x3dfddaa0	0.12395215
173	0xbf2c1cbf	-0.67231363
174	0xbeea27a5	-0.4573337
175	0xbfae181c	-1.3601108
176	0xbd9f9d23	-0.07793643
177	0x3f92b50d	1.1461502
178	0x3f0be3a8	0.5464425
179	0x3f324a87	0.6964497
180	0x3eadff9a	0.3398407
181	0xbf67ce4c	-0.9054916
182	0x3edb1b24	0.42794144
183	0x3ea2fe5d	0.3183469
184	0x3d97ea3e	0.07417725
185	0xbeb469d3	-0.35236987
186	0x3f3e30bd	0.7429312
187	0xbf23cf05	-0.6398776
188	0x3ef4986f	0.47772548
189	0xc0dfa260	-6.988571
190	0x3e6eb74f	0.23312114
191	0x3de47988	0.11155993
192	0xbe035e4a	-0.12828937
193	0xc085a8f3	-4.1768737
194	0x3d6790bb	0.05653451
195	0xbed7c633	-0.42143402
196	0x3ef31baf	0.47482058
197	0x3f172536	0.59041154
198	0xbd852c98	-0.06502646
199	0x3e106d2a	0.14104143
200	0x3e0481a0	0.12940073
201	0xbeaaded4	-0.3337313
202	0x3ef0877a	0.4697836
203	0x3e3611e4	0.17780262
204	0xbed7cd7f	-0.4214897
205	0x40a1286b	5.036184
206	0x3e45cc3b	0.19316189
207	0x3f5fa95b	0.8736779
208	0x3e667397	0.22505032
209	0x3e9e3aa6	0.3090412
210	0xbf5a5020	-0.8527851
211	0xbf52ba67	-0.8231568
212	0x3e0d344c	0.13789481
213	0xbf4be824	-0.79651093
214	0x3eb0e087	0.345463
215	0xbf35cb2a	-0.7101313
216	0x3eb2e75a	0.34942132
217	0xbf311546	-0.69173086
218	0xbe883739	-0.26604632
219	0xbfc42cce	-1.5326173
220	0xbe3f8b4d	-0.18705483
221	0xc0785e97	-3.8807733
222	0x3f171687	0.5901875
223	0xbf4ce64d	-0.8003891
224	0x3e6549d0	0.22391438
225	0xbebd1870	-0.36932707
226	0x3e3d9718	0.18514669
227	0xbea0b4be	-0.31387895
228	0x3f03eb5d	0.5153101
229	0xc0232331	-2.549023
230	0xbdfe078b	-0.124037825
231	0xbe81c2ef	-0.25344035
232	0xbe2b14a8	-0.16707098
233	0xbe35c28d	-0.17749996
234	0xbd9081ca	-0.07056005
235	0x3a934c47	0.0011237942
236	0x3e314909	0.17313017
237	0xc006c778	-2.1059246
238	0x3ec538e5	0.3851997
239	0x3eff6702	0.49883276
240	0x3d083b24	0.033259526
241	0x3eb9c1d3	0.3628069
242	0x3e604bcd	0.21903916
243	0x3de950d3	0.11392369
244	0x3ef32236	0.47487038
245	0xbf6e4871	-0.93079287
246	0xbe8df897	-0.27728721
247	0x3f203d21	0.62593275
248	0xbea1d1e8	-0.31605458
249	0x3eff3bac	0.49850214
250	0x3de4ab18	0.11165446
251	0xbe7ad6a8	-0.24495947
252	0xbe009a63	-0.12558894
253	0x3df51962	0.11967732
254	0x3dfa3e8c	0.12218961
255	0x3f94c138	1.1621466

actor.0.bias f4 [64]
0	0x3e024ad4	0.12723857
1	0xbe8dccbc	-0.27695262
2	0xbee68f54	-0.45031226
3	0xbe26a9b8	-0.1627568
4	0xbe809ede	-0.25121206
5	0x3df7a428	0.12091857
6	0xbeb445aa	-0.352094
7	0xbde8d1fd	-0.11368177
8	0xbe8365be	-0.2566356
9	0xbe005398	-0.12531888
10	0xbe1834a7	-0.14863835
11	0xbcd118a4	-0.025524445
12	0x3e645e77	0.2230166
13	0xbe91483e	-0.2837543
14	0x3de7384f	0.11290037
15	0xbea58b36	-0.32332772
16	0x3ed56f1b	0.4168633
17	0xbe4fd792	-0.20297077
18	0xbe4ed490	-0.20198274
19	0x3e861aa4	0.261922
20	0xbe32b808	-0.17453015
21	0xbc10a724	-0.008828912
22	0xbea30a10	-0.31843615
23	0x3e6efd2e	0.23338768
24	0xbedd2838	-0.43194747
25	0x3e167840	0.14694309
26	0xbe0e0ec9	-0.13872828
27	0xbedc73bc	-0.43057048
28	0xbe8206a2	-0.25395685
29	0x3deb09fe	0.11476515
30	0xbe30b2f2	-0.17255762
31	0x3dec0eea	0.11526282
32	0x3d8668fa	0.065629914
33	0xbee04b92	-0.43807656
34	0xbe8df0c5	-0.27722755
35	0x3e2e27e0	0.17007399
36	0x3ea324cc	0.3186401
37	0xbed23d3c	-0.41062343
38	0xbeb8fc7b	-0.36130127
39	0x3e7ee7b6	0.24893078
40	0xbe844fd3	-0.2584215
41	0xbd54c3a8	-0.051944405
42	0x3d41af18	0.047286123
43	0xbf171c6f	-0.5902776
44	0x3e55e3ca	0.20887676
45	0xbb9a729b	-0.004713369
46	0xbe8791aa	-0.2647832
47	0x3e3f1ca3	0.18663268
48	0xbe739859	-0.23788585
49	0xbe8032a0	-0.25038624
50	0xbefe6b28	-0.4969113
51	0xbee47f0f	-0.44628188
52	0xbeaf0f0b	-0.34191164
53	0xbc971aed	-0.018445456
54	0xbee0f089	-0.43933514
55	0xbea3d3bf	-0.31997487
56	0xbec162b4	-0.37770617
57	0x3e9166db	0.28398785
58	0xbeb805b6	-0.35941857
59	0xbb90a73e	-0.004414468
60	0xbe2ef85c	-0.17086929
61	0x3ebf8749	0.37407902
62	0xbedcb5a0	-0.4310732
63	0xbd947d69	-0.072504826

actor.2.weight f4 [64, 64]
0	0xbdd6eba8	-0.104941666
1	0xbcc68c80	-0.024236917
2	0xbd222558	-0.039586395
3	0x3d80c36f	0.06287276
4	0x3dc4a88e	0.09602462
5	0xbdca7d9f	-0.098872416
6	0xbd24e86c	-0.040260717
7	0x3c55d0ba	0.013050253
8	0xbd912d0b	-0.070886694
9	0xbdfbe3e2	-0.122993246
10	0x3d7d4343	0.061831724
11	0x3bcd2c13	0.0062613576
12	0x3aa4075b	0.0012514399
13	0x3cdcbe2e	0.026946153
14	0x3cb71dc0	0.022353053
15	0x3ca19e48	0.019728795
16	0xbdacc8ee	-0.08436762
17	0x3dd40cd2	0.10354008
18	0x3d66258c	0.05618815
19	0xbdf4216f	-0.119204395
20	0xbda58cf0	-0.08083522
21	0xbdd613b9	-0.104529805
22	0xbdf3c15d	-0.119021155
23	0x3db78253	0.08960404
24	0x3d7ca4a0	0.061680436
25	0xbe0bd390	-0.13654923
26	0x3ddaac1f	0.10677361
27	0xbd3d4e2b	-0.046217125
28	0xbde3fe75	-0.11132518
29	0xbe1d4ced	-0.15361376
30	0xbd46afc0	-0.048507452
31	0x3d9b87b0	0.0759424
32	0xbd947311	-0.0724851
33	0xbce15de0	-0.027510583
34	0xbd4c3cad	-0.049862552
35	0x3b2757e0	0.0025534555
36	0xbdf4315f	-0.11923479
37	0xbd1c3e68	-0.038145453
38	0xbc821cc0	-0.01588285
39	0xbe094b2a	-0.13407579
40	0x3c5c67cf	0.013452484
41	0xbddeac8e	-0.10872756
42	0x3da3452f	0.0797218
43	0x3a61cf00	0.0008613914
44	0xbc874824	-0.016513892
45	0xbc770bc2	-0.015078487
46	0xbd39eb5c	-0.04539047
47	0xbd91edd5	-0.07125441
48	0xbe2ed673	-0.17073993
49	0xbd8e549c	-0.06949732
50	0xbdf791ae	-0.12088333
51	0x3def5334	0.116857916
52	0xbddb68b0	-0.10713327
53	0xbca93728	-0.020656183
54	0x3cd114d0	0.02552262
55	0xbe1d510b	-0.15362947
56	0xbd991468	-0.07474595
57	0x3d5ac972	0.05341477
58	0x3d9a661e	0.075390086
59	0xbcfbfe53	-0.03076092
60	0x3db2e793	0.087355755
61	0x3babd17c	0.0052434783
62	0xbde7dd36	-0.113214895
63	0xbe2204cc	-0.15822142
64	0xbec4346b	-0.38321242
65	0xbb309740	-0.002694562
66	0xbdd3aef4	-0.10336104
67	0xbd85e44a	-0.06537683
68	0xbcf2a2d2	-0.029618654
69	0x3c2dd545	0.010609929
70	0xbcb55240	-0.022133946
71	0x3dd250fa	0.10269351
72	0x3db8fd2b	0.09032663
73	0x3dbb5997	0.09147947
74	0xbdd464ee	-0.10370813
75	0x3db16395	0.08661572
76	0x3e31b495	0.17354043
77	0x3e30978c	0.1724531
78	0xbe8203e1	-0.25393584
79	0xbd8cd7b2	-0.06877078
80	0x3d8335c2	0.06406738
81	0x3c92c1b0	0.017914623
82	0xbd90fe90	-0.07079804
83	0xbe00c7d6	-0.12576231
84	0xbe570fab	-0.2100207
85	0xbd0afb30	-0.033930957
86	0x3b6d5107	0.0036211626
87	0x3e5d94b5	0.21638758
88	0xbd27ad34	-0.040936664
89	0x3de311d2	0.11087383
90	0xbdc08197	-0.09399717
91	0x3cac7df8	0.02105616
92	0x3e45926e	0.1929414
93	0x3eac96d2	0.33708817
94	0xbe9d56e0	-0.30730343
95	0xbdc3c891	-0.095597394
96	0x3f39061a	0.72274935
97	0x3d863054	0.065521866
98	0xbfaa9b01	-1.3328553
99	0x3e60bfd1	0.21948172
100	0x3c806556	0.01567332
101	0x3d0993b0	0.03358811
102	0x3d2019fd	0.039087284
103	0xbe97ce57	-0.29649612
104	0x3ddcc5ce	0.10779916
105	0x3ec9222a	0.39283878
106	0x3edb0568	0.42777562
107	0xbd5a0261	-0.053224925
108	0x3dbfa27f	0.093571655
109	0x3dc967fe	0.09834288
110	0x3de385cd	0.11109505
111	0xbe0a42a9	-0.13501991
112	0xc03de550	-2.9671211
113	0x3b6fbf6c	0.0036582602
114	0xbd8c118a	-0.06839283
115	0xbdeb4d42	-0.11489345
116	0x3e746392	0.23866108
117	0x3ce86e13	0.0283728
118	0xbdccca73	-0.099995516
119	0x3e6a5d6d	0.22887202
120	0xbda959aa	-0.08269055
121	0x3c327d14	0.010894079
122	0x3dbdbe1c	0.09264776
123	0xbdc3f4f9	-0.09568209
124	0x3d8d9008	0.069122374
125	0x3d88ee83	0.066861175
126	0x3d951a72	0.07280435
127	0x3d2a0dca	0.041517057
128	0xbde8d57c	-0.11368844
129	0x3b0fa000	0.0021915436
130	0x3db0f106	0.086397216
131	0xbbc1d2de	-0.00591503
132	0x3cda88a8	0.02667649
133	0x3d47b8b3	0.048760127
134	0xbdc408f6	-0.09572022
135	0xbd510507	-0.051030185
136	0x3d7ddc0b	0.061977427
137	0x3d58dc17	0.05294427
138	0xbd9ced15	-0.07662407
139	0xbd41542c	-0.047199413
140	0xbcc74bc0	-0.024328113
141	0xbc7e9b7d	-0.015540001
142	0x3d7e679c	0.06211053
143	0xbdebfc32	-0.11522712
144	0xbcb61746	-0.022227895
145	0x3d2ecb7a	0.04267452
146	0x3da3fb40	0.080069065
147	0xbd5688f9	-0.05237672
148	0x3cc6fa0d	0.024289155
149	0xbe075d3b	-0.13219158
150	0x3d478507	0.04871085
151	0x3d25d855	0.040489513
152	0xbd32e33c	-0.04367374
153	0xbceffa10	-0.029294044
154	0x3e10243d	0.14076324
155	0xbe7459bc	-0.23862356
156	0x3e16d18c	0.14728373
157	0xbdf6f7c6	-0.12058978
158	0xbdcdaa48	-0.10042244
159	0xbc93af38	-0.018027887
160	0xbcc9c30a	-0.024629135
161	0x3dc0bc06	0.094108626
162	0xbd4ef390	-0.050525248
163	0x3da40171	0.080080874
164	0xbdd5ee67	-0.10445862
165	0x3cc19c11	0.023633989
166	0xbde9e2af	-0.114201896
167	0x3ddff236	0.1093487
168	0x3d9e2e53	0.077236794
169	0x3d41f543	0.04735304
170	0xbe42b9f9	-0.19016255
171	0x3d811a66	0.06303863
172	0x3de1172d	0.109907486
173	0xbd2f6242	-0.042818315
174	0x3e119b70	0.14219451
175	0x3da964a1	0.082711466
176	0x3c745066	0.014911747
177	0x3d857848	0.065170825
178	0x3db7e4bc	0.089791745
179	0x3d848712	0.06471075
180	0x3d5e99ac	0.05434577
181	0x3cfb1f96	0.03065471
182	0x3d752dcc	0.05985813
183	0x3de04c94	0.10952106
184	0x3d98fdbc	0.07470271
185	0x3d98efd1	0.07467616
186	0x3d97391c	0.073839396
187	0x3d5346e2	0.05158127
188	0x3cee382f	0.029079525
189	0xbd99614c	-0.07489261
190	0x3d22e934	0.03977318
191	0xbe06fefe	-0.1318321
192	0xbf457711	-0.77134806
193	0x3d4e7014	0.050399855
194	0x3dd6603c	0.10467574
195	0x3def16d4	0.11674276
196	0x3dd47f5f	0.103758566
197	0x3e4e3fa6	0.20141467
198	0xbc8b4470	-0.017000407
199	0x3d12b84e	0.035820298
200	0xbd8974f8	-0.06711763
201	0x3db2f691	0.08738435
202	0x3cc22953	0.023701346
203	0x3d57f2eb	0.0527219
204	0xbc08d1ba	-0.008350784
205	0x3e62b634	0.22139817
206	0x3dc2089d	0.09474299
207	0x3dce6f82	0.10079862
208	0x3df0417c	0.1173124
209	0x3dba11aa	0.090854004
210	0xbd38e8b0	-0.045143783
211	0x3e3090ef	0.17242788
212	0x3eb24e82	0.34825522
213	0x3d4694f0	0.04848188
214	0x3e472633	0.19448166
215	0x3ef6dfe5	0.48217693
216	0x3de9a360	0.114081144
217	0x3ece8e12	0.40342766
218	0x3d9740be	0.073853955
219	0x3f30058f	0.6875848
220	0x3de8daaa	0.11369832
221	0x3f2dedeb	0.6794116
222	0x3e6216c1	0.22078992
223	0x3e83836f	0.25686213
224	0x3efc4000	0.49267578
225	0xbdaaf48e	-0.08347426
226	0xbe26e916	-0.16299853
227	0x3ea26037	0.3171403
228	0x3e966e26	0.29380912
229	0x3e499677	0.19686304
230	0xbdd01923	-0.101610444
231	0xbdd32615	-0.10309998
232	0x3dce3068	0.100678265
233	0x3f7c8082	0.9863359
234	0x3ec16554	0.3777262
235	0xbe4327d2	-0.19058159
236	0x3ceee925	0.029163906
237	0x3e9801f2	0.29688984
238	0x3f1820c6	0.5942501
239	0xbdb8db28	-0.09026176
240	0xbf2de795	-0.6793149
241	0xbd859ebd	-0.065244175
242	0x38936800	7.028878e-05
243	0x3f0a0418	0.53912497
244	0x3ee54d75	0.44785658
245	0x3e3e29bc	0.18570608
246	0xbf1b9ef8	-0.6078944
247	0x3e7826f3	0.24233608
248	0x3d9fbbac	0.077994674
249	0x3e698e93	0.22808294
250	0xbdcf4182	-0.101199165
251	0x3c4c43f2	0.012467371
252	0x3db58485	0.08863167
253	0x3e824f8e	0.2545132
254	0x3d1d6864	0.038429633
255	0x3e0bbef4	0.13647062

actor.2.bias f4 [64]
0	0xbc45cbba	-0.012072498
1	0x3e12d1d5	0.14337857
2	0xbdefef20	-0.11715531
3	0x3e043f3d	0.12914748
4	0xbe661867	-0.22470246
5	0xbcefc09d	-0.02926665
6	0x3e713558	0.23555505
7	0xbd404b83	-0.046947014
8	0x3e1309ba	0.14359179
9	0x3e358d36	0.17729649
10	0x3df9266f	0.12165534
11	0x3e3a6610	0.18202996
12	0xbd9226f6	-0.071363375
13	0xbdaa946f	-0.08329093
14	0xbc84353d	-0.016138667
15	0xbdea1438	-0.11429638
16	0xbcdba2f4	-0.0268111
17	0xbdb1d293	-0.08682742
18	0xbe2f41a3	-0.17114882
19	0x3d909712	0.070600644
20	0xbe004733	-0.1252716
21	0xbd76803d	-0.06018089
22	0xbc13932c	-0.0090072565
23	0x3d0d44c2	0.0344894
24	0x3d275a78	0.040857762
25	0x3d9eaeed	0.07748208
26	0xbdfa398e	-0.12218009
27	0xbbf83451	-0.007574596
28	0xbd7409f1	-0.059579793
29	0x3e38007e	0.17968938
30	0x3c30339f	0.010754495
31	0x3eb59f7c	0.3547324
32	0x3e36ab2d	0.17838736
33	0x3c162beb	0.009165744
34	0xbdfdaeb6	-0.12386839
35	0xbe303b41	-0.17210104
36	0xbc0faf11	-0.008769766
37	0x3e44bef4	0.19213468
38	0x3d555e14	0.052091673
39	0xbd865f74	-0.06561175
40	0x3d97e499	0.074166484
41	0xbddbe7c2	-0.10737564
42	0x3e66e106	0.22546777
43	0xbd601bb0	-0.054713905
44	0x3df0cc99	0.11757774
45	0xbd5e21db	-0.054231506
46	0x3e0fdfda	0.14050236
47	0x3db7d489	0.08976085
48	0xbd4fad3c	-0.05070232
49	0x3e10f1f4	0.14154798
50	0xbd7d82b8	-0.06189224
51	0x3d81d7b8	0.06339973
52	0xbd0bc459	-0.0341228
53	0x3cf5b201	0.029992105
54	0xbe0ed5de	-0.13948771
55	0xbd1e00a3	-0.038574826
56	0xba729a81	-0.000925459
57	0x3ce32b65	0.027730653
58	0x3c425455	0.011860927
59	0x3d4cd915	0.050011713
60	0x3ea7d231	0.3277755
61	0xbd30eb00	-0.043192863
62	0x3e339def	0.17540716
63	0xbd91f0c8	-0.071260035

actor.4.weight f4 [2, 64]
0	0xbb9c052b	-0.0047613583
1	0x3d72ed3e	0.059308283
2	0x3d8a9849	0.06767327
3	0x3e399d5f	0.18126439
4	0xbfd2bf60	-1.6464653
5	0x3d58718c	0.05284266
6	0x3f71f678	0.94516706
7	0xc01fb872	-2.4956326
8	0x3e12b0a2	0.14325193
9	0x3f01bf38	0.506824
10	0x3e08bcbc	0.13353246
11	0xbeda737a	-0.42666227
12	0xc090974a	-4.518468
13	0x3d39257d	0.045201767
14	0xbcf2ebf0	-0.02965352
15	0x3db89c74	0.09014216
16	0x3bf0a6b1	0.00734409
17	0xbcb7dcd3	-0.022444164
18	0x3da26234	0.07928887
19	0xbf169652	-0.5882312
20	0x3da3851a	0.079843715
21	0xbd4b4c67	-0.04963341
22	0x3a8c65be	0.0010711474
23	0x3e6ed9ef	0.23325323
24	0xbe6f6b68	-0.23380816
25	0xbe89b7fe	-0.26898187
26	0x3befdb27	0.007319826
27	0x3d648ae8	0.055796534
28	0xbc16c74e	-0.009202791
29	0xbf47a99d	-0.77993184
30	0xbc8bc16d	-0.017060006
31	0x3e1bee21	0.15227558
32	0xbe899bbf	-0.26876637
33	0x3d55ce95	0.052198965
34	0xbe0295d6	-0.1275247
35	0xbf485f0c	-0.7827003
36	0x3af46215	0.0018644953
37	0x3f113001	0.56713873
38	0xbf7e5741	-0.9935189
39	0xbfa06e67	-1.2533692
40	0x3cbab5af	0.022791712
41	0xbd0a2a15	-0.03373154
42	0x3dba3e01	0.090938576
43	0xbd426ce7	-0.04746714
44	0x3da362a9	0.07977802
45	0x3ed46bc3	0.41488466
46	0x3d7393c9	0.05946711
47	0x3f24be65	0.6435302
48	0xc020bd30	-2.511547
49	0xc0282635	-2.627332
50	0x3bb5f406	0.0055527715
51	0xbf86fe1d	-1.0546299
52	0x3da017d5	0.078170456
53	0xbe73124a	-0.23737445
54	0xbe10f38f	-0.1415541
55	0xbd967657	-0.0734679
56	0xbdab53a3	-0.08365562
57	0xbd9445a6	-0.07239847
58	0x3c04097a	0.0080589
59	0x3d45ff38	0.0483391
60	0x3e5a2585	0.21303375
61	0x3d2cca5f	0.042185184
62	0xbe6badd5	-0.2301553
63	0xbd18217c	-0.03714131
64	0x3d5e6de1	0.054304007
65	0x3e055f10	0.13024545
66	0x3e636bb6	0.22209057
67	0x3e901aff	0.28145596
68	0x3e330260	0.17481375
69	0xbc580b93	-0.013186353
70	0x3f94dcb2	1.1629851
71	0x40f85153	7.7599273
72	0x3e38e238	0.18055046
73	0xbb5a4bc2	-0.0033309315
74	0x3e475e46	0.19469556
75	0x3f042255	0.51614887
76	0x4035e037	2.84181
77	0x3cc2b317	0.023767037
78	0x3acf5603	0.001581848
79	0xbdf35ffa	-0.118835405
80	0x3d4829fa	0.048868157
81	0xbc32cda6	-0.010913288
82	0x3d3fbc8e	0.04681068
83	0x3e156806	0.14590463
84	0xbb5d60e6	-0.003377968
85	0xbc1a30ae	-0.00941102
86	0x3dae7608	0.085186064
87	0x3d29f50a	0.041493453
88	0x3da0ba4a	0.07848032
89	0x3f7215ed	0.94564706
90	0xbdb7ed3d	-0.089807965
91	0xbbbdc34f	-0.005791105
92	0xbdb9c174	-0.090701014
93	0xbf03b270	-0.5144415
94	0xc0442954	-3.0650225
95	0x3ed0713f	0.407114
96	0xbf3606c7	-0.7110409
97	0x3db6d75d	0.08927796
98	0x3c2b277f	0.010446428
99	0xbe4d1b42	-0.2002993
100	0xbdaa77ba	-0.08323617
101	0xbe940871	-0.2891269
102	0xbfc6b37b	-1.5523523
103	0x3e905786	0.28191775
104	0x3d93d3fa	0.07218166
105	0x3e5e8ead	0.21734114
106	0x3ec39596	0.38200063
107	0x3d8bcc40	0.06826067
108	0x40ca8bfb	6.3295875
109	0x3e24fa9b	0.16111223
110	0x3fc020b4	1.500998
111	0x3f4c96cf	0.79917616
112	0x3f664774	0.8995278
113	0x40a7eec4	5.247896
114	0x3d5e8101	0.054322246
115	0xc0051dba	-2.0799394
116	0x3e858813	0.2608038
117	0x3e58ac20	0.2115941
118	0xbe44c871	-0.19217087
119	0x3de54329	0.111944504
120	0xbdc4f7dc	-0.09617588
121	0x3b572591	0.0032828788
122	0xbcd73d96	-0.026274484
123	0x3dc788b9	0.09742875
124	0xbf950d01	-1.1644593
125	0x3ddfcda8	0.10927898
126	0xbf0dbfb9	-0.5537067
127	0x3dd2acd7	0.10286873

actor.4.bias f4 [2]
0	0x3e2a0d01	0.16606523
1	0xbe383e61	-0.17992546
