model/MountainCarContinuous-v1/2level/HAC_MountainCarContinuous-v1_solved_level_0_actor.pth (torch, 20609 bytes, 5 tensors)

actor.0.weight f4 [64, 4]
00000000: 3554 31bf d87d 9ac0 f1b2 5b3f 6a39 f13e
00000010: 53ee 213e 69a6 8840 fa6a 59be 76a3 afc0
00000020: a063 1bbd 20e4 023e b6f4 89be 0608 cfbe
00000030: a4d3 8b3f 00e1 eebf a8ff 303e 330d 53c0
00000040: a884 20be d4ba 0c40 ab81 383f 6956 82c0
00000050: 00db 5e3d 34fa 173e fe2e 81be 508c b1bd
00000060: 3039 7f3f 0fc7 c4be 51ad 95be 9d92 25c0
00000070: 039c 98be 31b3 ebbd e97e 053e 3a64 373e
00000080: 14fa eabe f503 2d40 ce99 253f 5e15 8bc0
00000090: b9ee 4b3f 6b70 01c0 5b0c 82be 6ce4 7ec0
000000a0: 4953 283f f8fe ba40 2d62 72be 2511 6140
000000b0: 8da3 6ebe 6047 74c0 f64b 663f a2ca 4e3f
000000c0: 5c8c 363f eca7 a53f 3e09 e7be 815e 99c0
000000d0: cc26 603e 27ab d040 150c 27be bce8 4fc0
000000e0: ad84 b83e b769 873d 2746 aa3e 81bb d839
000000f0: 4c66 603f f1e2 4140 3105 22be 5e85 853f
00000100: 4587 9a3f 4c65 2840 1196 a7bd 1aed 523f
00000110: c8cd cf3e 00a4 4fba 248c 013e 5473 37be
00000120: b1fc 953e 7a28 f6be 2c14 c7be e482 233e
00000130: 3e51 bb3e 6b26 dcbf 170f 9bbe b010 67c0
00000140: 5287 0a3e e1b6 8f40 6106 28be 8a55 b0c0
00000150: da4e aabe 0f0f 98c0 da37 0e3f f60d b9bf
00000160: dfdb e93e de8c 6e40 383c cdbd 8e88 9fc0
00000170: d4d2 193f 7c6c 9540 b4b4 763e 5ccf 88c0
00000180: 0028 dbbd 062e d33e 9ebd dc3e d462 7a3e
00000190: 41bd 4b3e f6a5 b0be 7973 cc3e 5f37 ee3e
000001a0: e8a8 fb3d beea 8bbe 887c 5abe 9470 4cbe
000001b0: 869c 6d3f 69bb 32c0 f153 63bf 70fd 21c0
000001c0: 9c03 c93d da2f a7be 2265 393c c7fa 633e
000001d0: 6f37 c5bd e2fc 8140 0253 e73e e0c5 71c0
000001e0: 0044 dabb 8ad8 bbbe 00d1 793e e03e 4c3d
000001f0: 88dd 343e f93d a93d ddf6 3e3d 58a8 b43e
00000200: 103e 5bbd 09ea 55be fdf5 0f3d 1621 ab3e
00000210: b8bc ac3e 9940 8440 4518 94be b56a 2b3f
00000220: 6c3c 6e3e 6284 70bc 2004 7cbd 3b9f 4ec0
00000230: d55f 793e 4892 61c0 eb39 06bf c2e9 c8c0
00000240: 893e 2abe b249 64bf 832d 41bd eda5 d6bf
00000250: 7f69 ab3d c554 5ec0 7ddb 453f 4033 8dbf
00000260: a0ab 7d3f 326c 73c0 fb5f 3dbe 0691 ca3f
00000270: 02d8 f53c e861 00c0 fca2 613f e8b7 6a3f
00000280: 2401 68bf 4b31 0640 76fb 593f 5b06 90be
00000290: 294a 03bf 8aeb 5840 7538 473f 3fb8 e3bf
000002a0: 040b b03a bec5 4440 a8ae ae3e 23c0 e13f
000002b0: 4c10 c73e 7696 17c0 edf9 5dbf 43ae 8bc0
000002c0: 69cd 363f c0e6 0f40 38f8 223e e464 b63f
000002d0: ffe5 0bbd a978 7d40 81a1 c53d 9c2f b2c0
000002e0: 9f1f b9be 6045 103e e483 da3e a249 6cbe
000002f0: 8d29 82bc 7d1b 5fc0 7472 393f 80e5 54be
00000300: 1321 803f 816c 7340 5edb dbbd ecae 9c3f
00000310: aef5 6c3e 30eb e9bf 63dc 393f 58e7 c5bf
00000320: 41a4 2e3e d646 5340 a089 863d b0d7 a9c0
00000330: e0ee 873d 2c78 db3f 9a46 273f bfe1 b7bf
00000340: 52c3 4dbe be81 b4c0 d391 c43e df3e 8fbf
00000350: 6f2b 4f3f 4193 673e f0b0 28bf 3966 95c0
00000360: a21a 963e 22fd a03e 9cfa 493e 7417 923e
00000370: c0fb 5fbd 721f 8abe c014 4dbe a052 ca3d
00000380: 2354 8fbe 781b 0240 cf5d 7a3f b282 7bbf
00000390: 51d0 263f a924 8240 0689 f0be 1cd6 9f3f
000003a0: 25e3 31bf 8092 2540 6c38 3a3f 4e0c 7fbf
000003b0: 5c45 fd3e e63d 89be 2c98 debd 2fcc fabf
000003c0: 3fba cebe 2bb3 40c0 aa69 1a3f 57c9 10bf
000003d0: 6658 1dbf ad08 a2c0 fe20 593f 4540 f2be
000003e0: 14c9 a23e d6f4 acbe 3cac 603e 30fc 99be
000003f0: 4021 003c 3cdb f53e 40c9 853e a2aa b03e
-0.69269115 -4.827862 0.8581992 0.47114116 0.1581357 4.2703137 -0.21232215 -5.4887037
-0.037936807 0.12782335 -0.26944512 -0.4043581 1.0923963 -1.8662415 0.17285025 -3.2976806
-0.15675604 2.198903 0.7207286 -4.073048 0.054408073 0.14841539 -0.25231165 -0.086693406
0.99696636 -0.3843312 -0.29233792 -2.5870736 -0.29806527 -0.115087874 0.13036694 0.17909327
-0.4589392 2.7033665 0.6468781 -4.3463583 0.79661137 -2.0224864 -0.2540005 -3.9826918
0.65752083 5.843624 -0.23670264 3.5166714 -0.23304577 -3.8168564 0.8995966 0.80777943
0.7130792 1.2941871 -0.4512424 -4.792786 0.218898 6.5208926 -0.16313203 -3.24858
0.36038724 0.066119604 0.33256647 0.00041338432 0.8765609 3.0294764 -0.15822293 1.0431325
1.2072531 2.6311827 -0.0818292 0.8239304 0.40586686 -0.0007920861 0.12651116 -0.17915088
0.2929435 -0.48077756 -0.38882577 0.159679 0.3658542 -1.7199224 -0.3028495 -3.6103935
0.13528183 4.491074 -0.16408683 -5.510442 -0.33263284 -4.751838 0.5555397 -1.4457386
0.4567556 3.7273479 -0.100212514 -4.9854193 0.60087323 4.6694927 0.2409237 -4.2753124
-0.10700989 0.4124605 0.43113416 0.24451762 0.19896413 -0.34501618 0.3993185 0.4652662
0.12288076 -0.27327532 -0.21336567 -0.1996482 0.9281696 -2.7926886 -0.8879996 -2.5310936
0.098151416 -0.32653695 0.011315616 0.22263633 -0.09629714 4.0621195 0.45180517 -3.7777023
-0.0066609383 -0.36688644 0.24396133 0.04986465 0.17662632 0.082637735 0.046622146 0.35284686
-0.053525984 -0.20890059 0.035146702 0.3342368 0.3373773 4.1328855 -0.28924766 0.66959697
0.23265237 -0.01468 -0.06152737 -3.2284687 0.24352963 -3.5245533 -0.52432126 -6.278535
-0.16625418 -0.8917495 -0.047162544 -1.6769387 0.08369731 -3.473924 0.7728804 -1.1031265
0.99090004 -3.8034787 -0.18493645 1.5825508 0.030010227 -2.0059757 0.8813932 0.9168687
-0.9062674 2.0967586 0.85149324 -0.2812985 -0.51285034 3.3893762 0.7782052 -1.7790602
0.0013431017 3.0745692 0.34117627 1.763676 0.3887962 -2.3685584 -0.8670948 -4.365022
0.7140718 2.2484589 0.15915 1.4249539 -0.03415489 3.9604895 0.09649945 -5.5683117
-0.36156937 0.14088964 0.4267875 -0.23074964 -0.015888954 -3.4860528 0.72440267 -0.20790672
1.0010093 3.8034976 -0.107352 1.2240882 0.23140594 -1.8274899 0.7260191 -1.5461226
0.17054845 3.3011985 0.06569219 -5.307579 0.06637359 1.7146049 0.65342104 -1.4365767
-0.2009404 -5.6408377 0.38392505 -1.1191062 0.8092565 0.22614767 -0.65894985 -4.6687284
0.29317194 0.31443125 0.19724506 0.28533518 -0.054683447 -0.26977116 -0.20027447 0.09879041
-0.2799388 2.0329266 0.9779939 -0.982463 0.65161616 4.066975 -0.4697954 1.2487216
-0.6948722 2.5870667 0.7274234 -0.9962815 0.4946698 -0.26805037 -0.10868868 -1.9593562
-0.4037647 -3.0109355 0.6031748 -0.5655722 -0.6146301 -5.063559 0.8481597 -0.4731466
0.31794035 -0.33780545 0.21940702 -0.30075216 0.007820427 0.48018825 0.26130104 0.34505183

actor.0.bias f4 [64]
00000000: 6ba6 a0bd 4661 023d 0ef0 e2be da72 053e
00000010: 3762 2e3e 405c e7be 6930 97be 1510 94be
00000020: 33dc 3bbd 600c babe 4830 903d e063 043f
00000030: dce2 6d3e 0232 443d 81b6 b8be 60d5 b5bd
00000040: 524a a1be 163a b4be 433b 14bf 7cf0 d2be
00000050: 53d9 093d 68bf a63d ea92 5d3e f308 43bd
00000060: 524d f7be 2041 a2be 6c72 edbe 6556 8d3d
00000070: be96 64bd f558 a4bd 601a c0be 8e69 3fbe
00000080: 41ce dbbd f7e1 84bd 5010 c9be 0071 00be
00000090: 1db7 f8be f33b e23e caa2 ec3e 85cb 213f
000000a0: b0fb 13bc e835 65bd 7193 f4bc 0a3d b0be
000000b0: a5ab abbe f926 b83d 6d8d 00bf 393b 153d
000000c0: 1059 cfbd 0689 0f3f 879c 0c3e 364f 92be
000000d0: 8771 d9bb 34b0 4a3e cc58 d4be 7a41 d4be
000000e0: 7a38 92be 022d 68bd ad60 953c e0ef f2be
000000f0: 4bd0 85bd 50af 943d 9cfc d0be 266c e0be
-0.07844242 0.03183105 -0.44323772 0.13032094 0.17029653 -0.4518757 -0.29529122 -0.2891852
-0.045864295 -0.36337566 0.07040459 0.517149 0.23231071 0.047899254 -0.3607674 -0.08878589
-0.31502014 -0.35200566 -0.57902926 -0.411991 0.033654522 0.081419766 0.21638075 -0.047615957
-0.48301178 -0.3169031 -0.4637636 0.06901244 -0.05580782 -0.0802478 -0.37520123 -0.1869261
-0.10732699 -0.06488412 -0.39270258 -0.12543106 -0.48577204 0.44186363 0.46217948 0.6320117
-0.009032175 -0.055959612 -0.029855462 -0.3442157 -0.33529392 0.089918084 -0.502158 0.036433432
-0.10124409 0.56068456 0.13731585 -0.28576058 -0.006635848 0.19793779 -0.41473997 -0.41456205
-0.28558713 -0.056683548 0.018234575 -0.47448635 -0.06533869 0.07260001 -0.40817726 -0.4383251

actor.2.weight f4 [64, 64]
00000000: 9ce6 de3f 8a69 b9bf b23b 8fbd ca3b 40bf
00000010: ac37 08bf 2c59 443d 7b99 bf3f ca12 17be
00000020: fb45 9e3f 89bb 92be 5dca 8c3f 776c 163f
00000030: bf92 8c3e 2118 07bf a430 41bb cfb3 8a3e
00000040: 0c0b 853f ba1a f23d 75a5 fabd 8eaf a1be
00000050: 0a03 c7bf f48a 8f3f 4bcc 79bf 42ac 0fbf
00000060: b247 ee3d e390 d6bc e055 3e3c 355b fcbd
00000070: 5907 a63c 8996 653f 4620 ab3d 88de de3c
00000080: 5c6e 40bd 8b03 363e f1f8 ac3d 7673 2f3e
00000090: d557 cc3c 0a65 913e 78e7 a6be d562 a03e
000000a0: d8a6 753f 7b4b a53f 0c84 303f 50b3 e0bd
000000b0: 84c0 963f d1d2 a1bf 9d02 303c b12f 5d3e
000000c0: 1f21 203f d452 5b3e 402a 59bf 39ef 803f
000000d0: 0348 1540 3cdb fa3c 8084 07bd e49f 853d
000000e0: 1974 5c3f e287 703e 539d c43f 083b 183f
000000f0: 0727 f33d a69c 0240 4ee8 e83d 94d2 dabd
00000100: ccb2 a4bf dcb4 8e3d 86a7 e63d cb7a 9f3f
00000110: 9cbe 963d 761a bcbd 474a bdbf 8ac7 2f3d
00000120: 07e9 e6bf 67bf a73f 6c9d 09c0 f358 d8bd
00000130: 1990 f0be 19d1 07bf 9ca6 093d af6e 2bbf
00000140: b519 9bbf 0c6c e13d c2b7 83ba 2401 7e3f
00000150: c907 f03d 85be e8be a6cc ed3d b9a6 53be
00000160: 2c8a 85bd 4c8f b2bd dace bfbd 0c33 a13e
00000170: 653b 9cbc 1bf8 e4bf ccce 0dbd 03ab 85bc
00000180: 3eaa 003e 2de5 9abf 4a7d cfbc 7aed 913e
00000190: 5a63 4dbc 81db 43bd 483c 973f e141 d6bd
000001a0: fbd2 8ebf 8eb1 ccbf 554c 77bf edd8 e83e
000001b0: 02c8 94bf b440 923e 626f a83d 7b70 393d
000001c0: ef4d 89bf 5583 2abe 7d59 5a3e 0670 84bf
000001d0: ab6a 87bf 896e 263f 849b bf3d b088 d4bc
000001e0: 35bb 84bf db76 4abf 3aa8 f7bf 271e fcbb
000001f0: 4931 c23d d62e 8cbf d01f b83d d849 1abd
00000200: 9f2f 0dbe 6779 e23c 647a d1bd 1e16 1b3d
00000210: c9ba 06be 4094 2ebb bc87 c2bd ab6f fdbd
00000220: be14 a2bd 3fcf 2f3b e31d c0bd b648 87bd
00000230: 38b2 9dbc 0a2e e43c a872 02bd 9ca4 a13d
00000240: 6cb2 9f3d b81e fabd 621e 853d cbe0 abbd
00000250: 4c2b 05bd 1abb b7bd c801 2abd 1c28 d9ba
00000260: 2850 13bd 80b8 b43c a0f2 06bc 8cb7 12be
00000270: e201 96bd aaba af3c 7873 cc3c f8a2 f1bd
00000280: 3e43 0a3d 2cb6 413d e388 873d decf 953d
00000290: 7c7a 573d 274f 933c 43cc 09be fb99 ffbd
000002a0: dd05 09bc 787b 15be c089 603d f4a6 05be
000002b0: 00aa b93d b303 2bbb 9685 cdbd 2a73 0ebe
000002c0: b8b8 013a 1d52 693c ff81 273d 251c 8d3d
000002d0: e8c8 3c3d 5864 2a3d d4f7 dfbd 10b9 8b3d
000002e0: c76f 01be eaef b03d c09e 58bd 479f 06bd
000002f0: b90f cebd 41fd 1d3d 4066 fa3c ac37 9fbd
00000300: 4ad6 eabf 399e 9dbe 0056 003a 7cd0 813f
00000310: 8520 803e 0016 4b3a d80c 9dbf ef41 8b3d
00000320: c3d0 dfbf 138e 533f e445 f8bf 9008 703e
00000330: d0b2 39bd e431 953d 74db de3d abcd 6ebf
00000340: de3d a4bf 9c34 a53d 2e59 d8bd 8320 b5bc
00000350: fa2f 72be fc6c f2be 30bc cc3e f384 9c3d
00000360: 0490 403d 6502 093d 0a52 92bd 0026 773f
00000370: 9942 06be 1c2c 9fbf e010 943d bc43 88bb
00000380: deb9 c43c c219 07bf 2e3f 53bd 62cd a2bf
00000390: e558 69bd 4d20 c63e 1e96 9c3f 044c c5bc
000003a0: d74d 05c0 c2fa b9bf 71b6 6abf f30a c3be
000003b0: 0343 87bf 217c 953e 5642 a43d 23bc a83b
000003c0: 07d3 60bf a408 323e 3d75 033f dbef 7bbf
000003d0: 4ab9 c9bf 7be5 713f 4cae 34bd 4831 f9bc
000003e0: acc6 3fbf 1400 cabe b80a 12c0 47c0 26bf
000003f0: c0e3 443d 52b4 0ac0 1c47 b83d 7874 833d
1.7414126 -1.4485333 -0.06993808 -0.7509123 -0.5320995 0.047936603 1.4968714 -0.14753261
1.2365106 -0.28658703 1.0999256 0.58759254 0.27455708 -0.5277119 -0.0029478455 0.27090308
1.0393996 0.11821504 -0.1223859 -0.3157925 -1.5547802 1.121428 -0.9757735 -0.5612222
0.116347685 -0.026192134 0.011617154 -0.12322084 0.020267176 0.89682823 0.08355765 0.02720572
-0.046980247 0.17774789 0.08445919 0.17133889 0.024944225 0.283974 -0.32598472 0.31325403
0.9595771 1.291366 0.6895149 -0.10971701 1.1777501 -1.2642461 0.010742811 0.21600224
0.6255054 0.21418315 -0.84830093 1.0073005 2.3325202 0.030622117 -0.033085346 0.06524637
0.8611465 0.23489335 1.5360512 0.59465075 0.11872678 2.040811 0.113724336 -0.10684696
-1.2867064 0.0696809 0.11262421 1.2459348 0.073605746 -0.091847345 -1.4788293 0.042914905
-1.8039864 1.3105286 -2.1502333 -0.10563841 -0.46984938 -0.5305343 0.033606157 -0.66965765
-1.211722 0.110069364 -0.0010049271 0.9922049 0.11720235 -0.45457855 0.11611299 -0.20669068
-0.06520495 -0.08718738 -0.09365626 0.31484258 -0.01907129 -1.7888216 -0.034621045 -0.016316896
0.12564942 -1.2101189 -0.025328297 0.28501493 -0.012535894 -0.047816757 1.1815271 -0.10461784
-1.1158136 -1.5991685 -0.9660085 0.45478 -1.1623538 0.2856499 0.082243696 0.045273285
-1.0726908 -0.16651662 0.213232 -1.0346687 -1.0579427 0.65012413 0.09355834 -0.025944084
-1.0369631 -0.7908761 -1.9348214 -0.007694024 0.09482057 -1.0951793 0.08990443 -0.03766808
-0.13787697 0.02764578 -0.10228422 0.03786289 -0.1315719 -0.0026638657 -0.094985455 -0.123748146
-0.079141125 0.002682641 -0.093807004 -0.066056654 -0.01925002 0.027853984 -0.031847626 0.07892725
0.07797703 -0.122128904 0.06499936 -0.08392485 -0.032511994 -0.08971234 -0.041505605 -0.001656774
-0.035965115 0.022060633 -0.008236557 -0.1432783 -0.07324578 0.021451313 0.024957404 -0.11798662
0.033755533 0.047292873 0.06617906 0.07315038 0.052607045 0.017982079 -0.13456826 -0.12480541
-0.008363214 -0.14597881 0.05481887 -0.13051969 0.09065628 -0.0026094734 -0.10035245 -0.13911119
0.0004948485 0.014240769 0.04089546 0.06890134 0.046090037 0.0415996 -0.10935941 0.06822407
-0.12640296 0.0863951 -0.05288577 -0.032866742 -0.100615926 0.0385716 0.030566335 -0.077742904
-1.8346646 -0.30784777 0.00048956275 1.0141749 0.2502481 0.00077471137 -1.2269545 0.06799685
-1.7485584 0.82638663 -1.9396329 0.23440766 -0.045336545 0.072849065 0.10881701 -0.93282574
-1.283138 0.08066675 -0.10563885 -0.02211023 -0.23651114 -0.47348773 0.39987326 0.076425456
0.047012344 0.03344955 -0.07144554 0.9654236 -0.13111342 -1.2435336 0.07229781 -0.004158465
0.02401441 -0.5277368 -0.051573925 -1.2718928 -0.056969542 0.3869652 1.2233312 -0.024084099
-2.082876 -1.452965 -0.91684633 -0.3809429 -1.0567325 0.29196265 0.08020465 0.005149381
-0.87822 0.17386109 0.51350766 -0.98412865 -1.5759671 0.94490784 -0.044111535 -0.030419007
-0.74912524 -0.39453185 -2.2819042 -0.6513714 0.04806876 -2.1672559 0.08997938 0.06418699

actor.2.bias f4 [64]
00000000: 4bc6 f73d 50e9 8c3e 1682 ecbd 201f d03a
00000010: aa65 813e f960 9c3e 2821 0a3f 5b05 95bd
00000020: bd38 6b3e cbdb 06be dd1b 8fbd 8df6 aebd
00000030: 7c43 01be 1f3a 8abe b475 2abe 77ce 65bd
00000040: 6221 84bd 08e8 72bd a0b9 afbd 0119 eebd
00000050: 5c6b a6bd 0215 07bf 04c6 c73e 6776 313e
00000060: dd42 9dbd f917 773d d975 adbd b964 c6bd
00000070: 3abc edbe 25c0 063f 30c7 853e 51bc 71bf
00000080: d94e 4fbd 0aa6 06bf 7719 ba3e 52e7 edbd
00000090: 060f 97bd 3b32 15bd 6593 edbe 0dbd ac3e
000000a0: 8dfd 4f3d dcd3 8a3e 7f56 07bf 06ee 893e
000000b0: 3afd 83bd 9490 883e eee1 1a3f f85f dabd
000000c0: 3aff ea3c 33de b63e 39da 9ebd 418c 643e
000000d0: a38a 633e 6367 ea3e b64d 953e cd12 59bd
000000e0: 7097 f0be 9009 f4bd 2f18 f8bd 51cb a93e
000000f0: b183 b5be 5397 0ebf aef5 7e3e 7ab2 903e
0.12098368 0.27521753 -0.115482494 0.0015878417 0.25272876 0.30542734 0.5395684 -0.07276412
0.22970863 -0.13169782 -0.069877364 -0.085431196 -0.126234 -0.26997468 -0.16646463 -0.056105103
-0.0645168 -0.059303313 -0.08580327 -0.11625863 -0.08125946 -0.5276643 0.3901826 0.17330323
-0.07678769 0.060325596 -0.08469743 -0.0968718 -0.46432668 0.5263694 0.2612853 -0.94427973
-0.050612304 -0.52597106 0.36347553 -0.116163865 -0.07375912 -0.036424857 -0.46401516 0.33737984
0.050778914 0.2711476 -0.5286636 0.2693941 -0.064447835 0.26672804 0.6050099 -0.10662836
0.028686155 0.357164 -0.077564664 0.22319128 0.22220854 0.45782003 0.2916085 -0.052996445
-0.46990538 -0.119158864 -0.12113988 0.3316293 -0.35452035 -0.5569965 0.24898407 0.28261167

actor.4.weight f4 [1, 64]
00000000: ee88 bd3f e279 85bf 90e7 263d 4fe8 01c0
00000010: 109b 69bf a959 84bf d58c 4540 d103 b63d
00000020: 1046 db3f f750 c2bd 647b 5abf 18c3 62bc
00000030: 759e 7d3d cdfe c43f e803 7dbd d82c 0b3d
00000040: 31ae abbc ca9b 13bd 9175 ab3d 008f 64bd
00000050: 3879 4bbb 954b 4640 9409 3440 2a61 0abf
00000060: 4423 933c 8611 a3bf 2fb9 99bc b158 fd3d
00000070: 77dd bc3f 9056 4540 8879 5dbf ab67 d4bf
00000080: 23df 67bc 89f6 2240 3044 b83f cc91 b6bd
00000090: 11b6 a03c a3a1 7ebd e52c cf3f 6e35 80bf
000000a0: 2949 2bc0 dca1 dc3f 3ce7 e93f 9eb5 69bf
000000b0: c813 e5bb b990 6fbf 55fe 4f40 6928 c1bc
000000c0: 7370 1ec0 1025 2640 d3fd 09c0 1d60 51bf
000000d0: 2cb3 28bf 3fd2 4d40 96a6 8ebf 3a4a 073d
000000e0: e609 5f40 04d8 4c3c 3d50 26bd d3df 0a40
000000f0: e02f 993f 203c 1240 b2a1 73bf e783 2abf
1.4807413 -1.0427821 0.04074818 -2.029804 -0.9125223 -1.0339862 3.0867207 0.08887447
1.7130756 -0.09488099 -0.8534453 -0.013840459 0.061918695 1.5390259 -0.061771303 0.033978313
-0.020957084 -0.036037244 0.083720334 -0.055800438 -0.0031047594 3.0983632 2.8130846 -0.5405451
0.017961152 -1.2739723 -0.01876506 0.12370432 1.4755086 3.0834084 -0.86513567 -1.6594137
-0.014152321 2.5462973 1.4395809 -0.08914527 0.019618066 -0.062165868 1.6185576 -1.0016305
-2.6763403 1.7236896 1.8273692 -0.9129275 -0.0069908835 -0.93580204 3.2498982 -0.02357884
-2.4756134 2.596012 -2.1561172 -0.8178728 -0.65898395 3.2159574 -1.1144588 0.033029772
3.4849792 0.012502674 -0.040603865 2.1699111 1.1967735 2.2849197 -0.951686 -0.66607517
