model/MountainCarContinuous-v1/3level/HAC_MountainCarContinuous-v1_level_1_actor.pth (torch, 20865 bytes, 6 tensors)

actor.0.weight f4 [64, 4]
00000000: 66d3 12bf 4d3f 2dc0 87bd 273b b3ce aabd
00000010: a8a5 353e a1f1 4dc0 3ec0 12bc d438 813d
00000020: 0d0a 4dbe 79df 0d40 5488 13be 3860 23be
00000030: 3093 91bd a6ab e2be f04a 0c3e 3063 b5bd
00000040: f2e1 963e 44b8 81c0 97dc 8cbc 94c0 29bf
00000050: 4d1b acbe 0cd9 70c0 e0a4 25bc 4613 73bf
00000060: 74bf 443e f058 bfbe 7c30 60be 1c36 de3e
00000070: de74 8c3f bb03 db3f a438 b1be 649b 0cbf
00000080: 724f 41be dbce 47bf 18b4 9f3e 87e6 1cc0
00000090: 3db6 45be 7188 b5c0 dca4 5cbd 4f65 263e
000000a0: 8936 e5be bd50 ae3f b45b 3cbd e584 a23d
000000b0: 9dc6 9e3e 577a 9dc0 b612 8c3f 90ed a83f
000000c0: e533 2fbe f657 a2c0 6516 183e d252 d1bd
000000d0: b056 b93f cc91 563f 6c67 c0be eeb2 c5be
000000e0: 4b56 473f 4419 8c40 5c21 bbbe 823e 0dbf
000000f0: 38c2 e4bb 374c c0be 6198 b8be 9889 87be
00000100: a8a2 febd 23e3 6fc0 55da 243e f61f 7bbd
00000110: b84e 5abf ead2 0540 602f 56be dd23 06bf
00000120: 46a4 51be 5a07 a5c0 bfec 0e3e 5050 5bbd
00000130: 33c1 3b3e 270f 1c3f d579 383f 7484 063f
00000140: 0df7 f63e 94d0 0740 776f 7ebd 9374 a93d
00000150: 1ccf 8f3e 9109 9540 70dd 30bd 7271 593e
00000160: 1806 aebe e1ac 38c0 4371 10bd 0aaf e53e
00000170: 1867 9a3e 086e 80bd 3cd8 eb3e fcdc e63e
00000180: 0068 273c 2213 debe d421 953e 2ea5 d5be
00000190: 65cb 493f 3da5 8940 1d13 f6be c995 18bf
000001a0: 605a 3f3d 3dea 613e d006 62be 8a63 ab3e
000001b0: 8345 0ebf 9a0b 0441 e2f2 473c ff45 f83e
000001c0: 0305 bebc f0d9 acc0 f3ed c5bd 67f5 9ebc
000001d0: dea9 983f 1ae1 0b40 781b b23e 5988 40be
000001e0: e926 24bf 6b92 1740 aa74 eabc a3a8 1b3e
000001f0: d5b2 673e bf96 a1bf 1071 0f3d 0c87 fbbf
00000200: 718c d43e 6962 7ac0 36c2 7cbb 8404 e63d
00000210: 2b72 51bb bf84 94c0 a4d9 f63d 4e9d 403f
00000220: 4186 8b3c d094 7bc0 fd32 883e 5a8f 4f3e
00000230: 47b7 943e 9fc6 b8bf 817f fc3c 6101 743e
00000240: 2db3 813e 2194 0d3f e7c6 78be 04c4 c43d
00000250: 9436 2a3f c408 ba3f d5d9 f1be 4198 85be
00000260: 86cb 893e 78ad 9ec0 0272 fabd bfd8 683e
00000270: d728 2f3f e984 7340 496c 993e 830f 0fbf
00000280: a81b 2ebf da41 8ec0 ef73 a23e 5d70 d5be
00000290: 4d05 12bf a0f7 923f c5e5 cd3d ab26 173e
000002a0: 1b80 56bf 93bf 5bbf 40a9 6abe 63cd 78be
000002b0: fc5f d6be bdda 53c0 bbcd 0bbe a278 353e
000002c0: a39a 183f 72d6 7fbf cb18 7fbc aa6d 7a3e
000002d0: 78ca 10be b257 f3be 2c07 38be 54f5 5a3e
000002e0: f029 4d3f deea 96c0 d9e5 4a3f c756 4dbf
000002f0: a294 523f c545 36bf c7b6 d2be 0101 9c3d
00000300: fefe 1a3f cc5e 3540 0d3c 323b 672b d93c
00000310: 7813 86be fb37 b0c0 c6d0 0abe 34b4 16bf
00000320: 6d74 5bbe 36ac 73c0 c1a7 983d cbaa 27be
00000330: 6c34 ccbe 1e2d 87c0 91ea b53d e1b9 443e
00000340: eeaf 003f 9506 fcc0 1492 953e 0fd8 a73d
00000350: a92c b8be 7afb a4c0 298d adbd 38da d1be
00000360: 1cb6 d23d f76d 6640 ba3b 5e3d e21a 90be
00000370: a869 9b3e 7867 a9c0 f473 15bd ffa8 c9be
00000380: 67c3 e9bc 0e8b 7ec0 cebb 2ebe 48a5 54be
00000390: c846 8d3b 162f 1bc0 60bf 6fbd c428 5a3f
000003a0: cfae 22be 223c 77c0 e763 c4bc 05da 193d
000003b0: 0946 f73f 01b4 af3f 2143 41be 9451 90b9
000003c0: f453 fcbe 33ef 5f40 10a7 50bd abd7 e3bd
000003d0: b48f 40be df26 7bc0 02f4 ed3d 8936 3fbe
000003e0: fc29 41be ebe5 7c3e 4b5c 38be 1f19 bebe
000003f0: 461d 87be 3007 0fbf 8dae 4f3e abf3 113f
-0.5735382 -2.7069886 0.0025595145 -0.08340206 0.17738974 -3.2178729 -0.008956967 0.06309667
-0.20023365 2.2167647 -0.14407474 -0.15954673 -0.07108152 -0.44271582 0.13700461 -0.08856809
0.29469258 -4.0537434 -0.01719503 -0.66309476 -0.3361458 -3.7632475 -0.01011011 -0.94951284
0.19213659 -0.3737254 -0.21893495 0.43400657 1.0973165 1.7110513 -0.34613526 -0.5492461
-0.18877962 -0.7805001 0.31192088 -2.4515703 -0.193078 -5.6729054 -0.05386816 0.16249584
-0.4476817 1.3618389 -0.045985892 0.07935504 0.31010905 -4.921184 1.094321 1.3197498
-0.1710964 -5.0732374 0.14852293 -0.10220875 1.447958 0.8381622 -0.37578905 -0.38613075
0.7786605 4.378084 -0.3654889 -0.55173504 -0.0069811605 -0.37558147 -0.36053756 -0.26472163
-0.12433368 -3.7482383 0.16098912 -0.061309777 -0.85276365 2.0909982 -0.2091651 -0.52398473
-0.20472822 -5.1571474 0.13957499 -0.05354339 0.18335418 0.6096062 0.720609 0.5254586
0.4823536 2.1221056 -0.06211802 0.08274188 0.280877 4.657418 -0.04317993 0.21234682
-0.33989024 -2.8855517 -0.035264265 0.44860107 0.3015678 -0.06270987 0.4606341 0.45090473
0.010217667 -0.43373972 0.2912737 -0.41727585 0.7882598 4.3014207 -0.48061457 -0.59603554
0.046717048 0.22062011 -0.22072911 0.3347438 -0.55574816 8.252832 0.012203904 0.48490903
-0.02319575 -5.4016037 -0.09664526 -0.019404126 1.1926839 2.185614 0.34786582 -0.18802013
-0.6412187 2.3683116 -0.028620083 0.15201049 0.22626813 -1.2624129 0.035019934 -1.9650588
0.41513398 -3.9122565 -0.0038567907 0.1123133 -0.0031958919 -4.6412044 0.120532304 0.7524003
0.01703179 -3.9309578 0.266014 0.20269528 0.2904608 -1.4435614 0.030822517 0.23828651
0.25332013 0.5530415 -0.24294625 0.096076995 0.6648953 1.4533925 -0.47236505 -0.26092723
0.2691309 -4.9586754 -0.122287765 0.22738932 0.6842169 3.8049872 0.29965428 -0.55883044
-0.6801095 -4.4455385 0.31729075 -0.4168729 -0.5703934 1.1481819 0.10053591 0.14760844
-0.83789223 -0.85839194 -0.22916126 -0.24297099 -0.41870105 -3.3102257 -0.13652699 0.17721799
0.59610957 -0.9993659 -0.015569876 0.24455896 -0.14139736 -0.47527844 -0.17971486 0.21382648
0.80142117 -4.7161703 0.7925697 -0.80210537 0.82258046 -0.7120021 -0.41155073 0.07617379
0.6054534 2.833911 0.0027196438 0.026509954 -0.26186728 -5.5068336 -0.13556203 -0.5886872
-0.21431132 -3.807386 0.074538715 -0.16373746 -0.39883745 -4.2242575 0.088826306 0.19211532
0.5026845 -7.8758035 0.2921301 0.08195507 -0.35971573 -5.155698 -0.0847419 -0.409868
0.10288641 3.6004617 0.05425618 -0.2814551 0.30354047 -5.2938805 -0.036487535 -0.39386746
-0.028535558 -3.9772372 -0.1706383 -0.20766175 0.0043114163 -2.424749 -0.05853212 0.85218453
-0.15886997 -3.8630452 -0.023973418 0.037561435 1.9318248 1.3726808 -0.18873264 -0.000275266
-0.492828 3.4989746 -0.050940573 -0.1112512 -0.18804818 -3.9242475 0.116188064 -0.18673147
-0.18863672 0.24697082 -0.18003957 -0.3712854 -0.2638952 -0.5587034 0.2028143 0.5701243

actor.0.bias f4 [64]
00000000: c2ca 93be dd8b 2c3d 6358 01be ae48 ddbe
00000010: 2816 de3d d637 a2be 78d8 c0be e1bd aebe
00000020: f575 10be a958 9ebe 6932 b9bd b27a 9bbe
00000030: 27f3 87bd 8831 453d 2244 4fbe 739b 08bf
00000040: 634d fe3c fbae 06bf 074d b63c b899 a4bd
00000050: 2765 383e 7afb d4bc fc9e 383d c2eb eebe
00000060: d629 98be fc5b 70be 1039 b3be f09c 44be
00000070: 2948 083c dec8 793d 904f 6cbe cd31 663d
00000080: 8910 563e 0f3b 79bd c071 103d ed4a 383e
00000090: 9da6 0fbd d3f3 25be 04b6 dd3d 2735 6b3d
000000a0: f937 2cbf d780 3bbe f75c 12bf 82a0 b4be
000000b0: e829 df3d fec8 dbbe 5e37 adbd 1198 75be
000000c0: e58a 66be 2fc5 c2be e283 dbbd 2f69 b5bd
000000d0: 7833 b4bc 7bdc debd fea8 e8bc a53f e03d
000000e0: 1f46 593c 4d2a 193d 6a21 a03d d136 97be
000000f0: 7972 d8be e99b 13be 5b53 02bf 86d9 30be
-0.2886563 0.04212557 -0.12631373 -0.43219513 0.1084407 -0.31683224 -0.37665153 -0.3412924
-0.14107497 -0.30927017 -0.09042818 -0.30367047 -0.066381745 0.04814294 -0.20240834 -0.53362197
0.03104276 -0.5261075 0.022253526 -0.08037132 0.18007337 -0.02599882 0.045073494 -0.46664244
-0.29719418 -0.23472589 -0.35004473 -0.19200492 0.008317986 0.060982578 -0.23077226 0.056199837
0.20904745 -0.06084734 0.03526473 0.17997332 -0.035071004 -0.16206293 0.10825732 0.057423737
-0.6727291 -0.18310867 -0.57173103 -0.35278708 0.10896665 -0.42926782 -0.08457826 -0.2398379
-0.22513922 -0.38041064 -0.10718514 -0.08857953 -0.021997198 -0.10881897 -0.028400894 0.10949639
0.013261347 0.037393857 0.07818873 -0.2953401 -0.42274836 -0.14414944 -0.5090844 -0.17270479

actor.2.weight f4 [64, 64]
00000000: 3435 16be 597d a0bd 1448 33bb 7473 3dbd
00000010: ee01 503d 3a36 893d 7478 083d a731 723d
00000020: 649e 9c3d 0403 92bd 6187 2ebc ee69 c03c
00000030: ec18 ed3d 7551 bc3d 6403 e73b 182e 90bd
00000040: 8e0b 64bd 8293 a6bd 29f5 10be 7ecb 99bd
00000050: b417 43bd 52cd a0bd 7461 37b9 dcca 963d
00000060: f0bd bebd 184a 8cbd 4c35 4e3d ff21 8ebd
00000070: d700 8abd ebcd 143d 55ba 93bd 4ad0 c53d
00000080: a8fe c43d 64f6 27bd 40dc dcbd 853f 31bd
00000090: 6871 c33d ecf6 34bd 9a88 843d a0cc 493d
000000a0: f842 72bd 7b17 2abd 4092 8abc 0da0 883d
000000b0: 6fc1 c7bd c4a1 d8bd 3b55 f0bd 3b26 cdbd
000000c0: 11ae a93d 81ce 8e3d 69c7 03bd 4de5 92bd
000000d0: 8445 07bc f8d2 f63c de64 f4bc 4067 a93d
000000e0: bc26 01be 196c 00be fee0 cd3c fe56 59bd
000000f0: 913d 943d b788 dbbd 6010 12bd 03ea 7d3d
00000100: 084a ea3d 880d 3dbf 571c ac3d 502c 583d
00000110: 12e3 a8bf f94d 9b3e e03a d8bc b8bc 953e
00000120: db48 10be bd32 b8bf d412 8e3e 811d 883d
00000130: c212 92be 64f0 d83e 666c 223d d9e7 7abd
00000140: 25ce 00be b126 6d3f 57ab 49be c50a bb3e
00000150: 9609 633e fb01 383f 596c f13d 2e9e 8dbd
00000160: 90f8 343d 9812 923f 42c7 ab3e cbed 2f3f
00000170: c017 223d c5ec 553f 2356 923e 07a5 13be
00000180: ace1 b4be 20fb 1cbe cf83 dcbe b0b1 4ebe
00000190: ed8f f4ba e35f 81bd 0ee9 03bf d6cb 143f
000001a0: 509a bc3f 7181 1a3f 339a f2be ace9 02bf
000001b0: dbac 23be b4d5 dc3d f396 af3e a76a 29bf
000001c0: f220 823e 991c 79bf e843 9cbe ad46 0bbe
000001d0: 6076 52bf 75a4 823e bdce f03d 23e8 24bf
000001e0: 7c4f f7be 6a44 b4be 62b2 73bf bebf 773c
000001f0: 4707 403f fa6d 90bd 11dc 663d deaa 7a3b
00000200: 82e9 b2bd 47c9 e5bc 33a4 8fbc 8269 a33d
00000210: ba5b ac3d 272e 9dbd e0f1 7e3d 96ea 08bd
00000220: 8b33 f3bd 4035 f3bc 0bfe 653d 5126 e13c
00000230: ca64 39bd bf33 e43c 18fb e8bc c0f8 6fbb
00000240: 1b97 c03b 0371 603d d0cf 73bc bc1c 2bbd
00000250: 3ca5 34bd 9061 d0bd 3740 99bd e40a ee3d
00000260: ac37 70bd f023 79bc 70b0 1ebd c848 b0bd
00000270: 7e2b c83d 17df c2bd 8fe3 483d fd08 7dbd
00000280: 6ea8 ce3c 1ff9 2d3d 498d bbbd e394 88bd
00000290: a072 31bd b0ca 5b3c 4d92 463d a62f a63d
000002a0: b501 bc3c 7b8f 3bbd 5ebc cebd 7e04 d13c
000002b0: c59d c23d 9e50 8ebd 2698 953c 6e64 c0bd
000002c0: f1ae 733d 715f cebd f949 92bd 5e23 d53c
000002d0: 289a 8c3d 6a09 863d cf89 c0bd 730f c9bd
000002e0: 32e8 06be 5886 403d 2760 f7bd 0ba9 b9bd
000002f0: 6540 8abc 5938 fb3c 9cd9 663d a9ca 3d3d
00000300: 7040 babe 1e71 223d 3aad 57be b01e 76bd
00000310: 99da 04bb c23f 003f 904a 5ebc 056a efbe
00000320: 39dd 97be d70f 63be ae2d 893d 157d 693d
00000330: 4c9b 11bf 7751 923e 9ce8 723f f911 763c
00000340: 6f77 073e cb45 003e 1499 013f 97a0 49bc
00000350: 61e8 e3bd 4fe6 8abf 655d 493e ee22 bc3d
00000360: 5085 da3c 7ddf 173f b495 13be 550f cabd
00000370: aaac 20bf 7403 a13e 23f7 4d3e 41bc 1bbe
00000380: 7224 41be 92d2 c83c 04c3 0f3e 8d7b a5be
00000390: 9789 3e3c be65 d7bd d764 19bf 88d3 11bc
000003a0: 3493 db3f 4cc0 2c3a 9a15 4ebf 7b07 3b3e
000003b0: 7328 b8bd e04f 97bc 34dc f93e 3fa8 c2be
000003c0: 1077 1740 9b86 31bf 0f89 b23e 3f80 723e
000003d0: d826 823e 91f3 c5be 9872 13be 17d5 c4bd
000003e0: 4895 8d3e 4efd 6dbe 3e95 c53e 45da b0be
000003f0: 5c43 1ebf 9f74 5c3e a1e8 233d a213 1dba
-0.14668733 -0.07836408 -0.0027356194 -0.046252683 0.05078309 0.06699796 0.033317998 0.059129383
0.07647398 -0.071294814 -0.010652394 0.023488011 0.11577019 0.09195224 0.0070499647 -0.07040042
-0.055675082 -0.08133604 -0.14156021 -0.07509516 -0.047630027 -0.07851662 -0.00017488544 0.07362911
-0.093135715 -0.0685007 0.050343797 -0.06940078 -0.067384414 0.03632919 -0.072132744 0.096588686
0.09618884 -0.04100646 -0.10784197 -0.043273468 0.09543115 -0.044180796 0.06471367 0.04926741
-0.059145898 -0.0415263 -0.01691544 0.06671152 -0.097536914 -0.10577729 -0.117350064 -0.100170575
0.08285154 0.06972981 -0.032172594 -0.07172642 -0.00825632 0.030129895 -0.029833253 0.082716465
-0.12612432 -0.12541236 0.025131699 -0.053061478 0.07238305 -0.10719436 -0.035660148 0.06199075
0.114399016 -0.7384877 0.08403843 0.052776635 -1.3194296 0.30332926 -0.026395261 0.29245543
-0.14090292 -1.4390484 0.2774874 0.066462524 -0.28529936 0.42370903 0.039654158 -0.061256263
-0.12578638 0.92637163 -0.19694267 0.36531654 0.22171625 0.7187802 0.11788244 -0.06914936
0.04418236 1.1411924 0.3355046 0.6872222 0.03957343 0.83564407 0.28581342 -0.14418422
-0.35328424 -0.15330172 -0.43069312 -0.2018497 -0.0018658616 -0.06317117 -0.5152749 0.5812353
1.4734592 0.6035376 -0.4738327 -0.51137805 -0.15983908 0.10782948 0.34294853 -0.66178364
0.2541576 -0.9730926 -0.30520558 -0.1360118 -0.82211876 0.25516096 0.11758182 -0.6441671
-0.4830283 -0.35208446 -0.95194066 0.0151213985 0.75011104 -0.07052226 0.056362215 0.0038248817
-0.08735944 -0.028050078 -0.017534351 0.079791084 0.08415933 -0.076748185 0.06224239 -0.033426844
-0.118750654 -0.029688478 0.056150477 0.027484091 -0.045262136 0.027856706 -0.028440043 -0.0036616772
0.005877388 0.054795276 -0.014881089 -0.04177545 -0.044102892 -0.101748586 -0.07482951 0.11623171
-0.058646843 -0.015206322 -0.038742483 -0.08607632 0.097739205 -0.09515207 0.04904514 -0.06177615
0.025226798 0.04247391 -0.091578074 -0.06669023 -0.043322206 0.013415024 0.048479367 0.08114557
0.022950033 -0.04579113 -0.10094522 0.025514837 0.095027484 -0.0694897 0.018261027 -0.093941554
0.05949301 -0.10076798 -0.071430154 0.026017841 0.068653405 0.06544764 -0.09401285 -0.098174
-0.13174513 0.04700312 -0.120788865 -0.090654455 -0.016876409 0.030666517 0.056359872 0.04633585
-0.36377287 0.03965866 -0.21062174 -0.06008786 -0.0020271896 0.50097287 -0.013567582 -0.46760574
-0.29660967 -0.22174011 0.06698166 0.057004053 -0.5687759 0.28577778 0.94886184 0.015018933
0.13229154 0.12526624 0.50624204 -0.012306354 -0.11128307 -1.0851535 0.19664533 0.0918635
0.026674896 0.5932539 -0.14412576 -0.098662056 -0.62763464 0.31447947 0.20113806 -0.15208532
-0.18861559 0.02451447 0.14039236 -0.32320824 0.011629484 -0.10517453 -0.59919494 -0.008900531
1.7154298 0.0006589934 -0.8050171 0.18264572 -0.0899209 -0.018470705 0.48800814 -0.38018987
2.366642 -0.69346017 0.34870192 0.23681735 0.2542026 -0.3866239 -0.14399183 -0.09610956
0.27652955 -0.2324116 0.38590425 -0.34541526 -0.6182153 0.21528862 0.040016774 -0.0005992

actor.2.bias f4 [64]
00000000: f73d dabd 1d1c 4b3c fbe7 17be 64a4 98bd
00000010: 18ee 93bd b65e 6ebd 5ede 813e 4491 a3bd
00000020: 49f9 da3c afb0 dc3c ffd8 fabd 8cf8 d23d
00000030: 28ce c0bc 0f0e c63d 0294 a1bd 82fa bbbc
00000040: 4f19 a53d 4ef1 11be 58e7 51bd 0313 1ebd
00000050: aa10 1ebe e99d 483d afd2 52bd f30b ba3d
00000060: e56a eebc 8686 c5bd ac6f 30be addd 7bbd
00000070: 892d a0ba be27 53bd dd37 d63c a4ec 0c3e
00000080: bfff 68bd e67b 1abd a3d4 dd3b 0516 13be
00000090: 394d 463e db44 dfbd 8fe9 e83c 03db 423d
000000a0: 732b f63d 4636 1f3e 2917 f5bd 73c7 f539
000000b0: 3492 30be cf0a a9bd df42 5fbd 2e17 85bd
000000c0: a805 2abd 921f b9bd 8cc8 f8bd e37c 9abc
000000d0: 0c9d 103e c0ff a5bc b5f7 05bc 214a b93d
000000e0: ac04 e93d 4ac2 093e 22b1 ffbd a846 c4bb
000000f0: 1571 5fbd 6673 c43d 4a41 993d 04e4 78be
-0.1065635 0.012396839 -0.14834587 -0.0745323 -0.07223147 -0.058195792 0.25364965 -0.079866916
0.026730197 0.026939718 -0.1224842 0.10301313 -0.023535803 0.0967065 -0.078895584 -0.0229466
0.08061468 -0.14252207 -0.051246017 -0.03859235 -0.15436044 0.04897872 -0.051470455 0.090843104
-0.029103706 -0.09644799 -0.172301 -0.061490703 -0.0012220602 -0.051551573 0.026149685 0.13762146
-0.056884523 -0.037715815 0.006769733 -0.14363869 0.19365396 -0.10901805 0.028431682 0.047572147
0.12020006 0.15548047 -0.11967308 0.00046878643 -0.17243272 -0.08254015 -0.054507133 -0.06498562
-0.0415093 -0.09039225 -0.12147626 -0.018858379 0.14122409 -0.020263553 -0.008176734 0.09047342
0.11377844 0.13453022 -0.12484957 -0.005989868 -0.054551203 0.09592323 0.07483156 -0.24305731

actor.4.weight f4 [2, 64]
00000000: 24c2 dcbc 6367 11bf e8d6 2bbd 9b96 a7bd
00000010: db72 543c 79b5 80be e9ca 7f3e 9a08 3dbd
00000020: 9a64 543f 6147 6c3e 970a 493c 6f94 0f3f
00000030: e732 903d 8f62 293e 37e3 0fbd 3b3a bebe
00000040: a0cc 5d3e e2c8 233d cef7 99bf 5b07 f93c
00000050: 4089 30be 7db9 1a3e d429 9dbe 8d0c dabd
00000060: 3d3a 2ebc 4afc 913d 9692 8c3d 7bde c33a
00000070: f041 85bf c71b 65bc ae3c 2f3a 221d b93e
00000080: 718f 6f3f afc5 3abd c5b8 c9bc 492c 0d3d
00000090: 86ae 3b3e 0249 5f3c bf09 86be 5c40 92be
000000a0: 3260 45be e342 eabd 72f2 42bb e127 0fbd
000000b0: 5406 fdbe 6cc7 02be 5013 43bd 2de7 a73e
000000c0: 2c46 31bd be02 11bd 6ae6 00be c994 003f
000000d0: b3ea b6bf 901e ab3c 168a 7cbe cefc b5bc
000000e0: 1332 e73e c83a 013e eba1 483c 0ad4 01bd
000000f0: 9b6c 303e 0b54 343e 4ef0 dd3e 5df0 14c0
00000100: 9a12 bd3d ee7c 1cbf 8308 07bd fad4 c4bd
00000110: 5353 2b3d 481c 983e e816 fabd 8541 c63d
00000120: 68f3 4c3f 1137 503e d73f 063d 6a3f 053f
00000130: 91a5 5d3c 5f06 423e 76b2 c1bd b5a0 82be
00000140: 9779 91be d693 233d 5a07 8ebf 28fb 4c3c
00000150: 2e54 243e aeb7 043e edf6 a43d 9bae b03e
00000160: eba9 eb3c f86d a2bd b5fe 07bd 037b 9e3c
00000170: de4e 94bf 0290 173c e32b ce3e 73c8 44be
00000180: a994 98be c667 703d e45d c13d 3c3c c03c
00000190: e947 95bd 49cd e73d 7834 24bf 529e edbe
000001a0: ab94 f83e ded7 363e e5a0 9fbd 7278 8dbd
000001b0: 5a14 4abe c0b7 563d 9431 053d d7df 3a3f
000001c0: 139d 25bd 5923 993b e7fb 153c 74b1 9c3e
000001d0: 0c4b e2bf 0585 7cbd cedc 9f3e 4e2d c0be
000001e0: 6b7b fb3b 3c67 863e c5b3 9a3c 907c 5abd
000001f0: 4c16 5e3e d183 b13e 9a7f f43e bdc6 2fbc
-0.026948042 -0.5679838 -0.041952997 -0.081830226 0.012966837 -0.25138453 0.24979748 -0.04615078
0.82966006 0.23074104 0.012270591 0.56085867 0.07040959 0.16541503 -0.0351288 -0.371538
0.2166009 0.0399865 -1.2028749 0.030399015 -0.17239857 0.1510982 -0.30695975 -0.10646925
-0.010634002 0.071281984 0.068638965 0.0014943624 -1.0410748 -0.013983673 0.0006684762 0.3615504
0.9357825 -0.045598682 -0.024624238 0.03446606 0.18328294 0.013628246 -0.2617931 -0.28564727
-0.19274977 -0.11438539 -0.002974656 -0.03495014 -0.4941889 -0.12771386 -0.04762584 0.3279356
-0.04327981 -0.035403006 -0.12587896 0.5022703 -1.4290375 0.020888597 -0.2466205 -0.022215273
0.4515539 0.1262008 0.0122456355 -0.031696357 0.1722893 0.17610185 0.433474 -2.3271706
0.092320636 -0.6112813 -0.0329671 -0.096109346 0.04182751 0.29709077 -0.122114 0.096804656
0.8005891 0.20333506 0.032775726 0.5204989 0.013528244 0.18947743 -0.09457867 -0.25513235
-0.28413078 0.03993591 -1.1095994 0.012511052 0.16047737 0.12960693 0.0805491 0.34508213
0.028767547 -0.07931131 -0.033201892 0.019345766 -1.1586568 0.009250643 0.40267858 -0.1921709
-0.2980092 0.058692716 0.09441736 0.023466222 -0.072891064 0.11318452 -0.6414256 -0.4640985
0.48550925 0.17855784 -0.0779436 -0.06907739 -0.19734326 0.05242133 0.032517985 0.729978
-0.040433 0.004673403 0.0091542965 0.30604136 -1.7679152 -0.061650295 0.31223148 -0.37534565
0.0076746247 0.26250637 0.018884549 -0.05334145 0.21688193 0.3467088 0.47753602 -0.010728535

actor.4.bias f4 [2]
00000000: ae96 d63c 92c4 30bd
0.026194897 -0.043156214
