model/MountainCarContinuous-v1/3level/HAC_MountainCarContinuous-v1_solved_level_0_crtic.pth (torch, 20865 bytes, 5 tensors)

critic.0.weight f4 [64, 5]
-0.4815515 4.384246 0.0064685442 0.4542123 -4.1172657 -0.41580307 -2.3205025 -0.016770532
0.4773471 -2.1234925 -0.94941676 5.445937 0.009443687 0.47889942 -0.9393788 -1.2920787
1.782577 0.00814411 0.2976773 -1.3581387 -0.08680994 2.4004154 -0.007497169 0.8902739
4.156658 1.2684261 -3.5836082 -0.010358618 -0.102556825 -1.5444446 -0.79589903 -2.3861907
0.0013350312 0.7940203 1.4532676 -0.87140155 -1.1529046 -0.0016175855 0.8712344 0.15295699
-0.23780245 3.0786653 0.007084877 -0.9098231 -0.15102114 0.72704285 5.7804246 -0.009652334
-0.6406348 1.1491559 -0.30951384 -1.8138337 -0.0030675163 0.55070436 0.8921233 0.38440868
5.4679112 -0.0016926024 -0.03151773 0.32855538 0.86145836 -5.3084416 -0.0112462705 -0.56353915
-5.229474 -0.25893104 4.5900326 0.004639086 1.4958804 0.79519254 -0.57124615 -4.996854
-0.0025241398 0.5430784 0.970954 -0.07913958 1.8865224 -0.061823577 0.9113608 1.0410988
-0.006451631 0.9396475 -0.08835331 -0.33546323 0.87873393 -0.04285036 5.280333 0.017824495
-0.57843685 -3.522574 0.4074441 -6.1563153 -0.014464854 0.50223756 -1.2056206 -0.82279384
-0.61980426 0.013052666 0.70389366 3.3747392 -0.9258748 -0.93215716 0.006732895 0.5930736
3.6088617 -0.42610642 3.928899 -0.009587779 -0.78718626 -2.1010454 0.17096443 -0.20166843
0.09301395 -0.023445291 -0.15866269 -0.39218676 -7.0789194 0.0015056119 0.3263073 1.6153789
0.41493753 0.4654711 0.004434826 0.98335373 0.7595284 0.2947585 0.21590567 0.008219373
-0.50388247 2.310629 0.3124917 0.25385883 -0.13475718 0.2104255 0.70532763 0.004644792
0.90718055 -0.029234214 0.28546643 0.44650427 -0.061613057 -5.465733 -0.010810093 -0.061425775
1.9325538 -0.44330737 -2.2159436 -0.048740767 0.5670909 2.6623027 -0.9195732 2.0624337
-0.009451635 -0.111950934 1.9210552 0.3497371 -0.03870948 0.011374705 0.21142042 -0.37310147
0.54807794 -5.226267 0.0015285332 0.48183593 1.8522488 -0.083421014 0.5122822 0.19970678
0.09935043 -0.36999667 0.031410318 3.1848114 0.009469868 -0.5825957 3.272198 -0.03787697
-0.33004054 0.09642869 0.0011726745 -0.27242196 0.11282963 3.154411 -0.063406214 0.07916327
-1.9883442 0.3981692 -0.36182556 -0.11630886 -0.15680493 0.5087305 -1.0136049 -0.92911506
-0.0074069686 0.34878907 1.1661624 0.3268223 -4.246083 -0.024024455 0.31588373 3.1636338
-0.23099525 4.2674403 0.0048096096 -0.80329454 2.0482485 0.16725555 -2.760874 0.0010509066
0.34663567 4.7538047 0.055161778 -0.22198407 0.1604699 -0.13003898 0.24558291 -0.6923996
3.8949606 -0.012404977 0.15668054 -3.43358 -1.0453073 0.86623794 0.0024207255 -0.2091706
-0.33665562 -0.46687806 -6.890921 -0.00131641 -0.23863803 -2.211671 -0.2730424 1.5789171
0.0020470317 0.8996036 3.5096655 0.24479386 7.494863 0.0016833629 -0.25327703 -3.2789886
0.15199888 1.1925901 -0.006859941 -0.5555553 4.000389 0.87563396 5.129705 0.02887714
-0.54963 0.6282469 0.35241824 0.7704873 -0.014023258 1.0434661 1.7269899 -0.8753569
00000000: eb8d f6be be4b 8c40 15f6 d33b 848e e83e
00000010: a4c0 83c0 24e4 d4be 1d83 14c0 5b62 89bc
00000020: d766 f43e 4de7 07c0 fa0c 73bf 1e45 ae40
00000030: b2b9 1a3c 4e32 f53e 217b 70bf d662 a5bf
00000040: 7c2b e43f e06e 053c 2969 983e 7dd7 adbf
00000050: 69c9 b1bd 68a0 1940 d0aa f5bb fee8 633f
00000060: 5803 8540 c95b a23f d659 65c0 31b7 29bc
00000070: 5009 d2bd 5cb0 c5bf 0ac0 4bbf 59b7 18c0
00000080: 37fc ae3a ea44 4b3f ac04 ba3f 2c14 5fbf
00000090: 6192 93bf 2a05 d4ba 3809 5f3f c2a0 1c3e
000000a0: 7c82 73be da08 4540 4228 e83b 2bea 68bf
000000b0: 49a5 1abe 7b1f 3a3f 3df9 b840 d324 1ebc
000000c0: a400 24bf 8a17 933f 9978 9ebe b42b e8bf
000000d0: 6208 49bb f6fa 0c3f 3162 643f 37d1 c43e
000000e0: 21f9 ae40 50da ddba bc18 01bd 6938 a83e
000000f0: 8988 5c3f c1de a9c0 4742 38bc 1a44 10bf
00000100: da57 a7c0 9c92 84be 8ce1 9240 7903 983b
00000110: 0279 bf3f bd91 4b3f 303d 12bf 3ae6 9fc0
00000120: 0a6c 25bb 3007 0b3f 7190 783f ef13 a2bd
00000130: 9179 f13f b83a 7dbd f14e 693f ba42 853f
00000140: 3468 d3bb bd8c 703f 95f2 b4bd d6c1 abbe
00000150: b5f4 603f dc83 2fbd 7df8 a840 ad04 923c
00000160: 7014 14bf da71 61c0 839c d03e 8900 c5c0
00000170: fffd 6cbc a492 003f c751 9abf 9ea2 52bf
00000180: 7eab 1ebf d9da 553c 6032 343f bafb 5740
00000190: 2206 6dbf daa1 6ebf 9e9f dc3b acd3 173f
000001a0: 97f7 6640 9f2a dabe 1573 7b40 0f16 1dbc
000001b0: 0a85 49bf 8777 06c0 4d11 2f3e 2b82 4ebe
000001c0: 197e be3d 5710 c0bc 7978 22be b4cc c8be
000001d0: 8286 e2c0 f457 c53a c011 a73e bcc4 ce3f
000001e0: b172 d43e 3a52 ee3e 0452 913b 12bd 7b3f
000001f0: 7470 423f 96ea 963e 6016 5d3e 8daa 063c
00000200: 71fe 00bf 58e1 1340 e9fe 9f3e c9f9 813e
00000210: c9fd 09be c879 573e 5a90 343f 5733 983b
00000220: fc3c 683f 977c efbc a828 923e 359c e43e
00000230: f95d 7cbd 49e7 aec0 d11c 31bc 9899 7bbd
00000240: ec5d f73f 2ff9 e2be 05d2 0dc0 66a4 47bd
00000250: df2c 113f 2b63 2a40 2669 6bbf eafe 0340
00000260: 08db 1abc 8846 e5bd 23e5 f53f be10 b33e
00000270: d58d 1ebd f85c 3a3c 987e 583e 2807 bfbe
00000280: d64e 0c3f 943d a7c0 1059 c83a 33b3 f63e
00000290: 7d16 ed3f a3d8 aabd ed24 033f ef7f 4c3e
000002a0: 3d78 cb3d 3470 bdbe 1ba8 003d f3d3 4b40
000002b0: 8127 1b3c fe24 15bf b16b 5140 e224 1bbd
000002c0: 13fb a8be 687c c53d 6db4 993a e47a 8bbe
000002d0: 3913 e73d dfe1 4940 1edb 81bd 5a20 a23d
000002e0: 1082 febf d5dc cb3e 3341 b9be 5733 eebd
000002f0: 7991 20be 293c 023f cebd 81bf 7cda 6dbf
00000300: 28b6 f2bb 7b94 b23e cf44 953f 4155 a73e
00000310: e9df 87c0 efce c4bc 83bb a13e fa78 4a40
00000320: 058a 6cbe df8e 8840 ee99 9d3b b6a4 4dbf
00000330: 8116 0340 0a45 2b3e 29b2 30c0 93be 893a
00000340: 3b7a b13e 2b1f 9840 51f1 613d cb4f 63be
00000350: 3952 243e f028 05be 167a 7b3e 1a41 31bf
00000360: 0947 7940 3f3e 4bbc dd70 203e c6bf 5bc0
00000370: a1cc 85bf c5c1 5d3f 09a5 1e3b d130 56be
00000380: 205e acbe a40a efbe 6d82 dcc0 648b acba
00000390: 875d 74be 058c 0dc0 37cc 8bbe f519 ca3f
000003a0: 7e27 063b 6c4c 663f 5c9e 6040 3eab 7a3e
000003b0: ebd5 ef40 49a4 dc3a 87ad 81be f3da 51c0
000003c0: 98a5 1b3e cba6 983f 5bc9 e0bb df38 0ebf
000003d0: 3003 8040 8c29 603f 8b26 a440 c08f ec3c
000003e0: 8db4 0cbf cad4 203f 2a70 b43e a83e 453f
000003f0: cfc1 65bc 4c90 853f 010e dd3f 6417 60bf

critic.0.bias f4 [64]
0.098336294 -0.6843799 -0.17982095 -0.30781454 0.397573 0.29358026 0.0047396147 0.0033450653
-0.25554806 0.6313393 0.26206163 0.058963194 0.03402868 -0.28378487 -0.17238696 -0.73396933
-0.5429123 -0.28773227 0.3665979 0.27875328 0.3328159 -0.41578442 -0.4302157 -0.28648123
0.5364245 0.44307482 -0.40350342 -0.23755667 -0.17146716 0.14963876 -0.46450707 -0.3937459
0.30214155 -0.43953174 -0.2518855 -0.24188231 -0.32989338 -0.43593505 -0.3711552 0.098477736
-0.18059383 0.049013946 -0.36545825 0.14047453 -0.5744707 -0.21314119 0.28450322 0.023148973
0.030691793 -0.18798774 0.55444497 0.19257115 -0.5633102 -0.061786685 -0.52846646 0.17480096
-0.3627141 -0.18074381 0.44177964 -0.049681533 -0.06723952 -0.30049556 0.13638152 -0.32290426
00000000: 8a64 c93d 8533 2fbf fc22 38be de99 9dbe
00000010: b08e cb3e 2750 963e c54e 9b3b e238 5b3b
00000020: 32d7 82be 749f 213f f12c 863e 6483 713d
00000030: a861 0b3d 404c 91be 3586 30be 6ae5 3bbf
00000040: 4dfc 0abf a551 93be b8b2 bb3e c0b8 8e3e
00000050: d866 aa3e b2e1 d4be 3b45 dcbe abad 92be
00000060: 1e53 093f b4da e23e 0098 cebe 0e42 73be
00000070: 1695 2fbe e73a 193e dfd3 edbe 1099 c9be
00000080: 4cb2 9a3e 4e0a e1be 23f7 80be ffaf 77be
00000090: c9e7 a8be e132 dfbe 0e08 bebe b2ae c93d
000000a0: 97ed 38be d9c2 483d 581d bbbe 8ed8 0f3e
000000b0: 8310 13bf af41 5abe 68aa 913e eaa2 bd3c
000000c0: 5b6d fb3c dc7f 40be 1bf0 0d3f 5f31 453e
000000d0: 1935 10bf 0914 7dbd 9449 07bf 06ff 323e
000000e0: aab5 b9be e814 39be f130 e23e dd7e 4bbd
000000f0: e0b4 89bd 8eda 99be 99a7 0b3e b553 a5be

critic.2.weight f4 [64, 64]
0.43364483 0.33250925 -0.1316163 -0.038264178 -1.0324068 -1.0082434 2.1783347 2.915537
0.88833827 0.6696932 -1.8428876 -0.03488273 -0.5122571 0.8516774 -1.1818835 -0.83110636
0.036701024 0.6832917 -0.9803583 0.109950446 -0.984365 0.81934893 -0.0679667 -0.38926333
-0.62061524 -0.00944093 0.093546584 -0.31443298 0.05242114 -1.1047885 0.69000095 -0.08037284
0.01697836 -0.053591385 0.2662236 -0.013685972 0.05779088 0.011974586 -2.3342345 -0.38295314
1.1251273 -0.7015048 -0.01055859 0.6722894 0.6777327 0.7512796 -1.7293831 -0.103527576
1.1627382 -0.7112522 -1.9644463 -1.7380062 -0.34358922 -1.054194 -0.40152192 -0.88995886
0.5567331 0.5682312 -0.4234642 0.46403795 -0.4699216 -0.086842835 0.58153385 0.6102797
1.7555785 -1.2996603 -0.5255817 -0.48006085 -0.55217546 -1.5941854 1.8587017 1.9350436
0.45442313 -0.78341335 -0.11912946 0.23185852 -1.5752813 -1.0383813 0.054833762 -1.66472
0.50638336 0.9579217 1.6165 0.3102648 -0.39066777 1.7052062 -0.07162239 0.6319095
-0.53275955 -0.12513529 -0.5257119 0.1883962 0.7916976 -0.35277677 -0.3407495 -0.01739496
0.20240612 0.10887431 0.86825436 0.04518056 -0.39760178 -0.1688714 -1.4638312 -0.5924948
0.8826223 0.5325501 -0.10246817 -1.0190595 -1.2719429 -0.35263318 0.02787243 0.7798969
0.33161202 -0.2376054 -0.1502089 0.04166673 -0.5370021 0.028705455 0.11795138 -0.20743978
-0.13723323 -0.49637216 0.20551041 0.7663297 -0.0075295614 -0.23630632 -0.6220009 0.22186905
-0.036036283 -0.081230104 0.011501513 -0.06842389 0.056130704 -0.00467257 -0.08379558 0.07938433
0.055469453 0.0179642 0.064365454 -0.016316622 -0.1079749 -0.038441874 -0.050698526 0.06956929
-0.031491756 -0.049404427 -0.020257609 -0.11889239 0.101278216 -0.07454373 0.080647886 0.078278504
0.027392704 -0.113572344 0.05113919 -0.054859295 -0.05531048 0.011154833 -0.03497084 0.09195544
-0.033229426 0.06180772 -0.15545559 -0.092131406 -0.08161531 -0.058645174 -0.06982465 0.0142872
0.0758559 0.0057626474 -0.02358377 -0.08562985 -0.1306684 0.0900721 -0.116935365 -0.1185283
0.0028385918 -0.07175025 0.045116287 -0.05582977 -0.09045929 0.02345863 -0.020280745 -0.10637048
-0.08502087 0.08974805 -0.025630524 -0.027500257 -0.03498846 -0.13451158 -0.0018467328 -0.032426488
-0.32238606 0.29235536 -0.096347205 -0.05989987 -0.2586525 -0.44294322 0.5791415 0.65336007
-0.32856113 -0.9836612 -0.10357489 -0.4004793 -0.24570644 0.32694566 0.24955474 0.38770318
-0.2728838 -0.23826593 -0.55905783 0.1276527 0.033718914 0.26183757 -0.10354462 0.26440972
-0.4583455 -0.8385589 0.062966906 0.2970332 0.23375955 -0.039176602 0.063582264 -0.08555527
0.0029491435 -0.15844168 -0.04082629 -0.12023931 -0.15369353 -0.10167497 0.8432988 -0.2746579
-0.096270874 -0.5374177 -0.016949192 -0.3198516 0.3746427 -0.27092797 -0.36924866 -0.79591244
-0.49857807 0.0606347 -0.47666538 0.31651562 0.034578294 -0.23033477 0.20166501 -0.09397385
-0.32506058 -0.13908726 -0.6343867 -0.11083005 -0.15730625 -0.1230089 -0.3827609 -0.46681958
00000000: b206 de3e a73e aa3e 6cc6 06be e6ba 1cbd
00000010: e825 84bf 1f0e 81bf d669 0b40 2998 3a40
00000020: 236a 633f 0371 2b3f bee3 ebbf 32e1 0ebd
00000030: 4823 03bf 8807 5a3f f547 97bf 63c3 54bf
00000040: d053 163d 34ec 2e3f c3f8 7abf b32d e13d
00000050: 58ff 7bbf dac0 513f 2032 8bbd 864d c7be
00000060: a4e0 1ebf 21ae 1abc 5a95 bf3d 5cfd a0be
00000070: 8db7 563d b669 8dbf e7a3 303f 849a a4bd
00000080: 3416 8b3c a482 5bbd 764e 883e 213b 60bc
00000090: 21b6 6c3d 0e31 443c 1964 15c0 6f12 c4be
000000a0: 2c04 903f d295 33bf f0fd 2cbc 281b 2c3f
000000b0: e47f 2d3f dc53 403f 6d5c ddbf 4406 d4bd
000000c0: 9bd4 943f a014 36bf fa72 fbbf fd76 debf
000000d0: edea afbe d4ef 86bf 4894 cdbe 58d4 63bf
000000e0: 0f86 0e3f 9a77 113f 4dd0 d8be 6296 ed3e
000000f0: 9099 f0be a8da b1bd 67df 143f 4a3b 1c3f
00000100: ccb6 e03f 455b a6bf 868c 06bf 89ca f5be
00000110: 5f5b 0dbf 440e ccbf f0e9 ed3f 82af f73f
00000120: 26aa e83e c78d 48bf 25fa f3bd 526c 6d3e
00000130: d1a2 c9bf aee9 84bf 5e99 603d 8c15 d5bf
00000140: 57a2 013f 5b3a 753f 79e9 ce3f 07db 9e3e
00000150: 9b05 c8be 3244 da3f c2ae 92bd d2c4 213f
00000160: ee62 08bf 7723 00be 0e95 06bf efea 403e
00000170: b2ac 4a3f 289f b4be b876 aebe e07f 8ebc
00000180: 8d43 4f3e 7ff9 de3d eb45 5e3f 400f 393d
00000190: 7692 cbbe a0ec 2cbe d25e bbbf bdad 17bf
000001a0: 89f3 613f 3455 083f d5da d1bd 8b70 82bf
000001b0: 06cf a2bf 568c b4be b954 e43c 53a7 473f
000001c0: 0dc9 a93e d44e 73be 5dd0 19be bcaa 2a3d
000001d0: f878 09bf b427 eb3c 7e90 f13d 186b 54be
000001e0: de86 0cbe 7e24 febe 5271 523e 2f2e 443f
000001f0: 8aba f6bb 49fa 71be 733b 1fbf a431 633e
00000200: c89a 13bd f85b a6bd d870 3c3c d321 8cbd
00000210: 4fe9 653d 5c1c 99bb 049d abbd 4094 a23d
00000220: f033 633d a829 933c 09d2 833d 70aa 85bc
00000230: f221 ddbd 3a75 1dbd 42a9 4fbd 587a 8e3d
00000240: 80fd 00bd 4c5c 4abd 49f3 a5bc da7d f3bd
00000250: f46a cf3d 62aa 98bd b82a a53d 7b50 a03d
00000260: aa66 e03c 9e98 e8bd 5477 513d 24b4 60bd
00000270: 3e8d 62bd c3c2 363c 953d 0fbd 2253 bc3d
00000280: 941b 08bd 182a 7d3d c02f 1fbe 64af bcbd
00000290: ed25 a7bd ec35 70bd 3a00 8fbd dc14 6a3c
000002a0: 575a 9b3d 97d4 bc3b c032 c1bc b45e afbd
000002b0: f0cd 05be b977 b83d cf7b efbd f7be f2bd
000002c0: ab07 3a3b ccf1 92bd dbcb 383d c2ad 64bd
000002d0: b842 b9bd 502c c03c ce23 a6bc c4d8 d9bd
000002e0: 6c1f aebd d3cd b73d 1bf7 d1bc 3848 e1bc
000002f0: 0f50 0fbd 67bd 09be 120e f2ba a3d1 04bd
00000300: c90f a5be 9aaf 953e af51 c5bd 9159 75bd
00000310: 1a6e 84be 74c9 e2be 9e42 143f 9b42 273f
00000320: 2a39 a8be 38d1 7bbf 121f d4bd 9f0b cdbe
00000330: 789a 7bbe 6c65 a73e 478b 7f3e 0881 c63e
00000340: 6db7 8bbe fcfb 73be 6a1e 0fbf 64b7 023e
00000350: d81c 0a3d 930f 863e 340f d4bd b660 873e
00000360: 43ac eabe ccab 56bf cbf4 803d bc14 983e
00000370: aa5e 6f3e a577 20bd 6b37 823d 9a37 afbd
00000380: 6b46 413b 893e 22be 7839 27bd 0740 f6bd
00000390: d661 1dbe f73a d0bd 6ee2 573f f69f 8cbe
000003a0: aa29 c5bd 3594 09bf 08d9 8abc 97c3 a3be
000003b0: 2bd1 bf3e 12b7 8abe 290e bdbe ebc0 4bbf
000003c0: a045 ffbe 175c 783d 7c0d f4be 560e a23e
000003d0: f8a1 0d3d e1dc 6bbe 4681 4e3e 5d75 c0bd
000003e0: 576e a6be e46c 0ebe 2b67 22bf defa e2bd
000003f0: e414 21be 17ec fbbd 3df9 c3be fa02 efbe

critic.2.bias f4 [64]
0.16886511 -0.76723117 -0.15786421 -0.45875737 -0.033816744 -0.016347129 -0.16885811 -0.14702167
-0.08013215 -0.14862904 0.22495109 0.03155114 0.02046472 -0.52871895 0.0041709105 -0.013221113
0.37325466 0.6796323 -0.020023309 0.43678674 -0.062189445 0.008527785 0.55649227 -0.3669194
0.37457517 0.32614562 0.12371834 -0.08451823 0.42751428 0.08804402 -0.20876662 -0.04053439
-0.056781303 0.028851654 0.1759424 0.2292933 0.12882482 0.28203988 0.23982842 0.3291276
0.02093037 -0.07511525 0.22403172 -0.1044909 0.08300603 -0.4973642 0.066732004 -0.005153646
-0.052246038 -0.055224698 -0.05285371 0.13283727 -0.6307654 0.40384424 -0.07167961 0.042347286
0.39563516 0.19236702 -0.16392584 -0.16986135 -0.022976495 -0.13499232 -0.09916066 0.02031193
00000000: faea 2c3e 4369 44bf 28a7 21be 3fe2 eabe
00000010: 6d83 0abd 6aea 85bc 24e9 2cbe d98c 16be
00000020: 531c a4bd 3632 18be 9459 663e c53b 013d
00000030: a1a5 a73c 205a 07bf 22ac 883b 5e9d 58bc
00000040: 3c1b bf3e 62fc 2d3f ec07 a4bc 83a2 df3e
00000050: 5cba 7ebd 1fb8 0b3c 4776 0e3f dcdc bbbe
00000060: 51c8 bf3e 8ffc a63e 0b60 fd3d e517 adbd
00000070: 27e3 da3e 6c50 b43d ebc6 55be 6307 26bd
00000080: 8393 68bd 4e5a ec3c 3f2a 343e ddcb 6a3e
00000090: a7ea 033e 8867 903e 9595 753e 6a83 a83e
000000a0: 2b76 ab3c 06d6 99bd 9268 653e 53ff d5bd
000000b0: 11ff a93d 85a6 febe caaa 883d ebdf a8bb
000000c0: f1ff 55bd 4b33 62bd 227d 58bd 7e06 083e
000000d0: d779 21bf acc4 ce3e c2cc 92bd 5974 2d3d
000000e0: b190 ca3e dcfb 443e 2ddc 27be 22f0 2dbe
000000f0: 3439 bcbc 6d3b 0abe be14 cbbd 3465 a63c

critic.4.weight f4 [1, 64]
1.3313352 -3.321269 -0.012570887 1.6091996 1.9868953 -0.005772362 0.006586487 -0.06525181
-0.013613366 -0.032221787 0.36799377 3.2527516 -0.08809479 -2.6620686 2.8394918 -0.080835484
1.4325552 0.76422745 -0.05308588 1.9512638 -0.10057378 -1.168123 0.6969982 1.0699071
0.8694106 -0.5173079 -0.8643574 -0.048973694 0.5074129 1.5003347 2.5978181 -0.026859246
0.0067523024 0.012965109 0.5590801 1.65135 0.81601673 -1.3589089 1.398608 1.6960834
-4.3316927 -0.6857558 5.944472 1.8923348 1.0258375 2.038692 -3.5803888 0.5321282
0.02163669 0.007909486 -0.022992307 -0.7540824 -1.6817832 0.64819854 -0.044349395 -0.26030916
0.7283664 -1.235078 1.7855382 1.4689515 3.0654397 -0.08172316 -0.10147377 0.008578262
00000000: 3169 aa3f ac8f 54c0 1ff6 4dbc 41fa cd3f
00000010: 9652 fe3f 1526 bdbb 75d3 d73b bea2 85bd
00000020: 980a 5fbc fefa 03bd ae69 bc3e 152d 5040
00000030: 0b6b b4bd 555f 2ac0 3cba 3540 138d a5bd
00000040: f85d b73f 69a4 433f 9470 59bd 03c3 f93f
00000050: a0f9 cdbd 0e85 95bf 796e 323f b7f2 883f
00000060: b191 5e3f 4a6e 04bf 8746 5dbf a498 48bd
00000070: d0e5 013f f80a c03f a742 2640 ec07 dcbc
00000080: 6b42 dd3b 9c6b 543c e01f 0f3f 705f d33f
00000090: 79e6 503f baf0 adbf 9605 b33f 4319 d93f
000000a0: 3a9d 8ac0 b18d 2fbf 1d39 be40 0738 f23f
000000b0: a54e 833f ee79 0240 1725 65c0 8e39 083f
000000c0: 6d3f b13c ca96 013c 5d5a bcbc 8b0b 41bf
000000d0: ac44 d7bf 57f0 253f b6a7 35bd 3e47 85be
000000e0: 3876 3a3f 0917 9ebf 848c e43f 9a06 bc3f
000000f0: 2a30 4440 795e a7bd 7bd1 cfbd d78b 0c3c
