model/MountainCarContinuous-v1/3level/HAC_MountainCarContinuous-v1_solved_level_1_actor.pth (torch, 20865 bytes, 6 tensors)

actor.0.weight f4 [64, 4]
-0.57241076 -2.690557 0.0017715856 -0.12430107 0.19825916 -3.1688826 -0.014754883 0.07739423
-0.1926853 2.2222414 -0.15038621 -0.20874023 -0.07108152 -0.44271582 0.13700461 -0.08856809
0.31182948 -4.048021 -0.000120030854 -0.621643 -0.3429834 -3.7486222 -0.021951517 -0.92665213
0.19213659 -0.3737254 -0.21893495 0.43400657 1.0907563 1.6937085 -0.33767253 -0.48452663
-0.1899279 -0.8044225 0.30319506 -2.4445078 -0.19389738 -5.654707 -0.05457899 0.055758756
-0.44197133 1.338358 -0.04669129 0.0728146 0.29618403 -4.9603176 1.1074369 1.2646549
-0.18669593 -5.0689063 0.14438322 -0.09476024 1.4220947 0.8399674 -0.41030896 -0.4431512
0.7890118 4.3663163 -0.35795188 -0.5059553 -0.0069811605 -0.37558147 -0.36053756 -0.26472163
-0.153626 -3.71329 0.178299 -0.055307798 -0.8264724 2.0850348 -0.1957612 -0.5626979
-0.21773599 -5.0999017 0.16087496 -0.034118917 0.17103748 0.61471665 0.72058654 0.5132755
0.48415908 2.0853689 -0.069335416 0.10023364 0.27593583 4.653176 -0.05233238 0.2089242
-0.3426814 -2.8965778 -0.03221364 0.45328015 0.3015678 -0.06270987 0.4606341 0.45090473
0.010217667 -0.43373972 0.2912737 -0.41727585 0.8617091 4.296348 -0.45382693 -0.5440933
0.046717048 0.22062011 -0.22072911 0.3347438 -0.5663965 8.190311 -0.0017534046 0.4562197
-0.023200901 -5.3785725 -0.10494959 -0.04689311 1.198847 2.1965923 0.33448353 -0.17581668
-0.6454137 2.3483405 -0.036120735 0.14545569 0.20837502 -1.2399696 0.034862828 -1.9559845
0.43014944 -3.8979807 -0.0045924895 0.10592283 -0.012701668 -4.589857 0.12454091 0.7659215
0.014822143 -3.9165661 0.26694912 0.20667306 0.2836665 -1.4267836 0.026048766 0.2679085
0.26715443 0.57184726 -0.24175958 0.12522036 0.671321 1.4272208 -0.4719947 -0.24184188
0.26746967 -4.962508 -0.12312936 0.23049492 0.67661303 3.772689 0.31546614 -0.5398665
-0.6785062 -4.456408 0.30650437 -0.44725072 -0.58261734 1.1531335 0.09539881 0.106921025
-0.82774687 -0.85690445 -0.20018648 -0.22292075 -0.41166294 -3.3131227 -0.11424818 0.11016428
0.5842786 -1.0133562 -0.014411233 0.2702439 -0.14139736 -0.47527844 -0.17971486 0.21382648
0.8152307 -4.7043853 0.7963297 -0.769515 0.8223584 -0.67932653 -0.4058647 0.069632635
0.61049235 2.8394372 -0.006698142 0.025637222 -0.22905652 -5.5043254 -0.12152335 -0.6182341
-0.22930019 -3.7522233 0.06535974 -0.22028266 -0.41531104 -4.2053647 0.07379103 0.21803549
0.50810695 -7.8552623 0.29119954 0.055945586 -0.36266348 -5.1237087 -0.08181489 -0.4081081
0.12072175 3.556231 0.06883352 -0.2812802 0.31394374 -5.256338 -0.04429096 -0.40978283
-0.019334573 -3.9569452 -0.16702104 -0.24511822 0.021736585 -2.4311802 -0.053211592 0.8601944
-0.18166813 -3.8503282 -0.0133024845 0.07557664 1.924782 1.3498231 -0.20639612 0.016348088
-0.47506756 3.4750648 -0.02727 -0.09648597 -0.19560672 -3.9145687 0.12525393 -0.20448978
-0.18863672 0.24697082 -0.18003957 -0.3712854 -0.26563025 -0.53911453 0.20979667 0.5563342
00000000: 8389 12bf 1632 2cc0 8c34 e83a 8f91 febd
00000010: 7304 4b3e f9ce 4ac0 77be 71bc de80 9e3d
00000020: 4c4f 45be 3439 0e40 d8fe 19be 00c0 55be
00000030: 3093 91bd a6ab e2be f04a 0c3e 3063 b5bd
00000040: 1da8 9f3e 6389 81c0 13b9 fbb8 ff23 1fbf
00000050: 859b afbe 6de9 6fc0 abd3 b3bc 1339 6dbf
00000060: 74bf 443e f058 bfbe 7c30 60be 1c36 de3e
00000070: e79d 8b3f 71cb d83f 6ae3 acbe e013 f8be
00000080: 767c 42be a2ee 4dbf 623c 9b3e d172 1cc0
00000090: 098d 46be 5cf3 b4c0 388e 5fbd 4b63 643d
000000a0: 114a e2be 514f ab3f 5e3f 3fbd d21f 953d
000000b0: 6fa5 973e ecba 9ec0 7ec0 8d3f 36e0 a13f
000000c0: 382d 3fbe 7b34 a2c0 32d9 133e a811 c2bd
000000d0: 3307 b63f 1b08 573f 0414 d2be b7e4 e2be
000000e0: adfc 493f ddb8 8b40 7845 b7be 4986 01bf
000000f0: 38c2 e4bb 374c c0be 6198 b8be 9889 87be
00000100: 2250 1dbe 8ba6 6dc0 0394 363e 6e8a 62bd
00000110: b293 53bf 3671 0540 a075 48be f80c 10bf
00000120: 2ff6 5ebe 6532 a3c0 68bc 243e 47c0 0bbd
00000130: 7324 2f3e 125e 1d3f 5c78 383f 0666 033f
00000140: b3e3 f73e af76 0540 baff 8dbd 4b47 cd3d
00000150: 7647 8d3e d1e6 9440 7a5a 56bd 3af0 553e
00000160: f073 afbe 8861 39c0 73f2 03bd 5614 e83e
00000170: 1867 9a3e 086e 80bd 3cd8 eb3e fcdc e63e
00000180: 0068 273c 2213 debe d421 953e 2ea5 d5be
00000190: f898 5c3f af7b 8940 015c e8be b349 0bbf
000001a0: 605a 3f3d 3dea 613e d006 62be 8a63 ab3e
000001b0: 5cff 10bf 840b 0341 7fd2 e5ba a195 e93e
000001c0: d10f bebc 441d acc0 d0ef d6bd fd12 40bd
000001d0: d273 993f f894 0c40 6d41 ab3e 4a09 34be
000001e0: d539 25bf 364b 1640 56f3 13bd 56f2 143e
000001f0: 4360 553e 53b7 9ebf 53cc 0e3d b35d fabf
00000200: 8c3c dc3e 8478 79c0 987c 96bb 12ee d83d
00000210: a81a 50bc 1ce0 92c0 4e0f ff3d 6e13 443f
00000220: 93d8 723c 05a9 7ac0 8ead 883e 1aa2 533e
00000230: bc3c 913e d8a0 b6bf 3964 d53c 4e2b 893e
00000240: 77c8 883e 9564 123f d38f 77be c439 003e
00000250: b1db 2b3f 2caf b63f 4aa9 f1be 66a5 77be
00000260: c9f1 883e decc 9ec0 3f2b fcbd dc06 6c3e
00000270: 8336 2d3f bd73 7140 c784 a13e b134 0abf
00000280: 95b2 2dbf e59a 8ec0 24ee 9c3e 0cfe e4be
00000290: 6926 15bf e199 933f 7460 c33d 69f9 da3d
000002a0: 38e7 53bf 175e 5bbf affd 4cbe 5645 64be
000002b0: 7cc5 d2be 340a 54c0 f3fa e9bd cf9d e13d
000002c0: 4893 153f a8b5 81bf 181d 6cbc 695d 8a3e
000002d0: 78ca 10be b257 f3be 2c07 38be 54f5 5a3e
000002e0: f6b2 503f 538a 96c0 43dc 4b3f effe 44bf
000002f0: 1586 523f 58e8 2dbf 7fcd cfbe 8e9b 8e3d
00000300: 3a49 1c3f 57b9 3540 167c dbbb 2705 d23c
00000310: cb8d 6abe 6f23 b0c0 3ce1 f8bd 9744 1ebf
00000320: abcd 6abe 6d24 70c0 54db 853d c791 61be
00000330: a6a3 d4be 5992 86c0 c01f 973d b244 5f3e
00000340: 4c13 023f 4f5e fbc0 1b18 953e 3327 653d
00000350: 07af b9be 6cf5 a3c0 918e a7bd 8bf3 d0be
00000360: f73c f73d 4a99 6340 97f8 8c3d f503 90be
00000370: 3cbd a03e ec33 a8c0 706a 35bd 0ecf d1be
00000380: 8a63 9ebc 973e 7dc0 9007 2bbe 4500 7bbe
00000390: ec10 b23c 7598 1bc0 66f4 59bd b335 5c3f
000003a0: 3607 3abe c76b 76c0 aaf2 59bc edc7 9a3d
000003b0: 425f f63f 01c7 ac3f 8159 53be 6dec 853c
000003c0: 0e3c f3be 7667 5e40 5665 dfbc 709a c5bd
000003d0: 214d 48be 4b88 7ac0 9142 003e c565 51be
000003e0: fc29 41be ebe5 7c3e 4b5c 38be 1f19 bebe
000003f0: b000 88be 6903 0abf f0d4 563e eb6b 0e3f

actor.0.bias f4 [64]
-0.28687587 0.048678264 -0.1311273 -0.43219513 0.10555463 -0.31854218 -0.37665153 -0.365529
-0.14349215 -0.3133141 -0.09846113 -0.29248846 -0.06463775 0.0609759 -0.21552968 -0.53362197
0.03756948 -0.55008435 0.015176205 -0.08925191 0.18143836 -0.021576332 0.05024434 -0.46664244
-0.29719418 -0.24810305 -0.35004473 -0.2046342 0.011258033 0.06342677 -0.22835344 0.05204628
0.20296843 -0.05566822 0.029437304 0.18976638 -0.041558843 -0.16616563 0.10896139 0.05275154
-0.67436796 -0.1686369 -0.5892121 -0.3561973 0.10253716 -0.42926782 -0.075605825 -0.23409213
-0.22009125 -0.38669398 -0.08995043 -0.072170764 -0.00868382 -0.112435505 -0.036593992 0.11372541
0.012139155 0.01933222 0.07010036 -0.2898981 -0.4397606 -0.12482568 -0.5090844 -0.16662359
00000000: 65e1 92be dc62 473d 3c46 06be ae48 ddbe
00000010: 072d d83d f617 a3be 78d8 c0be 9e26 bbbe
00000020: 9bef 12be b56a a0be fda5 c9bd 0cc1 95be
00000030: cc60 84bd dec1 793d d0b3 5cbe 739b 08bf
00000040: 74e2 193d 54d2 0cbf 9ea5 783c b5c9 b6bd
00000050: faca 393e d9c0 b0bc 02cd 4d3d c2eb eebe
00000060: d629 98be ba0e 7ebe 1039 b3be a18b 51be
00000070: 9d73 383c e5e5 813d 7cd5 69be 7b2e 553d
00000080: f5d6 4f3e 5c04 64bd 8026 f13c 1e52 423e
00000090: 9b39 2abd 5327 2abe 2627 df3d 0012 583d
000000a0: 61a3 2cbf 27af 2cbe 9bd6 16bf 7e5f b6be
000000b0: 01ff d13d fec8 dbbe 3ad7 9abd d9b5 6fbe
000000c0: 9a5f 61be c1fc c5be ee37 b8bd 44ce 93bd
000000d0: 9546 0ebc 9644 e6bd 95e3 15bd dee8 e83d
000000e0: 4ee3 463c 9b5e 9e3c c790 8f3d 866d 94be
000000f0: 4d28 e1be 9ba4 ffbd 5b53 02bf 609f 2abe

actor.2.weight f4 [64, 64]
-0.14668733 -0.07836408 -0.0027356194 -0.046252683 0.05078309 0.06699796 0.033317998 0.059129383
0.07647398 -0.071294814 -0.010652394 0.023488011 0.11577019 0.09195224 0.0070499647 -0.07040042
-0.055675082 -0.08133604 -0.14156021 -0.07509516 -0.047630027 -0.07851662 -0.00017488544 0.07362911
-0.093135715 -0.0685007 0.050343797 -0.06940078 -0.067384414 0.03632919 -0.072132744 0.096588686
0.09618884 -0.04100646 -0.10784197 -0.043273468 0.09543115 -0.044180796 0.06471367 0.04926741
-0.059145898 -0.0415263 -0.01691544 0.06671152 -0.097536914 -0.10577729 -0.117350064 -0.100170575
0.08285154 0.06972981 -0.032172594 -0.07172642 -0.00825632 0.030129895 -0.029833253 0.082716465
-0.12612432 -0.12541236 0.025131699 -0.053061478 0.07238305 -0.10719436 -0.035660148 0.06199075
0.09781531 -0.73519963 0.08978812 0.052776635 -1.3085916 0.30589712 -0.026395261 0.2997207
-0.14695475 -1.4841043 0.27966908 0.058821213 -0.268958 0.438512 0.043242104 -0.061256263
-0.13448037 0.9026442 -0.20749779 0.3578298 0.22805081 0.7308874 0.11801295 -0.06914936
0.04418236 1.140988 0.3355046 0.68793154 0.039496567 0.84186137 0.28951705 -0.14406367
-0.34566373 -0.13749367 -0.43517074 -0.20533355 -0.0016168694 -0.061097387 -0.49941534 0.58714634
1.4748801 0.6033455 -0.4927288 -0.48886257 -0.1444475 0.10782948 0.3496918 -0.6584556
0.2713618 -1.0023301 -0.3115596 -0.13297445 -0.81653994 0.24706116 0.119944364 -0.6353429
-0.48378035 -0.33081353 -0.9545148 0.026773436 0.7494015 -0.087348394 0.056362215 0.009687058
-0.08735944 -0.028050078 -0.017534351 0.079791084 0.08415933 -0.076748185 0.06224239 -0.033426844
-0.118750654 -0.029688478 0.056150477 0.027484091 -0.045262136 0.027856706 -0.028440043 -0.0036616772
0.005877388 0.054795276 -0.014881089 -0.04177545 -0.044102892 -0.101748586 -0.07482951 0.11623171
-0.058646843 -0.015206322 -0.038742483 -0.08607632 0.097739205 -0.09515207 0.04904514 -0.06177615
0.025226798 0.04247391 -0.091578074 -0.06669023 -0.043322206 0.013415024 0.048479367 0.08114557
0.022950033 -0.04579113 -0.10094522 0.025514837 0.095027484 -0.0694897 0.018261027 -0.093941554
0.05949301 -0.10076798 -0.071430154 0.026017841 0.068653405 0.06544764 -0.09401285 -0.098174
-0.13174513 0.04700312 -0.120788865 -0.090654455 -0.016876409 0.030666517 0.056359872 0.04633585
-0.3531164 0.030012943 -0.18928722 -0.06008786 -0.004039353 0.49865365 -0.013567582 -0.45680472
-0.30271327 -0.1926079 0.07941183 0.060981244 -0.5705804 0.28318918 0.9340732 0.015018933
0.12508409 0.14046952 0.50015473 -0.022602469 -0.10681897 -1.085814 0.2039922 0.0918635
0.026674896 0.56794536 -0.14412576 -0.09887295 -0.63374954 0.31354037 0.21554539 -0.14147073
-0.18667689 0.013089431 0.13186052 -0.3220132 -0.010048545 -0.12717332 -0.5981934 -0.010883907
1.7377925 0.002041859 -0.76534355 0.18103856 -0.08965504 -0.018470705 0.49076948 -0.3882168
2.381563 -0.6697483 0.33155644 0.23549113 0.25815278 -0.3857888 -0.13686652 -0.102594644
0.28183347 -0.20809907 0.3918173 -0.33354202 -0.5350669 0.18763357 0.040016774 -0.0068962313
00000000: 3435 16be 597d a0bd 1448 33bb 7473 3dbd
00000010: ee01 503d 3a36 893d 7478 083d a731 723d
00000020: 649e 9c3d 0403 92bd 6187 2ebc ee69 c03c
00000030: ec18 ed3d 7551 bc3d 6403 e73b 182e 90bd
00000040: 8e0b 64bd 8293 a6bd 29f5 10be 7ecb 99bd
00000050: b417 43bd 52cd a0bd 7461 37b9 dcca 963d
00000060: f0bd bebd 184a 8cbd 4c35 4e3d ff21 8ebd
00000070: d700 8abd ebcd 143d 55ba 93bd 4ad0 c53d
00000080: a8fe c43d 64f6 27bd 40dc dcbd 853f 31bd
00000090: 6871 c33d ecf6 34bd 9a88 843d a0cc 493d
000000a0: f842 72bd 7b17 2abd 4092 8abc 0da0 883d
000000b0: 6fc1 c7bd c4a1 d8bd 3b55 f0bd 3b26 cdbd
000000c0: 11ae a93d 81ce 8e3d 69c7 03bd 4de5 92bd
000000d0: 8445 07bc f8d2 f63c de64 f4bc 4067 a93d
000000e0: bc26 01be 196c 00be fee0 cd3c fe56 59bd
000000f0: 913d 943d b788 dbbd 6010 12bd 03ea 7d3d
00000100: 6553 c83d 0b36 3cbf d5e2 b73d 502c 583d
00000110: ee7f a7bf 8c9e 9c3e e03a d8bc fe74 993e
00000120: 4e7b 16be 21f7 bdbf c930 8f3e 83ee 703d
00000130: ddb4 89be a584 e03e a21e 313d d9e7 7abd
00000140: 39b5 09be b113 673f 4d7a 54be 7835 b73e
00000150: 2786 693e 701b 3b3f c6b0 f13d 2e9e 8dbd
00000160: 90f8 343d e50b 923f 42c7 ab3e 481c 303f
00000170: 27c7 213d 3a84 573f 943b 943e 6d85 13be
00000180: d6fa b0be 24cb 0cbe b3ce debe f542 52be
00000190: 22ed d3ba 4141 7abd 5eb3 ffbe 394f 163f
000001a0: dfc8 bc3f da74 1a3f f346 fcbe 324c fabe
000001b0: 0cea 13be b4d5 dc3d ce0a b33e 8c90 28bf
000001c0: efef 8a3e 5a4c 80bf bd84 9fbe 742a 08be
000001d0: c308 51bf 9afd 7c3e 64a5 f53d d5a5 22bf
000001e0: 0fb2 f7be 6460 a9be 155b 74bf f753 db3c
000001f0: c7d8 3f3f b7e3 b2bd 11dc 663d 77b6 1e3c
00000200: 82e9 b2bd 47c9 e5bc 33a4 8fbc 8269 a33d
00000210: ba5b ac3d 272e 9dbd e0f1 7e3d 96ea 08bd
00000220: 8b33 f3bd 4035 f3bc 0bfe 653d 5126 e13c
00000230: ca64 39bd bf33 e43c 18fb e8bc c0f8 6fbb
00000240: 1b97 c03b 0371 603d d0cf 73bc bc1c 2bbd
00000250: 3ca5 34bd 9061 d0bd 3740 99bd e40a ee3d
00000260: ac37 70bd f023 79bc 70b0 1ebd c848 b0bd
00000270: 7e2b c83d 17df c2bd 8fe3 483d fd08 7dbd
00000280: 6ea8 ce3c 1ff9 2d3d 498d bbbd e394 88bd
00000290: a072 31bd b0ca 5b3c 4d92 463d a62f a63d
000002a0: b501 bc3c 7b8f 3bbd 5ebc cebd 7e04 d13c
000002b0: c59d c23d 9e50 8ebd 2698 953c 6e64 c0bd
000002c0: f1ae 733d 715f cebd f949 92bd 5e23 d53c
000002d0: 289a 8c3d 6a09 863d cf89 c0bd 730f c9bd
000002e0: 32e8 06be 5886 403d 2760 f7bd 0ba9 b9bd
000002f0: 6540 8abc 5938 fb3c 9cd9 663d a9ca 3d3d
00000300: accb b4be b4dd f53c 82d4 41be b01e 76bd
00000310: 8d5c 84bb 884f ff3e 904a 5ebc 4fe2 e9be
00000320: 3cfd 9abe 013b 45be aba2 a23d 78c7 793d
00000330: 8f11 12bf 2cfe 903e 6c1f 6f3f f911 763c
00000340: 0b16 003e 3ed7 0f3e 240a 003f d028 b9bc
00000350: e7c3 dabd f4fb 8abf 55e3 503e ee22 bc3d
00000360: 5085 da3c de64 113f b495 13be e77d cabd
00000370: 693d 22bf 5d88 a03e eeb7 5c3e b4dd 10be
00000380: 3a28 3fbe 0e75 563c 7206 073e eade a4be
00000390: a7a2 24bc b939 02be 3423 19bf 6a52 32bc
000003a0: fc6f de3f b6d0 053b 8eed 43bf 2c62 393e
000003b0: 109d b7bd e04f 97bc 2346 fb3e 5ac4 c6be
000003c0: 876b 1840 a074 2bbf c4c1 a93e 9624 713e
000003d0: 9a2c 843e 1c86 c5be bd26 0cbe 241d d2bd
000003e0: 7a4c 903e ec17 55be 479c c83e 05c6 aabe
000003f0: 25fa 08bf 0423 403e a1e8 233d c8f9 e1bb

actor.2.bias f4 [64]
-0.1065635 0.0112647535 -0.14834587 -0.06946012 -0.07223147 -0.063184716 0.26097354 -0.079866916
0.02303341 0.026335819 -0.1224842 0.11090624 -0.023535803 0.11309145 -0.078895584 -0.017960988
0.07072862 -0.14252207 -0.054407272 -0.03859235 -0.14619882 0.044195566 -0.05118226 0.08408313
-0.029103706 -0.09644799 -0.172301 -0.061490703 0.017897595 -0.051551573 0.028631758 0.13451226
-0.0644955 -0.037715815 0.006769733 -0.14363869 0.20308328 -0.10901805 0.02735697 0.04843175
0.11479914 0.15587391 -0.11967308 0.00046878643 -0.16994159 -0.08254015 -0.054507133 -0.079821244
-0.0415093 -0.09039225 -0.12147626 -0.02994099 0.13728401 -0.020263553 -0.03392206 0.08102784
0.11644298 0.13655822 -0.12484957 -0.005989868 -0.0535679 0.10078803 0.07296451 -0.24597749
00000000: f73d dabd cd8f 383c fbe7 17be 1b41 8ebd
00000010: 18ee 93bd fd66 81bd 539e 853e 4491 a3bd
00000020: 90b0 bc3c 37be d73c ffd8 fabd d022 e33d
00000030: 28ce c0bc 7d9c e73d 0294 a1bd ec22 93bc
00000040: 2bda 903d 4ef1 11be 29da 5ebd 0313 1ebd
00000050: 25b5 15be 6906 353d 7da4 51bd c733 ac3d
00000060: e56a eebc 8686 c5bd ac6f 30be addd 7bbd
00000070: fa9d 923c be27 53bd 268d ea3c 95bd 093e
00000080: 3716 84bd e67b 1abd a3d4 dd3b 0516 13be
00000090: 10f5 4f3e db44 dfbd b91b e03c 5f60 463d
000000a0: d01b eb3d 699d 1f3e 2917 f5bd 73c7 f539
000000b0: 2b05 2ebe cf0a a9bd df42 5fbd 5279 a3bd
000000c0: a805 2abd 921f b9bd 8cc8 f8bd cf46 f5bc
000000d0: 2e94 0c3e c0ff a5bc dcf1 0abd edf1 a53d
000000e0: a879 ee3d ebd5 0b3e 22b1 ffbd a846 c4bb
000000f0: 046a 5bbd f469 ce3d 6b6e 953d 86e1 7bbe

actor.4.weight f4 [2, 64]
-0.026948042 -0.57000935 -0.041952997 -0.087916255 0.012966837 -0.25714165 0.25856814 -0.04615078
0.82464737 0.23974705 0.012270591 0.5674343 0.07040959 0.16323003 -0.0351288 -0.37014616
0.23113216 0.0399865 -1.1796391 0.030399015 -0.13813046 0.15654702 -0.30404496 -0.10640065
-0.010634002 0.071281984 0.068638965 0.0014943624 -1.03091 -0.013983673 -0.00041265806 0.35826814
0.9437963 -0.045598682 -0.024624238 0.03446606 0.20548782 0.013628246 -0.263331 -0.28502163
-0.18798988 -0.11422255 -0.002974656 -0.03495014 -0.48303202 -0.12771386 -0.04762584 0.3248042
-0.04327981 -0.035403006 -0.12587896 0.5097666 -1.4526011 0.020888597 -0.24996306 -0.025436578
0.45184585 0.13883808 0.0122456355 -0.031696357 0.14054398 0.19180046 0.44495967 -2.3688908
0.092320636 -0.61640316 -0.0329671 -0.08843315 0.04182751 0.29561535 -0.11674614 0.096804656
0.82383037 0.20156425 0.032775726 0.526979 0.013528244 0.1927922 -0.09457867 -0.24717091
-0.27946097 0.03993591 -1.1102455 0.012511052 0.13801575 0.12235528 0.082073 0.3485695
0.028767547 -0.07931131 -0.033201892 0.019345766 -1.1494485 0.009250643 0.40828183 -0.16840428
-0.28006542 0.058692716 0.09441736 0.023466222 -0.07309233 0.11318452 -0.6380546 -0.4636353
0.48481146 0.17376564 -0.0779436 -0.06907739 -0.18619037 0.05242133 0.032517985 0.73326296
-0.040433 0.004673403 0.0091542965 0.3033134 -1.7408438 -0.061650295 0.32267842 -0.3628337
0.029636504 0.26693907 0.018884549 -0.05334145 0.21676643 0.32930186 0.48391557 -0.03185057
00000000: 24c2 dcbc 22ec 11bf e8d6 2bbd 700d b4bd
00000010: db72 543c 12a8 83be 0b63 843e 9a08 3dbd
00000020: 171c 533f 4080 753e 970a 493c 6043 113f
00000030: e732 903d c625 273e 37e3 0fbd cc83 bdbe
00000040: e9ad 6c3e e2c8 233d 6afe 96bf 5b07 f93c
00000050: 1272 0dbe dd4d 203e c8ab 9bbe 96e8 d9bd
00000060: 3d3a 2ebc 4afc 913d 9692 8c3d 7bde c33a
00000070: dcf4 83bf c71b 65bc 075a d8b9 ec6e b73e
00000080: a29c 713f afc5 3abd c5b8 c9bc 492c 0d3d
00000090: 666b 523e 0249 5f3c 52d3 86be 5bee 91be
000000a0: 6b80 40be 83ed e9bd 72f2 42bb e127 0fbd
000000b0: f94f f7be 6cc7 02be 5013 43bd bc4c a63e
000000c0: 2c46 31bd be02 11bd 6ae6 00be 1080 023f
000000d0: d5ee b9bf 901e ab3c 51f6 7fbe 5f60 d0bc
000000e0: 5758 e73e 922b 0e3e eba1 483c 0ad4 01bd
000000f0: c3ea 0f3e 5767 443e c1d1 e33e e89b 17c0
00000100: 9a12 bd3d 99cc 1dbf 8308 07bd 701c b5bd
00000110: 5353 2b3d e55a 973e 9a18 efbd 8541 c63d
00000120: 8ce6 523f dc66 4e3e d73f 063d 19e8 063f
00000130: 91a5 5d3c 526b 453e 76b2 c1bd 5f1a 7dbe
00000140: 8215 8fbe d693 233d 861c 8ebf 28fb 4c3c
00000150: 0054 0d3e 6895 fa3d e415 a83d b477 b23e
00000160: eba9 eb3c f86d a2bd b5fe 07bd 037b 9e3c
00000170: 2121 93bf 0290 173c 510a d13e 2c72 2cbe
00000180: bc64 8fbe c667 703d e45d c13d 3c3c c03c
00000190: 6eb1 95bd 49cd e73d 8c57 23bf 9b61 edbe
000001a0: 3539 f83e 9fef 313e e5a0 9fbd 7278 8dbd
000001b0: b0a8 3ebe c0b7 563d 9431 053d 1fb7 3b3f
000001c0: 139d 25bd 5923 993b e7fb 153c e54b 9b3e
000001d0: f8d3 debf 0585 7cbd 1b36 a53e 57c5 b9be
000001e0: 41c8 f23c 3dac 883e c5b3 9a3c 907c 5abd
000001f0: 05f8 5d3e 419a a83e c8c3 f73e be75 02bd

actor.4.bias f4 [2]
0.030236477 -0.046956323
00000000: 7db2 f73c 4655 40bd
