model/MountainCarContinuous-v1/3level/HAC_MountainCarContinuous-v1_level_0_crtic.pth (torch, 20865 bytes, 5 tensors)

critic.0.weight f4 [64, 5]
00000000: 9bd3 f8be b8fb 8b40 d2a9 3a3b c929 ec3e
00000010: f488 83c0 24e4 d4be 1d83 14c0 5b62 89bc
00000020: d766 f43e 4de7 07c0 d5c6 75bf 5df2 ab40
00000030: e31e 3b3b e5f1 f53e 794d 6fbf e3c5 a5bf
00000040: 770d d73f c2d3 2d3c 646d 983e e162 b4bf
00000050: 542f 02be 401d 1c40 3532 223c 8255 5e3f
00000060: 80c5 8540 24b9 a33f 74e9 5ec0 1163 0dbc
00000070: 7caf ddbd 8404 c2bf 31a1 4bbf 574a 18c0
00000080: acca 2abb dfb4 4c3f 3075 be3f 41c0 60bf
00000090: 7bb9 91bf b800 e7ba ffc1 5f3f edaa 263e
000000a0: ba3c 7abe 903e 4440 428c b93b 4d60 6abf
000000b0: 113a 1cbe c5ab 393f 7d95 b840 758b b1bb
000000c0: bd52 25bf 8116 933f c4c9 a4be e8b5 eebf
000000d0: e83b 353a 4def 0a3f f4f6 653f 3d3f c63e
000000e0: 01cb b240 522f 9ebb 8fd7 3cbd 0545 b53e
000000f0: 9e9f 623f 7446 a9c0 333e f0bb 95e4 0fbf
00000100: e324 a6c0 1a80 85be 365c 9340 54c0 d3bb
00000110: 62c2 bf3f c54c 3e3f 1e4c 17bf b545 a0c0
00000120: 9cd3 af3b 1a98 073f b7b6 7d3f ef13 a2bd
00000130: 9179 f13f b83a 7dbd f14e 693f ba42 853f
00000140: 3468 d3bb bd8c 703f 95f2 b4bd d6c1 abbe
00000150: b5f4 603f 37ea 07bd 4ea8 a740 5641 583b
00000160: 4e95 10bf 2a61 60c0 ee5f d23e 307c c4c0
00000170: 2373 35bc ae73 f93e 6539 9abf 7482 53bf
00000180: a678 2dbf 5c0d 713c d028 323f f4e7 5540
00000190: c27e 6dbf 0017 79bf cf09 b73b ca12 173f
000001a0: 8eb2 6540 870e d4be 64a4 7740 ed08 48bc
000001b0: 5366 4ebf 852f 08c0 4d11 2f3e 2b82 4ebe
000001c0: 197e be3d 5710 c0bc 7978 22be 0554 cabe
000001d0: abe4 e2c0 8844 1c3c e60d a83e 79ed ce3f
000001e0: c05c df3e 872b 1b3f cd98 44bc bdd6 7b3f
000001f0: ff29 4b3f dc7a 993e ddbc 773e 1a06 d03b
00000200: 7790 01bf ab9d 1340 e9fe 9f3e c9f9 813e
00000210: c9fd 09be c879 573e 5a90 343f 5733 983b
00000220: fc3c 683f 977c efbc a828 923e 359c e43e
00000230: a7e0 22bd 7f7b b0c0 b008 18bd fae5 99bd
00000240: 64ef ed3f 3c54 ebbe 87ae 0ec0 e17e 23bd
00000250: 2443 133f 3dbd 2a40 10df 6ebf 8fed fe3f
00000260: d426 833c 177a e7bd 41ef ec3f be10 b33e
00000270: d58d 1ebd f85c 3a3c 987e 583e 2807 bfbe
00000280: 470d 113f bbb8 a5c0 9326 27bb 6013 003f
00000290: bd26 f13f a3d8 aabd ed24 033f ef7f 4c3e
000002a0: 3d78 cb3d 3470 bdbe 76a7 f53c 02f0 4d40
000002b0: c151 0c3c 2a78 16bf 423d 5140 e224 1bbd
000002c0: 13fb a8be 687c c53d 6db4 993a e47a 8bbe
000002d0: 3913 e73d dfe1 4940 1edb 81bd 5a20 a23d
000002e0: 1082 febf d5dc cb3e 3341 b9be 5733 eebd
000002f0: 7991 20be 293c 023f f22f 82bf 678b 7bbf
00000300: ac60 5ebb ba70 b33e 1145 923f ef7b a13e
00000310: 3ccb 87c0 c613 5bbc f201 923e 1294 4b40
00000320: c559 6bbe 80fd 8940 2ab9 273b a0ba 4bbf
00000330: 28b8 0240 a42b 433e 6b35 2fc0 a185 26bc
00000340: 0289 c93e d856 9840 51f1 613d cb4f 63be
00000350: 3952 243e f028 05be 167a 7b3e 6d54 2fbf
00000360: 72df 7840 f99f f9bc fed4 343e 0337 5bc0
00000370: e368 84bf f27f 563f fcee 1ebb 45fa 4fbe
00000380: 127e b9be 2e6d e1be d958 e1c0 1dab e4bb
00000390: 6224 62be be0e 17c0 7e1d 9abe 67d6 c63f
000003a0: 340d 3d3b bfaa 673f 6182 6440 964c 623e
000003b0: 40df f140 3b2c 0c3c ef0f 85be f0ef 50c0
000003c0: d849 213e 93a8 9d3f ecdd 0bbb 852e 0dbf
000003d0: 4b2f 8040 938b 603f bb39 ae40 44dd 7f39
000003e0: 61a3 10bf c9eb 2a3f 74ef aa3e 4da9 573f
000003f0: 5db6 c6bb 8a32 843f 8cb0 e23f ae15 61bf
-0.48598942 4.3744774 0.0028482568 0.4612563 -4.110468 -0.41580307 -2.3205025 -0.016770532
0.4773471 -2.1234925 -0.9600652 5.3733354 0.0028552345 0.48036113 -0.9347759 -1.2951015
1.6800984 0.010609569 0.29770958 -1.4092675 -0.12713367 2.4392853 0.009899666 0.86849225
4.180359 1.2790875 -3.4829988 -0.008629576 -0.108244866 -1.5157628 -0.79542834 -2.3795373
-0.0026060743 0.7996349 1.4879513 -0.87793356 -1.1384729 -0.0017624116 0.8740539 0.1627614
-0.24437228 3.0663185 0.005662472 -0.91553193 -0.15256526 0.72527725 5.768248 -0.005418236
-0.64579374 1.1491243 -0.32185185 -1.8649263 0.0006913529 0.54271394 0.89829946 0.38720122
5.5872808 -0.0048274184 -0.04610401 0.3540422 0.88524806 -5.28985 -0.0073316335 -0.56208163
-5.192003 -0.26074296 4.605006 -0.0064621363 1.4981196 0.7433589 -0.5910052 -5.008509
0.005365802 0.52966464 0.99106926 -0.07913958 1.8865224 -0.061823577 0.9113608 1.0410988
-0.006451631 0.9396475 -0.08835331 -0.33546323 0.87873393 -0.03318235 5.239295 0.0032997928
-0.5647782 -3.5059304 0.41088814 -6.1401596 -0.011074814 0.4872107 -1.2048765 -0.8262093
-0.6776222 0.014712658 0.69593525 3.3422823 -0.9277154 -0.9730072 0.005585886 0.59013045
3.589023 -0.41417333 3.8694086 -0.012209159 -0.80624884 -2.1279004 0.17096443 -0.20166843
0.09301395 -0.023445291 -0.15866269 -0.39517227 -7.0904136 0.0095378235 0.32823104 1.6166221
0.4362545 0.6061329 -0.011999321 0.9837454 0.79360956 0.29976547 0.2419314 0.0063483836
-0.5061106 2.3064983 0.3124917 0.25385883 -0.13475718 0.2104255 0.70532763 0.004644792
0.90718055 -0.029234214 0.28546643 0.44650427 -0.039765026 -5.515075 -0.03711766 -0.07514568
1.8588681 -0.45962703 -2.2294023 -0.039915923 0.57524323 2.6678002 -0.93309116 1.9916247
0.016009726 -0.11302584 1.8510514 0.3497371 -0.03870948 0.011374705 0.21142042 -0.37310147
0.56660885 -5.1788 -0.002550517 0.50029564 1.8839947 -0.083421014 0.5122822 0.19970678
0.09935043 -0.36999667 0.029987078 3.217774 0.0085644135 -0.58777106 3.2693639 -0.03787697
-0.33004054 0.09642869 0.0011726745 -0.27242196 0.11282963 3.154411 -0.063406214 0.07916327
-1.9883442 0.3981692 -0.36182556 -0.11630886 -0.15680493 0.5087305 -1.0170882 -0.98259586
-0.0033932133 0.3504694 1.1427327 0.31539866 -4.243559 -0.013371414 0.2851711 3.1809125
-0.22983463 4.312195 0.0025592544 -0.7958164 2.04249 0.19059616 -2.7376354 -0.010163696
0.3936234 4.760601 0.055161778 -0.22198407 0.1604699 -0.13003898 0.24558291 -0.684882
3.888638 -0.030471789 0.17659375 -3.4252326 -1.0344509 0.8378898 -0.0024251333 -0.20310314
-0.36228997 -0.4402861 -7.0420957 -0.006978406 -0.22084191 -2.3602748 -0.30100626 1.553418
0.002884698 0.9049491 3.5704577 0.22099528 7.558502 0.008555467 -0.2598872 -3.2646446
0.15750825 1.231707 -0.0021341993 -0.5514911 4.005773 0.87712973 5.444547 0.00024401123
-0.56499296 0.6676603 0.33385813 0.8424271 -0.00606422 1.0327923 1.7710128 -0.87923706

critic.0.bias f4 [64]
00000000: 268e c13d 8533 2fbf af83 46be 7416 9ebe
00000010: 4fa9 d43e f331 993e fdf1 9d3b 6283 523b
00000020: fe2f 80be 97a0 223f 6415 843e b7c9 843d
00000030: d1ea 403d 3a00 97be 5189 2bbe 6ae5 3bbf
00000040: 4dfc 0abf f2ae 9bbe 6b70 be3e 3efa 903e
00000050: 5374 aa3e a2b0 d1be 3b45 dcbe 16c2 8fbe
00000060: 6987 0a3f 16d8 e33e 0098 cebe 0e42 73be
00000070: eeb9 35be cf82 093e 29df ecbe 1099 c9be
00000080: a50a 9a3e 4e0a e1be bf09 81be ffaf 77be
00000090: c9e7 a8be e132 dfbe 0776 bdbe f10f e73d
000000a0: 7c8d 3dbe 7846 2b3d 581d bbbe 1ee4 ee3d
000000b0: cb1a 17bf acd9 60be 70aa 8b3e 9cdc ca3c
000000c0: 7440 003d feae 42be 1405 103f af36 453e
000000d0: 1935 10bf a1f0 3fbd 67e4 f4be 74ba 1c3e
000000e0: 4906 bfbe d1fd 47be ee95 e23e 9532 5bbd
000000f0: e0be 63bd 8eda 99be ee35 053e ee0f 9cbe
0.09450941 -0.6843799 -0.19386171 -0.30876505 0.41535422 0.2992092 0.004820107 0.0032121767
-0.25036615 0.6352629 0.2579757 0.064837866 0.04709894 -0.2949236 -0.16751601 -0.73396933
-0.5429123 -0.3040691 0.37195143 0.2831592 0.33291873 -0.40955073 -0.4302157 -0.28077763
0.5411287 0.44500798 -0.40350342 -0.23755667 -0.17746708 0.13428806 -0.46264008 -0.3937459
0.30086246 -0.43953174 -0.25202748 -0.24188231 -0.32989338 -0.43593505 -0.3700411 0.112823375
-0.18511003 0.04181525 -0.36545825 0.11664604 -0.5902526 -0.21958035 0.2727847 0.024763398
0.031311467 -0.19012067 0.5625775 0.19259141 -0.5633102 -0.04686034 -0.47830507 0.15305501
-0.37309483 -0.19530417 0.44255012 -0.053515036 -0.055601954 -0.30049556 0.13008854 -0.30480903

critic.2.weight f4 [64, 64]
00000000: d24c d43e a73e aa3e 98ad 23be 9d5b 40bd
00000010: b35e 82bf f474 80bf 5c91 0a40 1e8e 3b40
00000020: 01ac 643f b8e9 2e3f 5104 eabf 2b55 a6bd
00000030: a810 eebe 8807 5a3f 0757 a5bf 63c3 54bf
00000040: d053 163d 819e 233f 396d 79bf 59ff 003e
00000050: 90bb 78bf a4f5 503f 2032 8bbd 23d8 c8be
00000060: 71ae 19bf c043 313b 5a95 bf3d 5cfd a0be
00000070: ac27 4abc 047c 8cbf 1e81 2d3f 849a a4bd
00000080: 3e4a c83c a482 5bbd bcb3 913e 213b 60bc
00000090: 21b6 6c3d 0e31 443c bbe8 16c0 976a 9bbe
000000a0: bd23 913f 7e2f 3dbf f0fd 2cbc 66da 2c3f
000000b0: f762 2d3f fc36 3b3f 9d23 debf e982 11be
000000c0: f3d7 963f f436 44bf bfa3 f9bf b909 ddbf
000000d0: edea afbe fc48 7ebf 4894 cdbe 11dd 62bf
000000e0: bc6e 0d3f fe21 123f 676e d8be d339 ea3e
000000f0: 02c3 bcbe a8da b1bd bab4 153f a045 1d3f
00000100: c5bc e03f 455b a6bf 3444 06bf d5df f4be
00000110: 8ad6 0cbf 825f c6bf f92f ee3f 16ed f73f
00000120: 0d4b 0a3f 092d 3bbf 31e0 efbd a6de 903e
00000130: 1146 c1bf 1ddc 84bf 4187 6b3d 8c15 d5bf
00000140: 57a2 013f 6a78 863f 4e3b cf3f f0e9 9f3e
00000150: 21f0 c6be 2f8b e53f c2ae 92bd 338f 223f
00000160: 9c00 08bf 44ab 95bd 0e95 06bf efea 403e
00000170: 348c 4a3f 9268 b3be c707 adbe e07f 8ebc
00000180: 4d4a 523e 7ff9 de3d 7f87 753f 400f 393d
00000190: 7692 cbbe a0ec 2cbe 4914 bbbf 4c93 16bf
000001a0: da6f 763f eb2d 093f d5da d1bd c400 81bf
000001b0: 49e9 a2bf dea5 b1be 6bd9 f43c e241 563f
000001c0: ea65 c83e df55 0ebe aa19 18be 0a45 333d
000001d0: f878 09bf 99bd e23c 4b15 f43d 6152 52be
000001e0: e0ef bebd 6d0d e4be c175 553e c4ce 443f
000001f0: a051 b2bc 49fa 71be 5d2f 12bf 2d12 963e
00000200: c89a 13bd f85b a6bd d870 3c3c d321 8cbd
00000210: 4fe9 653d 5c1c 99bb 049d abbd 4094 a23d
00000220: f033 633d a829 933c 09d2 833d 70aa 85bc
00000230: f221 ddbd 3a75 1dbd 42a9 4fbd 587a 8e3d
00000240: 80fd 00bd 4c5c 4abd 49f3 a5bc da7d f3bd
00000250: f46a cf3d 62aa 98bd b82a a53d 7b50 a03d
00000260: aa66 e03c 9e98 e8bd 5477 513d 24b4 60bd
00000270: 3e8d 62bd c3c2 363c 953d 0fbd 2253 bc3d
00000280: 941b 08bd 182a 7d3d c02f 1fbe 64af bcbd
00000290: ed25 a7bd ec35 70bd 3a00 8fbd dc14 6a3c
000002a0: 575a 9b3d 97d4 bc3b c032 c1bc b45e afbd
000002b0: f0cd 05be b977 b83d cf7b efbd f7be f2bd
000002c0: ab07 3a3b ccf1 92bd dbcb 383d c2ad 64bd
000002d0: b842 b9bd 502c c03c ce23 a6bc c4d8 d9bd
000002e0: 6c1f aebd d3cd b73d 1bf7 d1bc 3848 e1bc
000002f0: 0f50 0fbd 67bd 09be 120e f2ba a3d1 04bd
00000300: c90f a5be 9aaf 953e af51 c5bd 9159 75bd
00000310: 1a6e 84be 74c9 e2be 9e42 143f 9b42 273f
00000320: 2a39 a8be 38d1 7bbf 121f d4bd 9f0b cdbe
00000330: 789a 7bbe 6c65 a73e 478b 7f3e 0881 c63e
00000340: 6db7 8bbe fcfb 73be 6a1e 0fbf 64b7 023e
00000350: d81c 0a3d 930f 863e 340f d4bd b660 873e
00000360: 43ac eabe ccab 56bf cbf4 803d bc14 983e
00000370: aa5e 6f3e a577 20bd 6b37 823d 9a37 afbd
00000380: 6b46 413b 893e 22be 7839 27bd 0740 f6bd
00000390: d661 1dbe f73a d0bd 6ee2 573f f69f 8cbe
000003a0: aa29 c5bd 3594 09bf 08d9 8abc 97c3 a3be
000003b0: 2bd1 bf3e 12b7 8abe 290e bdbe ebc0 4bbf
000003c0: a045 ffbe 175c 783d 7c0d f4be 560e a23e
000003d0: f8a1 0d3d e1dc 6bbe 4681 4e3e 5d75 c0bd
000003e0: 576e a6be e46c 0ebe 2b67 22bf defa e2bd
000003f0: e414 21be 17ec fbbd 3df9 c3be fa02 efbe
0.4146486 0.33250925 -0.1598419 -0.04696237 -1.018515 -1.0035691 2.165122 2.9305491
0.8932496 0.68325377 -1.8282567 -0.08121713 -0.46497083 0.8516774 -1.2917184 -0.83110636
0.036701024 0.6391373 -0.97432286 0.12597407 -0.971612 0.8162482 -0.0679667 -0.392274
-0.600318 0.0027048439 0.093546584 -0.31443298 -0.01233856 -1.0975347 0.6777514 -0.08037284
0.024449464 -0.053591385 0.2845744 -0.013685972 0.05779088 0.011974586 -2.3579547 -0.3035476
1.1339031 -0.7390059 -0.01055859 0.6752075 0.67729133 0.73130774 -1.7354618 -0.14210095
1.1784652 -0.7664635 -1.9503096 -1.7268592 -0.34358922 -0.99330115 -0.40152192 -0.8861857
0.5524709 0.5708312 -0.4227173 0.4574724 -0.3686753 -0.086842835 0.5847889 0.61434364
1.7557608 -1.2996603 -0.5244782 -0.4782702 -0.5501486 -1.5497897 1.860839 1.9369228
0.5402077 -0.73115593 -0.11712683 0.28294867 -1.5099508 -1.0379673 0.057502035 -1.66472
0.50638336 1.0505497 1.6189973 0.31233168 -0.3885508 1.79331 -0.07162239 0.63499755
-0.5312593 -0.07308057 -0.5257119 0.1883962 0.79120183 -0.35040718 -0.33794996 -0.01739496
0.20536156 0.10887431 0.95909876 0.04518056 -0.39760178 -0.1688714 -1.4615566 -0.5881851
0.9626442 0.5358569 -0.10246817 -1.0078359 -1.2727443 -0.3469686 0.02988883 0.8369428
0.39140254 -0.13899945 -0.1485354 0.043767013 -0.5370021 0.027678298 0.11918124 -0.20539238
-0.09323096 -0.44541493 0.20845701 0.76878 -0.021767437 -0.23630632 -0.5710352 0.29310742
-0.036036283 -0.081230104 0.011501513 -0.06842389 0.056130704 -0.00467257 -0.08379558 0.07938433
0.055469453 0.0179642 0.064365454 -0.016316622 -0.1079749 -0.038441874 -0.050698526 0.06956929
-0.031491756 -0.049404427 -0.020257609 -0.11889239 0.101278216 -0.07454373 0.080647886 0.078278504
0.027392704 -0.113572344 0.05113919 -0.054859295 -0.05531048 0.011154833 -0.03497084 0.09195544
-0.033229426 0.06180772 -0.15545559 -0.092131406 -0.08161531 -0.058645174 -0.06982465 0.0142872
0.0758559 0.0057626474 -0.02358377 -0.08562985 -0.1306684 0.0900721 -0.116935365 -0.1185283
0.0028385918 -0.07175025 0.045116287 -0.05582977 -0.09045929 0.02345863 -0.020280745 -0.10637048
-0.08502087 0.08974805 -0.025630524 -0.027500257 -0.03498846 -0.13451158 -0.0018467328 -0.032426488
-0.32238606 0.29235536 -0.096347205 -0.05989987 -0.2586525 -0.44294322 0.5791415 0.65336007
-0.32856113 -0.9836612 -0.10357489 -0.4004793 -0.24570644 0.32694566 0.24955474 0.38770318
-0.2728838 -0.23826593 -0.55905783 0.1276527 0.033718914 0.26183757 -0.10354462 0.26440972
-0.4583455 -0.8385589 0.062966906 0.2970332 0.23375955 -0.039176602 0.063582264 -0.08555527
0.0029491435 -0.15844168 -0.04082629 -0.12023931 -0.15369353 -0.10167497 0.8432988 -0.2746579
-0.096270874 -0.5374177 -0.016949192 -0.3198516 0.3746427 -0.27092797 -0.36924866 -0.79591244
-0.49857807 0.0606347 -0.47666538 0.31651562 0.034578294 -0.23033477 0.20166501 -0.09397385
-0.32506058 -0.13908726 -0.6343867 -0.11083005 -0.15730625 -0.1230089 -0.3827609 -0.46681958

critic.2.bias f4 [64]
00000000: 3ef4 373e 1fab 38bf 28a7 21be 3fe2 eabe
00000010: b0e0 d9bc 6aea 85bc 24e9 2cbe d98c 16be
00000020: 531c a4bd 3632 18be 9b6f 6d3e 6036 e43c
00000030: a1a5 a73c 17d5 01bf 753a 663c 5e9d 58bc
00000040: 6336 bc3e 6a25 2e3f ec07 a4bc e162 df3e
00000050: 5cba 7ebd dc57 973c 352d 0f3f d2d5 bdbe
00000060: 226b bf3e 5f6f a23e 47a8 f33d e517 adbd
00000070: ecb2 db3e 5221 ba3d ebc6 55be 6307 26bd
00000080: 8393 68bd 4e5a ec3c c5ac 363e 7022 6e3e
00000090: 0a06 093e 962a 8f3e fba3 6d3e a654 a43e
000000a0: 186a 973d 13d8 98bd e98a 643e 8a67 e2bd
000000b0: fc5e b63d 2fbf e6be 7058 833d daa9 90bc
000000c0: f1ff 55bd 4b33 62bd 227d 58bd 09fb 053e
000000d0: d779 21bf 166f cf3e c2cc 92bd 4a73 d13c
000000e0: 4f93 c93e f232 423e 276a 27be 22f0 2dbe
000000f0: 37d8 55bc 6d3b 0abe be14 cbbd 3465 a63c
0.17964265 -0.7213611 -0.15786421 -0.45875737 -0.026596397 -0.016347129 -0.16885811 -0.14702167
-0.08013215 -0.14862904 0.23187105 0.02785796 0.02046472 -0.50715774 0.014052023 -0.013221113
0.36760244 0.6802584 -0.020023309 0.43630126 -0.062189445 0.018474512 0.55928355 -0.37077194
0.37386423 0.31725594 0.11897331 -0.08451823 0.42909944 0.090883866 -0.20876662 -0.04053439
-0.056781303 0.028851654 0.17839344 0.23255324 0.1338121 0.27962178 0.23207085 0.32095832
0.07393283 -0.07463088 0.22318615 -0.11054905 0.089048356 -0.45067737 0.064133525 -0.017659117
-0.052246038 -0.055224698 -0.05285371 0.13084044 -0.6307654 0.4051444 -0.07167961 0.02556767
0.393702 0.18964747 -0.16349088 -0.16986135 -0.013052038 -0.13499232 -0.09916066 0.02031193

critic.4.weight f4 [1, 64]
00000000: f9dc a93f d2e9 57c0 1ff6 4dbc 41fa cd3f
00000010: 68ea 0240 1526 bdbb 75d3 d73b bea2 85bd
00000020: 980a 5fbc fefa 03bd f287 bf3e 6470 5340
00000030: 0b6b b4bd c553 2dc0 d343 3640 138d a5bd
00000040: 0f3b b73f 3428 443f 9470 59bd 592c f83f
00000050: a0f9 cdbd aba3 97bf 52dd 313f c089 893f
00000060: 293e 5d3f b1fa 0abf 656b 5cbf a498 48bd
00000070: ec81 013f cee7 bf3f a742 2640 ec07 dcbc
00000080: 6b42 dd3b 9c6b 543c c97f 0d3f 3902 dd3f
00000090: 1d9a 503f 1d1d aebf 4e9d b43f 763c d53f
000000a0: 3e81 8ec0 82df 33bf 918d bd40 ae49 ec3f
000000b0: d847 833f c45f 0640 e365 65c0 5129 073f
000000c0: 6d3f b13c ca96 013c 5d5a bcbc bc47 41bf
000000d0: ac44 d7bf 85ee 243f b6a7 35bd eb75 82be
000000e0: ba1f 3c3f bdf0 9dbf e31e e43f 9a06 bc3f
000000f0: 934a 4440 795e a7bd 7bd1 cfbd d78b 0c3c
1.327056 -3.3736463 -0.012570887 1.6091996 2.045557 -0.005772362 0.006586487 -0.06525181
-0.013613366 -0.032221787 0.37408406 3.3037348 -0.08809479 -2.708238 2.8478897 -0.080835484
1.4314898 0.76623845 -0.05308588 1.9388534 -0.10057378 -1.1846823 0.69478333 1.0745163
0.86422974 -0.54288775 -0.8610137 -0.048973694 0.5058887 1.4992616 2.5978181 -0.026859246
0.0067523024 0.012965109 0.5527311 1.7266303 0.8148516 -1.3602635 1.4110506 1.6659076
-4.4532766 -0.7026292 5.923531 1.8459985 1.02563 2.099595 -3.5843437 0.5279742
0.02163669 0.007909486 -0.022992307 -0.7550008 -1.6817832 0.6442645 -0.044349395 -0.2548059
0.7348591 -1.2339092 1.7821926 1.4689515 3.0670516 -0.08172316 -0.10147377 0.008578262
