model/MountainCarContinuous-v1/3level/HAC_MountainCarContinuous-v1_level_0_actor.pth (torch, 20609 bytes, 5 tensors)

actor.0.weight f4 [64, 4]
-0.4631623 1.6413869 -0.63519657 1.0839612 0.43048894 -0.46404788 -0.20125717 0.28743303
0.48249593 -1.4185016 0.028908132 1.1122671 -0.09078651 -0.94379324 -0.3263123 1.4591271
0.25985342 0.83568907 0.09529878 -0.37658513 -0.016789783 -0.154853 0.1548044 0.42105177
0.11898511 -1.2198474 0.65704226 -0.3699477 0.34018612 -0.41586655 -0.4712015 0.7087355
-0.07127155 1.3538393 0.17593497 -0.07949283 0.39008158 -0.7645029 0.045494873 0.6764451
0.7234868 0.049390756 0.10238271 0.70307386 0.088580154 1.603547 -0.5456597 -0.1809734
0.14027016 1.7817134 -0.52980125 -0.20035005 0.13073486 -1.7939359 0.11032614 1.4562229
0.07383188 2.3122017 -0.52017856 -0.7380508 -0.16070823 2.5934875 -0.554827 -0.35391286
-0.16587973 0.15313679 0.10447043 0.39532113 -0.15574467 1.6510601 -0.91576374 0.97103477
0.0008612275 -0.17854017 0.37271976 0.2086147 0.037927017 -0.86722225 -0.12243376 1.2583767
0.26431128 0.1454252 0.29908872 0.2333604 -0.31182984 0.083298974 0.11248544 0.2285375
-0.26515916 -2.2998257 0.36279413 1.4105587 0.022583006 -0.091085814 0.8832858 0.6486979
-0.2757521 -1.399328 -0.25945753 0.97595036 0.27174783 2.5932302 -0.39371485 -0.21808259
-0.50419056 -1.1673267 0.7148318 0.20811257 -0.31775862 -2.570246 0.423195 1.1325556
-0.0672335 0.22168511 -0.060082614 0.38375044 -0.6364253 -1.7382209 0.8574676 -0.08963747
-0.00520865 2.0874698 -0.3447128 -1.214868 -0.4200006 -1.6634575 0.46813074 1.6766818
0.32370874 -0.41864607 0.019081697 -0.03671882 0.46919158 0.60892576 0.72037464 0.059037294
0.035373922 -1.4915272 0.4803044 -0.5852662 -0.25602502 1.3086382 -0.4093184 1.2035079
0.001500878 -0.39454725 -0.32817835 0.43224418 -0.058969494 -2.3324807 0.329484 1.5062836
0.854202 0.11837576 0.6062127 -0.052015476 0.5245588 -0.31618145 0.08561433 1.0763992
-0.30256718 2.3576698 -0.8560848 -0.36148357 -0.029942393 -2.3737025 0.26743743 1.5302674
0.7587724 -0.7466691 -0.17213461 0.08253644 -0.25694096 -1.5783554 0.5447733 0.78062767
0.4337037 0.30426484 -0.007627421 0.44654807 0.065666676 0.048655152 0.110048294 -0.42915767
0.54798615 0.4231909 0.7470989 -0.2439639 -0.5130329 1.6793894 -0.6892334 0.32962227
-0.26038936 2.4710984 -0.50204676 0.3504487 -0.04746437 -0.23724425 0.17668658 -0.08573228
0.58206606 0.21418095 0.38933805 0.4609801 0.11223616 -2.2941246 0.52254826 0.56850827
-0.23036402 0.3548048 -0.100595176 -0.43719077 -0.52923113 1.3075411 -0.88984436 1.3732479
-0.4732354 2.2678752 -0.87885875 -0.1925656 -0.04154289 0.62254024 0.2568296 0.36230648
0.006005764 0.09442991 0.13611728 -0.30839264 0.30110103 -2.2468965 -0.00019167642 1.383329
-0.14610925 -2.029092 0.30737907 1.2717623 0.108911574 -0.5646609 -0.2998653 1.117382
-0.4102868 -0.28471693 0.52302897 -0.7815534 -0.41361418 -1.7707931 0.44022563 1.4340606
-0.39478981 -1.4649411 0.48439667 1.2721268 0.34077507 0.19338995 -0.009046674 0.29739517
00000000: 9c23 edbe f718 d23f 3e9c 22bf 3ebf 8a3f
00000010: 0c69 dc3e af97 edbe 5c16 4ebe 6c2a 933e
00000020: b509 f73e 7691 b5bf bfd0 ec3c c55e 8e3f
00000030: 47ee b9bd 6f9c 71bf 6812 a7be adc4 ba3f
00000040: 820b 853e b8ef 553f 022c c33d c4cf c0be
00000050: ba8a 89bc c991 1ebe 0b85 1e3e 1994 d73e
00000060: 77ae f33d f623 9cbf ec33 283f c969 bdbe
00000070: e02c ae3e 76ec d4be 5341 f1be b16f 353f
00000080: d2f6 91bd 9b4a ad3f 4c28 343e 23cd a2bd
00000090: c6b8 c73e 76b6 43bf d558 3a3d 822b 2d3f
000000a0: 6e36 393f f64d 4a3d 07ae d13d a6fc 333f
000000b0: 8369 b53d 0741 cd3f 5bb0 0bbf 1751 39be
000000c0: fba2 0f3e 2f0f e43f 0ea1 07bf 9028 4dbe
000000d0: 5cdf 053e b19f e5bf acf2 e13d 8365 ba3f
000000e0: 2b35 973d 1dfb 1340 6c2a 05bf e6f0 3cbf
000000f0: b390 24be b3fb 2540 2409 0ebf 1134 b5be
00000100: 60dc 29be e4cf 1c3e 98f4 d53d 8867 ca3e
00000110: 887b 1fbe f055 d33f 7e6f 6abf bc95 783f
00000120: 00c4 613a 3cd3 36be 20d5 be3e 189f 553e
00000130: 5c59 1b3d 4702 5ebf 8dbe fabd 7d12 a13f
00000140: cf53 873e 58ea 143e 2822 993e 07f6 6e3e
00000150: 29a8 9fbe a798 aa3d c45e e63d bc05 6a3e
00000160: f1c2 87be 5830 13c0 27c0 b93e 308d b43f
00000170: ffff b83c 338b babd 051f 623f 1111 263f
00000180: 612f 8dbe 2e1d b3bf 9ed7 84be e2d7 793f
00000190: 8822 8b3e 7cf7 2540 fe94 c9be 0b51 5fbe
000001a0: a212 01bf f66a 95bf 38ff 363f 761b 553e
000001b0: 42b1 a2be e97e 24c0 04ad d83e 95f7 903f
000001c0: b8b1 89bd 6c01 633e 3019 76bd f07a c43e
000001d0: c5ec 22bf 067e debf ff82 5b3f da93 b7bd
000001e0: 53ad aabb 1b99 0540 327e b0be cb80 9bbf
000001f0: 520a d7be 2dec d4bf d5ae ef3e 829d d63f
00000200: 27bd a53e c758 d6be 3851 9c3c 7966 16bd
00000210: e139 f03e 8fe2 1b3f 796a 383f 17d1 713d
00000220: 3fe4 103d 5dea bebf 75ea f53e 01d4 15bf
00000230: b615 83be 7581 a73f 2e92 d1be 8c0c 9a3f
00000240: 1cb9 c43a 1902 cabe fe06 a8be 1c4f dd3e
00000250: ff89 71bd 5d47 15c0 20b2 a83e e7cd c03f
00000260: fbac 5a3f fe6e f23d c130 1b3f 2e0e 55bd
00000270: 7c49 063f 89e2 a1be 9156 af3d 73c7 893f
00000280: 16ea 9abe 10e4 1640 6028 5bbf 6014 b9be
00000290: c049 f5bc beea 17c0 8fed 883e cddf c33f
000002a0: e83e 423f b525 3fbf 0e44 30be dd08 a93d
000002b0: c48d 83be 8d07 cabf 4376 0b3f 37d7 473f
000002c0: 690e de3e 9ac8 9b3e 72ef f9bb f3a1 e43e
000002d0: 407c 863d a04a 473d 0061 e13d 8eba dbbe
000002e0: d248 0c3f 7aac d83e e041 3f3f acd1 79be
000002f0: 2056 03bf 3bf6 d63f 9a71 30bf 40c4 a83e
00000300: c151 85be 7a26 1e40 2386 00bf 036e b33e
00000310: 006a 42bd 28f0 72be 54ed 343e 6894 afbd
00000320: 4802 153f 4052 5b3e 5157 c73e 9505 ec3e
00000330: 12dc e53d f0d2 12c0 b9c5 053f c289 113f
00000340: 8ce4 6bbe faa8 b53e d804 cebd 78d7 dfbe
00000350: b17b 07bf 825d a73f d7cc 63bf 96c6 af3f
00000360: e94b f2be de24 1140 e3fc 60bf eb2f 45be
00000370: e128 2abd cc5e 1f3f 2b7f 833e 3c80 b93e
00000380: 00cc c43b 7864 c13d 5462 0b3e a4e5 9dbe
00000390: ea29 9a3e 27cd 0fc0 bffc 48b9 ed10 b13f
000003a0: aa9d 15be a5dc 01c0 ca60 9d3e 1bc9 a23f
000003b0: 080d df3d 9e8d 10bf f287 99be 6006 8f3f
000003c0: 1d11 d2be 6bc6 91be 3ae5 053f e213 48bf
000003d0: 3dc5 d3be 59a9 e2bf 4165 e13e 4c8f b73f
000003e0: e421 cabe 3183 bbbf d702 f83e 0dd5 a23f
000003f0: 127a ae3e 0408 463e 8038 14bc 2e44 983e

actor.0.bias f4 [64]
0.27468672 -0.37239638 0.24559705 -0.47477546 0.29953897 -0.13861865 -0.036685027 -0.21287292
0.44186524 0.16179581 0.017231984 0.7282791 0.34938022 -0.009792845 0.5933564 0.43901813
-0.4534518 0.20332587 -0.43835187 -0.20542642 0.20578393 -0.48161626 -0.11910183 0.12720646
-0.33309764 0.6774636 -0.14472114 -0.11758704 -0.45649004 -0.15186243 0.7076721 -0.11177027
0.13970397 -0.033310518 -0.031149372 0.32466888 -0.25023893 -0.04306982 -0.030473292 -0.08360737
0.25543237 -0.0932648 0.015361685 -0.019536944 0.2440576 -0.25332612 -0.021483203 0.63869286
0.349249 -0.42402357 0.0009169713 0.120400876 -0.46618503 0.18523505 0.2896616 0.49947387
-0.41782105 0.120218515 -0.1402032 -0.22315708 -0.2199942 -0.099145584 -0.121292554 -0.49230653
00000000: bda3 8c3e bdaa bebe cb7d 7b3e c515 f3be
00000010: 2c5d 993e 0cf2 0dbe 0a43 16bd 5cfb 59be
00000020: 293c e23e cdad 253e 172a 8d3c 8070 3a3f
00000030: f7e1 b23e 2b72 20bc 34e6 173f fcc6 e03e
00000040: d62a e8be a834 503e a86f e0be 4e5b 52be
00000050: 06b9 523e 6896 f6be a9eb f3bd 6942 023e
00000060: c68b aabe 416e 2d3f c731 14be 79d1 f0bd
00000070: 10b9 e9be d381 1bbe 002a 353f d0e7 e4bd
00000080: 8f0e 0f3e 9c70 08bd f82c ffbc 003b a63e
00000090: 511f 80be fb69 30bd 20a3 f9bc 573a abbd
000000a0: 08c8 823e 9e01 bfbd 94af 7b3c f10b a0bc
000000b0: 3cea 793e f6b3 81be 8bfd afbc 6081 233f
000000c0: c4d0 b23e 9e19 d9be e760 703a bc94 f63d
000000d0: ceaf eebe 42ae 3d3e 864e 943e 0abb ff3e
000000e0: a4ec d5be 2035 f63d 6d91 0fbe 4a83 64be
000000f0: 2946 61be d70c cbbd 3b68 f8bd 9a0f fcbe

actor.2.weight f4 [64, 64]
-0.2765095 0.055528406 0.23784944 0.011743573 0.120117396 0.06329031 0.20261614 0.08719153
-0.050211467 0.121744424 -0.16481046 -0.13592319 -0.18085234 0.24355932 -0.3098416 -0.26890603
0.10463153 -0.33338654 -0.049339026 0.23455437 0.10268767 0.09279977 0.2722097 -0.10072145
0.06069102 -0.25040677 0.09279563 0.3492031 0.107920796 0.20887657 -0.45748636 0.6729606
0.24594343 -0.29837403 0.16504905 -0.29495138 -0.030020395 0.24099663 -0.48757285 0.019718533
-0.79638356 0.21703887 0.076155685 0.34765252 0.16550925 0.0642219 -0.41159964 -0.23614284
-0.24508339 0.07877535 -0.37730432 0.14601484 0.12424901 -0.44885665 -0.45159733 -0.4025541
0.045247093 0.44073218 0.4085194 0.124389276 -0.25044486 0.19635856 0.289212 0.053953573
-0.07783833 0.104229 0.040542305 0.01949285 0.10610853 0.11576347 0.034081906 0.0956638
-0.006804183 -0.047928095 0.033058375 -0.11048417 0.124105856 0.10886066 -0.089668885 0.007837936
0.11071859 -0.12485871 -0.07636027 0.06906666 0.035239995 0.038318694 -0.014073536 -0.038922846
-0.008886784 -0.10058805 0.0133221 0.020525903 -0.0713906 0.05579129 -0.0955753 0.11300704
-0.111761495 -0.10832478 -0.0010358691 0.025073081 0.029206827 0.02592507 0.05438836 -0.1163585
0.008293405 0.015846208 -0.1209853 -0.12282808 -0.09627585 0.12445369 -0.079200774 -0.04959318
-0.010270655 0.0067549646 0.018245354 0.02728434 0.026125148 -0.09867917 0.082961395 -0.10829203
0.0022594333 -0.04960534 -0.07073909 0.07153508 0.055153742 -0.0780416 -0.031160831 0.026419282
-0.079046205 -0.10222916 -0.010220796 -0.03957084 -0.09325111 0.101930425 0.05272773 -0.0024504364
0.018121243 0.08127898 -0.0014217347 -0.06600325 0.036004126 0.121152356 -0.10994846 -0.09627192
0.040469423 0.051502883 -0.12126778 0.10914005 0.012067795 0.0509326 -0.005301699 -0.0090919435
-0.05378644 -0.04116556 0.09051022 0.012318298 0.072084635 -0.08193298 -0.06414312 -0.036641404
0.015057147 -0.0039328337 0.04648815 0.02611886 -0.08864984 -0.0769172 0.09779617 -0.09972568
-0.06922229 -0.06857994 -0.08843766 -0.11374082 -0.091451526 -0.082742184 0.009059936 0.02974242
-0.055437505 -0.025487259 -0.109531805 -0.07171485 0.050186783 -0.08992538 0.07137425 0.066650406
-0.008809909 0.004861191 -0.075008035 -0.048746035 0.102233276 -0.04795891 0.06396377 0.07349257
0.5355604 -0.13407055 -0.106719196 -0.03526956 0.032336168 -0.060994677 -0.1390077 0.068311885
0.32370535 -0.026578149 0.23656404 0.35062858 0.40807664 -0.2727939 0.34367034 0.2981594
0.06327304 0.34423375 0.11353117 -0.24096362 0.10330579 0.10367958 -0.22099915 0.24721223
-0.03031242 0.42533815 0.21632016 -0.058880996 0.08291264 0.054771386 0.6426588 0.073741026
-0.04182847 0.14208165 -0.10253718 0.34243292 -0.21060525 -0.16478086 0.2765369 0.22659925
0.87135065 -0.10321879 0.30563864 0.16970259 0.24091777 0.089842394 0.19047125 0.26165104
0.4000773 0.105680734 0.3864938 0.085767716 -0.08684099 0.48823652 0.4748981 0.3544486
0.12349267 -0.34454903 -0.22379383 -0.05622578 0.31539586 -0.047115043 -0.015280649 -0.12371801
00000000: a792 8dbe c171 633d ce8e 733e 1d68 403c
00000010: 1c00 f63d 5a9e 813d 9b7a 4f3e 7991 b23d
00000020: 8aaa 4dbd 2455 f93d 13c4 28be 732f 0bbe
00000030: 5b31 39be 9d67 793e 8fa3 9ebe 0dae 89be
00000040: 0e49 d63d a4b1 aabe b817 4abd 052f 703e
00000050: ea4d d23d ce0d be3d 125f 8b3e 0c47 cebd
00000060: 2697 783d 5135 80be a30b be3d c0ca b23e
00000070: 9405 dd3d bde3 553e a73b eabe 2547 2c3f
00000080: 98d8 7b3e 7bc4 98be 9e02 293e de03 97be
00000090: 55ed f5bc d2c7 763e 26a3 f9be c388 a13c
000000a0: cbdf 4bbf 703f 5e3e 83f7 9b3d 83ff b13e
000000b0: 427b 293e c686 833d 30bd d2be 6ecf 71be
000000c0: 24f7 7abe f854 a13d 082e c1be ea84 153e
000000d0: 4476 fe3d 8ad0 e5be c437 e7be 921b cebe
000000e0: 0455 393d a6a7 e13e 7429 d13e cebf fe3d
000000f0: 4f3a 80be 3812 493e 9813 943e 6cfe 5c3d
00000100: b469 9fbd 0476 d53d b00f 263d 78af 9f3c
00000110: 6e4f d93d 6615 ed3d 7899 0b3d 62eb c33d
00000120: a0f5 debb 4050 44bd 3868 073d 8645 e2bd
00000130: 362b fe3d 56f2 de3d 52a4 b7bd b06a 003c
00000140: 6ec0 e23d ecb5 ffbd c662 9cbd d272 8d3d
00000150: d057 103d 10f4 1c3d b094 66bc 906d 1fbd
00000160: e099 11bc 1c01 cebd f044 5a3c f025 a83c
00000170: 3c35 92bd 6885 643d fcbc c3bd 3c70 e73d
00000180: 36e3 e4bd 62d9 ddbd 00c6 87ba 1066 cd3c
00000190: 2843 ef3c d060 d43c 54c6 5e3d 5e4d eebd
000001a0: 10e1 073c e8cf 813c 24c7 f7bd 4a8d fbbd
000001b0: 462c c5bd 94e1 fe3d 0434 a2bd 3822 4bbd
000001c0: 4046 28bc c058 dd3b 4877 953c 6883 df3c
000001d0: 6804 d63c 4e18 cabd aae7 a93d 36c8 ddbd
000001e0: 0013 143b f82e 4bbd a8df 90bd fc80 923d
000001f0: e4e8 613d 46d4 9fbd 0045 ffbc 406d d83c
00000200: fae2 a1bd 865d d1bd 2075 27bc 0815 22bd
00000210: 70fa bebd e6c0 d03d 08f9 573d 8097 20bb
00000220: 0073 943c 9875 a63d 8059 baba b62c 87bd
00000230: 1079 133d ba1e f83d a82c e1bd 362a c5bd
00000240: 44c3 253d b0f4 523d 3e5b f8bd d284 df3d
00000250: 00b8 453c b49e 503d e0b9 adbb 60f6 14bc
00000260: 2c4f 5cbd 389d 28bd 6c5d b93d b0d2 493c
00000270: 1ca1 933d 7acc a7bd 785d 83bd 4c15 16bd
00000280: 40b2 763c 00df 80bb 5c6a 3e3d 38f7 d53c
00000290: 0c8e b5bd c486 9dbd 5c49 c83d fa3c ccbd
000002a0: 6ac4 8dbd a473 8cbd ce1e b5bd f2f0 e8bd
000002b0: f04a bbbd bc74 a9bd 2070 143c 60a6 f33c
000002c0: 7012 63bd a8ca d0bc 3652 e0bd 3cdf 92bd
000002d0: a890 4d3d cc2a b8bd aa2c 923d 0280 883d
000002e0: 7057 10bc a04a 9f3b d09d 99bd eca9 47bd
000002f0: ae5f d13d 9070 44bd 70ff 823d 4683 963d
00000300: 7d1a 093f ca49 09be 988f dabd d076 10bd
00000310: ee72 043d 8ed5 79bd 0958 0ebe 1ae7 8b3d
00000320: b5bc a53e 6bba d9bc d83d 723e 9785 b33e
00000330: 6cef d03e a4ab 8bbe 8ff5 af3e 59a8 983e
00000340: 4c95 813d 683f b03e 0883 e83d 2bbf 76be
00000350: fc91 d33d f655 d43d 9a4d 62be 3425 7d3e
00000360: c151 f8bc ecc5 d93e 0883 5d3e 332d 71bd
00000370: 1ace a93d f657 603d 4a85 243f 8905 973d
00000380: 5454 2bbd da7d 113e 03ff d1bd 5e53 af3e
00000390: e7a8 57be 50bc 28be 3f96 8d3e a209 683e
000003a0: d610 5f3f 5f64 d3bd ab7c 9c3e 84c6 2d3e
000003b0: 26b3 763e 4aff b73d e50a 433e 20f7 853e
000003c0: efd6 cc3e 246f d83d 84e2 c53e fca6 af3d
000003d0: b0d9 b1bd 23fa f93e d825 f33e 497a b53e
000003e0: bae9 fc3d bb68 b0be 362a 65be 014d 66bd
000003f0: 917b a13e b4fb 40bd b05b 7abc de5f fdbd

actor.2.bias f4 [64]
-0.18428268 0.008445069 -0.05200869 0.18023287 -0.036799073 -0.12962852 -0.09814303 -0.08333224
0.05182824 -0.02791041 0.15217862 0.09546258 -0.12219842 0.25404215 0.4321496 0.22605154
-0.057249296 0.038576297 0.214135 -0.090396166 -0.068886586 -0.115872875 0.0045800516 0.004800774
-0.14889945 -0.015046032 0.26909363 -0.10846199 0.19647367 0.03189416 -0.10530643 -0.050572917
-0.020410523 -0.0814949 0.20382977 -0.021925792 -0.12619658 -0.1263359 0.19467245 -0.13085276
-0.001883325 0.012831734 -0.13449013 0.19965872 -0.10921675 -0.022354055 0.00029499878 0.003672005
-0.04160662 -0.010487096 0.22477677 -0.07454914 -0.1051172 -0.10520768 -0.070018284 0.3130663
-0.060815517 -0.026045496 -0.09570147 0.21999285 0.05202505 0.16012914 0.11224474 0.61384183
00000000: 99b4 3cbe 305d 0a3c 1007 55bd f78e 383e
00000010: a0ba 16bd 57bd 04be 37ff c8bd 18aa aabd
00000020: d949 543d 5fa4 e4bc b6d4 1b3e e381 c33d
00000030: 2a43 fabd d011 823e b642 dd3e 0e7a 673e
00000040: 3d7e 6abd 2e02 1e3d 3546 5b3e a021 b9bd
00000050: 6914 8dbd c24e edbd 4214 963b d04f 9d3b
00000060: 1979 18be a283 76bc a4c6 893e 5221 debd
00000070: 6530 493e 73a3 023d e6aa d7bd 8c25 4fbd
00000080: f833 a7bc cce6 a6bd c0b8 503e b89d b3bc
00000090: ad39 01be 335e 01be 3758 473e 44fe 05be
000000a0: e7d9 f6ba 313c 523c c8b7 09be 5673 4c3e
000000b0: 08ad dfbd da1f b7bc 11aa 9a39 05a6 703b
000000c0: b46b 2abd 12d2 2bbc e22b 663e 38ad 98bd
000000d0: b047 d7bd 2077 d7bd bf65 8fbd 3a4a a03e
000000e0: b119 79bd 5d5d d5bc 22ff c3bd ce45 613e
000000f0: 3818 553d e5f8 233e 92e0 e53d bd24 1d3f

actor.4.weight f4 [1, 64]
-0.6469377 -0.027520895 0.091718525 0.40997067 -0.060058467 -0.082502015 -0.0038877917 -0.046539813
-0.065167025 -0.006861301 0.5476984 0.47461048 -0.087654375 0.41241106 0.59223306 0.5012689
-0.039089203 -0.26346046 0.53352153 0.037290975 0.0274832 -0.2352941 -0.07536649 -0.031093085
-0.27359313 -0.0527323 0.40998268 -0.019815087 0.40876505 -0.40598154 0.009418117 0.04904726
-0.06662711 -1.5248191 0.44665265 0.0429682 -0.44994912 -0.027929554 0.44048285 -0.5067967
0.07569078 -0.26658666 -0.10093412 0.48554146 -0.018050367 -0.530786 -0.08566332 -0.00029856418
-0.09485364 0.013320107 0.38538086 -0.05368303 -0.974319 -0.04479104 -0.47534785 0.45832917
-0.46900934 -0.038236808 0.03743892 0.364601 0.04923695 0.43304402 0.64564514 0.6477754
00000000: b69d 25bf 8073 e1bc ecd6 bb3d ade7 d13e
00000010: deff 75bd d1f6 a8bd 52ca 7ebb 88a0 3ebd
00000020: 4a76 85bd c4d4 e0bb f635 0c3f 2500 f33e
00000030: 2384 b3bd 8b27 d33e 969c 173f 2953 003f
00000040: 001c 20bd 4ae4 86be de94 083f 6cbe 183d
00000050: 7324 e13c f0f0 70be bf59 9abd edb6 febc
00000060: 6614 8cbe d3fd 57bd 40e9 d13e 4053 a2bc
00000070: a749 d13e d0dc cfbe 724e 1a3c c8e5 483d
00000080: cb73 88bd 462d c3bf a8af e43e 6cff 2f3d
00000090: bb5f e6be 85cc e4bc f886 e13e 6ebd 01bf
000000a0: c503 9b3d 0c7e 88be 8cb6 cebd e498 f83e
000000b0: 5dde 93bc 97e1 07bf 4070 afbd 9b88 9cb9
000000c0: a042 c2bd 943c 5a3c a450 c53e bde2 5bbd
000000d0: f86c 79bf cf76 37bd cb60 f3be 1faa ea3e
000000e0: fe21 f0be 339e 1cbd 8e59 193d fbac ba3e
000000f0: afac 493d f2b7 dd3e 0049 253f 9cd4 253f
