model/MountainCarContinuous-v1/3level/HAC_MountainCarContinuous-v1_level_1_crtic.pth (torch, 21121 bytes, 5 tensors)

critic.0.weight f4 [64, 6]
00000000: 30f1 4e3e e384 c13f f874 5b3f fb0e 8bbe
00000010: d520 babc 5d03 2cbe f572 82ba 9dbe 0f3c
00000020: 9540 943e f1c2 8cc0 baac 93be eeb2 8b40
00000030: 4876 b43d 9bd7 82bf 86d9 c8be 6526 08c0
00000040: 81d7 003f 3e28 713f 94e9 293e 1596 f5bf
00000050: e5f5 d83e 50a6 0dbf b1a5 2fbf 8756 9abf
00000060: d882 07bd 45fd 9fc0 c362 8fbe b929 4abf
00000070: e778 83be 92c0 73be 4137 f73d 2aa2 8840
00000080: f1f0 403f 9dd5 1140 469d 00bd 10d8 49be
00000090: ca75 5dbe 8c9b f0be 9740 8c3f b699 36c0
000000a0: 77ef 053d 91d6 c2be 5a23 523e 1a7d a53e
000000b0: 97bb f6bd 9bed cb3e fc40 8a3c ba36 783e
000000c0: 6e52 493e 766e 0b40 e4ae 5ebe e388 34c0
000000d0: 4ce0 52bc f8cd 0fbf 2574 a73e 1607 8e40
000000e0: 06a8 a7be 7bc2 9140 be2b 283c 2687 253d
000000f0: c204 b53e 28eb b93e ea57 80bd 89d2 933e
00000100: bbee 45be 93e1 e13d c864 573e 7f84 21be
00000110: d995 813c 470b 3b3f caf0 643f 72bd 4f3e
00000120: 43ba 123e 5040 293e d148 8b3d 550c a1be
00000130: 5ed7 03bd b0c7 6c3d f82d 76bf a812 a83f
00000140: c0ad 783f 609e b140 0ce2 523c d7d5 4a3e
00000150: b887 f5bc a531 9b40 6e8b 28bf 8713 1c40
00000160: a721 3c3c 4f7b 84be 0154 82be fe1f aac0
00000170: b6f7 883e 2085 0c40 abcc 353e 32b7 95bd
00000180: 057d c43f 91d0 913f b8af 013e cdbf 9e3f
00000190: 7410 a9bd 673d f6bd f2a4 dbbd 6955 5340
000001a0: ebcf 0f3e 8d7f 40c0 229e 9e3d ba73 d4bf
000001b0: 0aa1 99be a951 743d 16c9 143f 241a 2bbf
000001c0: 7266 1cbf df47 813e 53ac 233e 3b18 ac40
000001d0: c581 f9be e935 c4bf b609 7ebe 86a6 e63e
000001e0: 05c3 a53e 4a9f 36c0 459e 843e 6ebb 4740
000001f0: 2eed 563d 026f 18bf 4899 72be 688f ffbf
00000200: 6f4b fa3e b454 b43f 0e62 69be daa3 51c0
00000210: 8129 f9bd 6c32 b2bf a12c da3d b50d 8240
00000220: 1058 223d 1709 af3e 1df0 923e 1a60 c7c0
00000230: 7428 973e 3b95 3340 c5f7 d5bc 311d 6dbe
00000240: ea6d 6cbe 3d99 a840 ed34 e2be fc93 d4bf
00000250: 6294 d33b fffe 30bd f0a0 debe a169 3ac0
00000260: b75e ae3e 86f4 8ac0 082e 153c 477f 6a3d
00000270: c9a9 7bbd b25b 2a40 7586 b73e 48ef a13f
00000280: 8614 883c faf0 233f 2832 f6bc b5ca 9ec0
00000290: e72c babe 672e 9bbf e11c f13d 4d92 153f
000002a0: f859 723e 5c47 863e 4d2c cdbb 913f 9240
000002b0: 74e3 5f3e 6514 0ac0 6f67 e73d 84f4 7f3f
000002c0: 44b1 cfbd 1ef6 8f3f c7b7 02bc 0552 a0c0
000002d0: 6040 8d3a 895b 363d 78d7 69bf 34d1 65be
000002e0: 16cd 683f b182 703e e08c 49be 8c6d 8840
000002f0: 4a4e 1b3f d5b7 2840 be1a cfbc 5f8c 103f
00000300: 9c4f 94be a31d 0dc0 7ed0 973e 8ced 47c0
00000310: 6e5b c23e cb48 e6bf c24b 9c3b b242 75c0
00000320: 773b c93d 6079 2140 1a08 923a efa9 05be
00000330: 1477 003e f628 8dbe 9daf b53c 8e6c 3a40
00000340: 3693 04be 6290 4740 c3bf 4cbf 1bb2 bdbf
00000350: e407 64be 3707 17c0 6c62 823c 4003 1abf
00000360: c7ec b23e 6dc9 3140 6b4e e13e 1c4e 05c0
00000370: 128f b73c cb47 403d 34a3 b23d 4dc9 92c0
00000380: a1ff 583e 5e9c 093e e859 ee3d f530 5ac0
00000390: 4b20 b13d 64ab 11bd 7521 873d 79dc 42be
000003a0: f7a8 a43d 28e7 723d 233f 88bc bfb9 d2c0
000003b0: d651 503e 17ec 1abe 9777 c0bc 916d 413f
000003c0: 6c03 fc3e e65f df40 4226 97bd 2e59 b1bf
000003d0: 0809 05bc b68c 3e3f 30f2 c5bc c37b 02bf
000003e0: 75b1 213f 71de 18c0 ce46 6e3f 8465 c7be
000003f0: a113 05bf 4ce9 01be ea95 9d3e fab3 6dbf
0.20209193 1.5118679 0.85725355 -0.27159867 -0.022720734 -0.16798158 -0.0009952473 0.008773473
0.28955522 -4.3987966 -0.28842717 4.365592 0.08811623 -1.0222048 -0.39228457 -2.1273434
0.5032883 0.9420203 0.16593009 -1.9186426 0.42375103 -0.553319 -0.686122 -1.2057656
-0.033083767 -4.9996667 -0.28005037 -0.78969914 -0.2567818 -0.23803928 0.12071086 4.2697954
0.7536765 2.278663 -0.031399988 -0.19711328 -0.21626964 -0.46993673 1.0957211 -2.8531318
0.032699075 -0.38054326 0.20521298 0.32322007 -0.12047499 0.39829716 0.01687669 0.24239627
0.1966035 2.178617 -0.21746403 -2.820855 -0.012870859 -0.5617366 0.327058 4.438365
-0.3274538 4.5549903 0.010264335 0.04041209 0.35355192 0.36312222 -0.06266768 0.28871563
-0.1932935 0.11029353 0.21034539 -0.157732 0.015818523 0.7306408 0.89429915 0.20287111
0.14328866 0.1652844 0.06800998 -0.3145472 -0.032187812 0.057807624 -0.9616389 1.3130693
0.9714012 5.550583 0.012871277 0.19808136 -0.029971942 4.84981 -0.6583775 2.4386919
0.011482633 -0.25875327 -0.25454715 -5.3164053 0.26751488 2.1956253 0.17753856 -0.07310332
1.5350653 1.1391774 0.12664688 1.2402283 -0.08255091 -0.1202343 -0.1072482 3.302088
0.14044158 -3.007785 0.07745005 -1.6597817 -0.30005676 0.05964819 0.5811933 -0.6683676
-0.6109382 0.25250146 0.15983705 5.377958 -0.4873182 -1.5328952 -0.24808392 0.45048922
0.3237535 -2.8534722 0.25902 3.1208148 0.052472286 -0.59544384 -0.23691285 -1.9965639
0.48885676 1.4088349 -0.22791311 -3.2756257 -0.12166119 -1.3921638 0.106530435 4.064173
0.039634764 0.34186623 0.28698817 -6.230481 0.2952305 2.8059833 -0.026119122 -0.23155667
-0.23088804 5.268706 -0.44181004 -1.6607661 0.0064568976 -0.043211933 -0.4348216 -2.912697
0.34056637 -4.342349 0.009105213 0.057250287 -0.061441217 2.6618466 0.3584477 1.2651148
0.016611349 0.64039576 -0.030053213 -4.9622445 -0.36362383 -1.2123536 0.11773086 0.5842636
0.23667133 0.26226318 -0.0062613846 4.5702596 0.2186411 -2.1574948 0.11299025 0.99982476
-0.101412326 1.1246984 -0.007978386 -5.010012 0.0010776632 0.04452089 -0.91344404 -0.22443086
0.90937936 0.23487355 -0.19682646 4.2633724 0.60666335 2.6362202 -0.025281306 0.5646419
-0.28966987 -2.204934 0.29651254 -3.1238737 0.3796038 -1.7990965 0.004769773 -3.8321958
0.09825795 2.5230331 0.001114133 -0.13053106 0.12545425 -0.27570313 0.022178466 2.9128757
-0.12946782 3.1181874 -0.79980105 -1.4819978 -0.22268635 -2.3598154 0.015916072 -0.6016121
0.34946272 2.777919 0.4400514 -2.0828924 0.022407088 0.046943467 0.08722535 -4.587073
0.21191265 0.13438556 0.11638242 -3.409238 0.086487375 -0.03556384 0.06598178 -0.19029416
0.0804004 0.05930248 -0.016631668 -6.585174 0.20343718 -0.15129124 -0.023494525 0.7555781
0.4922136 6.9804564 -0.07380344 -1.385534 -0.008119829 0.7443346 -0.024163336 -0.50970095
0.631614 -2.3885767 0.9307679 -0.38944638 -0.51983076 -0.12686652 0.30778438 -0.9285275

critic.0.bias f4 [64]
00000000: 674d eebe 3ea5 253a 8a35 b3bd 76d1 23bd
00000010: f92d ffbd d450 653e 8651 8ebe d271 b3be
00000020: f4c1 3a3e 1ac4 08bb 3c68 d1be 3067 ffbd
00000030: 4568 40be 5b04 a73c 3c62 aabe 2978 a13c
00000040: 3912 11be 2ea9 0a3d f145 cfbd bcf1 8ebe
00000050: 2a03 c73e 721a ca3c d26d f53d e180 853e
00000060: 9aa1 fdbe 1c2d cbbc 4f21 063e f015 6cbe
00000070: e293 063e 6a45 43bd f258 353a 8d93 1f3d
00000080: b262 bfbb e046 ae3d 2011 c03b e8ae 4dbe
00000090: d256 643e 8f1f 303e f055 99be d1b2 373d
000000a0: b0c2 363e 29f1 b2bc 5d2d aebe 59de 453e
000000b0: 692d 89be 8763 f3bb 4f2f a63e 8bde 1fbb
000000c0: 3414 46be 17c5 afbe b610 63bb 2386 8ebd
000000d0: 5263 2bbf 2cdf 5abe 6f61 4e3d 03d7 7dbd
000000e0: d33a bcbe 508b 6b3e 4114 033e 2a6b 62be
000000f0: 97b0 92be 7819 4bbe b321 2d3d fb64 37bf
-0.46543428 0.00063188735 -0.08750446 -0.03999468 -0.124599405 0.22394115 -0.27796572 -0.35047776
0.1823805 -0.0020868839 -0.40899837 -0.12470853 -0.18789776 0.020387819 -0.33278072 0.019710617
-0.14167108 0.03385275 -0.10120762 -0.27918804 0.388696 0.024670813 0.11983837 0.2607489
-0.49537355 -0.024801783 0.13098644 -0.23055243 0.1314235 -0.04767362 0.0006917856 0.038959075
-0.005840623 0.08509612 0.0058614165 -0.20086253 0.22298744 0.17199539 -0.29948378 0.044848267
0.17847705 -0.02184351 -0.34018984 0.193231 -0.26792458 -0.007427636 0.3245797 -0.002439412
-0.19343644 -0.34330055 -0.0034647412 -0.06959178 -0.66948426 -0.21374196 0.05038589 -0.06197263
-0.3676363 0.23002362 0.12800695 -0.22111192 -0.28650352 -0.19833934 0.042268466 -0.7163846

critic.2.weight f4 [64, 64]
00000000: f92b b4bf dc0d aebf 47be 543d 12fe 8ebf
00000010: 9757 a3be 223e ffbc f99a e7bf c053 82bd
00000020: c018 3a3e dabd d6bf 5a39 a43d efe7 e2bf
00000030: 625b 81bd cc42 973e 25f5 2a3f dfb0 513e
00000040: 2f1c 77be ae79 9c3e 3593 2a3f b97e 2e3f
00000050: fa56 3bbf e352 a13e d275 88be d417 89be
00000060: 3094 5fc0 ce5c adbf bc0f ab3d 4e24 6bbe
00000070: 5533 883f 415b 19c0 97b7 62be a451 9dbe
00000080: 285c c0be afae fabd 0a25 a8bf 63f0 4dbe
00000090: 9bca c0be 6678 ea3e d84e 663d e8e6 23bf
000000a0: 7665 d8be 92ed ecbf 73ef a33d 7a0b 533e
000000b0: c112 2e3f 801b d73d 7cfd 1dbf 402f 52bf
000000c0: d05f 34bf abfe 01c0 af47 55bc 8fbf 3c3f
000000d0: 7480 10bd e64c f23d 7079 11bf e795 edbf
000000e0: c358 10c0 0165 2abe 25f1 8f3e 394d 023f
000000f0: 993f 0bbf 4517 103f 6e8a 8dbe 9537 84bf
00000100: 02f5 e2bd cc93 4f3d 6742 20ba ec69 5dbd
00000110: a694 dfbd 126e 833d 3a08 e83d 5049 fd3d
00000120: 5400 c4bd a109 253d 80d0 d13d 1597 af3d
00000130: 7094 b1bc 0f7f 15be 3e68 07bd 5981 cc3d
00000140: a856 a73c 30d6 0fbd aca2 373d 802a 953b
00000150: 8629 edbd e08d 4d3c 4027 6e3d 783c 30bd
00000160: 8154 1bbd 7b16 9c3c 305f d1bd 6324 b53b
00000170: 9470 a1bd 125f b73d 9430 ddbd 3632 a8bd
00000180: b3c0 f7bd d277 86bb 1e08 31bd 4e18 0abd
00000190: 08b0 af3d 9115 10bd a0d6 673d 12f1 6bbd
000001a0: 114f 9c3d 83a6 9a3d c478 c63d 005d 0fbd
000001b0: 727c cdbc 34ed f83c ea46 ecbd f067 61bd
000001c0: 5758 cabd 846d 9dbc 69a7 adbb 88aa a43d
000001d0: 6108 943d 54df 93bd 09c4 edbd 164d b3bd
000001e0: 2ef1 333d f08d d6bc d307 f5bd b05f e83d
000001f0: 5000 673d a5da 89bd ec16 e2bd 7a34 ebbd
00000200: 3841 b43f b699 a33d e9d2 6abf d357 013f
00000210: 2c72 34be 7da3 1ebf 7193 803f 4acf af3d
00000220: 3ba2 babe 032e ac3f a0c4 1abd 876f 37bf
00000230: 30de 7a3d 94d4 78be a247 44bf 19c2 453e
00000240: 6996 1e3e 42d0 fbbd d425 013f 2251 973e
00000250: 2b8f 72be d5b0 4d3f a322 38be e7a9 04bf
00000260: 7271 e43d 1c80 873f 708b 36be d5b5 fbbf
00000270: 3cc1 423f 356c 8c3f eba5 eabd a20c a5bf
00000280: 2c1f 0abe d5da a73d c239 083f a156 1f3e
00000290: 17a3 5bbd 1336 883e 8092 a5bc d488 80be
000002a0: 17d1 f4be 1fe2 46bf 1917 853e 2071 783d
000002b0: 9ca9 763e 71a2 0a3f e001 07bf 0717 803f
000002c0: 6be3 c2bf 3839 0c40 6221 133e e82a 773e
000002d0: 543b 78be be20 bcbd ff75 3a3f d848 b83f
000002e0: a7cf c33d 8a18 dc3d 5603 85bd 58fb 9abf
000002f0: ed9b cb3f b5e6 0fbf fb4e f5be daaf 843e
00000300: 2247 93bf 6c06 d4be 24e4 863c ffca d13d
00000310: 607a 52bc 22d6 993e 52e6 02c0 20a5 ed3b
00000320: dc6d c2be ead8 ac3f 445e 86bd d39a 563e
00000330: 0086 6b3a 728b 1ebf 3d05 113f 6259 05bf
00000340: 96db 1f3e 1819 ebbf 5997 e33e 0f0e bcbe
00000350: 4884 c93d 3419 09bf 62da 2e3f 0976 adbd
00000360: d4b0 4bbe b55f e6bf 3c39 3e3e 2e22 bdbe
00000370: 2a9f 5c3f ec64 62bf 088f 22be 86fe 2e3f
00000380: 3b3b 97be 728e 90be 0472 72bf 32cd 0e3f
00000390: 1797 193e 8d44 03bf 28ba 50bd 38ee 87bf
000003a0: d395 4f3c d83b 14be 3fd8 10bf 83b6 203e
000003b0: a4ea cd3e 2779 51bc 8180 1cbd aacb 0f3e
000003c0: 6e11 f43d 6a83 0bc0 cd78 1e3f 478d bcbe
000003d0: 9090 e43e 3ac0 5d3e 92e3 ccbe a982 79bf
000003e0: 1f5a 883f 936e 0b3e 5346 a0bf a29c f33e
000003f0: 51e4 afbf aa41 723d 97b2 d2bf 006d a93e
-1.4075919 -1.359798 0.051939275 -1.1171286 -0.31902763 -0.031157557 -1.8094169 -0.0636363
0.18173504 -1.6776688 0.080187514 -1.772703 -0.06316258 0.2954315 0.6678031 0.20477627
-0.24131845 0.30561584 0.6663087 0.68162113 -0.7317959 0.3150855 -0.2665239 -0.26775992
-3.4934196 -1.3543947 0.083526105 -0.22963068 1.0640665 -2.3961947 -0.22140346 -0.3072635
-0.3757031 -0.122403495 -1.3136303 -0.20111232 -0.37654576 0.45794982 0.056227535 -0.6402421
-0.4226491 -1.8510001 0.08004656 0.20609847 0.67997366 0.10503292 -0.6171491 -0.8210335
-0.704587 -2.0311687 -0.013017579 0.73729795 -0.035278752 0.118310735 -0.56825924 -1.8561372
-2.2554176 -0.16640092 0.28113666 0.5089908 -0.5439392 0.56285506 -0.27644676 -1.0329462
-0.11081888 0.05067806 -0.00061134103 -0.054056093 -0.10917024 0.064174786 0.11329694 0.12367499
-0.09570375 0.040292386 0.10244846 0.085737385 -0.021677226 -0.1459925 -0.033058397 0.099856086
0.020427063 -0.035116374 0.04483287 0.0045521855 -0.115801856 0.012546033 0.0581429 -0.043026417
-0.037922386 0.019053688 -0.10223234 0.0055280193 -0.07882801 0.0895368 -0.10800281 -0.08212702
-0.12097301 -0.004103639 -0.04322063 -0.033714585 0.08578497 -0.035176817 0.056601167 -0.05760295
0.07632268 0.07551291 0.09691003 -0.0350008 -0.025083754 0.030386545 -0.11536963 -0.055030763
-0.09880131 -0.01921726 -0.005299498 0.08040339 0.07228161 -0.07220331 -0.11609656 -0.08754937
0.04393118 -0.026190728 -0.11964383 0.11346376 0.056396782 -0.06731156 -0.11039528 -0.114846185
1.4082403 0.079883024 -0.91728073 0.50524634 -0.17621678 -0.61968213 1.0044996 0.08584459
-0.36451897 1.3451542 -0.037785172 -0.7165455 0.06124705 -0.24299842 -0.76671803 0.19312324
0.15487064 -0.122955814 0.50448346 0.29554087 -0.23687427 0.8034795 -0.17981963 -0.5182175
0.111544505 1.0585971 -0.17826629 -1.9664866 0.760761 1.0970522 -0.114574276 -1.289448
-0.13488454 0.08196036 0.5321313 0.1556039 -0.05362233 0.26603755 -0.020211458 -0.25104392
-0.47815773 -0.77688783 0.25994185 0.06065476 0.24088138 0.54154116 -0.52737236 1.0007027
-1.5225652 2.1909924 0.14368203 0.24137461 -0.24241382 -0.091859326 0.728363 1.439723
0.09561091 0.10746868 -0.06494777 -1.2107954 1.590696 -0.56211406 -0.4791182 0.25915414
-1.1506083 -0.4141115 0.016466208 0.102437966 -0.012846559 0.30046183 -2.0453076 0.0072523504
-0.3797444 1.3503697 -0.065609485 0.20957498 0.0008984506 -0.61931527 0.5664862 -0.5208951
0.15611109 -1.8367033 0.44451407 -0.36729476 0.09839684 -0.5355408 0.68301976 -0.08469779
-0.19891673 -1.7997957 0.1857652 -0.3694014 0.86180365 -0.88435245 -0.15874875 0.6835712
-0.29537377 -0.28233677 -0.94705224 0.55781853 0.14999042 -0.51276475 -0.050958782 -1.0619574
0.012669998 -0.14475954 -0.56579965 0.15694623 0.4021808 -0.012785233 -0.03820849 0.14042535
0.11917387 -2.1798959 0.6190308 -0.36826536 0.44641542 0.2165536 -0.40017372 -0.97464997
1.0652503 0.136164 -1.2521461 0.4758044 -1.3741552 0.059144653 -1.6460751 0.33090973

critic.2.bias f4 [64]
00000000: 9957 7c3e bb1e d5bd ee10 b6be f2ba a13d
00000010: 8c4a f33d a30a c93c e046 e53c 2413 d9be
00000020: 0bec afbe 02fc 00bf ae2b e6bd 3266 ddbd
00000030: da22 1abd 05fc 67be ac9e 103e 0703 c73d
00000040: e9d5 8bbe 1a3f d5bd 50bf e63d 10f1 033e
00000050: b21c 18be 9797 d03d e35d 91be d8d4 e3bd
00000060: 7a9c 06be 8d69 c9bd 46e7 f43d 5869 36bd
00000070: 402c 1a3d bfce babd 3dc1 04bc 4d61 423d
00000080: 063f 46bd b4a5 22bc bd30 e3bd 06d4 473e
00000090: f477 cc3c 3ed0 0bbe 0aa2 09bd 5298 ce3d
000000a0: 21cc fcbe de0e b9be 8e2a 9fbd 48a0 84bd
000000b0: 33d7 86be 69ec edbd 1e65 f1bd 14d2 9c3e
000000c0: db5c 32bf 0da1 66be 908b fcbc 8e81 84bd
000000d0: 6bdf dabd 95e2 b13c 0816 cdbc 9071 f1bd
000000e0: 7951 11bd 22bc bd3c 7116 c1be 11df 803d
000000f0: 03f8 b53d 8911 d9bd 3e75 803d a56e 503c
0.24642791 -0.10406252 -0.3555979 0.07896985 0.11879453 0.024541205 0.027987897 -0.42397416
-0.34359774 -0.50384533 -0.112388 -0.10810508 -0.037630893 -0.22654732 0.14123029 0.09717374
-0.27311638 -0.10412426 0.11266959 0.12884927 -0.14854696 0.101851635 -0.28391942 -0.11124581
-0.13145629 -0.09834585 0.119581744 -0.044534057 0.037639856 -0.09121465 -0.008102712 0.047456075
-0.048399948 -0.009927202 -0.110932805 0.19514474 0.024959542 -0.13653657 -0.033601798 0.100876465
-0.49374488 -0.36144155 -0.077717885 -0.06475884 -0.2633606 -0.11617357 -0.11786865 0.30629027
-0.69672936 -0.22522373 -0.030828267 -0.06470023 -0.10687145 0.021714488 -0.02503492 -0.117892385
-0.03547809 0.023160998 -0.37712434 0.062925465 0.08885195 -0.10599048 0.06272362 0.012721692

critic.4.weight f4 [1, 64]
00000000: bbd5 17bf e431 cb3c e841 193f c3d8 c3be
00000010: bc03 c53e ffbf 3d3c cda4 ac3e 2fec cebf
00000020: d08b 91bf a47e 0cc0 0dec 8940 5180 5d3c
00000030: 8833 a1bd c633 46c0 6c8f fc3f 8a9a bc3f
00000040: 108e d0bf f9b8 caba 94ca 4abe 9e6b 1cbf
00000050: 31f0 cf3c 74d6 11bf 0473 92bf 83bc 60bf
00000060: f339 e5bb d62b c4bc 2d22 93be aaeb bcbe
00000070: 94bb b43e 9e13 453c cc60 b7bc d227 e33e
00000080: e516 b63d 7fa3 2a3c 8831 953d 8fbd c3be
00000090: 08f4 88bf 5f6e b4bb 0322 753f 4b48 073f
000000a0: b720 39bf fccf 3abf c889 9fbd 6367 fb40
000000b0: c7f2 3ec0 9d0a e640 3d80 b040 d754 1bbf
000000c0: b536 27c0 ab5f c43f 0fe9 97bc b9f5 1741
000000d0: 219d 70bb e7bd bc3c 02bc b73c a42e f8be
000000e0: 148a fa3f 17d7 1b3f d93f 94bf 0ab7 e93f
000000f0: cfb1 90be f67c 243f 424e 8a3f 1a6f 21c1
-0.593105 0.024804063 0.5986619 -0.38251314 0.38479412 0.01158142 0.33719483 -1.6165828
-1.1370792 -2.1952295 4.310065 0.013519363 -0.07871157 -3.09691 1.9731269 1.4734662
-1.6293354 -0.0015466503 -0.1980384 -0.6110171 0.025383087 -0.56967854 -1.144135 -0.87787646
-0.0069954335 -0.023946684 -0.28737012 -0.36898547 0.3529936 0.012028603 -0.022385024 0.44366318
0.088910855 0.010414957 0.07284838 -0.3823056 -1.0699472 -0.0055063213 0.9575502 0.52844685
-0.72315544 -0.7297361 -0.077899516 7.8563704 -2.983568 7.1887956 5.515654 -0.6067633
-2.612714 1.5341696 -0.018543748 9.497491 -0.003671475 0.023039771 0.022428516 -0.48473084
1.9573388 0.60875076 -1.1581985 1.8258984 -0.28260657 0.64253175 1.0805132 -10.089624
