model/MountainCarContinuous-v1/3level/HAC_MountainCarContinuous-v1_solved_level_2_actor.pth (torch, 20875 bytes, 6 tensors)

actor.0.weight f4 [64, 4]
00000000: d449 b83e 2084 b4bc 7838 d0bd 40bd 51bc
00000010: fefe 273f 8c3c 0740 de63 d6be 1dbb ac3d
00000020: 2968 4d3e f6ec edbf 138f 0abf b8aa bebf
00000030: ecd5 0d3f f9ae a6be bce2 fb3e 320c de3d
00000040: 2a2d 30be a656 dcbe 82b6 42bf eff4 a2be
00000050: 58c2 b43e 764e 833e 7438 ff3e 94e2 9dbe
00000060: 7af2 9f3e 38a6 c8bd 285f 93bd 04ab 233e
00000070: 6270 ed3e 82a3 afbe ee73 b23e 995e 4cbf
00000080: aa38 603f 359d 923f 8d2b f03d ee2f 7e3f
00000090: bfc5 613f 539b 583c 93d0 6b3f 4812 953e
000000a0: cdad 3dbf 7b83 53bf 104f ddbe cbe1 84bf
000000b0: d57b f73d b32e 473e bf67 b8be 6cc8 433f
000000c0: 9c92 2ebe 80be e43b 006d f93b 34e2 ce3e
000000d0: 90a0 cc3e ffd0 4f3e e2b4 b4be 1c0a e73e
000000e0: f7e0 c53e c306 a63c 736f 083f 3852 093e
000000f0: 4f67 c53e b702 c7bd a41e 3a3e 91f9 84bf
00000100: 8302 acbe ee32 1fc0 28a4 8d3d 8fe7 9e3e
00000110: 0045 393f fc7a ef3d 2d20 213e 78fc a7bf
00000120: 2e85 19bf c385 e0c0 47aa 063e 2248 c1be
00000130: b4b5 12bd 9c46 d03f 7579 e1be 8bbe 60bf
00000140: 5163 b63f fa33 8440 e4c0 c0bd 0d54 6a3e
00000150: 82a4 a53e b6fe f03e 7247 f63c 8c3c 44be
00000160: 4307 223f 257f 8040 400e bbbe b853 2c3f
00000170: 80f6 123c 08e9 8dbd e08d d0bc 9866 dbbd
00000180: 247f 46bf 1101 bbbd a25f c9bd ad3c b43f
00000190: c63e 75be 2843 d7c0 d27d 06bf 8418 4ebd
000001a0: de96 583e 2eda 28c0 d389 1bbe 637f ccbf
000001b0: a0d5 2fbf bc0d bd3e dec7 ba3e faca 05bf
000001c0: 102b 4f3e 40ec e73c 0003 c13d 7427 c1be
000001d0: 36a0 ac3f f539 ddbe cec6 6b3f eedc 0c3f
000001e0: 42e7 9fbd d4f7 e83f d9b7 9fbe c16c 4abf
000001f0: a8b5 76be 0200 adbe bb81 3b3e 1a2b 903d
00000200: 3722 0bbf 4403 763d 00c1 94be 1692 39bf
00000210: e113 123f 1474 0b3c 6d45 08bf 8cab 6b3f
00000220: 169e 893f fbef 45be feed 65bc 4de1 80bf
00000230: 2f23 43bb 64e3 1c3e 7133 44bf b10d 0cbf
00000240: 264e da3d 7ff8 7cbe c6eb 9b3e c8f3 56bc
00000250: 56bf 5f3e 5951 7dc0 7653 0d3e 0276 59bf
00000260: d431 273e af02 bf3f 86b6 d2bd df83 88bf
00000270: 0028 1eba aa9e febe c01a 373e ca49 833e
00000280: 50f2 eb3e 90a2 bbbd 60c6 cfbe 7c66 f13e
00000290: 563a 7b3e d5bd 8b3e f72f 2f3f 98e2 afbc
000002a0: 42e0 823e 9c75 2740 ce55 053f 2d60 633e
000002b0: 8446 8b3e 6641 e03e 949d 39be 14a3 01be
000002c0: 568e 24be 0c0e c9be 0118 593e 13c1 e7be
000002d0: 2348 6cbc f23b 91c0 8c5b be3e 629d 89bf
000002e0: eaa9 bd3d 13fe 413e 18b1 c13e 7fbb 51bf
000002f0: 5581 223e 441a 57bd dbe8 fe3e db14 a4bf
00000300: d481 b43e f878 ffbe a04d 11bd e6e2 e23e
00000310: 2c09 32bf 47af 543d 18f3 0f3d bc32 923f
00000320: 6f73 8b3d 5208 8abf 333e 5a3e 69c1 58bf
00000330: 7bdf d8be 8529 ffbf 8ddc 8ebe 02ac 563f
00000340: 4aa0 b5be 756d b53e c1b2 17be 6327 05be
00000350: 69c2 4bbf fc24 5e3f 3cff 973e 1c6f c5be
00000360: eb31 c0be 45b6 b540 1df6 8f3e bfb0 1d3f
00000370: 86a7 c83e b0a0 c53c 63ef 103f ad4e bcbe
00000380: 5262 b83e ccb2 0dbe 60b7 043e 4cd8 4b3e
00000390: 529f b3be 31a6 a23d 1cae 8cbe 7ede 58bf
000003a0: 9b78 563e cd93 49bd 516d 863e a313 d63e
000003b0: 2794 903e 014c fc3e b9ca 593e 95af 4ebf
000003c0: d19a 02bf 1e87 0cbf b8a1 283e 21cc fb3e
000003d0: 97ad e93e edc3 8f3d ba03 14bd f874 cbbe
000003e0: 604a b43e e828 9ac0 cd1b 8a3e 85d5 e4be
000003f0: e6e7 30be 6fa5 b6be daf0 c53e d384 8abd
0.35993826 -0.022035658 -0.101670206 -0.012801468 0.6562346 2.1130705 -0.41873068 0.084341265
0.20059265 -1.858794 -0.54124564 -1.4895849 0.55404544 -0.3255537 0.49196422 0.1084217
-0.17204729 -0.43034858 -0.76059735 -0.31827495 0.35304523 0.25645798 0.49847758 -0.30836928
0.31239682 -0.09797329 -0.07195884 0.15983206 0.46374804 -0.34304434 0.34854072 -0.79831845
0.8758646 1.1454226 0.11727057 0.99291885 0.8819236 0.013220626 0.92115134 0.2911551
-0.74093324 -0.826225 -0.43224382 -1.0381407 0.12084166 0.19451408 -0.36016652 0.76477695
-0.17048115 0.006980717 0.0076118708 0.40406954 0.3996625 0.2029457 -0.35294253 0.451249
0.38648197 0.020266896 0.5329506 0.1341027 0.3855538 -0.09717315 0.18175751 -1.0388662
-0.33595666 -2.4874835 0.06916076 0.3103604 0.7237091 0.11693379 0.1573493 -1.3123922
-0.5996884 -7.0163283 0.13150893 -0.37750345 -0.035817817 1.6271548 -0.44037977 -0.87790745
1.4249059 4.131345 -0.09411791 0.22883625 0.32352072 0.4706933 0.030063365 -0.19163722
0.6329233 4.0155206 -0.3653431 0.67315245 0.008969903 -0.06929213 -0.025458276 -0.107129276
-0.7753775 -0.09131063 -0.09832694 1.4081017 -0.23949727 -6.726948 -0.52535737 -0.05031635
0.21151301 -2.6383166 -0.15189295 -1.5976375 -0.6868534 0.3692454 0.36480612 -0.5226284
0.20231271 0.028310895 0.094244 -0.37725413 1.3486392 -0.4320828 0.92100227 0.5502461
-0.07807781 1.8200631 -0.31194952 -0.79072195 -0.24092734 -0.33789068 0.18311207 0.07039471
-0.5434908 0.060061708 -0.29053497 -0.72488534 0.5706158 0.008511562 -0.53230935 0.92058635
1.0751369 -0.19329827 -0.014033793 -1.0068756 -0.002977561 0.15321118 -0.76640993 -0.5470839
0.10659437 -0.24704169 0.30453318 -0.013119645 0.21850333 -3.95809 0.13801369 -0.8494569
0.16327602 1.4922694 -0.1028872 -1.0665244 -0.0006033182 -0.49730426 0.17881298 0.25642234
0.46083307 -0.09161866 -0.40581036 0.47148502 0.24533972 0.27293268 0.68432564 -0.021470353
0.2556172 2.6165533 0.5208405 0.22204657 0.27202237 0.43799895 -0.18126518 -0.12659866
-0.16069922 -0.3926853 0.21200563 -0.4526449 -0.014421496 -4.5385675 0.3717922 -1.0751154
0.09260924 0.18944578 0.37830424 -0.8192672 0.15869649 -0.052515283 0.4978703 -1.2818865
0.352553 -0.4989698 -0.03547442 0.44313735 -0.69545245 0.05192497 0.03514394 1.1421733
0.068091266 -1.0783789 0.2131279 -0.8467012 -0.42358002 -1.9934546 -0.27902642 0.83856213
-0.35473853 0.35435072 -0.14814283 -0.13003306 -0.7959352 0.86775184 0.29686916 -0.38561332
-0.37538084 5.6784997 0.28117457 0.6159782 0.3919031 0.024124473 0.56615275 -0.36778775
0.36012512 -0.13837737 0.12960577 0.1990673 -0.3508249 0.07941855 -0.27476585 -0.84714496
0.20944445 -0.04921322 0.26255277 0.41811857 0.2823803 0.49276736 0.21268739 -0.80736667
-0.5101748 -0.5489367 0.16467941 0.49179175 0.4564025 0.07019792 -0.036136366 -0.39737678
0.35212994 -4.8174934 0.26974335 -0.44694152 -0.17275962 -0.3567309 0.38660318 -0.067636155

actor.0.bias f4 [64]
00000000: 9823 a2be 2337 523c d4bf ba3e a59f eb3e
00000010: 28a1 ffbe 260b dcbe 5cc8 e3be 8407 503e
00000020: b739 f83d cf41 7d3e 307e 36be 05d3 bebe
00000030: e2cd d2be f3e7 95be 76d0 843e 19fa e33e
00000040: 6c67 0bbe 3919 4cbe 728d a2be 6c7f 763e
00000050: d7b7 fdbc 0925 0d3f fdb7 4cbd ac7e cfbe
00000060: 2cb5 2ebf 8af0 7c3e 4c90 3b3e 4e6b e8be
00000070: c234 ebbe be13 f33e a4f2 2e3d bb5e c3be
00000080: 53ce 583e 3819 51bc 5e21 08bd 22bd d33e
00000090: f4a5 44be 6ffb 043d 266c e13d 62be a4be
000000a0: 80b5 c5be c129 6c3e 4538 5ebe a83d 57be
000000b0: fe93 bfbe caf0 80bc c131 0f3e 5408 a8bb
000000c0: cca9 40be f7fb 1fbf 6ad3 bdbd a7c9 44be
000000d0: b817 19bf af21 e8be ad64 dcbe 2d8f 8b3e
000000e0: 1814 f5be d9e8 833c b666 80be 200f 473e
000000f0: febb 9abd e42d ad3e 03c4 843c b173 e4be
-0.3166778 0.012830528 0.36474478 0.46020237 -0.4992764 -0.42977256 -0.444888 0.20315367
0.12120383 0.24732135 -0.17821574 -0.3727037 -0.411727 -0.29278526 0.25940293 0.44526747
-0.13613671 -0.19931497 -0.3174854 0.24072045 -0.03097145 0.55134636 -0.049980152 -0.4052633
-0.68245196 0.24701133 0.18316764 -0.45394367 -0.4593869 0.47476 0.04271187 -0.3815821
0.21172456 -0.01276236 -0.033234946 0.41355234 -0.19203931 0.03246635 0.11006956 -0.321765
-0.38615036 0.23062803 -0.21701153 -0.21019614 -0.37417597 -0.015739817 0.13983823 -0.005127946
-0.18814772 -0.6249384 -0.0926884 -0.1921755 -0.59801817 -0.453382 -0.4304556 0.27257672
-0.47866893 0.016102241 -0.25078362 0.19439363 -0.07555388 0.33824074 0.016206747 -0.44619516

actor.2.weight f4 [64, 64]
00000000: 7458 52bd 038a 26be ef8e 0c3e 2b40 18be
00000010: b299 5b3d acaf 52bd bc7f 763d 734b b53c
00000020: 2ca9 dbbd 0ff5 dabc 667e d13d bbcf 003e
00000030: e08c 633c be5a 60be 60eb babd 1c66 98be
00000040: 1e0a 83be ae83 83bd 3231 febd 67e2 5fbd
00000050: 9769 29be ed61 d8bd 8993 f4bc 70a1 ac3d
00000060: af73 92bc 70a1 4f3d c404 69be ffb0 eebd
00000070: 46d1 c23d 304c e33c 34ec bfbd 5dee e9bc
00000080: 264f 983d 1148 75be 11b9 54be 3242 d2bd
00000090: ab64 373d 6383 0abe 5f41 30be eaa4 e03d
000000a0: a070 ed3c 90f4 22be 607d d3bc c0ef b4bb
000000b0: c8aa 0bbe 9c37 f2bc 2061 cdbe bdad bebd
000000c0: 1cb5 c7bd fc8d d2bc 91c5 04be 0577 693d
000000d0: 6721 e1bb 98ec 8ebe dc3f 0bbe 07dd 463b
000000e0: 3a02 b33d 34aa 8f3d 9491 413d e806 85be
000000f0: 1e1b 81be ba2d 24bb 0b8a 6dbd 40da 77bc
00000100: 4e31 c9bd b6b6 86bd 2d15 43be 4cb0 4dba
00000110: 006b 853d a470 ad3d ee2d c1bd f9c5 04bd
00000120: f4cf f8bc 2d15 1c3c 99c3 6cbe 03aa 813b
00000130: 9099 813d 4233 97be 77a6 2a3d 8b1d 503d
00000140: e81b 7fbe 1e9f aebd 9d8a 3fbe ba5b 6dbe
00000150: 21f4 6abc 617d 11be 0ae6 7ebe b4e8 5fbd
00000160: 2830 8c3b 7dba edbb 95ee 1a3d e2b5 9fbd
00000170: f46b b9bd 98cf 4fbd b439 6cbe 70ae 3fbd
00000180: 014a 5e3d 6e9e 89bd fd50 363c 63e0 91be
00000190: 5ae0 db3d 6d7b cc3c 7c5f 8dbd ee8e d7bd
000001a0: 2e4b b0bd 2c0b a13d 9f7b 91bd 20e7 eebc
000001b0: 20dd 6e3d 17f3 923d 2434 d93d bd08 40bd
000001c0: c65d 923d 9e66 16be b5f7 efbd 69e7 bebd
000001d0: ba97 9f3d 7cd3 36be 0e04 b53d cae9 6f3c
000001e0: 7079 ff3c 7a29 2abd 74f3 f13d 5b4a 90bd
000001f0: fb2a 47be 8c0d b93c 5941 a9bd 3c0c e0bd
00000200: 603c 8cbd 297f 08bd bf71 dabe 470a 113f
00000210: 93ec 953a 1eab 9d3d 4cf1 dfbd c5dc 91bd
00000220: d7b0 1c3e dd3c 2d3f 882a 093d e9d5 96be
00000230: 387e 48bd db23 04bb 4ff7 713e aa7d 443e
00000240: edc0 8ebe c5d3 e3bd dfa3 313e f92b 19bd
00000250: 8e2c d13d ef21 0bbd 3e1c 09be 6081 643c
00000260: f4b4 7e3d 3bd7 7ebe 6f95 1dbd eaa8 5cbe
00000270: 90fc 4c3c a283 febf 9188 81bf 76a6 e33d
00000280: 870a 65be 8195 02be 70d4 0bbe ba23 62bf
00000290: 791b fcbd b551 443e 4868 64be 88f7 d6bd
000002a0: a0ed db3c d156 913e af1c ca3e b816 ba3d
000002b0: 3108 26be 8d26 953d f63f 55be d28f 0cbe
000002c0: d8c7 63bd 918d cf3d 847c 86be 3488 58bf
000002d0: 36d0 163e 2f9d 11bf 58fe 35bf b96e 663e
000002e0: 68e5 423d 3c8b 423c 4830 debc 8cec 99be
000002f0: ddfd 8fbe e657 cbbd ee75 013d ec4e b0bd
00000300: 34c2 b3bd ec18 1f3d c0d8 13bc 425b f13c
00000310: ae34 47be 4007 e6bc 0046 0c3d de30 e93b
00000320: e1c3 15be 57f1 26be b5a9 26bd 7afb 5fbc
00000330: e46f 4d3d 4080 2bbd d341 dfbd 3ddf 68be
00000340: 512a 2fbd d74a e1bb a599 813d 102d a03d
00000350: ef5e 643d 6c2f 40be 1825 49bc 0887 ca3d
00000360: a69d e6bd ead6 46bd fa66 b3ba a10e 723d
00000370: 4463 61bd e280 db3d 512e d8bd 04e8 753d
00000380: 8ee8 0ebd fd1a 9c3d da9a 3cbd e7a8 2fbc
00000390: 9ea5 8e3d 026a 38be cbe5 1c3d 3ce5 a93d
000003a0: de16 963d 0d77 12bd 9cd3 003d 146e 5abd
000003b0: 4939 c93d d960 aa3d a95c 37bd c79a 2dbd
000003c0: 60cf c93d 301c 1abc c54a e0bb 8ea2 34be
000003d0: e9d0 6abd cc82 4bbd bf5c f0bd 484e 4dbe
000003e0: b89a a0bd 3ee0 ed3d 5cbc f9bd f540 0dbe
000003f0: dec5 89bd 4a12 89bd 94bb a5bd 7821 d3bd
-0.051353887 -0.16263585 0.137264 -0.14868228 0.053613372 -0.051437065 0.06018041 0.022130704
-0.10725626 -0.026728181 0.10229187 0.12579243 0.013888568 -0.21909615 -0.091269255 -0.29765403
-0.25593656 -0.064216 -0.12411727 -0.054659273 -0.16544186 -0.10565553 -0.029855506 0.08429229
-0.017877428 0.05069107 -0.22755724 -0.11654853 0.09512572 0.02774629 -0.09371224 -0.028556043
0.07436971 -0.23953272 -0.20773722 -0.10266532 0.04477374 -0.13526683 -0.17212437 0.10968955
0.028984368 -0.15913606 -0.02581662 -0.0055217445 -0.13639367 -0.029567532 -0.40113163 -0.09310482
-0.09751341 -0.025702469 -0.1296599 0.05699827 -0.006870437 -0.27914882 -0.13598579 0.0030344145
0.08740659 0.070148855 0.047257975 -0.25981832 -0.25216 -0.002505167 -0.057992976 -0.015127718
-0.09823857 -0.06577818 -0.19051047 -0.00078463997 0.06514549 0.0846875 -0.094325885 -0.032415364
-0.030372597 0.009526533 -0.2312149 0.0039570346 0.06328118 -0.29531294 0.04166266 0.050809424
-0.24912989 -0.08526443 -0.1870522 -0.23179522 -0.014340431 -0.14207985 -0.2489244 -0.054665282
0.0042782016 -0.007254897 0.037825186 -0.07798363 -0.090537935 -0.050735086 -0.23068887 -0.046797216
0.054269794 -0.06719671 0.011127708 -0.28491506 0.10736151 0.024961198 -0.06902978 -0.105253085
-0.086080894 0.07863459 -0.07103657 -0.029162943 0.05831635 0.07175272 0.10605648 -0.046883333
0.07146792 -0.14687583 -0.11717168 -0.09321482 0.077926114 -0.17854112 0.08838664 0.014643142
0.031185836 -0.04154346 0.11814013 -0.07045432 -0.1944999 0.022589467 -0.08264417 -0.109398335
-0.06847453 -0.033324394 -0.42664906 0.56656307 0.0011438302 0.07698654 -0.109346956 -0.071221866
0.15301834 0.67670995 0.033487827 -0.29460075 -0.048948497 -0.0020162973 0.23629497 0.19188562
-0.27881566 -0.11124376 0.17347668 -0.03739545 0.10213576 -0.03396791 -0.1338968 0.013946861
0.06218429 -0.24886791 -0.03847259 -0.2154881 0.0125113875 -1.9883921 -1.0119802 0.11115734
-0.22367297 -0.12752344 -0.13655257 -0.88335764 -0.123099275 0.19171794 -0.22305405 -0.104964316
0.026846707 0.28386548 0.3947501 0.090863645 -0.16214062 0.072827436 -0.2082518 -0.13726738
-0.055610508 0.101344235 -0.26266873 -0.8458283 0.14727864 -0.5688047 -0.7109122 0.22503175
0.04758206 0.011874016 -0.027122632 -0.30063283 -0.2812337 -0.09928875 0.031606607 -0.08608803
-0.08777276 0.038842127 -0.009023845 0.02946246 -0.1945369 -0.028079629 0.034246445 0.007116421
-0.14625503 -0.16303001 -0.04068919 -0.0136707965 0.050155535 -0.041870356 -0.10901227 -0.22741409
-0.042764965 -0.0068753767 0.063281335 0.07821095 0.0557546 -0.1876809 -0.01227691 0.098890364
-0.11260538 -0.0485448 -0.0013687306 0.059095982 -0.055026308 0.10717942 -0.10555709 0.06003572
-0.03488975 0.07622335 -0.046046115 -0.010721422 0.06965183 -0.18009189 0.038305085 0.08295676
0.0732858 -0.035758067 0.031451806 -0.053327635 0.098253794 0.083192535 -0.044766102 -0.042383935
0.09854007 -0.0094061345 -0.0068448507 -0.17640135 -0.05732814 -0.049685284 -0.1173644 -0.20049393
-0.0784201 0.116150364 -0.1219413 -0.1379431 -0.06727193 -0.066929415 -0.08092418 -0.10309118

actor.2.bias f4 [64]
00000000: 2c34 44be 4e86 ecbc 495f ccbd 710d b03c
00000010: 8ebc 26be 54a3 343e 3167 80bd 1853 9abd
00000020: 3906 1cbe c4d3 53bc 5864 5b3c 9c8e 453e
00000030: 1ea8 133e 06be 1dbc 53f8 363d fc90 d7bd
00000040: 7a0f 5cbd ca03 6a3c ee86 e0bb 275d ddbd
00000050: bd10 08be 2ea2 883e f514 4d3e 2b8d b83e
00000060: 4a5e 87be db55 ec3b 0204 61be eda1 fcbd
00000070: a169 d63e f9f4 273e ba4f 0cbe 5315 b4bd
00000080: 2a7c 2b3e e4c8 1e3b 4d45 27be 4f75 89bd
00000090: 303e 8d3e a1f4 09bd 2f1f 8f3d 3e2d a0be
000000a0: 7700 e8bc f38f c43e 3743 efbd 7e28 533e
000000b0: 85df 91be 4e76 053e a8fe 2ebe 0857 ebbd
000000c0: e358 33be 08a0 0a3d 0dbf 7dbe 8261 873d
000000d0: c743 39be a4b2 0cbe f4c3 273c 9251 443e
000000e0: 59d9 d1bd a7e0 e9bb 2073 29be 0c47 8ebe
000000f0: b970 d5bd b2c0 d3bd 394d dfbd 871c a23e
-0.19160527 -0.028872635 -0.09979112 0.021490784 -0.16282865 0.1764043 -0.06269682 -0.0753538
-0.15236749 -0.012928907 0.013390623 0.19292682 0.144196 -0.009627825 0.044670414 -0.105257004
-0.053725697 0.01428313 -0.0068520224 -0.10808783 -0.13287635 0.26686233 0.20027526 0.36045203
-0.26439124 0.007212383 -0.21974185 -0.123355724 0.41877463 0.16402043 -0.13702288 -0.0879313
0.16746584 0.0024228627 -0.1633503 -0.06711828 0.27586508 -0.033680562 0.0698837 -0.31284517
-0.028320534 0.38391075 -0.11682742 0.20620915 -0.28490844 0.13033411 -0.17089331 -0.11491209
-0.17514376 0.033844024 -0.24779911 0.06610395 -0.18092261 -0.13740021 0.01023959 0.19171742
-0.10246534 -0.0071373763 -0.16547823 -0.2778858 -0.10421891 -0.10339488 -0.10903401 0.3166239

actor.4.weight f4 [2, 64]
00000000: 9970 d0bd a02e 88bd 2e9c f03d b286 363e
00000010: 878c a5bd 263c 52bf 3bb9 debd f44a 593d
00000020: 255b 9d3c 3e7a a93c 9e5d e43d ee4a 7abd
00000030: 8d04 583e 6f9e 653e 2c1c a73c 5084 5c3d
00000040: 689c f33d fc99 303e 52d7 b4bc 3470 5d3c
00000050: 1b36 993b 2f78 2e3e 38f2 803e 9aaa 723d
00000060: 6404 f1bd e01f 783d 8c4b a6bd ac23 20bd
00000070: 3c5d 703e da38 b8bf 1cfc 6d3d 4056 013d
00000080: 3165 613d b707 c23d 42cd f93c fd73 423e
00000090: 31dd 5dbe b0ec 773d e4eb b63d 275c 17bc
000000a0: bb6a cebf df6e da3d 4177 c03d c999 083c
000000b0: 34ba 0cbe 993f 43c0 973f 7abe 6023 6e3d
000000c0: cc4d 15be 45d5 0ebd 7ffd e33d 3516 283d
000000d0: 7063 62be e025 3c3d 8622 56bd 2c59 aa3e
000000e0: b3b4 03bd 59c7 6d3d c04e b1be be9a 4fbe
000000f0: d4ff 4f3d 4051 10be 1b2f b0bc 544a 9f3e
00000100: 5f2a af3e 209a 0b3d 38c5 763e acbd 4dbd
00000110: 3f54 e73d 9806 01c0 23a7 e43c dcb1 59bd
00000120: 56f8 b13d af02 ddbc dda4 64bc 0907 81be
00000130: c617 213e 616f 723f e161 c43d 5922 833d
00000140: 5648 8cbb a96d 9fbd 4c3f 833d c360 b9bd
00000150: 7f19 be3d 87df a1ba a0ce 843f c6b8 c33e
00000160: f028 843b 66cb f4bc 565d a23e 90fe 6d3e
00000170: 323e 6f3f 7e8f a6bf 08d1 8cbc 60d2 79bd
00000180: 12cf 4c3e 5466 37bd 2ff3 b23f 414d 92bd
00000190: 8e62 4fbf ca9a 1bbf f9f0 503f 6f8f e53f
000001a0: 2ad4 a2bd ebed 35be c9d4 0b3d a5d7 44bd
000001b0: 733e 113e e2a3 933f fa89 ab3f 938f 46bd
000001c0: 90ec 9cbf 3632 25bd 2b77 da3e d86d 813d
000001d0: da34 39bf a3d8 dabd 4356 57be 038a 873e
000001e0: b214 c63d 18a9 aa3f 2845 0b3e 1f66 8a3d
000001f0: 014a f5bc 5221 693e 8547 babe 8064 b53e
-0.10177726 -0.06649518 0.11748539 0.1782482 -0.08083444 -0.8212303 -0.10875174 0.053049996
0.0192085 0.020688172 0.111506686 -0.061106615 0.21095486 0.22423719 0.020399176 0.05383712
0.118950665 0.1724624 -0.022075329 0.013515521 0.0046756393 0.17038034 0.25184798 0.05924473
-0.117684156 0.060577273 -0.08119878 -0.03909652 0.23473066 -1.439235 0.05810176 0.031576395
0.055028144 0.09474128 0.030493382 0.18989559 -0.21666409 0.060528457 0.08931711 -0.009238279
-1.6126322 0.10665678 0.09397746 0.0083374465 -0.13742906 -3.0507567 -0.2443832 0.058139205
-0.14580458 -0.03487136 0.11132335 0.041036803 -0.22108245 0.045934558 -0.052279018 0.33271158
-0.03215475 0.05805144 -0.34630394 -0.20273873 0.050781086 -0.14093494 -0.021506837 0.31111395
0.34212014 0.034082532 0.2409867 -0.050229713 0.112953655 -2.0160275 0.027911728 -0.053148136
0.086899444 -0.026978819 -0.013955322 -0.2520068 0.15731725 0.947012 0.095889814 0.06403036
-0.004281084 -0.07784588 0.06408557 -0.09051659 0.09282207 -0.0012349942 1.0375557 0.38226908
0.0040332004 -0.029882144 0.31711835 0.23241639 0.9345428 -1.301254 -0.017189518 -0.060991645
0.20000866 -0.044775322 1.3980464 -0.07143641 -0.8100976 -0.60783064 0.81617695 1.7934397
-0.07950623 -0.1776654 0.034138475 -0.048057217 0.14183979 1.1534388 1.3401482 -0.048476767
-1.2259693 -0.040331088 0.42669043 0.06319779 -0.7234627 -0.106858514 -0.21029 0.26472482
0.09671916 1.3332853 0.136006 0.06757759 -0.029942514 0.22766617 -0.3638269 0.35428238

actor.4.bias f4 [2]
00000000: 16e4 8c3e 877a 8bbe
0.27517766 -0.27241918
