model/MountainCarContinuous-v1/3level/HAC_MountainCarContinuous-v1_solved_level_2_crtic.pth (torch, 21133 bytes, 5 tensors)

critic.0.weight f4 [64, 6]
000000 32 3a b7 3e 30 74 42 bf 99 6f e3 3d 07 a0 ed bf
       0.35786587 -0.7595854 0.1110527 -1.8564461
000010 68 4f 0c 3f 47 a6 4c 40 fa 8e a0 bd 72 1d 12 bd
       0.54808664 3.1976488 -0.078397706 -0.035672612
000020 df af 95 3e 84 b0 f7 bd 52 08 6c bd 2e 58 25 be
       0.29235741 -0.120942146 -0.057625122 -0.16146919
000030 70 70 be be 7b f0 a8 40 2b b0 1f be 8d 0a ca 3d
       -0.37195158 5.2793555 -0.15594546 0.09865294
000040 b7 bc ab bf 3e 5e 0d be b6 b8 cd be ba 61 17 bf
       -1.3416966 -0.13805482 -0.40179986 -0.59133494
000050 74 d6 68 3c 5a 52 44 bf 85 d5 c7 3e ec 7d 73 40
       0.014211286 -0.7668816 0.3903009 3.8045607
000060 f2 b4 40 3f 1e 63 89 40 07 4e 60 be 8c 29 41 40
       0.752761 4.2933493 -0.21904765 3.0181608
000070 82 7b c4 3e 47 7c 3c 3e 02 2d 25 bf 45 4f 10 be
       0.3837548 0.18406783 -0.645218 -0.14092739
000080 90 2e 13 bf 9f 5e 85 c0 44 32 02 bf a0 b1 4c 3f
       -0.57492924 -4.1678004 -0.5085795 0.79958534
000090 77 a3 7b be 40 b2 af 3e 0a 36 f1 bd bf 63 18 bf
       -0.24574076 0.3431568 -0.11777885 -0.595272
0000a0 cf 3f 90 3d be c6 23 bd 9b ff 6e 3c b7 2a 3f 3e
       0.070434205 -0.039984457 0.014587308 0.18668638
0000b0 b5 4d dd be 33 38 bd bf 6c 61 98 be 8a e8 61 40
       -0.43223348 -1.4782776 -0.29761827 3.529818
0000c0 d0 25 52 be f4 2e fe bf 71 c8 8d be c6 2a 74 40
       -0.20522237 -1.9858079 -0.27691987 3.8151107
0000d0 96 82 05 3f 6c f1 03 40 84 b0 58 3d f6 8b cf 3e
       0.52152383 2.0616102 0.052902713 0.4053647
0000e0 4b f6 9a bf 4d 43 7b 40 ef d6 35 bf 0f 8a 04 c0
       -1.2106413 3.9259827 -0.7103109 -2.0709264
0000f0 82 c7 05 bf ca c4 4c 40 0b de a6 be 37 21 4e 3f
       -0.5225755 3.199511 -0.3259128 0.8051943
000100 10 28 09 bf 36 6a 37 c0 29 08 cc be 57 0a d8 bf
       -0.53576756 -2.8658576 -0.39849976 -1.6878155
000110 e7 f4 c8 be 1d 26 8b 40 f8 f4 b6 be dc 50 87 bd
       -0.39249346 4.3484025 -0.3573377 -0.066072196
000120 66 1d 7e bf b7 a4 cc 3f b2 99 b9 3e 3c e0 87 bf
       -0.9926361 1.5987767 0.36250073 -1.0615306
000130 97 85 07 bf f2 5b c6 bf fb 2c ee 3d 6a c4 dc 3d
       -0.52938217 -1.549681 0.11629673 0.107796505
000140 23 6e 17 3e 26 97 af bd 48 e4 ef bd 5a 1a b8 3e
       0.14788108 -0.08573751 -0.11713463 0.35957605
000150 f4 45 cc 3c c4 04 a9 be e2 70 69 bc f9 e4 05 3f
       0.0249357 -0.33011448 -0.014248105 0.5230251
000160 13 d1 86 3e ee df 4c 40 dd 37 93 3e 75 a9 94 3e
       0.26331386 3.2011676 0.28753558 0.29035535
000170 21 0f 65 3e 90 71 4b 3d ec c8 52 3e e1 c7 70 be
       0.22369052 0.04966885 0.20584458 -0.23513748
000180 55 95 3c bd d8 5c 5b be 33 5b e8 bd 66 91 fd 3d
       -0.04604085 -0.21422136 -0.1134552 0.12381248
000190 aa 4b 6a 3e bc a2 14 be bc aa f8 be cd cb 08 c0
       0.22880426 -0.14515203 -0.4856776 -2.137439
0001a0 d4 49 46 be 5f a2 50 bf 7a 27 22 bf fc 32 4e c0
       -0.193641 -0.8149776 -0.63341486 -3.2218618
0001b0 f5 cb 5e 3e ca ca b5 c0 ef 7a f3 3b 6b f7 2d bf
       0.21757491 -5.6810045 0.0074304263 -0.67955655
0001c0 a0 80 90 3e 50 8a 26 3f 40 87 7a 3f 4c 9c 6e be
       0.28223133 0.650548 0.97862625 -0.2330181
0001d0 35 e9 26 bf 24 8f a4 bf b5 62 d2 3c 65 cb 7c 3e
       -0.65199596 -1.2856183 0.025681833 0.24686964
0001e0 fa eb 51 3f f5 4b 5a bf 99 e0 e9 bd 69 bb ac c0
       0.82000697 -0.8527215 -0.11419792 -5.397877
0001f0 70 dc 18 3e bb b5 55 3e 08 c1 af 3e 13 38 9a be
       0.1492784 0.20870106 0.3432696 -0.30120906
000200 d8 8e e6 be 92 d3 9c bf 1d d8 11 be 19 6d 9d bf
       -0.45030856 -1.2252066 -0.14242597 -1.2298919
000210 7e ac 6c bc a2 35 ab 3e 36 3b 91 3e fb dd ac 3e
       -0.014445422 0.33439356 0.28365487 0.33763108
000220 69 00 66 3d 78 f2 65 3d bc 17 2b 3c f9 ab 3a 3e
       0.056152735 0.05613944 0.01044267 0.18229665
000230 60 57 aa 3f 67 fd c6 3f dd 2a 3c bf f7 d2 87 bf
       1.3307915 1.5546082 -0.73502904 -1.0611256
000240 7c f0 7f 3c f5 10 ea be 1b bf 94 bb d5 bc 00 c0
       0.015621301 -0.45716062 -0.004539383 -2.0115254
000250 dd 7d 87 bc 83 19 87 c0 8e ba 37 bb 90 f4 66 3d
       -0.016539508 -4.221864 -0.002803478 0.056385577
000260 02 2b 8f 3f b0 f9 a6 3e 3c 6f 53 bf f9 43 a0 bf
       1.1185 0.3261237 -0.82591605 -1.2520744
000270 49 a8 94 3d 01 78 2c bf 89 92 ac be 3b 37 a9 bf
       0.0725866 -0.6737061 -0.33705547 -1.321998
000280 a8 f2 a3 be 56 05 d7 bf b4 18 c0 be fb 57 52 bf
       -0.3202107 -1.6798503 -0.37518847 -0.821655
000290 ca b9 d1 3e 43 8f b9 3f 2a c3 43 3e 6b 34 d1 3f
       0.40962058 1.4496845 0.19117418 1.6344122
0002a0 d9 27 37 be b5 71 6f c0 8d 79 c3 be 40 bb 97 3f
       -0.17886294 -3.7413151 -0.38178673 1.1854019
0002b0 a3 0c 06 bf 38 87 1d 40 63 de 98 bd d4 0e dd be
       -0.5236303 2.461378 -0.07464292 -0.43175375
0002c0 c4 28 44 3e 04 55 11 be 06 4b 08 3c ac 25 9a be
       0.19156176 -0.14192587 0.008318668 -0.30106866
0002d0 aa c0 e5 bc b4 26 12 3f 44 e4 b1 3e 83 d6 b1 c0
       -0.028045971 0.57090306 0.34744465 -5.5574355
0002e0 cc 1e 84 3e 0a b5 36 3f 6f 91 fe bb 70 54 a5 3f
       0.25804746 0.71369994 -0.007768802 1.2916393
0002f0 9c 78 08 3c 4a ca 7a bb e2 74 18 3e 82 06 74 40
       0.008329537 -0.0038267546 0.14888337 3.8128972
000300 75 3d 00 bf 8d 33 83 40 8f 03 5e be 43 00 a4 40
       -0.50093776 4.100043 -0.21681045 5.125032
000310 fa 43 49 bf 6e 33 8c 40 31 d4 b2 3e 8a ba a6 3e
       -0.7861935 4.381278 0.34927514 0.32564193
000320 ca c9 9d 3e de 6d 3c 3e 01 87 6d be 88 c5 ba bd
       0.30818015 0.18401286 -0.23196031 -0.09119707
000330 1f 70 00 3f 30 22 07 c0 a9 45 96 3d 96 9b ba be
       0.50171083 -2.1114616 0.07337505 -0.36446828
000340 34 af 75 3e 0c 33 44 40 e3 ac 49 3f 4e df f3 bf
       0.23992616 3.0656157 0.7877943 -1.9052522
000350 ea 6f 78 3e d7 32 bb 3f e3 50 c7 ba 36 b2 f7 3e
       0.24261442 1.462489 -0.0015206601 0.48378152
000360 62 e3 41 3e f9 a4 01 be ee de 5a 3e 0d 83 95 3f
       0.18934396 -0.12660588 0.21374103 1.1680619
000370 b3 70 15 bf 75 f5 4d c0 b7 d0 b1 bd c4 b9 f0 be
       -0.5837509 -3.2181065 -0.08682387 -0.47016728
000380 b8 15 9c 3f 76 7a 8b bd 87 32 5a bf ce e9 d1 bf
       1.2194128 -0.06810467 -0.8523335 -1.6399477
000390 12 81 c2 3c 20 11 3d 3f 2b 6a 1b 3f ae f3 2f 40
       0.023743186 0.73854256 0.60708874 2.749248
0003a0 bb b3 70 3e 6f 2e b2 3f 54 a6 08 3f b9 b9 47 3e
       0.23506062 1.392042 0.53378797 0.19504441
0003b0 cd ad 23 3e 40 df a2 bc 9e 11 54 3e d2 b3 02 40
       0.15984268 -0.019881845 0.20709845 2.0422254
0003c0 a4 6b 0d 3f 27 4c 11 c0 c8 57 b8 bd 19 82 90 c0
       0.5524237 -2.270273 -0.09001118 -4.515881
0003d0 cf 58 05 3e f9 ce 0c 40 40 c0 88 3c bd 68 a0 3e
       0.13022159 2.2001326 0.016693234 0.3132991
0003e0 7d 26 6c bd 71 ae cc c0 34 8f ed bd 44 51 1d 40
       -0.057653893 -6.396294 -0.115995795 2.458085
0003f0 d2 3e 11 3c b5 c9 ee bf 98 a6 13 bf 50 99 9e c0
       0.008865075 -1.8655306 -0.57676077 -4.956215

critic.0.bias f4 [64]
000000 c9 67 ec bd 75 d1 c2 be a9 1e 3f 3e b2 1b ba be
       -0.11543233 -0.38050428 0.1866404 -0.36349255
000010 58 1f 5f be 75 59 aa be 06 19 00 bf 4d bd 4f bd
       -0.217893 -0.33271375 -0.5003818 -0.05071764
000020 d7 19 cc be 50 3a 62 bd 65 33 f7 3d 3c 94 80 be
       -0.39863464 -0.055231392 0.120703496 -0.25113094
000030 99 ec a6 be cf a4 10 be 66 4f ba be f4 c8 c6 be
       -0.32602385 -0.1412537 -0.363887 -0.3882519
000040 c3 84 cd be 7f 14 52 3e 59 2c 8d bd 2f 9f fe be
       -0.40140352 0.20515631 -0.06893224 -0.49730822
000050 38 68 06 bd 5d e2 24 bf f5 a4 95 be 47 6d 44 be
       -0.032814234 -0.644079 -0.29227415 -0.19182311
000060 94 ef 84 3e a8 47 20 bd 44 84 b9 3e a5 6c c4 bd
       0.25964034 -0.039130837 0.36233723 -0.09591035
000070 c8 c9 73 be 24 0a 56 be 26 8d 90 be d2 b5 67 be
       -0.23807442 -0.20902306 -0.28232688 -0.22627953
000080 b3 f6 3e bf 37 37 7b be d1 b3 3d 3d 3c 6f 5d be
       -0.74595183 -0.24532782 0.046314064 -0.21624464
000090 95 4d 14 3f 76 31 ed 3b c8 a3 62 be c0 d3 0e 3d
       0.5793088 0.007238562 -0.2213279 0.03486991
0000a0 c2 a2 7a bb f3 fe 16 3d 30 82 6a bc a9 74 47 be
       -0.0038243984 0.036864232 -0.014313266 -0.19478096
0000b0 32 c9 a1 bd 15 a8 d3 be d9 12 8b be 35 82 9f be
       -0.07899703 -0.41339174 -0.27162817 -0.31154028
0000c0 6b d3 f4 bd 96 8d b2 3d d1 69 69 be d2 d7 9b be
       -0.11954387 0.087184116 -0.22794272 -0.30438095
0000d0 59 4f b3 3e 0c e2 c9 bd 99 0f 96 be fc 61 08 be
       0.35021475 -0.09857568 -0.29308775 -0.13318628
0000e0 81 c6 8b be bc 46 cb 3e 4a 60 82 3e a6 3c 70 be
       -0.27299884 0.39702404 0.25464088 -0.23460636
0000f0 43 8b 2e be 5c 6f 8e 3e 6b 15 61 3e cf 39 a9 be
       -0.17045312 0.27819335 0.21980827 -0.33051917

critic.2.weight f4 [64, 64]
000000 7d 14 69 bd da e1 b9 bd b2 8a 69 3d 48 20 a0 3d
       -0.056904305 -0.09076281 0.057017036 0.07818657
000010 20 a2 62 3d d3 bf 02 be 2b 64 72 3d 73 57 35 bd
       0.055330396 -0.12768488 0.05917756 -0.04427285
000020 7e 74 51 3d b4 ba be 3c ba c3 09 be 08 b0 88 bd
       0.051136486 0.023282386 -0.1345357 -0.066742
000030 f4 8e 9f bd d8 b8 f1 3c d3 81 ac bd 64 7f 70 bd
       -0.07790938 0.029507086 -0.084231995 -0.05871524
000040 7e 39 d4 3d 0b b2 05 bd b5 59 21 bd 00 62 bb bd
       0.10362528 -0.032640498 -0.039392192 -0.091495514
000050 16 a1 53 3d b8 7c ad 3d b4 e9 3f bd f8 63 ae 3d
       0.051667295 0.08471054 -0.046853736 0.08515161
000060 14 4f 2a bc 33 42 24 3d 15 47 b1 3d 58 02 a5 bc
       -0.01039483 0.040102195 0.08656136 -0.02014272
000070 b3 3c a9 3b 18 64 ef bd ee 44 b6 3d 8a ad cc bd
       0.0051647066 -0.11689013 0.08899866 -0.099940374
000080 41 27 02 bd c8 2e 0d 3d a3 0d a8 bc d3 0b 9e bd
       -0.031775717 0.034468442 -0.020514315 -0.07717099
000090 c7 5a c7 3c 5f cc 22 3d fd 0f 46 3d 0f 2d a9 bd
       0.024335278 0.039745685 0.04835509 -0.08260547
0000a0 14 b8 63 3d f1 db 11 be 0d 58 e2 bd 6d 27 23 3b
       0.055595472 -0.14244057 -0.110519506 0.0024895326
0000b0 d3 6a 37 3d 86 21 ae bd 1b b5 90 3d 4a d8 9f 3d
       0.04477961 -0.08502488 0.07065793 0.07804926
0000c0 d8 f9 05 bd f2 65 ca 3c f7 b7 14 be 3b 34 23 bc
       -0.032708973 0.024706814 -0.14523302 -0.009961183
0000d0 cd 5e ec bd e0 56 ef 3b fa 97 ab 3d a6 29 aa bc
       -0.11541519 0.0073040575 0.083785966 -0.020771813
0000e0 c2 87 e3 bd a9 73 1f bd 1f d3 05 be aa be 12 be
       -0.11109878 -0.03892866 -0.13068818 -0.14330545
0000f0 aa 3c 9f 3d b7 af 55 ba b1 07 1f be f6 f7 f1 bc
       0.077752426 -0.0008151489 -0.15530278 -0.029537182
000100 59 88 09 bb b0 33 74 bc f6 58 8e bd 5e 47 e4 bc
       -0.002098581 -0.014904901 -0.06950562 -0.027866062
000110 e4 aa bd 3d 20 56 7a 3c 12 01 d0 bd b0 c1 9f bd
       0.092611104 0.015279323 -0.10156454 -0.07800615
000120 3b ee 61 bd f0 96 4f bc 46 c1 9d bc e4 ac d4 bd
       -0.055158835 -0.012670264 -0.019257199 -0.10384539
000130 09 d6 11 be 48 52 f8 3c 4d b2 23 3c f0 51 19 3d
       -0.14241804 0.030312672 0.009991241 0.037431657
000140 24 47 7c bd 59 41 cc 3b ea 2f b5 3d 00 b9 29 bd
       -0.061591282 0.006233376 0.088470295 -0.041436195
000150 51 16 be bd 00 b8 71 b9 ba 5c 97 3d 21 28 03 bd
       -0.092816 -0.00023052096 0.07390733 -0.03202069
000160 22 75 ca bd 47 3c d1 bd 4d a7 8f bd 5e 6d 3a 3c
       -0.098856226 -0.10216575 -0.07014332 0.011378614
000170 6a 00 35 3d b0 43 67 3d 1c ba 5d 3d 2c 15 b8 3c
       0.044189848 0.056461036 0.054132566 0.022471033
000180 0a cb fc bd 10 c8 d3 3d fe 6e 30 3d b0 1e 82 3d
       -0.12343414 0.10340893 0.0430746 0.063535094
000190 1f 63 4b 3c b9 71 e8 bd 20 1f 6c bd 24 7d bb bd
       0.012413769 -0.11349816 -0.05764687 -0.09154728
0001a0 49 22 fb bd fb 38 15 be 5e 71 c3 3d c2 b9 a6 3d
       -0.12262399 -0.14572518 0.095431075 0.08140899
0001b0 68 c5 38 be 18 b7 ad 3c db 39 0b be ad b0 b4 bc
       -0.18044055 0.02120547 -0.13596289 -0.022056902
0001c0 4a 3a ee bd 26 2b bd bd 5d aa 12 be f1 9f 5d bd
       -0.116322115 -0.092367455 -0.14322801 -0.05410761
0001d0 48 1e fd bc 1c 26 e6 3c e4 58 29 3d da 9b f1 bd
       -0.030898228 0.028094344 0.04134454 -0.117973045
0001e0 44 41 5e 3d 87 96 15 be c1 9f e9 bd 82 8b 12 be
       0.05426146 -0.14608203 -0.11407424 -0.1431103
0001f0 fa 00 c5 3d 89 6b 9a bd ea 93 f9 3c e9 91 ec bd
       0.09619327 -0.07540042 0.030466039 -0.11551268
000200 04 d1 15 3c 80 36 86 3c bc 47 be 3d bb a0 a6 bd
       0.0091440715 0.01638341 0.09291026 -0.08136126
000210 ee 6e f2 bc 98 74 1b 3d b9 d9 f0 3c f5 05 c1 3d
       -0.029593911 0.03795299 0.029400693 0.09424964
000220 c3 df 61 3d 91 98 1b bd 5c 8e 24 be dc 75 ec bd
       0.055145036 -0.037987296 -0.16069931 -0.115459174
000230 75 e9 5b bd f0 00 ad bd 84 52 87 bd b8 5d 79 3d
       -0.05368944 -0.084474444 -0.066075355 0.060880393
000240 98 c2 f7 3d 9b bb da bd a6 13 81 3d f0 92 44 be
       0.12097663 -0.10680314 0.06302576 -0.19196677
000250 4e 71 e1 3c 68 c9 57 bd a0 9a 48 bc b3 bb 00 be
       0.027519848 -0.05268231 -0.012243897 -0.12571602
000260 93 a5 30 3d 06 54 b1 bd 68 00 f5 bd 96 e2 35 3d
       0.043126654 -0.08658604 -0.11962968 0.044405542
000270 f0 77 ca bd a0 0b c8 3b 8c 4b f1 bd 37 e0 b7 bd
       -0.098861575 0.0061049014 -0.117819875 -0.089783125
000280 b0 3b a6 3c 88 ed 34 bd 92 85 2e be e9 37 bd bd
       0.020292133 -0.04417184 -0.1704314 -0.0923918
000290 a9 55 3c be 94 62 3e be d5 b2 0c be 38 37 63 3c
       -0.18392052 -0.18592292 -0.13740094 0.013868146
0002a0 61 f2 e3 bd e2 3e 6d bd a2 08 fc bd 2c 8b c7 3d
       -0.111302145 -0.057921298 -0.12306334 0.09743342
0002b0 61 c9 c8 bd 58 46 e6 bc 48 57 ab bd 63 55 b8 bd
       -0.09804035 -0.028109714 -0.08366257 -0.09000661
0002c0 71 99 0b bd 39 0c cb bd 9a 39 d7 bc e4 43 bd bd
       -0.03408188 -0.09914441 -0.026272584 -0.09241465
0002d0 cc 9f b0 3d 04 e4 b8 bc b8 45 c4 3c a4 74 d5 bd
       0.08624229 -0.022569664 0.023959026 -0.10422638
0002e0 94 09 d4 3d 25 b4 87 bc 5b a8 0b be d1 e4 4b bd
       0.103533894 -0.016565392 -0.13638441 -0.049778763
0002f0 68 33 ed bc 27 fe af 3c e6 32 21 be 50 83 df 3d
       -0.028955176 0.021483494 -0.15742072 0.10913718
000300 d9 e0 68 bd 34 8b be 3d 90 67 93 bc b1 d7 33 bd
       -0.056855056 0.09303895 -0.017993718 -0.04390687
000310 45 00 15 3d 42 78 90 bd dc ef ad 3d 1d a0 39 bd
       0.03637721 -0.07054187 0.08493015 -0.04531871
000320 73 5a 5a 3d fc 9f 5a bd 18 1d c8 bd 8a 99 a3 3d
       0.053308915 -0.05337523 -0.09771174 0.079882696
000330 30 f2 1a bd 68 02 95 3d ae 0a 19 be d0 9f f9 bd
       -0.037828624 0.072758496 -0.1494548 -0.12188685
000340 f8 56 94 bd 04 9d c8 bd b0 a9 0e 3c a6 68 b8 3d
       -0.072431505 -0.09795573 0.008707449 0.09004335
000350 3d 3b 05 be 08 4f ad 3d ca 64 df 3d 47 25 45 3d
       -0.13010879 0.0846234 0.10907896 0.048131254
000360 8a e8 18 be d0 80 9c 3c 7d ba ec bd 97 91 0e 3d
       -0.14932457 0.019104391 -0.11559007 0.034806814
000370 a0 ae 7e bd 9c 4a d0 3d f2 5d f5 3d 06 66 3a bd
       -0.062178254 0.101704806 0.11980809 -0.045507453
000380 18 0e 8e bc d4 02 ac 3d b6 aa aa bd 88 3d af bd
       -0.017340705 0.08398977 -0.08333342 -0.08556658
000390 4e 9e 8c 3d d7 cd cb bd 0c 33 23 3d 00 96 9b 3d
       0.06866132 -0.0995137 0.039843604 0.075969696
0003a0 41 62 de bd dc 15 77 bd 00 7b f8 3c 6a 5c 98 3d
       -0.10858584 -0.06032358 0.030332088 0.074395016
0003b0 eb 78 00 be 50 dc b8 bd 30 3e 3e 3d 76 51 ea bd
       -0.12546127 -0.09026396 0.046446025 -0.11441319
0003c0 2e b8 06 bc e6 9a 45 bd 4a 34 78 bd 02 b3 62 3d
       -0.008222623 -0.048243426 -0.06059674 0.055346496
0003d0 d0 e3 99 bd 4c f5 91 3d c0 5e e7 bd 7c 9a f0 bd
       -0.07514155 0.07126865 -0.11297369 -0.117482156
0003e0 60 88 df bd 55 46 cf bd 15 7c db bd f3 58 f3 bd
       -0.10914683 -0.10120837 -0.10717026 -0.118822
0003f0 d0 95 46 3d 60 d2 9c bd 54 80 52 bd 30 c5 9d 3c
       0.048482716 -0.07657313 -0.051391914 0.019259065

critic.2.bias f4 [64]
000000 83 0a 2a be b7 8f f0 3b e5 dd 12 3b 62 2b 1a bc
       -0.16605572 0.007341351 0.0022410091 -0.009409757
000010 0e c3 c0 be c4 20 2d 3f 89 76 ce 3b b5 c7 17 be
       -0.37648815 0.6762812 0.0063007516 -0.14822276
000020 00 08 0e be 7b 70 cb bc 34 35 99 3a d8 96 4a ba
       -0.1387024 -0.024833908 0.0011688829 -0.0007728166
000030 d7 b9 fd bc 74 2d 84 bd 2b d5 48 be e1 4f 29 bc
       -0.030972404 -0.06453982 -0.19612567 -0.010333986
000040 d6 0f 8a 3e 8a 63 0b bd c0 d4 7f bc bf ed 55 be
       0.26965207 -0.034030475 -0.015614688 -0.20891474
000050 89 2e 8d bd f9 ca 90 be e7 2c 47 bc 29 22 9f 3b
       -0.068936415 -0.28279856 -0.012156702 0.004856367
000060 c0 f0 07 bf 62 fb 5f 3e 5d 5e fd bc 6b 5f 9f be
       -0.5310173 0.21873239 -0.030928785 -0.31127486
000070 66 38 99 bd ab fd 51 be ca 10 a3 bb 80 10 0e be
       -0.0748146 -0.20506923 -0.0049763666 -0.13873482
000080 d4 62 47 3e 17 81 8d 3c 66 15 35 bd a4 24 45 be
       0.19471294 0.017273469 -0.04420986 -0.19252259
000090 7d 58 b9 3c da e2 63 3e f3 d6 c3 bd 67 d0 8b bd
       0.022625202 0.22254506 -0.09562483 -0.06826859
0000a0 c6 fb 23 be 57 af 87 be 71 2d 2f be 45 8b c5 3d
       -0.16014013 -0.2650096 -0.17107178 0.09645704
0000b0 dd 77 20 3d c3 a9 8c bf 83 4c 39 be ea 05 8c bd
       0.03917681 -1.0989307 -0.18095593 -0.068370655
0000c0 8d 69 9a bd 05 68 71 be 56 31 a1 bc 4b 95 ac be
       -0.075396635 -0.23574837 -0.019676846 -0.33707651
0000d0 1e f5 f4 bd e1 61 ac bd db d4 05 be 3c ac 39 be
       -0.11960815 -0.084171064 -0.13069479 -0.18132108
0000e0 7e bb be bd 24 9f 02 be 68 1d 15 be ac e2 57 bd
       -0.09313105 -0.1275602 -0.14561999 -0.052706406
0000f0 19 d3 73 3c da 72 fa bd dc 06 36 bb 8b 8d d0 bd
       0.014881873 -0.122289374 -0.0027775085 -0.10183247

critic.4.weight f4 [1, 64]
000000 be e3 26 bd 84 2a c3 3d 5e fa 58 bc b4 35 ec 3a
       -0.040744536 0.095295936 -0.013243286 0.0018021376
000010 b1 97 02 bf 8c c6 90 3f f0 12 03 40 8c fc 8c bf
       -0.5101271 1.1310592 2.0480309 -1.1014571
000020 70 df 44 3d c3 76 02 3c 95 af 01 bf 3f ae 4b c0
       0.04806465 0.007962885 -0.5065854 -3.1825101
000030 30 7d ee bc a2 52 d0 bb e8 ca 58 40 d6 e7 8d bf
       -0.029112428 -0.006357507 3.3873844 -1.1086376
000040 a6 cc 82 3f eb 81 5e 40 90 c6 37 3d 71 e5 a6 bf
       1.0218704 3.4766796 0.0448671 -1.303877
000050 6f dc f7 bd 59 b7 85 40 fa dd 31 be f9 47 d9 bd
       -0.12102591 4.1786313 -0.17369834 -0.10609431
000060 d2 c2 37 40 6b 26 a0 bf ac 33 d9 bd 00 5b 8e be
       2.871266 -1.2511724 -0.10605559 -0.27803802
000070 71 65 50 3b 9f 82 2b bf f8 80 b2 3d e0 29 b8 3d
       0.0031798745 -0.66996187 0.08716005 0.08992362
000080 96 f9 1e bf 8d ac c2 be ca 37 1d 40 72 ab a8 bf
       -0.6209959 -0.3802227 2.45653 -1.3177321
000090 04 6f ed 3f ff 02 2e bf d0 b6 a8 bf ce c5 bd bc
       1.8549504 -0.6797332 -1.318079 -0.02316561
0000a0 a2 f9 c6 bf d7 9e a2 40 08 54 f3 bf 4a c8 d3 bf
       -1.5544932 5.0818896 -1.9010019 -1.6545498
0000b0 5d 9c 99 bf 65 73 1e 41 a4 0f 87 c0 e1 34 73 bd
       -1.2000843 9.9031725 -4.2206593 -0.0593766
0000c0 22 15 62 40 cf 97 15 c0 b6 39 fa bb ad 41 06 c0
       3.5325398 -2.3373907 -0.007636274 -2.0977585
0000d0 ef e1 c0 3c bb 14 76 bd d1 44 4d 40 55 48 90 c0
       0.023545234 -0.060078364 3.2073252 -4.5088296
0000e0 77 cf 1c bd 93 8e bc bf 67 86 bd 3c f9 15 82 bd
       -0.03828379 -1.473101 0.023135377 -0.06351847
0000f0 a5 20 36 bf 06 66 20 40 b9 d7 60 40 bf 97 e1 bd
       -0.7114356 2.506227 3.5131667 -0.110152714
