model/MountainCarContinuous-v1/3level/HAC_MountainCarContinuous-v1_level_2_actor.pth (torch, 20875 bytes, 6 tensors)

actor.0.weight f4 [64, 4]
0.35993826 -0.022035658 -0.101670206 -0.012801468 0.6779936 2.1732082 -0.40835726 0.10292163
0.21688561 -2.0017364 -0.55024195 -1.5126219 0.5538077 -0.31479588 0.49163625 0.10605595
-0.17894717 -0.3968094 -0.75901866 -0.26950252 0.35304523 0.25645798 0.49847758 -0.30836928
0.31239682 -0.09797329 -0.07195884 0.15983206 0.4655689 -0.36262777 0.34651324 -0.8047669
0.8787139 1.1554545 0.12145862 1.0034677 0.8813754 0.026563138 0.92147994 0.28892618
-0.73851824 -0.84117246 -0.43094411 -1.0416855 0.12084166 0.19451408 -0.36016652 0.76477695
-0.17048115 0.006980717 0.0076118708 0.40406954 0.3996625 0.2029457 -0.35294253 0.451249
0.3854329 0.040223736 0.53331584 0.13229252 0.3859148 -0.080437265 0.18085127 -1.0433456
-0.32743987 -2.6805193 0.07069815 0.33938685 0.7297282 0.09162548 0.15920657 -1.3162404
-0.5935937 -7.211125 0.1317135 -0.39577946 -0.03304263 1.8361646 -0.42080027 -0.89071476
1.44095 4.124087 -0.09290599 0.22545287 0.32420337 0.4687731 0.029394386 -0.19517413
0.6452079 4.0252385 -0.35947096 0.67364305 0.008969903 -0.06929213 -0.025458276 -0.107129276
-0.78883463 -0.13863967 -0.07100471 1.4545978 -0.23839167 -7.0100117 -0.52633625 -0.022699136
0.21301726 -2.787237 -0.15451543 -1.6117021 -0.6826368 0.43974507 0.35695413 -0.539643
0.20231271 0.028310895 0.094244 -0.37725413 1.3493342 -0.43966025 0.9201413 0.55126137
-0.088103525 1.8922411 -0.29851276 -0.79624164 -0.24092734 -0.33789068 0.18311207 0.07039471
-0.5416378 0.07505128 -0.29001728 -0.7284386 0.5525989 0.044265054 -0.5447334 0.8879682
1.0710187 -0.22254895 -0.032182425 -1.0248251 -0.004268505 0.17698018 -0.7642655 -0.5441892
0.10659437 -0.24704169 0.30453318 -0.013119645 0.20205702 -4.101025 0.12832133 -0.8754682
0.17792399 1.5469375 -0.09698434 -1.0575964 -0.0006033182 -0.49730426 0.17881298 0.25642234
0.46083307 -0.09161866 -0.40581036 0.47148502 0.24501455 0.28495714 0.684397 -0.024383739
0.25119716 2.688808 0.52588063 0.24005425 0.27202237 0.43799895 -0.18126518 -0.12659866
-0.16069922 -0.3926853 0.21200563 -0.4526449 -0.017981006 -4.5169806 0.37471756 -1.074489
0.09527157 0.17859851 0.3760689 -0.8247886 0.15795672 -0.018296981 0.4975184 -1.2949415
0.352553 -0.4989698 -0.03547442 0.44313735 -0.72193694 0.00439816 0.07156594 1.183559
0.06857546 -1.0760525 0.21234131 -0.8469995 -0.41408443 -2.0508325 -0.2826887 0.8390625
-0.35473853 0.35435072 -0.14814283 -0.13003306 -0.81628996 0.9571171 0.31305313 -0.39202577
-0.36943868 5.672724 0.2807951 0.6458848 0.39036685 0.05109635 0.56674635 -0.36970472
0.36012512 -0.13837737 0.12960577 0.1990673 -0.3493013 0.2164502 -0.28732976 -0.8858393
0.20944445 -0.04921322 0.26255277 0.41811857 0.28492847 0.46427205 0.2096541 -0.814769
-0.5120312 -0.47801185 0.16507198 0.48265612 0.45554957 0.08791867 -0.036484938 -0.40030098
0.34147993 -4.91173 0.2734115 -0.46330473 -0.17275962 -0.3567309 0.38660318 -0.067636155
00000000: d449 b83e 2084 b4bc 7838 d0bd 40bd 51bc
00000010: fd90 2d3f d815 0b40 3414 d1be 93c8 d23d
00000020: 4317 5e3e 731c 00c0 a8dc 0cbf 989d c1bf
00000030: 57c6 0d3f ed2c a1be bfb7 fb3e dd33 d93d
00000040: ed3d 37be 9a2a cbbe 0c4f 42bf 3cfc 89be
00000050: 58c2 b43e 764e 833e 7438 ff3e 94e2 9dbe
00000060: 7af2 9f3e 38a6 c8bd 285f 93bd 04ab 233e
00000070: 0c5f ee3e 59aa b9be 2f6a b13e 3405 4ebf
00000080: 65f3 603f efe5 933f 4cbf f83d a171 803f
00000090: d1a1 613f f09a d93c 1ce6 6b3f 22ee 933e
000000a0: 880f 3dbf 1457 57bf b5a4 dcbe f355 85bf
000000b0: d57b f73d b32e 473e bf67 b8be 6cc8 433f
000000c0: 9c92 2ebe 80be e43b 006d f93b 34e2 ce3e
000000d0: 90a0 cc3e ffd0 4f3e e2b4 b4be 1c0a e73e
000000e0: 7657 c53e a5c1 243d 6387 083f b177 073e
000000f0: a096 c53e 4bbc a4bd 1331 393e 598c 85bf
00000100: 33a6 a7be a18d 2bc0 31ca 903d 1dc4 ad3e
00000110: 78cf 3a3f 24a6 bb3d 0c07 233e 917a a8bf
00000120: c2f5 17bf 89c1 e6c0 e7df 063e 9ba3 cabe
00000130: b557 07bd 7107 eb3f 2273 d7be e205 64bf
00000140: 0d71 b83f 85f8 8340 7f45 bebd 1edd 663e
00000150: fcfd a53e 0703 f03e 7fcc f03c badb 47be
00000160: 582c 253f c1ce 8040 940c b8be df73 2c3f
00000170: 80f6 123c 08e9 8dbd e08d d0bc 9866 dbbd
00000180: 11f1 49bf 8ff7 0dbe eb6a 91bd 4330 ba3f
00000190: f21c 74be 0452 e0c0 f9bd 06bf 8af3 b9bc
000001a0: 3221 5a3e 1762 32c0 4b39 1ebe 414c cebf
000001b0: 49c1 2ebf 4426 e13e b1c2 b63e 0b26 0abf
000001c0: 102b 4f3e 40ec e73c 0003 c13d 7427 c1be
000001d0: fcb6 ac3f 261b e1be 618e 6b3f 771f 0d3f
000001e0: 9f6f b4bd f534 f23f aad6 98be 7ed6 4bbf
000001f0: a8b5 76be 0200 adbe bb81 3b3e 1a2b 903d
00000200: c6a8 0abf 7cb4 993d 257d 94be f47a 3abf
00000210: 1f77 0d3f 464f 353d a673 0bbf e251 633f
00000220: 2417 893f dfe3 63be b8d1 03bd 782d 83bf
00000230: d1de 8bbb 4b3a 353e e7a6 43bf fc4f 0bbf
00000240: 264e da3d 7ff8 7cbe c6eb 9b3e c8f3 56bc
00000250: 09e8 4e3e 993b 83c0 ab66 033e af1e 60bf
00000260: b531 363e 0c02 c63f ba9f c6bd 525f 87bf
00000270: 0028 1eba aa9e febe c01a 373e ca49 833e
00000280: 50f2 eb3e 90a2 bbbd 60c6 cfbe 7c66 f13e
00000290: 18e5 7a3e e7e5 913e a434 2f3f 68c0 c7bc
000002a0: ea9c 803e 6e15 2c40 1da0 063f c8d0 753e
000002b0: 8446 8b3e 6641 e03e 949d 39be 14a3 01be
000002c0: 568e 24be 0c0e c9be 0118 593e 13c1 e7be
000002d0: e74c 93bc 1b8b 90c0 fbda bf3e db88 89bf
000002e0: be1d c33d 87e2 363e 1a8c c03e 5825 53bf
000002f0: 68bf 213e 8de3 95bc bbba fe3e a5c0 a5bf
00000300: d481 b43e f878 ffbe a04d 11bd e6e2 e23e
00000310: dcd0 38bf 711e 903b 2a91 923d dc7e 973f
00000320: 4a71 8c3d 17bc 89bf 0070 593e f6d4 58bf
00000330: e002 d4be d740 03c0 93bc 90be cdcc 563f
00000340: 4aa0 b5be 756d b53e c1b2 17be 6327 05be
00000350: 61f8 50bf a005 753f 8048 a03e 9ab7 c8be
00000360: 1127 bdbe f486 b540 60c4 8f3e b558 253f
00000370: 2ade c73e 684a 513d 4a16 113f f049 bdbe
00000380: 5262 b83e ccb2 0dbe 60b7 043e 4cd8 4b3e
00000390: 9fd7 b2be 1fa5 5d3e e31c 93be 5dc6 62bf
000003a0: 9b78 563e cd93 49bd 516d 863e a313 d63e
000003b0: 25e2 913e 11b5 ed3e 90af 563e b494 50bf
000003c0: 7a14 03bf f8bd f4be a108 293e b41e f73e
000003d0: cb3d e93e b40e b43d 3b71 15bd 40f4 ccbe
000003e0: 75d6 ae3e e42c 9dc0 98fc 8b3e 4736 edbe
000003f0: e6e7 30be 6fa5 b6be daf0 c53e d384 8abd

actor.0.bias f4 [64]
-0.3166778 0.020764107 0.35457426 0.45859468 -0.50078917 -0.42977256 -0.444888 0.20014888
0.12333198 0.24637592 -0.17911196 -0.3727037 -0.411727 -0.29278526 0.25845838 0.44339842
-0.13752823 -0.19698934 -0.31655738 0.26344532 -0.030256411 0.54943293 -0.04325322 -0.4052633
-0.66758984 0.2447053 0.17889865 -0.4624695 -0.4593869 0.47519583 0.044759657 -0.3815821
0.21107551 0.0048876293 -0.050246365 0.41699597 -0.19203931 0.02040585 0.121539354 -0.321765
-0.38615036 0.22944933 -0.2137778 -0.21019614 -0.37417597 -0.0138669405 0.13656186 -0.006060542
-0.18814772 -0.5968738 -0.09351682 -0.20237628 -0.59801817 -0.43534896 -0.43262547 0.2718822
-0.47866893 0.004165469 -0.25078362 0.19110623 -0.076250054 0.336545 0.022190675 -0.44619516
00000000: 9823 a2be 7d19 aa3c c28a b53e eccc ea3e
00000010: b833 00bf 260b dcbe 5cc8 e3be d4f3 4c3e
00000020: 7a95 fc3d f849 7c3e 2069 37be 05d3 bebe
00000030: e2cd d2be f3e7 95be a854 843e 1e05 e33e
00000040: 33d4 0cbe 93b7 49be cf13 a2be 4ee2 863e
00000050: 4bdc f7bc a3a7 0c3f 4a2a 31bd ac7e cfbe
00000060: 2be7 2abf 0794 7a3e 3531 373e cdc8 ecbe
00000070: c234 ebbe de4c f33e e755 373d bb5e c3be
00000080: 2e24 583e 6828 a03b 22cf 4dbd 7f80 d53e
00000090: f4a5 44be 2b2a a73c a0e9 f83d 62be a4be
000000a0: 80b5 c5be c4f4 6a3e 91e8 5abe a83d 57be
000000b0: fe93 bfbe 2a32 63bc dfd6 0b3e 8397 c6bb
000000c0: cca9 40be b9cc 18bf bf85 bfbd ba3b 4fbe
000000d0: b817 19bf 0fe6 debe 1681 ddbe 2534 8b3e
000000e0: 1814 f5be 7d7e 883b b666 80be 5ab1 433e
000000f0: fd28 9cbd a04f ac3e 38c9 b53c b173 e4be

actor.2.weight f4 [64, 64]
-0.051353887 -0.16263585 0.137264 -0.14868228 0.053613372 -0.051437065 0.06018041 0.022130704
-0.10725626 -0.026728181 0.10229187 0.12579243 0.013888568 -0.21909615 -0.091269255 -0.29765403
-0.25593656 -0.064216 -0.12411727 -0.054659273 -0.16544186 -0.10565553 -0.029855506 0.08429229
-0.017877428 0.05069107 -0.22755724 -0.11654853 0.09512572 0.02774629 -0.09371224 -0.028556043
0.07436971 -0.23953272 -0.20773722 -0.10266532 0.04477374 -0.13526683 -0.17212437 0.10968955
0.028984368 -0.15913606 -0.02581662 -0.0055217445 -0.13639367 -0.029567532 -0.40113163 -0.09310482
-0.09751341 -0.025702469 -0.1296599 0.05699827 -0.006870437 -0.27914882 -0.13598579 0.0030344145
0.08740659 0.070148855 0.047257975 -0.25981832 -0.25216 -0.002505167 -0.057992976 -0.015127718
-0.09823857 -0.06577818 -0.19051047 -0.00078463997 0.06514549 0.0846875 -0.094325885 -0.032415364
-0.030372597 0.009526533 -0.2312149 0.0039570346 0.06328118 -0.29531294 0.04166266 0.050809424
-0.24912989 -0.08526443 -0.1870522 -0.23179522 -0.014340431 -0.14207985 -0.2489244 -0.054665282
0.0042782016 -0.007254897 0.037825186 -0.07798363 -0.090537935 -0.050735086 -0.23068887 -0.046797216
0.054269794 -0.06719671 0.011127708 -0.28491506 0.10736151 0.024961198 -0.06902978 -0.105253085
-0.086080894 0.07863459 -0.07103657 -0.029162943 0.05831635 0.07175272 0.10605648 -0.046883333
0.07146792 -0.14687583 -0.11717168 -0.09321482 0.077926114 -0.17854112 0.08838664 0.014643142
0.031185836 -0.04154346 0.11814013 -0.07045432 -0.1944999 0.022589467 -0.08264417 -0.109398335
-0.06847453 -0.033324394 -0.42664906 0.56656307 0.0011438302 0.07698654 -0.109346956 -0.071221866
0.15301834 0.67670995 0.033487827 -0.29460075 -0.048948497 -0.0020162973 0.23629497 0.19188562
-0.27881566 -0.11124376 0.17347668 -0.03739545 0.10213576 -0.03396791 -0.1338968 0.013946861
0.06218429 -0.24886791 -0.03847259 -0.2154881 0.0125113875 -1.9883921 -1.0119802 0.11115734
-0.22367297 -0.12752344 -0.13655257 -0.88335764 -0.123099275 0.19171794 -0.22305405 -0.104964316
0.026846707 0.28386548 0.3947501 0.090863645 -0.16214062 0.072827436 -0.2082518 -0.13726738
-0.055610508 0.101344235 -0.26266873 -0.8458283 0.14727864 -0.5688047 -0.7109122 0.22503175
0.04758206 0.011874016 -0.027122632 -0.30063283 -0.2812337 -0.09928875 0.031606607 -0.08608803
-0.08777276 0.038842127 -0.009023845 0.02946246 -0.1945369 -0.028079629 0.034246445 0.007116421
-0.14625503 -0.16303001 -0.04068919 -0.0136707965 0.050155535 -0.041870356 -0.10901227 -0.22741409
-0.042764965 -0.0068753767 0.063281335 0.07821095 0.0557546 -0.1876809 -0.01227691 0.098890364
-0.11260538 -0.0485448 -0.0013687306 0.059095982 -0.055026308 0.10717942 -0.10555709 0.06003572
-0.03488975 0.07622335 -0.046046115 -0.010721422 0.06965183 -0.18009189 0.038305085 0.08295676
0.0732858 -0.035758067 0.031451806 -0.053327635 0.098253794 0.083192535 -0.044766102 -0.042383935
0.09854007 -0.0094061345 -0.0068448507 -0.17640135 -0.05732814 -0.049685284 -0.1173644 -0.20049393
-0.0784201 0.116150364 -0.1219413 -0.1379431 -0.06727193 -0.066929415 -0.08092418 -0.10309118
00000000: 7458 52bd 038a 26be ef8e 0c3e 2b40 18be
00000010: b299 5b3d acaf 52bd bc7f 763d 734b b53c
00000020: 2ca9 dbbd 0ff5 dabc 667e d13d bbcf 003e
00000030: e08c 633c be5a 60be 60eb babd 1c66 98be
00000040: 1e0a 83be ae83 83bd 3231 febd 67e2 5fbd
00000050: 9769 29be ed61 d8bd 8993 f4bc 70a1 ac3d
00000060: af73 92bc 70a1 4f3d c404 69be ffb0 eebd
00000070: 46d1 c23d 304c e33c 34ec bfbd 5dee e9bc
00000080: 264f 983d 1148 75be 11b9 54be 3242 d2bd
00000090: ab64 373d 6383 0abe 5f41 30be eaa4 e03d
000000a0: a070 ed3c 90f4 22be 607d d3bc c0ef b4bb
000000b0: c8aa 0bbe 9c37 f2bc 2061 cdbe bdad bebd
000000c0: 1cb5 c7bd fc8d d2bc 91c5 04be 0577 693d
000000d0: 6721 e1bb 98ec 8ebe dc3f 0bbe 07dd 463b
000000e0: 3a02 b33d 34aa 8f3d 9491 413d e806 85be
000000f0: 1e1b 81be ba2d 24bb 0b8a 6dbd 40da 77bc
00000100: 4e31 c9bd b6b6 86bd 2d15 43be 4cb0 4dba
00000110: 006b 853d a470 ad3d ee2d c1bd f9c5 04bd
00000120: f4cf f8bc 2d15 1c3c 99c3 6cbe 03aa 813b
00000130: 9099 813d 4233 97be 77a6 2a3d 8b1d 503d
00000140: e81b 7fbe 1e9f aebd 9d8a 3fbe ba5b 6dbe
00000150: 21f4 6abc 617d 11be 0ae6 7ebe b4e8 5fbd
00000160: 2830 8c3b 7dba edbb 95ee 1a3d e2b5 9fbd
00000170: f46b b9bd 98cf 4fbd b439 6cbe 70ae 3fbd
00000180: 014a 5e3d 6e9e 89bd fd50 363c 63e0 91be
00000190: 5ae0 db3d 6d7b cc3c 7c5f 8dbd ee8e d7bd
000001a0: 2e4b b0bd 2c0b a13d 9f7b 91bd 20e7 eebc
000001b0: 20dd 6e3d 17f3 923d 2434 d93d bd08 40bd
000001c0: c65d 923d 9e66 16be b5f7 efbd 69e7 bebd
000001d0: ba97 9f3d 7cd3 36be 0e04 b53d cae9 6f3c
000001e0: 7079 ff3c 7a29 2abd 74f3 f13d 5b4a 90bd
000001f0: fb2a 47be 8c0d b93c 5941 a9bd 3c0c e0bd
00000200: 603c 8cbd 297f 08bd bf71 dabe 470a 113f
00000210: 93ec 953a 1eab 9d3d 4cf1 dfbd c5dc 91bd
00000220: d7b0 1c3e dd3c 2d3f 882a 093d e9d5 96be
00000230: 387e 48bd db23 04bb 4ff7 713e aa7d 443e
00000240: edc0 8ebe c5d3 e3bd dfa3 313e f92b 19bd
00000250: 8e2c d13d ef21 0bbd 3e1c 09be 6081 643c
00000260: f4b4 7e3d 3bd7 7ebe 6f95 1dbd eaa8 5cbe
00000270: 90fc 4c3c a283 febf 9188 81bf 76a6 e33d
00000280: 870a 65be 8195 02be 70d4 0bbe ba23 62bf
00000290: 791b fcbd b551 443e 4868 64be 88f7 d6bd
000002a0: a0ed db3c d156 913e af1c ca3e b816 ba3d
000002b0: 3108 26be 8d26 953d f63f 55be d28f 0cbe
000002c0: d8c7 63bd 918d cf3d 847c 86be 3488 58bf
000002d0: 36d0 163e 2f9d 11bf 58fe 35bf b96e 663e
000002e0: 68e5 423d 3c8b 423c 4830 debc 8cec 99be
000002f0: ddfd 8fbe e657 cbbd ee75 013d ec4e b0bd
00000300: 34c2 b3bd ec18 1f3d c0d8 13bc 425b f13c
00000310: ae34 47be 4007 e6bc 0046 0c3d de30 e93b
00000320: e1c3 15be 57f1 26be b5a9 26bd 7afb 5fbc
00000330: e46f 4d3d 4080 2bbd d341 dfbd 3ddf 68be
00000340: 512a 2fbd d74a e1bb a599 813d 102d a03d
00000350: ef5e 643d 6c2f 40be 1825 49bc 0887 ca3d
00000360: a69d e6bd ead6 46bd fa66 b3ba a10e 723d
00000370: 4463 61bd e280 db3d 512e d8bd 04e8 753d
00000380: 8ee8 0ebd fd1a 9c3d da9a 3cbd e7a8 2fbc
00000390: 9ea5 8e3d 026a 38be cbe5 1c3d 3ce5 a93d
000003a0: de16 963d 0d77 12bd 9cd3 003d 146e 5abd
000003b0: 4939 c93d d960 aa3d a95c 37bd c79a 2dbd
000003c0: 60cf c93d 301c 1abc c54a e0bb 8ea2 34be
000003d0: e9d0 6abd cc82 4bbd bf5c f0bd 484e 4dbe
000003e0: b89a a0bd 3ee0 ed3d 5cbc f9bd f540 0dbe
000003f0: dec5 89bd 4a12 89bd 94bb a5bd 7821 d3bd

actor.2.bias f4 [64]
-0.19160527 -0.028872635 -0.09979112 0.021490784 -0.16282865 0.17679603 -0.06269682 -0.0753538
-0.15236749 -0.012928907 0.013390623 0.18894652 0.14349744 -0.0053271223 0.04161198 -0.105257004
-0.053725697 0.01428313 -0.0068520224 -0.10808783 -0.13287635 0.2665119 0.20535454 0.3613869
-0.26439124 0.007212383 -0.21974185 -0.123355724 0.4135023 0.16265567 -0.13702288 -0.0879313
0.16806717 0.0024228627 -0.1667913 -0.06711828 0.27268466 -0.04186353 0.07776256 -0.31284517
-0.028320534 0.3836678 -0.11682742 0.199518 -0.28490844 0.13033411 -0.1766724 -0.11491209
-0.17777745 0.033844024 -0.24875815 0.06610395 -0.1854936 -0.13740021 0.01023959 0.1915201
-0.10246534 -0.0032034353 -0.16547823 -0.2778858 -0.10421891 -0.10339488 -0.10688902 0.3267203
00000000: 2c34 44be 4e86 ecbc 495f ccbd 710d b03c
00000010: 8ebc 26be 050a 353e 3167 80bd 1853 9abd
00000020: 3906 1cbe c4d3 53bc 5864 5b3c 327b 413e
00000030: fef0 123e 248f aebb 5371 2a3d fc90 d7bd
00000040: 7a0f 5cbd ca03 6a3c ee86 e0bb 275d ddbd
00000050: bd10 08be 3f74 883e 7648 523e b407 b93e
00000060: 4a5e 87be db55 ec3b 0204 61be eda1 fcbd
00000070: 93b6 d33e 358f 263e ba4f 0cbe 5315 b4bd
00000080: cd19 2c3e e4c8 1e3b 57cb 2abe 4f75 89bd
00000090: 539d 8b3e 1879 2bbd fa41 9f3d 3e2d a0be
000000a0: 7700 e8bc 1b70 c43e 3743 efbd 724e 4c3e
000000b0: 85df 91be 4e76 053e 9ce9 34be 0857 ebbd
000000c0: 4b0b 36be 08a0 0a3d 75ba 7ebe 8261 873d
000000d0: 09f2 3dbe a4b2 0cbe f4c3 273c d81d 443e
000000e0: 59d9 d1bd baf0 51bb 2073 29be 0c47 8ebe
000000f0: b970 d5bd b2c0 d3bd a1e8 dabd e247 a73e

actor.4.weight f4 [2, 64]
-0.10177726 -0.06649518 0.11748539 0.1782482 -0.08083444 -0.8171419 -0.10875174 0.053049996
0.0192085 0.020688172 0.111506686 -0.061219804 0.20967808 0.24166887 0.019895894 0.05383712
0.118950665 0.1724624 -0.022075329 0.013515521 0.0046756393 0.16844775 0.28843006 0.06580777
-0.117684156 0.060577273 -0.08119878 -0.03909652 0.24190293 -1.4390354 0.05810176 0.031576395
0.05518204 0.09474128 0.0266166 0.18989559 -0.21795471 0.0613355 0.08800893 -0.009238279
-1.6126322 0.10479721 0.09397746 0.0018611865 -0.13742906 -3.0507567 -0.2669879 0.058139205
-0.15200388 -0.03487136 0.11274644 0.041036803 -0.21189058 0.045934558 -0.052279018 0.33217502
-0.03215475 0.03819314 -0.34630394 -0.20273873 0.050781086 -0.14093494 -0.018330958 0.3145796
0.34212014 0.034082532 0.2409867 -0.050229713 0.112953655 -2.0387037 0.027911728 -0.053148136
0.086899444 -0.026978819 -0.013955322 -0.24189413 0.15677024 0.976889 0.095875725 0.06403036
-0.004281084 -0.07784588 0.06408557 -0.09051659 0.09282207 -0.0010819494 1.0890354 0.36895415
0.0040332004 -0.029882144 0.31711835 0.23241639 0.96949923 -1.3008689 -0.017189518 -0.060991645
0.19248901 -0.044775322 1.3527224 -0.07143641 -0.7920825 -0.6281614 0.8178995 1.7934397
-0.07950623 -0.1763714 0.034138475 -0.041759208 0.14183979 1.1534388 1.4023013 -0.048476767
-1.215632 -0.040331088 0.42893884 0.06319779 -0.7317977 -0.106858514 -0.21029 0.26339296
0.09671916 1.3263673 0.136006 0.06757759 -0.029942514 0.22766617 -0.4115755 0.36014098
00000000: 9970 d0bd a02e 88bd 2e9c f03d b286 363e
00000010: 878c a5bd 3630 51bf 3bb9 debd f44a 593d
00000020: 255b 9d3c 3e7a a93c 9e5d e43d 9ec1 7abd
00000030: dab5 563e 0b78 773e b7fc a23c 5084 5c3d
00000040: 689c f33d fc99 303e 52d7 b4bc 3470 5d3c
00000050: 1b36 993b 917d 2c3e 1bad 933e 39c6 863d
00000060: 6404 f1bd e01f 783d 8c4b a6bd ac23 20bd
00000070: 67b5 773e 5032 b8bf 1cfc 6d3d 4056 013d
00000080: 9006 623d b707 c23d 0e0b da3c fd73 423e
00000090: 852f 5fbe ef3a 7b3d 073e b43d 275c 17bc
000000a0: bb6a cebf eb9f d63d 4177 c03d 0ef3 f33a
000000b0: 34ba 0cbe 993f 43c0 a3b2 88be 6023 6e3d
000000c0: e8a6 1bbe 45d5 0ebd 9be7 e63d 3516 283d
000000d0: d8f9 58be e025 3c3d 8622 56bd d812 aa3e
000000e0: b3b4 03bd 6970 1c3d c04e b1be be9a 4fbe
000000f0: d4ff 4f3d 4051 10be ce2a 96bc 9410 a13e
00000100: 5f2a af3e 209a 0b3d 38c5 763e acbd 4dbd
00000110: 3f54 e73d 1f7a 02c0 23a7 e43c dcb1 59bd
00000120: 56f8 b13d af02 ddbc dda4 64bc 18b3 77be
00000130: 6188 203e 6615 7a3f 7e5a c43d 5922 833d
00000140: 5648 8cbb a96d 9fbd 4c3f 833d c360 b9bd
00000150: 7f19 be3d 33d0 8dba 8365 8b3f 8fe7 bc3e
00000160: f028 843b 66cb f4bc 565d a23e 90fe 6d3e
00000170: 1a31 783f df82 a6bf 08d1 8cbc 60d2 79bd
00000180: d71b 453e 5466 37bd 0226 ad3f 414d 92bd
00000190: ebc5 4abf 2fcf 20bf dd61 513f 6f8f e53f
000001a0: 2ad4 a2bd b49a 34be c9d4 0b3d b40b 2bbd
000001b0: 733e 113e e2a3 933f 9c7e b33f 938f 46bd
000001c0: d499 9bbf 3632 25bd df9d db3e d86d 813d
000001d0: 1857 3bbf a3d8 dabd 4356 57be 71db 863e
000001e0: b214 c63d 67c6 a93f 2845 0b3e 1f66 8a3d
000001f0: 014a f5bc 5221 693e 06ba d2be 6664 b83e

actor.4.bias f4 [2]
0.27622658 -0.27454075
00000000: 926d 8d3e 9b90 8cbe
