model/MountainCarContinuous-v1/3level/HAC_MountainCarContinuous-v1_level_2_crtic.pth (torch, 21133 bytes, 5 tensors)

critic.0.weight f4 [64, 6]
00000000: 19d4 b33e 0d1f 4abf 13cd df3d 685e efbf
00000010: a921 0d3f 7f21 4d40 fa8e a0bd 721d 12bd
00000020: dfaf 953e 84b0 f7bd 5208 6cbd 2e58 25be
00000030: f6a2 babe b4da a940 6912 23be 6e86 2f3e
00000040: 00ed abbf 2107 0cbe ecbf cdbe e8e3 14bf
00000050: b7b0 b23c b618 48bf cfe7 c33e dda1 7340
00000060: 9ffb 403f 5b13 8940 7024 6bbe d131 4140
00000070: 86d6 c23e 4ef0 383e 6022 25bf 66ff 2dbe
00000080: 5bc4 11bf 897f 85c0 4a42 04bf ec8c 493f
00000090: 77a3 7bbe 40b2 af3e 0a36 f1bd bf63 18bf
000000a0: cf3f 903d bec6 23bd 9598 bd3c 0a06 713e
000000b0: bc39 dcbe 1225 bfbf 18a1 9dbe 97e7 6140
000000c0: 625c 51be 2644 04c0 f218 8abe cc9f 7440
000000d0: 0b23 053f f1f8 0340 8ab6 413d 84cd d43e
000000e0: 246f 9cbf f949 7c40 9410 32bf 0cb8 03c0
000000f0: 5aa0 05bf 2426 4f40 0116 a2be 4186 533f
00000100: 1fa3 0abf 9dfb 37c0 6606 ccbe 5cd3 d2bf
00000110: 9cdc cabe 18b2 8b40 6f0e b8be f49c 7abd
00000120: 0159 7fbf 2726 cf3f 7609 b93e 2e01 87bf
00000130: 38d4 07bf 9591 c6bf fb2c ee3d 6ac4 dc3d
00000140: 236e 173e 2697 afbd 48e4 efbd 5a1a b83e
00000150: f445 cc3c c404 a9be e270 69bc f9e4 053f
00000160: 13d1 863e eedf 4c40 dd37 933e 75a9 943e
00000170: 210f 653e 9071 4b3d ecc8 523e e1c7 70be
00000180: 5595 3cbd d85c 5bbe 335b e8bd 6691 fd3d
00000190: aa4b 6a3e bca2 14be 4fbe febe 1f68 08c0
000001a0: 29a4 49be 29be 4cbf f0ea 1fbf 1dfa 4dc0
000001b0: 8f07 633e 04dc b5c0 e58b 00bc 672a 32bf
000001c0: 37fb 8c3e 66a2 243f 586c 803f 1924 46be
000001d0: 64a9 24bf 14f7 a2bf 6860 c93c 8a69 7a3e
000001e0: efa6 513f 8264 57bf 334a dbbd 583b adc0
000001f0: 7c10 113e 4d27 513e 08c1 af3e 1338 9abe
00000200: d88e e6be 92d3 9cbf 1dd8 11be 196d 9dbf
00000210: 7eac 6cbc a235 ab3e 363b 913e fbdd ac3e
00000220: 6900 663d 78f2 653d 8787 4b3c 4963 2b3e
00000230: 68bb aa3f 9928 c63f f845 3cbf 18b7 87bf
00000240: 7138 873c 00aa e6be c06b f3ba 6a38 01c0
00000250: 37cd 9ebc 6074 87c0 2e9e caba 6aca 053d
00000260: 424f 8f3f a2b2 9c3e c714 54bf a6ad a0bf
00000270: 912d 993d 9629 28bf b886 acbe 74ab a8bf
00000280: 7fdc a7be 1a3d d8bf f56e bebe bb61 5ebf
00000290: 6e1b d03e 1cc4 b73f e48f 3f3e 57ae d03f
000002a0: 9e8a 3ebe b99c 70c0 845d bcbe 0239 993f
000002b0: 7222 08bf 2ea1 1d40 63de 98bd d40e ddbe
000002c0: c428 443e 0455 11be 064b 083c ac25 9abe
000002d0: 9c0e 0fbd 873b 0d3f 4ff0 b23e ec49 b2c0
000002e0: 0439 853e 718c 373f 2728 853b c036 a43f
000002f0: 20ce bf3b d610 5ebc 9c99 133e 6243 7440
00000300: d7e0 f7be 27d5 8340 462c 53be 3280 a340
00000310: 65b5 4dbf 3b77 8b40 31d4 b23e 8aba a63e
00000320: cac9 9d3e de6d 3c3e 0187 6dbe 88c5 babd
00000330: 043f 003f 1e2a 0ac0 ab01 9c3d f55f babe
00000340: fccc 733e ef11 4440 8d20 433f 4e37 f6bf
00000350: 6ad6 683e 245c b83f efad babc 96d2 ec3e
00000360: 86e4 433e 9ce0 e3bd a3dc 573e 7e56 953f
00000370: 3dd1 16bf 6855 4ec0 68bd a8bd 5ee0 f4be
00000380: 2e6d 9d3f 37eb 5ebd 65e1 58bf 3ceb d0bf
00000390: 958f 033d 82f1 333f 7e94 1a3f 3826 3140
000003a0: 2f1b 693e 8339 b13f 798e 0a3f c7d0 813e
000003b0: 74cd 303e 59a5 a4bb 49d6 453e 0702 0240
000003c0: 3259 0e3f a76b 10c0 c5ec b5bd 90c8 91c0
000003d0: b855 033e 21d2 0c40 7d36 073c 6ff6 8c3e
000003e0: 2129 89bd d598 cdc0 e961 e8bd 7cd5 1d40
000003f0: 1802 32bb 2730 ecbf 33d0 11bf 22c4 9fc0
0.35122755 -0.7895363 0.10927787 -1.8700686 0.55129486 3.2051694 -0.078397706 -0.035672612
0.29235741 -0.120942146 -0.057625122 -0.16146919 -0.36452454 5.307947 -0.15924992 0.17141125
-1.3431702 -0.13674594 -0.40185487 -0.5816026 0.02181278 -0.78162706 0.38262793 3.8067544
0.75383943 4.2836127 -0.22963119 3.0186656 0.38054293 0.18060419 -0.6450558 -0.16991958
-0.5694024 -4.1718183 -0.5166365 0.78730655 -0.24574076 0.3431568 -0.11777885 -0.595272
0.070434205 -0.039984457 0.023144046 0.2353746 -0.43012798 -1.4933188 -0.30786967 3.5297601
-0.20445397 -2.0666595 -0.26972157 3.8222532 0.52006596 2.0620692 0.047293223 0.41563046
-1.2221417 3.942015 -0.69556546 -2.0581083 -0.521978 3.236703 -0.31657413 0.8262673
-0.54155153 -2.8747323 -0.39848632 -1.6470752 -0.39621437 4.36549 -0.35948512 -0.06118484
-0.99745184 1.6183518 0.3614003 -1.0547235 -0.53058195 -1.5513178 0.11629673 0.107796505
0.14788108 -0.08573751 -0.11713463 0.35957605 0.0249357 -0.33011448 -0.014248105 0.5230251
0.26331386 3.2011676 0.28753558 0.29035535 0.22369052 0.04966885 0.20584458 -0.23513748
-0.04604085 -0.21422136 -0.1134552 0.12381248 0.22880426 -0.14515203 -0.4975457 -2.131355
-0.19691528 -0.7997766 -0.6246786 -3.2183907 0.22170852 -5.6831074 -0.007845853 -0.6959595
0.27535412 0.643103 1.0033064 -0.19349708 -0.6432097 -1.2731652 0.024582103 0.24454322
0.81895345 -0.8413774 -0.10707512 -5.413494 0.14166445 0.20425148 0.3432696 -0.30120906
-0.45030856 -1.2252066 -0.14242597 -1.2298919 -0.014445422 0.33439356 0.28365487 0.33763108
0.056152735 0.05613944 0.012422449 0.16737093 1.3338442 1.548114 -0.73544264 -1.0602751
0.016506406 -0.45051575 -0.0018571541 -2.0190682 -0.019384963 -4.232956 -0.0015458518 0.03266374
1.1196063 0.30605036 -0.82844204 -1.2552993 0.07479394 -0.65688455 -0.33696532 -1.3177323
-0.32785413 -1.6893647 -0.37194028 -0.86867875 0.40645927 1.4356723 0.18707234 1.6303204
-0.18607566 -3.7595656 -0.36790097 1.1970522 -0.5317756 2.4629626 -0.07464292 -0.43175375
0.19156176 -0.14192587 0.008318668 -0.30106866 -0.034926042 0.55168957 0.34948966 -5.5715237
0.26020062 0.7169867 0.0040636244 1.2829208 0.0058534294 -0.013553819 0.14414066 3.8166127
-0.48413727 4.1197696 -0.20622358 5.109399 -0.8035491 4.3583045 0.34927514 0.32564193
0.30818015 0.18401286 -0.23196031 -0.09119707 0.50096154 -2.1588206 0.07617506 -0.36401334
0.23808664 3.0635946 0.76221544 -1.9235628 0.22738042 1.4403119 -0.022788016 0.46254414
0.19130144 -0.11126825 0.2108026 1.166702 -0.5891302 -3.2239628 -0.082392514 -0.4782743
1.2298944 -0.054423537 -0.84718925 -1.6321788 0.032119352 0.70290387 0.6038283 2.7679577
0.22764276 1.3845676 0.54123646 0.25354597 0.17265874 -0.005024594 0.19320025 2.0313737
0.5560485 -2.2565706 -0.08883051 -4.5557327 0.12825668 2.2003253 0.008252737 0.27531764
-0.06697298 -6.4249063 -0.113468 2.466155 -0.0027161893 -1.8452195 -0.5695831 -4.992692

critic.0.bias f4 [64]
00000000: 91a0 e9bd 75d1 c2be acd9 3e3e aca6 bebe
00000010: b443 62be b532 afbe 0619 00bf a580 79bd
00000020: 197c cdbe d9eb 26bd 89c8 ed3d 20ac 7ebe
00000030: f077 a7be cfa4 10be 664f babe f4c8 c6be
00000040: c384 cdbe 34f4 5b3e d034 99bd 3fb1 00bf
00000050: a365 2cbd 5de2 24bf f5a4 95be 2b13 44be
00000060: 8ff0 833e 871e 28bd 1dde b53e 21d0 cfbd
00000070: cb4a 7cbe 240a 56be 8470 8fbe 1c6d 6cbe
00000080: 5c7a 45bf 3737 7bbe 4769 313d f951 73be
00000090: 5327 133f 05eb 3d3c 4d86 6abe 22dc ab3c
000000a0: c166 bcbb 7220 1f3d 1284 e2bb 2084 42be
000000b0: eac2 98bd 7b90 d4be 24d4 8dbe 4ee5 9ebe
000000c0: 3380 f2bd 0b52 a23d 1559 61be c824 9bbe
000000d0: 1e63 b33e 804e d0bd 990f 96be e9e9 0cbe
000000e0: 81c6 8bbe 73b8 c63e 1039 813e 03ac 7bbe
000000f0: 438b 2ebe 485a 8e3e 248d 5d3e 640c adbe
-0.11407579 -0.38050428 0.18637723 -0.37236536 -0.22096139 -0.34218374 -0.5003818 -0.0609137
-0.40133741 -0.040752266 0.11610515 -0.24870348 -0.32708693 -0.1412537 -0.363887 -0.3882519
-0.40140352 0.21479875 -0.07480776 -0.50270456 -0.042089116 -0.644079 -0.29227415 -0.19147937
0.2576947 -0.04104474 0.3552102 -0.10147119 -0.24637906 -0.20902306 -0.2801553 -0.23088497
-0.7713983 -0.24532782 0.04331329 -0.23761739 0.5748188 0.011591678 -0.22902794 0.020978991
-0.005749554 0.0388493 -0.0069127167 -0.18995714 -0.07459052 -0.4151648 -0.27700913 -0.3103432
-0.11840858 0.07925805 -0.22006638 -0.303015 0.35036558 -0.10171223 -0.29308775 -0.13761105
-0.27299884 0.388126 0.25238848 -0.24577336 -0.17045312 0.27803254 0.21635872 -0.33798516

critic.2.weight f4 [64, 64]
00000000: 7d14 69bd dae1 b9bd b28a 693d 4820 a03d
00000010: 20a2 623d d3bf 02be 2b64 723d 7357 35bd
00000020: 7e74 513d b4ba be3c bac3 09be 08b0 88bd
00000030: f48e 9fbd d8b8 f13c d381 acbd 647f 70bd
00000040: 7e39 d43d 0bb2 05bd b559 21bd 0062 bbbd
00000050: 16a1 533d b87c ad3d b4e9 3fbd f863 ae3d
00000060: 144f 2abc 3342 243d 1547 b13d 5802 a5bc
00000070: b33c a93b 1864 efbd ee44 b63d 8aad ccbd
00000080: 4127 02bd c82e 0d3d a30d a8bc d30b 9ebd
00000090: c75a c73c 5fcc 223d fd0f 463d 0f2d a9bd
000000a0: 14b8 633d f1db 11be 0d58 e2bd 6d27 233b
000000b0: d36a 373d 8621 aebd 1bb5 903d 4ad8 9f3d
000000c0: d8f9 05bd f265 ca3c f7b7 14be 3b34 23bc
000000d0: cd5e ecbd e056 ef3b fa97 ab3d a629 aabc
000000e0: c287 e3bd a973 1fbd 1fd3 05be aabe 12be
000000f0: aa3c 9f3d b7af 55ba b107 1fbe f6f7 f1bc
00000100: 5988 09bb b033 74bc f658 8ebd 5e47 e4bc
00000110: e4aa bd3d 2056 7a3c 1201 d0bd b0c1 9fbd
00000120: 3bee 61bd f096 4fbc 46c1 9dbc e4ac d4bd
00000130: 09d6 11be 4852 f83c 4db2 233c f051 193d
00000140: 2447 7cbd 5941 cc3b ea2f b53d 00b9 29bd
00000150: 5116 bebd 00b8 71b9 ba5c 973d 2128 03bd
00000160: 2275 cabd 473c d1bd 4da7 8fbd 5e6d 3a3c
00000170: 6a00 353d b043 673d 1cba 5d3d 2c15 b83c
00000180: 0acb fcbd 10c8 d33d fe6e 303d b01e 823d
00000190: 1f63 4b3c b971 e8bd 201f 6cbd 247d bbbd
000001a0: 4922 fbbd fb38 15be 5e71 c33d c2b9 a63d
000001b0: 68c5 38be 18b7 ad3c db39 0bbe adb0 b4bc
000001c0: 4a3a eebd 262b bdbd 5daa 12be f19f 5dbd
000001d0: 481e fdbc 1c26 e63c e458 293d da9b f1bd
000001e0: 4441 5e3d 8796 15be c19f e9bd 828b 12be
000001f0: fa00 c53d 896b 9abd ea93 f93c e991 ecbd
00000200: 04d1 153c 8036 863c bc47 be3d bba0 a6bd
00000210: ee6e f2bc 9874 1b3d b9d9 f03c f505 c13d
00000220: c3df 613d 9198 1bbd 5c8e 24be dc75 ecbd
00000230: 75e9 5bbd f000 adbd 8452 87bd b85d 793d
00000240: 98c2 f73d 9bbb dabd a613 813d f092 44be
00000250: 4e71 e13c 68c9 57bd a09a 48bc b3bb 00be
00000260: 93a5 303d 0654 b1bd 6800 f5bd 96e2 353d
00000270: f077 cabd a00b c83b 8c4b f1bd 37e0 b7bd
00000280: b03b a63c 88ed 34bd 9285 2ebe e937 bdbd
00000290: a955 3cbe 9462 3ebe d5b2 0cbe 3837 633c
000002a0: 61f2 e3bd e23e 6dbd a208 fcbd 2c8b c73d
000002b0: 61c9 c8bd 5846 e6bc 4857 abbd 6355 b8bd
000002c0: 7199 0bbd 390c cbbd 9a39 d7bc e443 bdbd
000002d0: cc9f b03d 04e4 b8bc b845 c43c a474 d5bd
000002e0: 9409 d43d 25b4 87bc 5ba8 0bbe d1e4 4bbd
000002f0: 6833 edbc 27fe af3c e632 21be 5083 df3d
00000300: d9e0 68bd 348b be3d 9067 93bc b1d7 33bd
00000310: 4500 153d 4278 90bd dcef ad3d 1da0 39bd
00000320: 735a 5a3d fc9f 5abd 181d c8bd 8a99 a33d
00000330: 30f2 1abd 6802 953d ae0a 19be d09f f9bd
00000340: f856 94bd 049d c8bd b0a9 0e3c a668 b83d
00000350: 3d3b 05be 084f ad3d ca64 df3d 4725 453d
00000360: 8ae8 18be d080 9c3c 7dba ecbd 9791 0e3d
00000370: a0ae 7ebd 9c4a d03d f25d f53d 0666 3abd
00000380: 180e 8ebc d402 ac3d b6aa aabd 883d afbd
00000390: 4e9e 8c3d d7cd cbbd 0c33 233d 0096 9b3d
000003a0: 4162 debd dc15 77bd 007b f83c 6a5c 983d
000003b0: eb78 00be 50dc b8bd 303e 3e3d 7651 eabd
000003c0: 2eb8 06bc e69a 45bd 4a34 78bd 02b3 623d
000003d0: d0e3 99bd 4cf5 913d c05e e7bd 7c9a f0bd
000003e0: 6088 dfbd 5546 cfbd 157c dbbd f358 f3bd
000003f0: d095 463d 60d2 9cbd 5480 52bd 30c5 9d3c
-0.056904305 -0.09076281 0.057017036 0.07818657 0.055330396 -0.12768488 0.05917756 -0.04427285
0.051136486 0.023282386 -0.1345357 -0.066742 -0.07790938 0.029507086 -0.084231995 -0.05871524
0.10362528 -0.032640498 -0.039392192 -0.091495514 0.051667295 0.08471054 -0.046853736 0.08515161
-0.01039483 0.040102195 0.08656136 -0.02014272 0.0051647066 -0.11689013 0.08899866 -0.099940374
-0.031775717 0.034468442 -0.020514315 -0.07717099 0.024335278 0.039745685 0.04835509 -0.08260547
0.055595472 -0.14244057 -0.110519506 0.0024895326 0.04477961 -0.08502488 0.07065793 0.07804926
-0.032708973 0.024706814 -0.14523302 -0.009961183 -0.11541519 0.0073040575 0.083785966 -0.020771813
-0.11109878 -0.03892866 -0.13068818 -0.14330545 0.077752426 -0.0008151489 -0.15530278 -0.029537182
-0.002098581 -0.014904901 -0.06950562 -0.027866062 0.092611104 0.015279323 -0.10156454 -0.07800615
-0.055158835 -0.012670264 -0.019257199 -0.10384539 -0.14241804 0.030312672 0.009991241 0.037431657
-0.061591282 0.006233376 0.088470295 -0.041436195 -0.092816 -0.00023052096 0.07390733 -0.03202069
-0.098856226 -0.10216575 -0.07014332 0.011378614 0.044189848 0.056461036 0.054132566 0.022471033
-0.12343414 0.10340893 0.0430746 0.063535094 0.012413769 -0.11349816 -0.05764687 -0.09154728
-0.12262399 -0.14572518 0.095431075 0.08140899 -0.18044055 0.02120547 -0.13596289 -0.022056902
-0.116322115 -0.092367455 -0.14322801 -0.05410761 -0.030898228 0.028094344 0.04134454 -0.117973045
0.05426146 -0.14608203 -0.11407424 -0.1431103 0.09619327 -0.07540042 0.030466039 -0.11551268
0.0091440715 0.01638341 0.09291026 -0.08136126 -0.029593911 0.03795299 0.029400693 0.09424964
0.055145036 -0.037987296 -0.16069931 -0.115459174 -0.05368944 -0.084474444 -0.066075355 0.060880393
0.12097663 -0.10680314 0.06302576 -0.19196677 0.027519848 -0.05268231 -0.012243897 -0.12571602
0.043126654 -0.08658604 -0.11962968 0.044405542 -0.098861575 0.0061049014 -0.117819875 -0.089783125
0.020292133 -0.04417184 -0.1704314 -0.0923918 -0.18392052 -0.18592292 -0.13740094 0.013868146
-0.111302145 -0.057921298 -0.12306334 0.09743342 -0.09804035 -0.028109714 -0.08366257 -0.09000661
-0.03408188 -0.09914441 -0.026272584 -0.09241465 0.08624229 -0.022569664 0.023959026 -0.10422638
0.103533894 -0.016565392 -0.13638441 -0.049778763 -0.028955176 0.021483494 -0.15742072 0.10913718
-0.056855056 0.09303895 -0.017993718 -0.04390687 0.03637721 -0.07054187 0.08493015 -0.04531871
0.053308915 -0.05337523 -0.09771174 0.079882696 -0.037828624 0.072758496 -0.1494548 -0.12188685
-0.072431505 -0.09795573 0.008707449 0.09004335 -0.13010879 0.0846234 0.10907896 0.048131254
-0.14932457 0.019104391 -0.11559007 0.034806814 -0.062178254 0.101704806 0.11980809 -0.045507453
-0.017340705 0.08398977 -0.08333342 -0.08556658 0.06866132 -0.0995137 0.039843604 0.075969696
-0.10858584 -0.06032358 0.030332088 0.074395016 -0.12546127 -0.09026396 0.046446025 -0.11441319
-0.008222623 -0.048243426 -0.06059674 0.055346496 -0.07514155 0.07126865 -0.11297369 -0.117482156
-0.10914683 -0.10120837 -0.10717026 -0.118822 0.048482716 -0.07657313 -0.051391914 0.019259065

critic.2.bias f4 [64]
00000000: 830a 2abe b78f f03b e5dd 123b 622b 1abc
00000010: 1c44 c6be c304 2c3f 2abc 273b 3937 1abe
00000020: 0008 0ebe 7b70 cbbc 54fb f3ba 32ac ae3b
00000030: d7b9 fdbc 742d 84bd 239a 49be 7c15 8d3a
00000040: 7c46 8b3e a083 01bd c0d4 7fbc 785c 54be
00000050: 82df abbd 83dd 8cbe 8e32 47bc 2922 9f3b
00000060: fe7c 06bf f227 5e3e 5d5e fdbc f93d a2be
00000070: 6638 99bd d4d1 47be ca10 a3bb 8010 0ebe
00000080: cefd 493e 12ed 983c 335f 1cbd c8ab 40be
00000090: d147 173d 76c6 6b3e dff9 c7bd 67d0 8bbd
000000a0: 9b4c 18be 1bf0 8bbe 7211 39be e6a9 b23d
000000b0: ef32 383d 89bc 8dbf f7f9 32be ea05 8cbd
000000c0: ce8b abbd 0871 6fbe 5631 a1bc 889c aebe
000000d0: 1ef5 f4bd e161 acbd 864d 02be 18d8 29be
000000e0: 7ebb bebd 1a3d 0bbe 681d 15be ace2 57bd
000000f0: b805 013c 5528 fabd 79ba 5ebc 8b8d d0bd
-0.16605572 0.007341351 0.0022410091 -0.009409757 -0.38723838 0.67194766 0.0025594332 -0.15060128
-0.1387024 -0.024833908 -0.001861433 0.005330586 -0.030972404 -0.06453982 -0.19687705 0.0010763849
0.27202213 -0.031619668 -0.015614688 -0.20738399 -0.0839224 -0.2751275 -0.012158049 0.004856367
-0.5253447 0.21694925 -0.030928785 -0.31687906 -0.0748146 -0.19513637 -0.0049763666 -0.13873482
0.19725725 0.018667731 -0.038176727 -0.1881553 0.036933724 0.23024926 -0.09764456 -0.06826859
-0.14872973 -0.27331623 -0.18073061 0.08723812 0.04497045 -1.1073161 -0.17478167 -0.068370655
-0.08376275 -0.23382962 -0.019676846 -0.341038 -0.11960815 -0.084171064 -0.12724885 -0.1658634
-0.09313105 -0.13597527 -0.14561999 -0.052706406 0.007874899 -0.12214724 -0.013594263 -0.10183247

critic.4.weight f4 [1, 64]
00000000: bee3 26bd 842a c33d 5efa 58bc b435 ec3a
00000010: c25a 03bf 451c 903f 3eda 0540 0c44 8dbf
00000020: 70df 443d c376 023c 80c0 02bf 9e14 4cc0
00000030: 307d eebc a252 d0bb 7be3 5a40 06f1 8dbf
00000040: 0131 833f 4b5b 5e40 90c6 373d 1965 a7bf
00000050: 14d5 dfbd 4ee8 8640 f9dd 31be f947 d9bd
00000060: eaf5 3840 cc63 a2bf ac33 d9bd 4991 90be
00000070: 7165 503b 0c6a 2dbf f880 b23d e029 b83d
00000080: f7a2 1cbf 1187 cabe 55a6 1c40 abf1 a9bf
00000090: 6997 ee3f dc15 30bf 4e48 aabf cec5 bdbc
000000a0: 4adf c7bf c8d7 a240 016f f5bf 0cd7 d1bf
000000b0: 25c8 99bf 99c3 1e41 5219 88c0 e134 73bd
000000c0: 7b5d 6340 3750 15c0 b639 fabb 3f58 07c0
000000d0: efe1 c03c bb14 76bd 040d 4e40 9ab8 90c0
000000e0: 77cf 1cbd 4253 bcbf 6786 bd3c f915 82bd
000000f0: af5d 35bf 61c9 2240 53a2 6140 bf97 e1bd
-0.040744536 0.095295936 -0.013243286 0.0018021376 -0.5131036 1.1258627 2.0914454 -1.1036391
0.04806465 0.007962885 -0.5107498 -3.1887584 -0.029112428 -0.006357507 3.4201343 -1.108918
1.024933 3.474322 0.0448671 -1.3077728 -0.10929313 4.2158575 -0.17369832 -0.10609431
2.8900094 -1.2686706 -0.10605559 -0.28235844 0.0031798745 -0.6773994 0.08716005 0.08992362
-0.61186165 -0.39556172 2.447652 -1.3276876 1.8639957 -0.68783355 -1.3303316 -0.02316561
-1.5615017 5.0888405 -1.9174501 -1.6393752 -1.2014204 9.922753 -4.253091 -0.0593766
3.5525806 -2.333021 -0.007636274 -2.114761 0.023545234 -0.060078364 3.2195444 -4.5225344
-0.03828379 -1.4712908 0.023135377 -0.06351847 -0.70846075 2.5435412 3.5255325 -0.110152714
