model/Pendulum-v1/1level/HAC_Pendulum-v1_solved_level_0_actor.pth (torch, 20611 bytes, 5 tensors)

actor.0.weight f4 [64, 4]
0	0xbe41d905	-0.18930443
1	0xbe9e2d69	-0.3089402
2	0xbd3b6cfc	-0.045758232
3	0x3d729eef	0.059233602
4	0x3f264b26	0.6495842
5	0x3df346b1	0.11878718
6	0xbf1ad798	-0.6048522
7	0xbde7e7e0	-0.113235235
8	0xbdb5a807	-0.08869939
9	0xbec2b3bb	-0.38027748
10	0x3ec9dec9	0.39427784
11	0x3dc501ba	0.0961947
12	0xbf59e032	-0.8510772
13	0xbe32e636	-0.17470631
14	0x3fb9c5b9	1.4513465
15	0xbebd3625	-0.36955371
16	0x3f275b05	0.6537326
17	0x3dec31d8	0.115329444
18	0xbf55a3e0	-0.8345318
19	0xbd9c9b77	-0.0764684
20	0x3f0576da	0.5213448
21	0xbedf0e33	-0.4356552
22	0xbedcdb3f	-0.43136021
23	0x3f19cf8e	0.6008233
24	0xbe5e085b	-0.21682875
25	0xbf542bfb	-0.8287961
26	0x3e2719e5	0.16318472
27	0x3f4b6860	0.7945614
28	0xbf39c9b6	-0.7257341
29	0xbe4b6452	-0.19862488
30	0x3f357417	0.70880264
31	0xbec5457f	-0.38529584
32	0xbea5423d	-0.32277098
33	0xbeda1811	-0.42596486
34	0xbbe8d2c8	-0.007105205
35	0x3e2f1895	0.17099221
36	0xbf569e4c	-0.8383529
37	0xbd9b943a	-0.07596631
38	0x3f75d824	0.9603293
39	0x3e14aa39	0.1451806
40	0x3ef21749	0.4728339
41	0x3dcb8c92	0.09938921
42	0xbefa2289	-0.48854473
43	0xbf0bfeb5	-0.5468553
44	0x3e6fa3f0	0.23402381
45	0xbeda2211	-0.42604116
46	0xbf24fbbe	-0.6444663
47	0xbf234ed2	-0.63792145
48	0xbf7886e8	-0.9708085
49	0xbe8330a8	-0.2562306
50	0x3f1a7192	0.60329545
51	0xbf471f14	-0.77781796
52	0xbe885983	-0.26630792
53	0xbead544f	-0.33853385
54	0x3f3dc55a	0.7412926
55	0xbf0bf546	-0.5467113
56	0x3f2b78c9	0.6698118
57	0xbe4eaf26	-0.20184001
58	0x3ded7d46	0.1159616
59	0x3e4f5602	0.20247653
60	0xbebc3f47	-0.36767027
61	0x3e3ef641	0.18648626
62	0x3f9aa39c	1.208118
63	0x3ee67cac	0.45016992
64	0x3e4e41a5	0.20142229
65	0xbecf27dd	-0.404601
66	0xbecbff1e	-0.39843076
67	0x3f30798d	0.6893547
68	0xbf73eb40	-0.9528084
69	0xbf3dd3f5	-0.74151546
70	0x3e88198f	0.26582
71	0xbe9ddc70	-0.30832243
72	0xbf35b679	-0.70981556
73	0x3f2b74ef	0.669753
74	0x3f0d0d0b	0.55098027
75	0xbf5c0590	-0.8594599
76	0x3fac446d	1.3458382
77	0x3ebbd9be	0.36689562
78	0xbf40ae0d	-0.7526558
79	0xbdef6cdf	-0.116906874
80	0x3ec1fc78	0.3788793
81	0x3e081b3a	0.13291636
82	0x3d78c662	0.060736068
83	0x3f4efb2d	0.80852014
84	0x3f4043e5	0.751036
85	0x3e3b99ea	0.18320432
86	0xbf2e9042	-0.6818887
87	0xbdf88258	-0.12134236
88	0x3f207209	0.62674004
89	0xbd099717	-0.033591356
90	0xbe82c67b	-0.25542054
91	0xbea99529	-0.33121613
92	0x3eec183d	0.46112242
93	0x3ef4ecf1	0.47837022
94	0x3e3da74a	0.18520847
95	0xbf0610da	-0.52369463
96	0xbe7ad0ed	-0.24493761
97	0x3e834b18	0.2564323
98	0x3f833e4d	1.0253388
99	0xbef2c48c	-0.47415578
100	0x3efe7eef	0.49706218
101	0x3dff1ef8	0.12457079
102	0x3cfdbcc1	0.030973794
103	0xbf3ca948	-0.736958
104	0xbf919b45	-1.137551
105	0xbd8c3c9b	-0.06847497
106	0x3f427f17	0.75975174
107	0x3d9d42db	0.07678767
108	0xbe137916	-0.1440166
109	0x3e74cb8b	0.2390577
110	0x3f710b5f	0.94157976
111	0x3ef5ad1c	0.47983634
112	0xbf4ef1ce	-0.80837715
113	0xbe8cd8df	-0.2750921
114	0x3f195589	0.5989614
115	0xbef7552c	-0.48307168
116	0x3f3ccf5d	0.7375391
117	0x3e1e5124	0.1546064
118	0xbf2746c7	-0.6534237
119	0xbd0dd0ba	-0.034622885
120	0xbede80a4	-0.4345752
121	0xbe004436	-0.1252602
122	0x3e11c64c	0.142358
123	0x3ea872f9	0.32900217
124	0xbf28d314	-0.6594708
125	0xbe9ef97e	-0.31049722
126	0x3f36427c	0.711952
127	0x3ef30f9f	0.47472855
128	0xbee16a58	-0.44026446
129	0xbd1a0292	-0.037600107
130	0x3e79310d	0.24335118
131	0xbe6a2f50	-0.22869611
132	0x3f311571	0.6917334
133	0xbe26a3c9	-0.16273417
134	0xbe604c10	-0.21904016
135	0xbe2ab7b9	-0.16671647
136	0xbf2d6ce0	-0.67744255
137	0xbe82539f	-0.25454423
138	0x3f81d0c2	1.0141833
139	0x3e5f44c7	0.2180358
140	0xbf69b5b0	-0.9129286
141	0x3eaccc28	0.3374951
142	0x3f388704	0.7208102
143	0x3ee007dc	0.43755996
144	0xbe14e013	-0.14538603
145	0xbd767b22	-0.060176022
146	0x3f440d62	0.7658292
147	0x3e55f501	0.20894243
148	0xbf7e55e2	-0.99349797
149	0xbe910287	-0.2832224
150	0x3fb35f3e	1.4013441
151	0x3e10ca5b	0.14139692
152	0x3ea3e11f	0.3200769
153	0x3ea539fe	0.32270807
154	0x3e937d26	0.28806418
155	0xbf939014	-1.1528344
156	0xbf1bfe92	-0.6093532
157	0xbe499f04	-0.19689566
158	0x3f32a3eb	0.6978137
159	0xbe5260d2	-0.20544747
160	0x3f0dc6e6	0.5538162
161	0xbf4fdd9f	-0.8119754
162	0xbf04fb91	-0.5194636
163	0x3f3856f0	0.72007656
164	0x3ea3f99c	0.32026374
165	0xbe4ffc76	-0.2031115
166	0x3f35911b	0.7092454
167	0x3ec63e46	0.38719386
168	0x3f236e41	0.6384011
169	0x3d1fd9e4	0.039026156
170	0xbeb1c2ac	-0.34718835
171	0x3f628b96	0.8849424
172	0x3f01950c	0.5061805
173	0x3e124d82	0.1428738
174	0xbe209fad	-0.15685911
175	0xbec43765	-0.38323513
176	0xbf5c13a7	-0.8596749
177	0xbe724581	-0.23659326
178	0x3f09597f	0.53652185
179	0x3f09eeed	0.53880197
180	0xbe800df9	-0.2501066
181	0x3e7abf89	0.24487127
182	0x3d147548	0.03624466
183	0xbef00688	-0.46879983
184	0x3e1064c5	0.1410094
185	0xbe86eec4	-0.2635404
186	0x3f9da0a3	1.2314647
187	0x3f136378	0.5757365
188	0xbeedae92	-0.4642225
189	0xbf7c7e80	-0.98630524
190	0x3eaef35c	0.34170043
191	0xbf09a1b1	-0.53762347
192	0xbfb0ebcf	-1.3821963
193	0xbecf1c5e	-0.4045133
194	0x3f5b960a	0.85775816
195	0xbe70bcfa	-0.23509589
196	0x3fa8962f	1.3170832
197	0xbc895de7	-0.016768409
198	0x3e1d6ac4	0.15372759
199	0xbe3c26ee	-0.18374225
200	0xbec4d3e8	-0.38442922
201	0xbf4801a5	-0.7812751
202	0x3f23152b	0.63704175
203	0xbd123acc	-0.035700604
204	0x3f364075	0.71192104
205	0x3e2a9d38	0.16661537
206	0xbf1f14c6	-0.6214107
207	0x3e0b9bb0	0.13633609
208	0x3e18cb75	0.14921363
209	0xbf0f8284	-0.56058526
210	0xbd40ee64	-0.047102347
211	0x3f2b9e97	0.67038864
212	0x3f1c0cd4	0.60957074
213	0x3e5a90d4	0.2134431
214	0xbf01027b	-0.5039441
215	0x3e6ac2da	0.22925892
216	0x3f2d4ad6	0.67692316
217	0x3e736f60	0.23772955
218	0xbe332e30	-0.17498088
219	0x3efa5fd8	0.48901248
220	0x3db747c5	0.08949236
221	0x3ef299d3	0.47382984
222	0xbf146e48	-0.57980776
223	0xbec9cbe6	-0.39413375
224	0xbe075499	-0.13215865
225	0xbec68be2	-0.38778597
226	0x3e2fe3e8	0.17176783
227	0x3f1afb79	0.60539967
228	0xbf32b486	-0.69806707
229	0xbe7acc54	-0.24492007
230	0x3e86b5fd	0.2631072
231	0xbdefdf9f	-0.11712574
232	0x3f2f69f2	0.68521035
233	0x3e99e845	0.3006002
234	0x3f40c839	0.75305516
235	0x3cfd8056	0.030944984
236	0xbee0e671	-0.43925813
237	0xbed3a20c	-0.4133457
238	0x3f3ebefc	0.7451017
239	0x3f213084	0.62964654
240	0xbf3ab546	-0.7293285
241	0x3ec03b29	0.37545136
242	0x3f315877	0.6927561
243	0xbeea47dd	-0.45757952
244	0x3d255c82	0.040371425
245	0x3e0540a5	0.13012941
246	0xbf19ebfe	-0.6012572
247	0xbf06fa9c	-0.5272615
248	0xbee564e9	-0.4480355
249	0x3e844c01	0.25839236
250	0x3f3610cf	0.711194
251	0x3f118b86	0.5685352
252	0xbee75bce	-0.4518723
253	0x3e582e5f	0.21111439
254	0x3e3ee2a0	0.18641138
255	0xbf2fac61	-0.68622404

actor.0.bias f4 [64]
0	0xbf9aa35d	-1.2081105
1	0x3e32b467	0.1745163
2	0xbfa7e3ee	-1.3116434
3	0x3f13afe4	0.5769026
4	0xbdc91c1d	-0.09819815
5	0xbdb21839	-0.08696026
6	0xbedc8250	-0.4306817
7	0x3ed31d79	0.41233423
8	0xbfb573a8	-1.417592
9	0x3ec9280e	0.39288372
10	0x3dd2d08d	0.10293684
11	0xbed72e7e	-0.42027658
12	0xbebf92cd	-0.37416688
13	0x3e9bfbbc	0.30465496
14	0xbe50d151	-0.20392348
15	0xbe50626f	-0.2035005
16	0xbdd99e8f	-0.10625946
17	0xbf7e4766	-0.99327695
18	0x3dae2603	0.08503344
19	0xbda9f486	-0.08298592
20	0xbf959d84	-1.1688695
21	0x3e8dda21	0.27705482
22	0x3e2ec28a	0.17066398
23	0xbee6b956	-0.45063275
24	0xbf1652d6	-0.5872015
25	0x3df95681	0.121747024
26	0xbe2c11ec	-0.16803712
27	0xbfc8c001	-1.5683595
28	0x3ee88068	0.45410466
29	0x3e897203	0.26844797
30	0x3e9bb720	0.3041315
31	0x3d9a47e5	0.07533244
32	0x3e4f4d71	0.20244385
33	0xbf980ed4	-1.1879525
34	0x3eb380c1	0.3505917
35	0xbe9a26a7	-0.30107614
36	0x3dcf56d2	0.101239815
37	0xbe3ae0bf	-0.18249796
38	0x3e8f43af	0.27981326
39	0x3eb3d939	0.35126665
40	0xbf56e549	-0.8394361
41	0xbf4a5bb7	-0.79046196
42	0xbe72452b	-0.23659198
43	0x3d1dc17a	0.03851459
44	0xbeb2a6a3	-0.3489276
45	0xbf17f5c6	-0.59359396
46	0xbeb5c945	-0.3550512
47	0xbe559a26	-0.20859584
48	0xbf0cfc48	-0.5507245
49	0xbe71ad68	-0.23601305
50	0xbe2713b2	-0.16316107
51	0x3ef6717e	0.48133463
52	0x3e93e154	0.2888285
53	0x3e060c6a	0.13090673
54	0xbf1fa348	-0.6235852
55	0xbf3ac1c4	-0.7295191
56	0xbf3f5e0a	-0.7475287
57	0x3ed7ffbb	0.42187294
58	0xbe9288b5	-0.28619924
59	0xbf37e32d	-0.7183102
60	0x3e2c5967	0.1683098
61	0xbfa8aecc	-1.3178344
62	0xbe594182	-0.21216395
63	0xbf53c80d	-0.8272713

actor.2.weight f4 [64, 64]
0	0x3dbc0ba7	0.0918191
1	0x3eacf68d	0.33781853
2	0xbfb53d26	-1.4159286
3	0xc01f9b1a	-2.4938416
4	0x3dd56022	0.104187265
5	0x3e94a319	0.29030684
6	0x3f23c061	0.6396542
7	0xbfe253e2	-1.7681849
8	0x3de85e9d	0.11346171
9	0xbfe5655d	-1.7921559
10	0x3eae148f	0.3400006
11	0xbe0ef95b	-0.13962309
12	0xbe805b70	-0.2506976
13	0x3e1c5316	0.1526607
14	0xbf0dcc5b	-0.55389947
15	0xbec4da3f	-0.3844776
16	0x3e560088	0.2089864
17	0xbf854e39	-1.0414497
18	0xbc9b0394	-0.018922605
19	0x3e79da5b	0.24399702
20	0x3eeac498	0.45853114
21	0x3ec68c09	0.38778713
22	0x3ec1d882	0.37860495
23	0x3e6f2628	0.23354399
24	0xbf35a1f9	-0.70950276
25	0x3e97cdfd	0.29649344
26	0xbe9e1689	-0.30876568
27	0x3ef702a2	0.48244196
28	0xc0092f7b	-2.143523
29	0x3ebd583e	0.36981386
30	0xbf13937d	-0.57646924
31	0xbf41936f	-0.7561559
32	0xbfa8dbb4	-1.3192048
33	0xbf2f2eca	-0.6843077
34	0xc0270181	-2.6094668
35	0xbf04d74b	-0.5189101
36	0xbde95755	-0.113936104
37	0xbe1bfe29	-0.15233673
38	0x3e8c47cb	0.27398524
39	0xbfdfaf43	-1.7475361
40	0xbc096aa6	-0.008387243
41	0xc002fd4b	-2.0467098
42	0x3eb8869c	0.360402
43	0x3e87b90d	0.2650837
44	0xbec6b63d	-0.38810912
45	0x3e71f7ff	0.23629759
46	0xbeda5d19	-0.42649153
47	0x3e12f421	0.1435094
48	0xbefc73a4	-0.49306977
49	0xbf282319	-0.65678555
50	0x3e73e533	0.23817901
51	0x3ee91142	0.4552098
52	0x3f437322	0.76347554
53	0x3eaa3c93	0.3324934
54	0xbd525f26	-0.051360272
55	0xbf06a72a	-0.5259882
56	0x3f0b563b	0.5442845
57	0xc015a9d3	-2.3384902
58	0xbf0efa1e	-0.558504
59	0xbf73fcda	-0.95307696
60	0xbe778276	-0.2417086
61	0x3e316441	0.173234
62	0x3cfb06bb	0.030642858
63	0xbee9165b	-0.45524868
64	0xbc0936b0	-0.008374855
65	0xbd999879	-0.07499785
66	0xbd9ef7b2	-0.07762088
67	0x3d17f9f9	0.037103627
68	0xbd4e37ca	-0.050346173
69	0xbdbea4c4	-0.0930877
70	0xbdbe0b1c	-0.09279463
71	0xbe2547e3	-0.16140704
72	0x3dba16d6	0.09086387
73	0xbdfaf64b	-0.12254008
74	0xbe15f73f	-0.14645098
75	0xbdb02110	-0.08600056
76	0x3da0976b	0.07841381
77	0xbc8dd48b	-0.017313262
78	0x3cabc90d	0.020969892
79	0xbc3b78b0	-0.011442348
80	0xbddb111b	-0.10696622
81	0x3ca404de	0.020021852
82	0xbd9be76d	-0.076125
83	0x3d614a86	0.05500271
84	0xbdf0286a	-0.11726458
85	0xbda8d7b4	-0.08244267
86	0xbe13950e	-0.14412329
87	0x3c324b9d	0.010882285
88	0x3d4f2c85	0.050579567
89	0xbd726c89	-0.05918554
90	0xbd794e0c	-0.060865447
91	0x3d1b975b	0.03798614
92	0x3c839bc7	0.016065491
93	0x3d8c165f	0.068402044
94	0xbe2da674	-0.16958028
95	0x3d975533	0.07389297
96	0x3ce07648	0.02740015
97	0xbd1f8c28	-0.038952023
98	0xbdc19432	-0.09452094
99	0xbe069fb5	-0.13146861
100	0xbda9ff46	-0.08300643
101	0xbcf1efd6	-0.029533308
102	0xbdf32bd5	-0.11873595
103	0x3c0b17cc	0.00848956
104	0x3cb19d28	0.021681383
105	0xbceb6bd8	-0.028737947
106	0x3d445a6f	0.047937807
107	0x3ca8553e	0.02054846
108	0xbe049d38	-0.12950599
109	0xbdf3a8be	-0.118974194
110	0xbdb6aae2	-0.08919312
111	0xbdae2ba2	-0.08504416
112	0xbd151fbc	-0.036407217
113	0xbd347f95	-0.044066984
114	0xbe04386c	-0.12912148
115	0xbdd131ed	-0.10214601
116	0x3da5e4e0	0.08100295
117	0x3d19f8fe	0.037590973
118	0xbd6ba800	-0.057533264
119	0xbd70f208	-0.05882457
120	0x3d8fd1f8	0.0702247
121	0xbd261aef	-0.04055303
122	0xbdd14bab	-0.10219511
123	0xbdc83b3c	-0.09776923
124	0x3d49efa1	0.049300794
125	0xbd302260	-0.043001533
126	0xbdd017a7	-0.10160761
127	0x3cb01d01	0.021498205
128	0xbf4f5c25	-0.80999976
129	0x3e03e15c	0.12878937
130	0x3f231039	0.6369663
131	0xbe842402	-0.25808722
132	0xbd827ce1	-0.06371475
133	0x3e90fde5	0.28318706
134	0x3e33d955	0.17563374
135	0xbf0f224e	-0.5591172
136	0xbf4c20b8	-0.79737425
137	0xbf079411	-0.52960306
138	0x3e7298e0	0.2369113
139	0x3f08ad27	0.5338921
140	0x3f3a480f	0.727662
141	0xbdd6a781	-0.104811676
142	0x3f042ea1	0.5163365
143	0x3e585e15	0.2112964
144	0xbcc6ed97	-0.024283214
145	0x3e9277c4	0.28607
146	0x3e44cea3	0.1921945
147	0x3f089420	0.5335102
148	0x3b91cad3	0.0044492274
149	0x3d355c9a	0.044277765
150	0x3f088d84	0.53340936
151	0x3e9333be	0.28750414
152	0x3d4de5ce	0.050267987
153	0x3f09f07a	0.53882563
154	0xbdcc9aec	-0.099904865
155	0x3eea6b89	0.45785168
156	0xbf127f2d	-0.57225305
157	0x3e175810	0.14779687
158	0xbf693d36	-0.91109025
159	0xbe9dd2d7	-0.3082492
160	0xbedb2bc8	-0.4280684
161	0x3f78cb92	0.97185624
162	0xbf244419	-0.6416641
163	0x3e88d02e	0.26721328
164	0xbd452b44	-0.048136964
165	0xbce389de	-0.027775701
166	0x3c6732a3	0.014111194
167	0xbf3be6ab	-0.73398846
168	0x3f7f5d56	0.99751794
169	0xbe7d9e83	-0.24767499
170	0xbe0002a5	-0.12501009
171	0x3cf47aff	0.029843805
172	0xbfc1aa8a	-1.5130169
173	0xbb52b168	-0.00321492
174	0xbe660820	-0.22464037
175	0xbdde09ec	-0.10841736
176	0x3eb201aa	0.34766895
177	0x3f834a63	1.0257076
178	0x3da713c7	0.08158069
179	0xbf062d5a	-0.5241295
180	0xbda8bd4d	-0.08239231
181	0xbe029209	-0.1275102
182	0x3f78cc10	0.97186375
183	0x3eed554b	0.46354136
184	0x3de39445	0.111122645
185	0xbf9e011a	-1.2344086
186	0x3e1db729	0.15401901
187	0xbe80a0a4	-0.2512256
188	0x3dfee5fd	0.124462105
189	0x3f64f10a	0.89430296
190	0x3e622681	0.22085
191	0xbe3edd23	-0.18639044
192	0xbe328234	-0.17432481
193	0x3e345ae0	0.17612791
194	0xbf7e4f1c	-0.9933946
195	0xbffbe515	-1.9679285
196	0x3e2f8149	0.17139162
197	0x3ebf5cd6	0.37375516
198	0x3f283e72	0.65720284
199	0xc0038120	-2.0547562
200	0xbf627c08	-0.88470507
201	0xbfaa54d8	-1.3307142
202	0x3ebfac61	0.37436202
203	0xbd8fc188	-0.07019335
204	0xbeffbcd1	-0.49948743
205	0x3dfa11f7	0.12210458
206	0xbf06770d	-0.5252541
207	0x3e0ce675	0.13759787
208	0x3d9d2dd0	0.07674754
209	0xbf7fef07	-0.999741
210	0xbe49572c	-0.1966216
211	0x3ea98f8f	0.3311734
212	0x3ee1951d	0.44059077
213	0x3ebde0c2	0.3708554
214	0x3ed8ecc7	0.42368147
215	0x3ed05d4b	0.40696177
216	0xbf3b970c	-0.73277354
217	0x3eeb8183	0.45997247
218	0xbc719473	-0.014744866
219	0x3e9c3de3	0.30515966
220	0xc01b3c50	-2.4255562
221	0x3ea5042f	0.32229754
222	0xbf15d1b8	-0.5852313
223	0xbf08522d	-0.5325039
224	0xbfb6ab9e	-1.4271123
225	0xbf84f941	-1.0388566
226	0xc011b6ec	-2.2767897
227	0xbf3dad9b	-0.74093026
228	0xbcc61c42	-0.024183396
229	0xbc6f4e69	-0.014606097
230	0x3e5f9d6e	0.21837398
231	0xbfe7dd21	-1.8114358
232	0xbd91289e	-0.07087825
233	0xc01ed83e	-2.4819484
234	0x3e3e2e96	0.18572459
235	0x3e6f0075	0.23340018
236	0xbe618c8e	-0.22026274
237	0xbc829577	-0.015940411
238	0xbeec6781	-0.46172717
239	0x3e9c03f1	0.30471757
240	0xbe82bdc9	-0.2553542
241	0xbf1e4c6e	-0.6183537
242	0x3e19d85a	0.15023938
243	0x3ebdf2bd	0.37099257
244	0x3f6082c7	0.8769955
245	0x3eb27e38	0.34861922
246	0xbdaa0a93	-0.08302798
247	0xbed4e75f	-0.41582772
248	0x3e886430	0.26638937
249	0xc025cf75	-2.5907872
250	0xbea9b5fa	-0.3314665
251	0xbf99f123	-1.2026714
252	0xbe9a4359	-0.30129507
253	0x3db9bc32	0.090690985
254	0xbccdf843	-0.025142794
255	0xbe658b4d	-0.2241642

actor.2.bias f4 [64]
0	0x3e9768a2	0.29572016
1	0x3ccdae4b	0.025107523
2	0xbfa09431	-1.2545224
3	0x3e974d8d	0.29551354
4	0x3d622ba7	0.05521741
5	0x3f1e7b13	0.61906546
6	0xbe54f6f5	-0.20797332
7	0x3eab4b3b	0.33455834
8	0xbe8796bf	-0.26482198
9	0xbde8316c	-0.113375515
10	0xbe88de88	-0.26732278
11	0xbd821601	-0.06351853
12	0x3ecf1f44	0.4045354
13	0x3e7b6c10	0.24552941
14	0xbdf62812	-0.120193616
15	0x3de48d7e	0.111598
16	0xbe93eb96	-0.28890675
17	0x3f3f2498	0.7466521
18	0x3db27cf1	0.08715237
19	0xbdc435bc	-0.095805615
20	0x3cb87590	0.022516996
21	0xbe83984f	-0.2570214
22	0x3e96e588	0.29471993
23	0x39ab56de	0.00032680383
24	0x3d62ea83	0.05539943
25	0x3f43d807	0.76501507
26	0xbd2a6aed	-0.04160588
27	0x3f04c9d2	0.51870453
28	0xbf1b3756	-0.6063131
29	0x3d1fca99	0.03901157
30	0xbe80bf6b	-0.2514604
31	0xbe41dbe2	-0.18931535
32	0xbdaa2186	-0.08307175
33	0x3dc8df92	0.09808268
34	0xbdf53e1c	-0.11974737
35	0x3d80e98b	0.06294545
36	0xbf121e76	-0.5707773
37	0xbdf3333e	-0.11875008
38	0x3f1e5ee5	0.6186355
39	0xbe232920	-0.15933657
40	0x3e2ed426	0.17073116
41	0x3cb6a97e	0.022297617
42	0x3ebb25a8	0.36552167
43	0x3e2c25d2	0.16811302
44	0xbd073b94	-0.033015803
45	0x3e7d96b7	0.24764524
46	0x3e10465c	0.1408934
47	0x3e7b238a	0.24525276
48	0x3d199e5c	0.03750454
49	0xbddc71a0	-0.1076386
50	0x3f32d8a7	0.69861835
51	0xbd8a9d4d	-0.06768284
52	0x3bb6e80c	0.0055818614
53	0xbe2aa2d3	-0.16663675
54	0x3eb95666	0.3619873
55	0x3c173b25	0.00923041
56	0xbdf522da	-0.11969538
57	0xbe53dff3	-0.20690899
58	0xbd15f52e	-0.036610775
59	0xbc97d49d	-0.018534
60	0x3eab8927	0.33503076
61	0x3e49bce5	0.19700964
62	0xbdc4d643	-0.0961118
63	0x3ecb15c7	0.39665052

actor.4.weight f4 [1, 64]
0	0x3fc62cad	1.5482384
1	0xbd3a5900	-0.045495033
2	0xbf24a494	-0.64313626
3	0x3fcaa98d	1.5832993
4	0x3f8fa439	1.1221992
5	0x402a146f	2.6574972
6	0x3dcf7851	0.101303704
7	0x3f587bfe	0.845642
8	0x3f29b723	0.6629507
9	0xbd0bab8c	-0.034099147
10	0x3ebdc165	0.3706161
11	0xbd76bd62	-0.060239203
12	0x3f2cd976	0.6751932
13	0xbf4f31de	-0.80935466
14	0x3cb9a2d0	0.022660643
15	0x3f5aab26	0.854174
16	0x3df7330e	0.12070285
17	0xbf9a7a63	-1.20686
18	0x3f4797d8	0.7796607
19	0x3f57b7e7	0.8426499
20	0xbc0dc46d	-0.008652789
21	0x3f752e39	0.95773655
22	0xbe9d6c7f	-0.30746838
23	0xbd80ef1b	-0.06295606
24	0x3f8e760a	1.1129773
25	0x40277a2d	2.616832
26	0xbd9e5913	-0.07731833
27	0x3fc590ac	1.5434775
28	0x3f66257c	0.89900947
29	0xbe7cfc10	-0.24705529
30	0x3ed1b505	0.4095842
31	0x3f5a21fa	0.85208094
32	0xbc35be0d	-0.011092675
33	0x3fc74819	1.5568877
34	0xbd132918	-0.035927862
35	0x3fb1cec5	1.3891226
36	0x3f59dea6	0.8510536
37	0xbf2c5212	-0.6731273
38	0x3f9873fc	1.1910396
39	0xbed03ddd	-0.40672198
40	0x3ffe272d	1.9855705
41	0xbd3bf272	-0.04588551
42	0x3f44412d	0.7666195
43	0x3f19ec70	0.601264
44	0x3f1983e2	0.5996686
45	0xbf1a6a33	-0.603183
46	0x401d15f5	2.4544652
47	0xbf14c00a	-0.5810553
48	0xbeeac960	-0.45856762
49	0x3f71ad2e	0.94404876
50	0xbf1c7721	-0.61119276
51	0x3d2442e5	0.040102858
52	0x3fb21d32	1.391516
53	0xbd9fe053	-0.07806458
54	0x3f0f341d	0.55938894
55	0x3f76de86	0.96433294
56	0xbe9bd8bb	-0.3043879
57	0x3e7cf1c1	0.24701597
58	0xbf14188e	-0.5784997
59	0xbeb34d8b	-0.35020098
60	0x3fd88d02	1.6918032
61	0x3c90d5da	0.017680097
62	0x3c13b647	0.009015626
63	0xbf4113dd	-0.75420934
