model/Pendulum-v1/1level/HAC_Pendulum-v1_level_0_crtic.pth (torch, 20865 bytes, 5 tensors)

critic.0.weight f4 [64, 5]
00000000: d944 a7bf 6343 b6be 8c0e 86bd bc13 663e
00000010: 3a08 33bf 9aa2 683f f8ca 4d3d c729 c03b
00000020: 5854 62bf b73c e2bc 433e cf3e 5a2a 3f3d
00000030: 195c 113d 4c9a 903d c9de d53e 2f99 8d3e
00000040: f59d bb3d a1f8 e63c b260 193f f88a 263e
00000050: 690e be3e ee26 f13c cd84 db3b 699a 5dbf
00000060: 9242 dc3e eb09 433e 4195 993d b804 3a3d
00000070: c71e 75be 60d2 e73e 19c9 583e e961 e93d
00000080: 6e8c 9a3d 408c cfbe 9885 90be 8885 473e
00000090: 9aac 533e 8c54 913c 3acc 993b b98a bbbe
000000a0: 1dee 353d 4d65 d4bd 44c3 98bc c3fb 443e
000000b0: 5377 61be 7fee 0c3f 4bef 783e 4447 5d3d
000000c0: 1b37 68bd 81f2 e13e ef1f 0dbe 592a a7be
000000d0: 1b7e 64bd b44d c13d f7ad 343e 8067 45bb
000000e0: cf0e 4ebe 1aac 26bd 9ee2 d5be 7192 94be
000000f0: 411f 1d3e b53b 283e 8db3 9e3c fab0 ef3e
00000100: dc3e bd3e 570a 2ebf 3f0a 7ebe 8bb8 41bd
00000110: a057 42be 62af 94bd 4159 00bf 2136 06bf
00000120: 143e bebd a1ba 333f c235 9a3d 02af 7d3a
00000130: cd5a fc3e 6813 a53d 6c33 f1bd b1ab 08bf
00000140: 31b4 0bbd 5906 87be 0da1 11bd bd60 efbe
00000150: 6486 383d 13cf 16bf 41f0 83be a569 23bd
00000160: 64f3 363f 3f43 513e 4ed4 483e 35a6 f2bd
00000170: 2281 8abc 9899 1e3e 304d 683f 3c10 b9be
00000180: f339 cb3d 619d 593c 806a 33bf 06e4 3a3e
00000190: 3d31 c23d 8d94 9b3d 8ae4 113d e1ed 5c3e
000001a0: 775f ffbe f1df e8ba 25d2 9c3e 7095 6a3d
000001b0: 7077 88be c290 26be d399 a1bd a67e c5bc
000001c0: 568e 36bc 7f3d 203f 57bc 703f e524 233d
000001d0: d68e a93e f515 513d ad13 8ebf dbeb 353f
000001e0: 89e2 243f 1d32 6f3e 4bed 1c3d 0de6 7cbf
000001f0: 63f4 d93e bf62 71be 4139 90be 7a47 e9bc
00000200: d071 aa3c 0aeb c9bd 6ce0 83be a816 483e
00000210: 2c0e 0c3d 5939 18bf 572b 53bc 70ba 7ebf
00000220: 1d76 20be 5846 b9bc 1337 7a3f 84d6 153e
00000230: 4eac 273f ebf0 dd3d 7c5f 923c 375b 593e
00000240: 8f29 bfbd 2610 2a3f 913c 2d3e f41e fc3c
00000250: bfe9 5bbf 5469 e03e 2937 13bf 875b afbe
00000260: 9513 31bd 3cb7 b93e 18e1 0fbf 9ef9 823b
00000270: 8276 52bf 9a9b 06be 3d73 95bc f3e9 463f
00000280: 302c 38bf 11f2 153d ec8e 5e3c 189f 9bbe
00000290: 817b ee3e f962 c9be 8641 45bd ba0b 9cbe
000002a0: 8c46 ca3e d9d1 eebd d100 f13d 576f a33b
000002b0: 1a4e c0bb b818 963c c5c3 93bf 355e 0d3e
000002c0: 1551 e0bd 1798 08bd 58c9 6e3d d328 10be
000002d0: d5de bbbe e4c4 92bd 5c8c f7bb 610e 293f
000002e0: a902 00bf 4aa3 b23d 0f36 583e 83ed 0a3d
000002f0: dfb8 55bd c631 013f a9bf 56be 22e2 00bd
00000300: 0775 4ebc d8ad 893e ccd4 89be 193f 0e3e
00000310: 854e d8be 5d5d 92bd 378e 35be 4abc 60bf
00000320: 6dd5 c4be 73b2 79be a9f8 53bd 6ea3 333e
00000330: 8958 29bf 12de 4fbe 8e31 0dbd ea0e 083c
00000340: 6af2 3ebe 05ae 50bf 4c56 533f 0d0d 143e
00000350: c037 ad3c 76c9 37bf bf12 e7bd 304e ec3d
00000360: 2b86 02be 3757 e3bc 95db 20be fb1b 4fbe
00000370: 27a7 8c3c 4214 3ebe 2869 a8bc d5e4 4fbc
00000380: 09ad 4e3e e5a2 3f3f 76d5 833e cf44 2a3d
00000390: c698 22bf e330 9d3e 1a2a 463f 6a3a 813e
000003a0: 59ea 423d a278 32bf 05d8 18be 820f 74bf
000003b0: f678 7bbe 46aa f0bc 124c 46bf f345 95be
000003c0: 0469 3fbf 3cbd 25be fbfb 15bd f63a 243f
000003d0: 870e a73e 4a34 d83e f134 223e f885 ee3c
000003e0: acab acbe b210 523f d1b7 fd3e 8f07 883e
000003f0: ceb6 193d a5a5 7cbd a3de 6fbe 8d67 8a3d
-1.3067886 -0.35598287 -0.06545743 0.22468466 -0.6993443 0.9087311 0.050242394 0.0058643552
-0.8840995 -0.027616842 0.4047719 0.04667125 0.03548822 0.0706068 0.41771534 0.27655932
0.09160987 0.028194727 0.5991317 0.1626395 0.3712037 0.029437508 0.0066991807 -0.86563736
0.4301954 0.19046752 0.07499171 0.045414656 -0.23937522 0.4527769 0.21170463 0.11395628
0.07546316 -0.4053669 -0.28226924 0.19484532 0.20671311 0.01774051 0.004693535 -0.36629274
0.044416536 -0.10370884 -0.018647797 0.19236664 -0.22018175 0.55051416 0.24310033 0.054023042
-0.056693178 0.44130328 -0.13781713 -0.32649496 -0.055784326 0.09438649 0.17644487 -0.0030121505
-0.20122837 -0.040691473 -0.41774458 -0.29017976 0.15343954 0.16429026 0.019372726 0.4681471
0.3696202 -0.6798453 -0.24808596 -0.047295135 -0.18978739 -0.07260014 -0.5013619 -0.52426344
-0.09289184 0.7020665 0.07529785 0.0009677262 0.49288025 0.08060342 -0.11777386 -0.5338698
-0.03410739 -0.2637203 -0.03555398 -0.46753493 0.04505004 -0.5890972 -0.25769237 -0.039895672
0.71465135 0.20435809 0.19612238 -0.11848108 -0.016907278 0.15488279 0.9074278 -0.36145198
0.09923162 0.013282151 -0.7008438 0.18251047 0.09482048 0.07596693 0.035618342 0.21575119
-0.4987752 -0.0017766935 0.30629078 0.05727142 -0.26653624 -0.16266158 -0.07890668 -0.024108242
-0.011142334 0.62593836 0.94037384 0.039830107 0.33116788 0.05104633 -1.1099755 0.7106301
0.64408165 0.2335896 0.038312238 -0.9878853 0.42569265 -0.23572825 -0.2816868 -0.028476465
0.020806223 -0.09859283 -0.25757158 0.19539893 0.034193203 -0.59462506 -0.012888751 -0.9950323
-0.15670057 -0.02261655 0.97740287 0.14632612 0.6549729 0.10836967 0.017867796 0.21226202
-0.093340985 0.6643089 0.16917636 0.030776478 -0.85903543 0.4383036 -0.5750604 -0.34249517
-0.043231566 0.3627261 -0.5620284 0.003997042 -0.8221208 -0.13145295 -0.018243426 0.7770073
-0.71942425 0.036607806 0.01358388 -0.30394816 0.465786 -0.39333323 -0.04815819 -0.30477697
0.39506948 -0.11661119 0.11767734 0.004987638 -0.0058686854 0.018322334 -1.1544119 0.13805468
-0.10952965 -0.03334817 0.058297485 -0.14078073 -0.36693445 -0.0716646 -0.007554574 0.66037565
-0.5000406 0.08722551 0.21114372 0.033917915 -0.05217826 0.50466573 -0.2097155 -0.031465657
-0.012601144 0.26890445 -0.26920164 0.13891257 -0.42247406 -0.07146714 -0.17730032 -0.87787306
-0.3844408 -0.24384479 -0.051750813 0.17542812 -0.6615072 -0.20299557 -0.034471087 0.008304337
-0.18647161 -0.8151553 0.82553554 0.14458103 0.021144748 -0.7179178 -0.112828724 0.115383506
-0.12746494 -0.027751548 -0.15708764 -0.20225517 0.017169548 -0.18562415 -0.020557955 -0.012688835
0.20183195 0.7485793 0.25748795 0.041569527 -0.63514364 0.3070136 0.7740799 0.2523988
0.047586773 -0.6971532 -0.14926155 -0.95336163 -0.24557862 -0.029378068 -0.77459824 -0.2915493
-0.74769616 -0.16185468 -0.03661726 0.6415247 0.3262827 0.42227393 0.15840508 0.029116616
-0.33724725 0.82056725 0.49554303 0.26568267 0.03752785 -0.06168141 -0.23424773 0.06758032

critic.0.bias f4 [64]
00000000: f91a b5be 3a31 16bb 940f 7abf 4b08 623f
00000010: 404f 56bf 4e8d 0e3e eb89 8ebe 2bbf bebe
00000020: 2546 583e 3781 8dbf 3b73 093f e3f1 82bf
00000030: 19e1 0f3f 2929 483e 6df6 1cbe c865 d0bc
00000040: e0f4 a4bf 121e 1fbf 22eb 933d c265 83bf
00000050: 8d3b eabe d3f5 ccbf 5cb7 0abf 4deb cdbf
00000060: e5a3 503e 8e65 a53e cc92 723f 019c 9dbc
00000070: 3240 d7bf 0882 8fbf fe71 14bf b817 17bd
00000080: ab3e 35bf 87dc ecbe ddff 943e 1a02 a83b
00000090: 8bce 61bf 6bee 60bf d968 94bd 7e31 0abe
000000a0: b86a 30bf 8475 89bf 49d2 a5bd 6891 b63e
000000b0: c95d 763f 93e7 153e ada1 0dbf a254 ab3e
000000c0: 59e6 863e 8ee4 d63d ae8f a3bf c3b4 873c
000000d0: 6c4e a1bf 3128 85be 822b aabe eb61 8ebf
000000e0: 0f43 78bf 63d8 28be 3503 1ebe 79d2 1cbf
000000f0: 65cc 3e3f 57f7 083f 0512 683f d8e4 f2be
-0.3537214 -0.0022917525 -0.9768002 0.88293904 -0.83714676 0.13921091 -0.27839598 -0.37255225
0.21120508 -1.1055058 0.5369145 -1.0230068 0.56202847 0.19546951 -0.15328379 -0.025439158
-1.288723 -0.6215526 0.072225824 -1.0265429 -0.4574856 -1.601252 -0.54186034 -1.6087433
0.20375021 0.32304043 0.94755244 -0.019239428 -1.6816466 -1.1211557 -0.5798644 -0.036887854
-0.7079875 -0.46262 0.29101458 0.0051272037 -0.88205785 -0.87863797 -0.072465606 -0.13495442
-0.6891284 -1.0738988 -0.08096749 0.3565781 0.96236855 0.1463912 -0.5532482 0.33463007
0.26347616 0.10492812 -1.2778223 0.016565686 -1.2602057 -0.26007226 -0.3323632 -1.1123632
-0.96977323 -0.16488795 -0.15430911 -0.61258656 0.7453063 0.5350241 0.90652496 -0.4744022

critic.2.weight f4 [64, 64]
00000000: dfe9 9cbe 08e0 39bd 3904 b5bd 818b 5dbf
00000010: 82b1 c93e 9803 a63c f7bf 533e 4c05 033e
00000020: 5d5e 203f c4a2 cc3d 7a22 f23f 4771 923f
00000030: 2f2c 02bf 920e 803e 785e 4bbd b2ee c6bd
00000040: 872c d3bf b2b4 36be a01e 253e 085a 133e
00000050: f959 6bbb 97eb 9ebe e1a1 b53e c277 443e
00000060: 5724 283e 405f 423d 5e7e 6e3d 7b50 aac0
00000070: 57bf 173f be0f 803e 57fa 93bf a017 8dbf
00000080: e579 1cbe 46ec c8be 685f e53d 313c 2ebf
00000090: eb63 26bd 626f a13d 8ef2 67bf ed15 4abf
000000a0: 7737 17c0 2a86 5d3e 0da1 003e ee04 19bf
000000b0: 9f9e e3be 22fa 903e a76d 643e f8ca d6bb
000000c0: de00 4cbe 2f2b db3d 22d7 3a3f c2c9 063d
000000d0: dcb1 43bf e44d 89bd 42f7 b8bd 718b b03d
000000e0: e699 34be 7524 aebd 447c bcbd ac21 4b3e
000000f0: bb3e fe3e 4b6e 093e 86cd 083e 3452 c1bc
00000100: 12f2 49be 0758 773d 8c9b e8bd f489 8a3e
00000110: 2bf9 19be 2ec7 69bd 038e 9bbd f2a8 aa3d
00000120: 9390 e2b8 e2df 943d a6f5 dbbe 0200 7fbd
00000130: 9e41 3c3e 76de de3d 17d7 0dbf e323 7dbd
00000140: c183 9bbe 27fb 4abe b27d cdbd b187 04be
00000150: c209 043e 6725 09bd 7cf8 b7be 096c a7be
00000160: a25a 5abe bfd4 79bd 7528 a43d ae12 36bd
00000170: 8f91 eebe 7ab7 da3d fe88 ce3c e2b6 aa3e
00000180: 2888 fd3c 4d4a cc3d 02f4 c2bd 2293 c03d
00000190: bd95 673d 7c84 e3bd f5ba e3be 2663 90bd
000001a0: 9a19 c4bd d203 35bd 4b16 643d 4745 3dbe
000001b0: 658e 9bbe 7534 d4bd e7ef cabd f1ed 7dbd
000001c0: ae83 a33d 2f84 d7be 6d0b f73b 9011 84be
000001d0: 4b97 68bd dc99 8a3d 056d 5fbe 1301 d4be
000001e0: ef3a e23d 5370 343e 61fa acbe 5661 89bd
000001f0: 7cac 9fbd 8778 83be c807 3ebe df16 703d
00000200: b4bb c43e 5ac9 e1bd 0caf a1bf b478 7d3c
00000210: 8fe0 94bd 9c50 2bbe 8549 7b3e a325 133f
00000220: 2f75 353f 6dfe 35bf 1464 af3d acd7 3e3f
00000230: 3c83 36be 7e61 c9be 41e1 95bf 878f bdbc
00000240: feb8 4cbe c29a 203f eb22 25bf 7fa7 d63c
00000250: 57a7 363f 8954 563e 5295 08bf 4c0f 83bf
00000260: 6a21 7a3d 39c4 c6bf 799e 50be b9e3 1fbd
00000270: 5482 883f e3b1 4ebe 0fa0 503d 2697 44be
00000280: 64ac a4bc d31b 5cbf 5c84 343f 41e3 a83d
00000290: ada9 603f 86be 34bf f8e1 2ebf 1c7d a4be
000002a0: 09ef e2be 0e66 29c0 3a6d 383e 410e 763f
000002b0: d0f0 b2bf c16e 243e a5f4 173e 0142 34bf
000002c0: dc38 fdbe f784 22be 3208 393f 394c 42bf
000002d0: cd74 79bf ddd5 88be d475 bbbf 008b ffbe
000002e0: 6675 ccbe 98ae f83e a3ed 45be 8f05 b7be
000002f0: 78f7 c73e 7a5d be3c e62c c73e 0f97 b73d
00000300: 432e 493d 49de 333e 013e 77bd 5ac5 82bf
00000310: 404d cd3e 1b8d 44bc e044 63bd 21dc 7dbb
00000320: c416 b8bd f358 ed3d 56fb 843e 7e5e 5a3f
00000330: 4c8f 08bf e744 bf3e 8062 dfbe 6da3 ddbe
00000340: 9c9b d3bf 2688 df3e 26dc f33e ff61 e93e
00000350: a104 823d 4908 60be 6f14 01bd 162c 043e
00000360: f03f 663e ff79 0a3f f1df 84bd aef2 ddbe
00000370: 2cec a73c b06d db3e 14eb 833c 6d12 6fbe
00000380: f53c 56bf bc21 b83d 7a1a b13e 01a3 80bf
00000390: 1bb4 5d3f bb42 913d 2946 adbd 09f6 61be
000003a0: fe53 063e 112e 563e 3746 283e c7c6 523e
000003b0: c05a d53d 1295 1d3e 7f90 ed3e b934 3cbe
000003c0: a0c8 0bbe 9b35 3abe 2b59 f93e 5757 42be
000003d0: ebb3 19c0 c039 5a3e 01bc aaba 376e 88bd
000003e0: b2ed 76bf d208 603e f2c4 91be 37b2 bc3e
000003f0: 68c4 113e 12d6 a73e 9d3c bf3e cd6a 7fbd
-0.3064718 -0.04537967 -0.08838696 -0.8654099 0.3939324 0.020265386 0.20678698 0.1279499
0.62643987 0.099919826 1.8916771 1.144082 -0.5084867 0.25011116 -0.04965064 -0.09713496
-1.6497964 -0.17842367 0.16124964 0.14389813 -0.0035911782 -0.31039116 0.35475066 0.19186309
0.16420113 0.04745412 0.058225982 -5.3223243 0.59276336 0.2501201 -1.1560773 -1.1022835
-0.15280874 -0.39242762 0.11199838 -0.68060595 -0.040622633 0.07882573 -0.90604484 -0.78939706
-2.3627603 0.21633211 0.12561436 -0.5977315 -0.44456956 0.28315836 0.22307454 -0.0065549575
-0.19922206 0.10701596 0.72984517 0.032907255 -0.76443267 -0.067043096 -0.09031536 0.08620346
-0.17636833 -0.085030474 -0.09203389 0.19837064 0.49657235 0.1342098 0.13359651 -0.023598768
-0.19721249 0.060386684 -0.11357793 0.27058375 -0.15036456 -0.05707472 -0.07595446 0.08333005
-0.00010803449 0.07269265 -0.42960852 -0.062255867 0.18384406 0.10882275 -0.55406326 -0.061801802
-0.30373958 -0.1982237 -0.1003374 -0.12942387 0.12894347 -0.033482935 -0.35931766 -0.32699612
-0.21323636 -0.060993906 0.08015529 -0.044451408 -0.46595427 0.106795266 0.025211807 0.33342654
0.030948713 0.09975109 -0.09519197 0.09403063 0.056539286 -0.11109254 -0.44478574 -0.07050161
-0.095751956 -0.044193096 0.055685323 -0.18483458 -0.30382076 -0.10361568 -0.09909039 -0.061994497
0.079841 -0.42093036 0.007539204 -0.2579465 -0.05678491 0.067676276 -0.21818931 -0.4140707
0.11046397 0.17620973 -0.33784774 -0.067080185 -0.07796571 -0.25677893 -0.18557656 0.05861556
0.38424456 -0.11024733 -1.2631545 0.015470672 -0.07269394 -0.16729969 0.24539764 0.57479304
0.7088193 -0.7109135 0.0856401 0.7454784 -0.178235 -0.39332193 -1.1709367 -0.023139728
-0.19992444 0.6273614 -0.64506406 0.026202915 0.7134909 0.20930685 -0.53352845 -1.0239043
0.061067022 -1.5528632 -0.20372953 -0.039035533 1.0664773 -0.20185046 0.050933894 -0.19198284
-0.020101734 -0.85979956 0.70514464 0.0824647 0.87758905 -0.70603216 -0.6831355 -0.321267
-0.44322994 -2.646854 0.18010417 0.961155 -1.397974 0.16057874 0.14839418 -0.70413214
-0.49457443 -0.15871035 0.7227813 -0.75897557 -0.9744385 -0.26725665 -1.4645333 -0.49910736
-0.39933318 0.48570704 -0.19328932 -0.35746428 0.3905599 0.023237932 0.38901442 0.08964359
0.049116384 0.17565264 -0.060361866 -1.0216477 0.40098 -0.011996533 -0.055485606 -0.0038735943
-0.08988717 0.11589231 0.25973004 0.85300434 -0.53343654 0.37357256 -0.43629837 -0.43288746
-1.6531863 0.4365856 0.47628897 0.45582578 0.06348539 -0.2187816 -0.031513628 0.12907442
0.22485328 0.540924 -0.06488026 -0.43349212 0.020498358 0.42857122 0.016103305 -0.23346873
-0.83686763 0.08990809 0.34590513 -1.0049745 0.86602944 0.07092806 -0.084606476 -0.22066511
0.13117978 0.2091601 0.16433035 0.2058364 0.104177 0.15388897 0.46399304 -0.18379487
-0.13650751 -0.18184511 0.48700842 -0.1897863 -2.4016063 0.21311092 -0.0013026 -0.06661647
-0.96456444 0.21878365 -0.2847057 0.36854717 0.1423508 0.3278051 0.37350932 -0.062357713

critic.2.bias f4 [64]
00000000: 236b bdbd 0ce6 2dbd ef5e c1be 3441 7bbe
00000010: 7648 163f b992 ba3e ee68 c2bd 87fe c23b
00000020: 4a24 b8be da78 6b3e 8ea4 4e3e 2d58 ab3e
00000030: c6ea bc3d abf6 613e fe48 963e 88d9 c43d
00000040: d6e7 a43e 9db7 363e 448e 1cbe 65ca 0fbf
00000050: a466 ccbe 8d35 2c3e 5594 87be 40e1 4ebd
00000060: 059c 123f 2e80 e73e 7151 273e 4502 00be
00000070: 6ed2 4e3f 1fa4 e53e d354 e13e 7945 4b3e
00000080: ee0a e8bd 2738 0e3f 7976 c93e 94ed 3dbd
00000090: 460d a33e b71c 7cbd 2c63 36be b95e f03e
000000a0: 3dd9 6dbd ea03 05be b0cc fa3e a09c 01be
000000b0: 43fe 87bc c8d7 ed3e 77ca d3be 9538 18be
000000c0: 0b84 563e 405f 7fbd f45b bc3e 69e6 0f3f
000000d0: 6b84 c03e 7787 07be 5100 45bf eaf6 4cbf
000000e0: 2b6f 29be 1d18 ca3d 3772 84be 9a5a 883e
000000f0: 7dcf 0f3f 8de7 613c 4723 bb3d 2ac4 3b3e
-0.0924895 -0.042455718 -0.3776774 -0.24536592 0.58704317 0.36440066 -0.0949267 0.005950752
-0.35965186 0.2299532 0.2017996 0.3346571 0.09224467 0.22066753 0.29352564 0.09611803
0.32208127 0.1784348 -0.15288645 -0.56168205 -0.3992206 0.16817303 -0.26480356 -0.050507784
0.57269317 0.4521498 0.16339661 -0.12500866 0.8078984 0.44851777 0.44010028 0.1985072
-0.1133021 0.5555443 0.393482 -0.04636915 0.31846064 -0.061550822 -0.17811269 0.46947268
-0.058068503 -0.12989774 0.4898429 -0.12657404 -0.016600734 0.4645369 -0.41365406 -0.14865334
0.20948808 -0.062346697 0.36788905 0.56210953 0.37601027 -0.1323527 -0.7695361 -0.8006426
-0.16546313 0.098678805 -0.2586839 0.26631624 0.56175977 0.013788116 0.09137588 0.1833655

critic.4.weight f4 [1, 64]
00000000: 2d3b e7bd 6826 273c 1340 e3bd a471 20bd
00000010: 1650 9fbe 9a75 49be 6d9e 3fbd 1253 9b3f
00000020: 4828 5b3b 2f67 0dbe e9c4 80be 56a7 3e3d
00000030: 8b9a 8cbd c54d 9240 5462 ac3d 7d97 bfbd
00000040: 3378 3dbf 706c a03d 460f d03c 52fd 97be
00000050: 559a 443e 319f bd3e e7a8 443c b8a2 613e
00000060: 61e4 403e 034c 04be 5578 c83d dbf6 c0bc
00000070: da30 59be 567a 40be 5217 473d 3eea 893f
00000080: a497 0d3f bd4c 48be 3c68 a33d 1436 b7bd
00000090: 563b 023e 4ccc 213d a897 2b3e c5d6 7bbe
000000a0: df5b 02bd 29e8 023f 9bf4 48be 5313 d23e
000000b0: 6eac f3be 4e16 bebe a5b5 353e b465 d53e
000000c0: be46 6bbe 271a 1c3c 4844 4b3e a20a 8ebe
000000d0: 2d89 e2bd a751 fdbc e513 41bf 5608 2d3f
000000e0: 869b 15bd 60f1 e33f 9680 1a3e da67 8ebd
000000f0: ac10 4ebe 63c5 ca3d d8c2 b0bd b00d 413f
-0.11290584 0.010202028 -0.110962056 -0.039170876 -0.31115788 -0.19673768 -0.046781946 1.2134726
0.0033440758 -0.13808893 -0.2515023 0.046546303 -0.06865414 4.5719934 0.08417192 -0.09355066
-0.74011534 0.07833183 0.025397908 -0.29685456 0.19199498 0.37035516 0.01200316 0.22034729
0.1883712 -0.12919621 0.097885765 -0.02355521 -0.21210042 -0.18796667 0.048606224 1.077461
0.5530951 -0.19560523 0.079788655 -0.089458615 0.12717947 0.039501473 0.16757071 -0.24593647
-0.031825896 0.511355 -0.1962456 0.41030368 -0.4759249 -0.37126392 0.17745073 0.41679156
-0.22976205 0.00952772 0.19850266 -0.27742487 -0.110613205 -0.030922724 -0.7542098 0.67590845
-0.03652527 1.7808037 0.15088114 -0.06953402 -0.20123547 0.0990093 -0.086309135 0.7541151
