model/Pendulum-v1/1level/HAC_Pendulum-v1_solved_level_0_crtic.pth (torch, 20865 bytes, 5 tensors)

critic.0.weight f4 [64, 5]
-1.3079265 -0.33977273 -0.048111204 0.23547167 -0.6891468 0.9004564 0.044988707 0.004653618
-0.88949597 -0.01757662 0.39197853 0.045615993 0.046038546 0.052600622 0.4267071 0.2488101
0.081743896 0.034640424 0.62214255 0.15213512 0.37087816 0.039951038 0.011379565 -0.8674326
0.4486031 0.18593542 0.07904216 0.036211498 -0.24518958 0.44721323 0.21954735 0.11357748
0.052137572 -0.40078843 -0.28663647 0.18022615 0.20525834 0.03342721 0.014883314 -0.36723116
0.02669582 -0.11132319 -0.0045709996 0.19406098 -0.19326289 0.5481159 0.2555346 0.050628427
-0.08344837 0.4467179 -0.14781784 -0.31582397 -0.05619141 0.09216936 0.17294262 -0.0072482363
-0.20296407 -0.0301687 -0.41620314 -0.29411203 0.15230131 0.14824414 0.015785305 0.48934737
0.3622978 -0.6758346 -0.2441495 -0.046766616 -0.16983251 -0.07375338 -0.5015527 -0.5275286
-0.10219989 0.70477796 0.058725618 0.0010731783 0.49026892 0.08717176 -0.11394134 -0.5287486
-0.04358036 -0.26365948 -0.033916492 -0.47468162 0.055456404 -0.5724229 -0.25780603 -0.032932665
0.73161566 0.21632108 0.19518818 -0.118161365 -0.02149086 0.15374778 0.9094544 -0.35262942
0.10038362 0.0043980503 -0.6737847 0.18529527 0.08679043 0.049577884 0.029472953 0.19954541
-0.5148772 -0.00641434 0.31090522 0.06423243 -0.2735157 -0.16848478 -0.07343517 -0.037334993
-0.0018762083 0.6340086 0.9216733 0.037071943 0.32610062 0.04683249 -1.1260122 0.6804781
0.663591 0.24171121 0.038187694 -0.96333754 0.41694653 -0.2360937 -0.29429683 -0.025882624
0.022920566 -0.07501985 -0.23763977 0.20534717 0.02464808 -0.5873029 -0.019018034 -0.9989299
-0.14853768 -0.024450751 0.9676375 0.1415863 0.65121996 0.11873234 0.015325988 0.20732702
-0.113949716 0.6613977 0.17638418 0.020877754 -0.8652974 0.42689365 -0.5683845 -0.339618
-0.04467815 0.37448895 -0.5433103 -0.0018828111 -0.8238385 -0.13502519 -0.02815029 0.7800618
-0.7058224 0.039226193 0.015958304 -0.3167859 0.45655647 -0.37001893 -0.07321499 -0.30568743
0.40831357 -0.10888863 0.114516914 0.0025172902 -0.013049941 0.03221593 -1.1527017 0.13207006
-0.12114309 -0.03531955 0.065341495 -0.14798924 -0.36620593 -0.066267855 0.005287804 0.6405589
-0.48411143 0.08800633 0.19883516 0.05877199 -0.07813715 0.51600254 -0.21389952 -0.0152056115
-0.0219501 0.26415807 -0.2574755 0.14006597 -0.41828454 -0.06130692 -0.17994004 -0.88232833
-0.3636125 -0.24460477 -0.05842063 0.18717995 -0.66961396 -0.20386143 -0.02084965 -0.008542946
-0.19476321 -0.7980585 0.82929564 0.16497499 0.018704664 -0.7108182 -0.11666273 0.09541137
-0.12240215 -0.028452577 -0.15430334 -0.20483062 0.016231056 -0.18677191 -0.030569874 -0.01632228
0.20052004 0.74119955 0.2664415 0.050901394 -0.6452904 0.31132886 0.7666274 0.25132504
0.028943826 -0.69650054 -0.14468654 -0.9444421 -0.2556748 -0.035766546 -0.796654 -0.28863877
-0.74288994 -0.16431624 -0.026043883 0.6317536 0.33249977 0.4284455 0.15904984 0.023635522
-0.34065288 0.82402 0.507057 0.27921075 0.04609816 -0.06375146 -0.24614628 0.056409866
00000000: 236a a7bf b1f6 adbe 4110 45bd 7c1f 713e
00000010: ed6b 30bf 5084 663f 1446 383d 617d 983b
00000020: 02b6 63bf d8fc 8fbc 69b1 c83e d6d7 3a3d
00000030: ea92 3c3d c073 573d 5a79 da3e 13c8 7e3e
00000040: 5869 a73d 1ee3 0d3d bc44 1f3f 4fc9 1b3e
00000050: bee3 bd3e b3a3 233d 5b71 3a3c 1010 5ebf
00000060: 4eaf e53e db65 3e3e dbe0 a13d 8252 143d
00000070: fa12 7bbe 22f9 e43e 05d1 603e 4f9b e83d
00000080: 358e 553d 2434 cdbe 04c2 92be 348d 383e
00000090: 3e2f 523e f8ea 083d 25d9 733c b905 bcbe
000000a0: 31b1 da3c 6afd e3bd 53c8 95bb ecb7 463e
000000b0: b5e6 45be 5351 0c3f 6ed5 823e c15f 4f3d
000000c0: fbe6 aabd 35b8 e43e 8f5d 17be aeb3 a1be
000000d0: f728 66bd 4ac3 bc3d df17 313e 9d82 edbb
000000e0: d0d5 4fbe 5924 f7bc 9418 d5be da95 96be
000000f0: e0f4 1b3e 50cd 173e 2f50 813c bd8b fa3e
00000100: 197f b93e 7f03 2dbf 5402 7abe 5a8e 3fbd
00000110: 93e8 2dbe 030c 97bd c265 00bf 1d0c 07bf
00000120: 2d4e d1bd 546c 343f 468a 703d e3a9 8c3a
00000130: 8704 fb3e 1c87 b23d 145a e9bd 115c 07bf
00000140: 5281 32bd 60fe 86be 05ec 0abd 7809 f3be
00000150: 4126 633d 4f8a 12bf 27ff 83be 67e4 06bd
00000160: 2a4b 3b3f 4683 5d3e 69df 473e 96fe f1bd
00000170: 9a0d b0bc 0f70 1d3e 01d2 683f d88b b4be
00000180: ed95 cd3d 851d 903b 277d 2cbf 0bbe 3d3e
00000190: 2ebf b13d 2e12 4b3d 4371 f13c a255 4c3e
000001a0: fece 03bf 622f d2bb f82e 9f3e 4b8c 833d
000001b0: 400a 8cbe 4687 2cbe 2e65 96bd 94ec 18bd
000001c0: 1beb f5ba 634e 223f c8f2 6b3f c0d8 173d
000001d0: a9f6 a63e 6dd3 3f3d 2b21 90bf d033 2e3f
000001e0: 1ae1 293f 2583 773e b36a 1c3d 4a9d 76bf
000001f0: 047a d53e 8cc2 71be 13ae 96be cc07 d4bc
00000200: e9c3 bb3c 02a4 99bd d757 73be 8746 523e
00000210: c5ea c93c 7c59 16bf b5cb 9bbc dfb9 7fbf
00000220: 431a 18be f14c c8bc 17b7 773f 00fc 103e
00000230: 5ab6 263f f129 f33d da19 7b3c 894d 543e
00000240: 785e e9bd 5c51 293f 0e9e 343e d307 ab3c
00000250: 2184 5dbf ce91 da3e a681 11bf 69e2 adbe
00000260: 7000 37bd 04bd bf3e 6216 0bbf a8c8 f6ba
00000270: 14e7 52bf 0b44 0abe 709b e6bc 21b2 473f
00000280: c7b0 34bf a5ab 203d fdba 823c c331 a2be
00000290: c5c1 e93e 1f73 bdbe bef1 95bd 1083 9cbe
000002a0: 7a0e d13e 0101 dfbd d887 ea3d 1ff9 243b
000002b0: 6bcf 55bc daf4 033d bb8b 93bf 603d 073e
000002c0: de19 f8bd 3cab 10bd c3d1 853d 7e8a 17be
000002d0: 587f bbbe 71b7 87bd 5145 ad3b abfb 233f
000002e0: 74dd f7be aa3c b43d 729b 4b3e e6ba 703d
000002f0: 5f06 a0bd be18 043f 7a08 5bbe f520 79bc
00000300: b2d0 b3bc ba3f 873e d4d3 83be 746d 0f3e
00000310: 6429 d6be f71c 7bbd 3442 38be 45e0 61bf
00000320: 6b2b babe ac79 7abe 784a 6fbd 1aac 3f3e
00000330: d26b 2bbf 0dc1 50be e3cc aabc b6f7 0bbc
00000340: 0270 47be 904d 4cbf b84c 543f 34ef 283e
00000350: 863a 993c 2ef8 35bf dfec eebd 0967 c33d
00000360: faad fabd 6115 e9bc b201 1ebe 1ebf 51be
00000370: fef6 843c 2341 3fbe ac6d fabc 4db6 85bc
00000380: 2055 4d3e 41bf 3d3f 056b 883e fb7d 503d
00000390: c031 25bf 7f66 9f3e b141 443f adad 803e
000003a0: 9a1b ed3c dc4d 32bf b528 14be f5c6 71bf
000003b0: cfe7 82be f17f 12bd 84f1 4bbf 76c8 93be
000003c0: 092e 3ebf 8442 28be fb59 d5bc 9bba 213f
000003d0: 693d aa3e 355d db3e f6dd 223e 489f c13c
000003e0: 0e6a aebe faf2 523f 7dce 013f b6f4 8e3e
000003f0: 6dd1 3c3d 2090 82bd c50d 7cbe 080e 673d

critic.0.bias f4 [64]
-0.37271088 0.00025809385 -0.987806 0.88395447 -0.8238938 0.13606703 -0.28656462 -0.37951997
0.22108184 -1.1055007 0.5425696 -1.0067703 0.5734406 0.20591094 -0.14905319 -0.024303162
-1.2809225 -0.60093844 0.07576017 -1.0047759 -0.46585736 -1.5766093 -0.5340856 -1.5997168
0.21256405 0.35548258 0.96062016 -0.034488034 -1.6745683 -1.1189123 -0.58444434 -0.03710975
-0.6955369 -0.45523626 0.28343636 -0.0024647338 -0.87951344 -0.8932031 -0.05202079 -0.1475221
-0.6881026 -1.071449 -0.06863932 0.35739917 0.9608337 0.14501195 -0.5591265 0.33394042
0.2585471 0.09320777 -1.2617947 0.013371432 -1.2548431 -0.25185883 -0.31596294 -1.0972052
-0.95568764 -0.16260596 -0.16516735 -0.5976657 0.74042124 0.5304617 0.89772403 -0.4707976
00000000: f6d3 bebe c550 8739 dbe0 7cbf d74a 623f
00000010: b4ea 52bf 2855 0b3e 99b8 92be 7150 c2be
00000020: 4763 623e 0c81 8dbf d7e5 0a3f d9dd 80bf
00000030: 01cd 123f 51da 523e 66a1 18be 6d17 c7bc
00000040: 45f5 a3bf 1ad7 19bf 2628 9b3d 7f9c 80bf
00000050: db84 eebe 55ce c9bf d5b9 08bf 85c3 ccbf
00000060: 64aa 593e d001 b63e 34eb 753f 5343 0dbd
00000070: 4158 d6bf 8538 8fbf 259e 15bf 6500 18bd
00000080: b50e 32bf ba14 e9be 921e 913e 5f87 21bb
00000090: cb27 61bf f5a8 64bf c013 55bd 0910 17be
000000a0: 7e27 30bf 3e25 89bf c692 8cbd 06fd b63e
000000b0: 33f9 753f 037e 143e ea22 0fbf 3dfa aa3e
000000c0: 4960 843e b7e3 be3d 7d82 a1bf da13 5b3c
000000d0: b39e a0bf a4f3 80be e5c5 a1be 3871 8cbf
000000e0: f2a7 74bf 2d82 26be a121 29be 9f00 19bf
000000f0: 3f8c 3d3f 57cc 073f 3ed1 653f 620c f1be

critic.2.weight f4 [64, 64]
-0.2957696 -0.03994834 -0.07046436 -0.82966185 0.39633542 0.031742632 0.21685098 0.15136322
0.6553684 0.12805527 1.8863608 1.1058191 -0.47855937 0.25291872 -0.055110496 -0.06959055
-1.6704288 -0.19471282 0.1677295 0.14605829 0.012184859 -0.2966006 0.34144008 0.20345704
0.17432088 0.058305766 0.06839725 -5.2939115 0.6315913 0.26195073 -1.1090198 -1.1153002
-0.13566369 -0.39811155 0.115029246 -0.71493983 -0.040622633 0.09908487 -0.86377054 -0.8101718
-2.339066 0.21141747 0.13674475 -0.6005418 -0.4473842 0.29903236 0.2385173 -0.0051148054
-0.16760369 0.12309509 0.75690144 0.045271456 -0.72347516 -0.037101768 -0.19845694 0.10169506
-0.15395184 -0.07223916 -0.06539985 0.17997068 0.5081582 0.17667513 0.1511502 0.0012608764
-0.19721249 0.060386684 -0.11357793 0.27058375 -0.15036456 -0.05707472 -0.07595446 0.08333005
-0.00010803449 0.07269265 -0.42960852 -0.062255867 0.18384406 0.10882275 -0.55406326 -0.061801802
-0.30373958 -0.1982237 -0.1003374 -0.12942387 0.12894347 -0.033482935 -0.35931766 -0.32699612
-0.21323636 -0.060993906 0.08015529 -0.044451408 -0.46595427 0.106795266 0.025211807 0.33342654
0.030948713 0.09975109 -0.09519197 0.09403063 0.056539286 -0.11109254 -0.44478574 -0.07050161
-0.095751956 -0.044193096 0.055685323 -0.18483458 -0.30382076 -0.10361568 -0.09909039 -0.061994497
0.079841 -0.42093036 0.007539204 -0.2579465 -0.05678491 0.067676276 -0.21818931 -0.4140707
0.11046397 0.17620973 -0.33784774 -0.067080185 -0.07796571 -0.25677893 -0.18557656 0.05861556
0.38931733 -0.11757857 -1.3041338 -0.004245137 -0.07354467 -0.17155525 0.24192786 0.57221484
0.69496375 -0.70367205 0.11247593 0.69990534 -0.19459221 -0.39332193 -1.1286043 -0.01960228
-0.19992444 0.6273614 -0.651384 0.026202915 0.70597374 0.26457772 -0.53352845 -0.9890547
0.05911573 -1.5016961 -0.19923681 -0.015054772 1.0539426 -0.20219868 0.040679075 -0.16309647
-0.020101734 -0.8027292 0.6949687 0.050399147 0.8720759 -0.72273636 -0.68956 -0.34585768
-0.45891622 -2.6690607 0.17421024 0.94727874 -1.3959596 0.15893137 0.14454405 -0.6923556
-0.49457443 -0.15724686 0.72153795 -0.77451366 -0.9832412 -0.27285966 -1.4729792 -0.4916979
-0.3938299 0.48570704 -0.20206353 -0.3741992 0.37504408 0.037108373 0.38037753 0.089926094
0.05279994 0.18492341 -0.047365904 -1.0117788 0.39747208 -0.010770433 -0.03565757 0.021003487
-0.089193344 0.14013033 0.26879892 0.84702975 -0.51977843 0.3859369 -0.43180242 -0.3946584
-1.7112663 0.4355002 0.45655984 0.45653173 0.036094297 -0.24471223 -0.09108048 0.12656304
0.23180045 0.5527108 -0.056711487 -0.43696862 0.05423632 0.44051003 0.016108122 -0.19855721
-0.8207532 0.07400322 0.34473872 -1.0261626 0.8441663 0.076213636 -0.08917233 -0.21681309
0.1259617 0.18440184 0.179329 0.21656121 0.10662839 0.16678004 0.4829173 -0.16932528
-0.13245906 -0.1758075 0.5082233 -0.19148782 -2.3508 0.20814154 -0.025839426 -0.05436087
-0.9456765 0.23353781 -0.26137325 0.3272227 0.13757719 0.32917535 0.3851678 -0.037802823
00000000: 1d6f 97be dfa0 23bd 9e4f 90bd b864 54bf
00000010: 7aec ca3e 9004 023d 2f0e 5e3e f6fe 1a3e
00000020: 39c6 273f ec20 033e 4574 f13f 7b8b 8d3f
00000030: bc05 f5be 907e 813e 8bbb 61bd 7e85 8ebd
00000040: 9cd0 d5bf cc62 47be 48c1 2b3e 4e90 153e
00000050: 01a3 473c 09dc 97be 3cd1 ae3e 0b57 503e
00000060: 2c81 323e 07d2 6e3d db13 8c3d b967 a9c0
00000070: f8af 213f 681e 863e 5cf4 8dbf 28c2 8ebf
00000080: 6ceb 0abe 47d5 cbbe 7494 eb3d 4c06 37bf
00000090: eb63 26bd 02ed ca3d 1120 5dbf 6b67 4fbf
000000a0: 42b3 15c0 d27d 583e d106 0c3e 1bbd 19bf
000000b0: 8b0f e5be c51a 993e e13d 743e 199a a7bb
000000c0: 4da0 2bbe 4719 fc3d 4bc4 413f 906e 393d
000000d0: ab35 39bf 06f8 17bd 4c38 4bbe 8045 d03d
000000e0: 8da5 1dbe 20f2 93bd 5bf0 85bd 3c4a 383e
000000f0: a816 023f 53ea 343e 1ec7 1a3e fe43 a53a
00000100: 12f2 49be 0758 773d 8c9b e8bd f489 8a3e
00000110: 2bf9 19be 2ec7 69bd 038e 9bbd f2a8 aa3d
00000120: 9390 e2b8 e2df 943d a6f5 dbbe 0200 7fbd
00000130: 9e41 3c3e 76de de3d 17d7 0dbf e323 7dbd
00000140: c183 9bbe 27fb 4abe b27d cdbd b187 04be
00000150: c209 043e 6725 09bd 7cf8 b7be 096c a7be
00000160: a25a 5abe bfd4 79bd 7528 a43d ae12 36bd
00000170: 8f91 eebe 7ab7 da3d fe88 ce3c e2b6 aa3e
00000180: 2888 fd3c 4d4a cc3d 02f4 c2bd 2293 c03d
00000190: bd95 673d 7c84 e3bd f5ba e3be 2663 90bd
000001a0: 9a19 c4bd d203 35bd 4b16 643d 4745 3dbe
000001b0: 658e 9bbe 7534 d4bd e7ef cabd f1ed 7dbd
000001c0: ae83 a33d 2f84 d7be 6d0b f73b 9011 84be
000001d0: 4b97 68bd dc99 8a3d 056d 5fbe 1301 d4be
000001e0: ef3a e23d 5370 343e 61fa acbe 5661 89bd
000001f0: 7cac 9fbd 8778 83be c807 3ebe df16 703d
00000200: 9a54 c73e 09cd f0bd dbed a6bf ca1a 8bbb
00000210: 979e 96bd 2eac 2fbe f0bb 773e ac7c 123f
00000220: 25e9 313f da23 34bf c859 e63d ff2c 333f
00000230: 2e43 47be 7e61 c9be 1b76 90bf f694 a0bc
00000240: feb8 4cbe c29a 203f 1ac1 26bf 7fa7 d63c
00000250: b2ba 343f bb76 873e 5295 08bf b032 7dbf
00000260: 5623 723d 9437 c0bf bc04 4cbe 4aa8 76bc
00000270: 97e7 863f 2c0d 4fbe 1a9f 263d c302 27be
00000280: 64ac a4bc a97f 4dbf 78e9 313f 566f 4e3d
00000290: 5e40 5f3f 4005 39bf 0187 30bf 4214 b1be
000002a0: 11f7 eabe e4d1 2ac0 2b64 323e dc80 723f
000002b0: ceae b2bf e8be 223e 5b03 143e 373e 31bf
000002c0: dc38 fdbe 5205 21be b6b6 383f 8746 46bf
000002d0: b2b5 7bbf 43b4 8bbe 958a bcbf d4bf fbbe
000002e0: 13a4 c9be 98ae f83e bee9 4ebe 0a97 bfbe
000002f0: c705 c03e f3fe 173d d8c0 c23e 2c2b b83d
00000300: c044 583d 905c 3d3e c002 42bd f881 81bf
00000310: 7681 cb3e 7876 30bc ac0d 12bd 810f ac3c
00000320: 00ab b6bd 537e 0f3e 03a0 893e f1d6 583f
00000330: 3310 05bf 8599 c53e 3515 ddbe aa10 cabe
00000340: c60a dbbf e2f9 de3e 36c2 e93e 87be e93e
00000350: 9dd7 133d d895 7abe 6788 babd be99 013e
00000360: 195d 6d3e 747e 0d3f 4e4a 68bd 5aba dfbe
00000370: e726 5e3d 888a e13e 2ef5 833c 9552 4bbe
00000380: e21c 52bf 008f 973d 9881 b03e 4c59 83bf
00000390: 481b 583f e515 9c3d fc9f b6bd 4004 5ebe
000003a0: 1bfc 003e d6d3 3c3e 05a2 373e 39c2 5d3e
000003b0: fc5f da3d 63c8 2a3e f040 f73e 9b63 2dbe
000003c0: 59a3 07be e206 34be ec1a 023f 6215 44be
000003d0: 8273 16c0 0e23 553e 34ad d3bc 81a9 5ebd
000003e0: db17 72bf 8924 6f3e b7d2 85be bc89 a73e
000003f0: 09e1 0c3e ac89 a83e b734 c53e 22d7 1abd

critic.2.bias f4 [64]
-0.0741472 -0.042455718 -0.3864155 -0.22948141 0.5771396 0.37151965 -0.0949267 0.022378273
-0.35965186 0.24045068 0.19934332 0.3338029 0.103239805 0.22066753 0.2860368 0.09611803
0.31729072 0.16410273 -0.15288645 -0.56168205 -0.40072784 0.16246256 -0.27065796 -0.04571893
0.57256424 0.4555719 0.16012062 -0.12500866 0.8057749 0.44723228 0.45613414 0.19351421
-0.11750454 0.54694444 0.40371066 -0.04636915 0.32012767 -0.061550822 -0.17811269 0.46887302
-0.058068503 -0.12989774 0.47986662 -0.126075 -0.017060192 0.45562375 -0.40908384 -0.1418167
0.21357703 -0.062346697 0.3766375 0.5565442 0.37805387 -0.1323527 -0.7534427 -0.8126578
-0.16546313 0.10724545 -0.25608414 0.26543787 0.54939634 0.012975947 0.0876553 0.18306401
00000000: 7dda 97bd 0ce6 2dbd 41d8 c5be 2dfd 6abe
00000010: 6cbf 133f d337 be3e ee68 c2bd a452 b73c
00000020: 4a24 b8be b438 763e a820 4c3e 37e8 aa3e
00000030: 646f d33d abf6 613e 6a73 923e 88d9 c43d
00000040: ee73 a23e 8c0a 283e 448e 1cbe 65ca 0fbf
00000050: 332c cdbe 965c 263e ae93 8abe c643 3bbd
00000060: 9293 123f b840 e93e a9f6 233e 4502 00be
00000070: 4447 4e3f a1fb e43e 6a8a e93e 9728 463e
00000080: 38a6 f0bd 8d04 0c3f 2ab3 ce3e 94ed 3dbd
00000090: c6e7 a33e b71c 7cbd 2c63 36be 2010 f03e
000000a0: 3dd9 6dbd ea03 05be 14b1 f53e ce19 01be
000000b0: d1c1 8bbc 8447 e93e 7073 d1be 6638 11be
000000c0: f0b3 5a3e 405f 7fbd a1d6 c03e ae79 0e3f
000000d0: 4790 c13e 7787 07be 9fe1 40bf 570a 50bf
000000e0: 2b6f 29be 81a3 db3d 761d 83be 79e7 873e
000000f0: 3da5 0c3f 1199 543c 9f84 b33d 2275 3b3e

critic.4.weight f4 [1, 64]
-0.12836312 0.010202028 -0.11122017 -0.02843195 -0.3310136 -0.18404113 -0.046781946 1.2332519
0.0033440758 -0.13119254 -0.27230802 0.040968854 -0.06901543 4.5719934 0.09245316 -0.09355066
-0.75433075 0.055984247 0.025397908 -0.29685456 0.1770379 0.35263053 -0.010276369 0.26274875
0.17747568 -0.122159936 0.08492787 -0.02355521 -0.21652456 -0.1871098 0.06327057 1.0916966
0.57106334 -0.19550292 0.09726076 -0.089458615 0.1322831 0.039501473 0.16757071 -0.2515149
-0.031825896 0.511355 -0.18085241 0.41286874 -0.4659303 -0.3865032 0.17651919 0.40315813
-0.22711155 0.00952772 0.20699434 -0.2833427 -0.10512849 -0.030922724 -0.73954546 0.6802448
-0.03652527 1.8005689 0.1710672 -0.05640899 -0.19122909 0.080689885 -0.08191682 0.7326422
00000000: 9f71 03be 6826 273c 67c7 e3bd 1fea e8bc
00000010: 9d7a a9be 4775 3cbe 6d9e 3fbd 33db 9d3f
00000020: 4828 5b3b 5657 06be f56b 8bbe f5ce 273d
00000030: f657 8dbd c54d 9240 1558 bd3d 7d97 bfbd
00000040: d21b 41bf bd4f 653d 460f d03c 52fd 97be
00000050: 6c49 353e fd8b b43e 375e 28bc 0187 863e
00000060: 2fbc 353e fd2e fabd aaee ad3d dbf6 c0bc
00000070: 9db8 5dbe b699 3fbe 0094 813d b7bc 8b3f
00000080: 3531 123f eb31 48be a630 c73d 1436 b7bd
00000090: 3975 073e 4ccc 213d a897 2b3e 90c6 80be
000000a0: df5b 02bd 29e8 023f 6031 39be 8863 d33e
000000b0: 6b8e eebe bfe3 c5be 72c1 343e be6a ce3e
000000c0: ee8f 68be 271a 1c3c 53f6 533e 4b12 91be
000000d0: 9b4d d7bd a751 fdbc da52 3dbf 8624 2e3f
000000e0: 869b 15bd 0b79 e63f 3d2c 2f3e 1d0d 67bd
000000f0: 8fd1 43be bd40 a53d 01c4 a7bd 708e 3b3f
