model/Pendulum-v1/3level/HAC_Pendulum-v1_solved_level_2_crtic.pth (torch, 21131 bytes, 5 tensors)

critic.0.weight f4 [64, 6]
00000000: 5e99 eb3e c905 0f3e ec97 debb 8b4d c9bc
00000010: 0fcb 093e 273a d4ba f868 143c 1549 853c
00000020: 0ae6 2a3f b3e8 273e 4457 fb3f 48f5 1d3f
00000030: 1041 f5bd 015e 1abd 618e 743d ed0f e1bc
00000040: db48 9f3f 127d 0dbf 0e9b b43e 7567 bd3d
00000050: 7755 c13c 73f3 043e c497 f5bf c2aa 123f
00000060: 7df6 18bd 12cb 6b3d 4f68 f63d 98a2 96be
00000070: 5442 9f3d 4948 8fbe 96fa 02be 82c0 59be
00000080: 25e8 64be 0a76 ac3d 66e0 87bf 8bef 1cbe
00000090: 716b c5bd 3837 de3c 19da 9cbd 2984 d73c
000000a0: 54fa 453f f49b 0d3f 0b38 85ba 3280 50bc
000000b0: 7844 3e3e d579 33bd 4321 8d3d f405 fd3f
000000c0: 9a5e a63e f9af 973b 376b 26be eb3c d23d
000000d0: 0458 46bf cfbb 123f b1c1 d83d 7d86 13be
000000e0: e585 433f 0647 49bd ff96 b13f 1003 1e3f
000000f0: 9a86 a7bc db76 523d 707b 7cbf a4f5 8b3e
00000100: 5bbf ec3e e486 76be f98a 8bbb 4676 b03c
00000110: a89f 9d3f 4861 c43e a0ec 9fbf e07d cbbe
00000120: 66a0 b7bb effd 7a3d 8300 35be 6005 f03c
00000130: bf43 11c0 aa5b 71bc 74dc 96be f9b4 033e
00000140: 202e 47be 5290 923d d152 03be 7ead 603e
00000150: 9e7a b13b 4a47 053e fd57 e23d d0de 543d
00000160: 511a bebc 0ceb ccbd 2d30 76bb 3b4a 9bbb
00000170: 69b8 24bd 6c92 043e 5b8f 0a3f a29c 133f
00000180: bfef 70bd ea8e 6c3c 4a67 1b3f 538e 583e
00000190: 21a2 e7be f145 abbe 472f 673c 59ea 783d
000001a0: 0070 db3d a253 9b3d 2410 8abe 35a4 ca3c
000001b0: d9fc 64bd 0e4d 89bd abde 9b3f 5578 2d3e
000001c0: f1e8 9bbf 4a32 84be d245 2d3e 63fa 1b3d
000001d0: 2dfd b23d a492 b6bd af1f fd3f dc30 793f
000001e0: 29b8 c63d 7ca3 443b 4f46 b1be e4d3 503c
000001f0: a6a2 23bd f8b9 3bbf d09b 913d 1904 aa3d
00000200: 1b8f d7be 18e9 ac3e 45bc b73f df6f 033f
00000210: 0402 843b 9023 adbc 49ec 6a3e 4f86 913e
00000220: 61c4 dbbf e6af 80bd 8e14 a9bd c6a6 3dbc
00000230: 8c32 89bf 97c8 843e 471b 553f 0989 9bbe
00000240: a15d b1ba 2b18 7fbd 7b46 52bf 890c c53d
00000250: 71ea 3b3f b237 abbe dae8 88be 55de d5bb
00000260: 4189 133e 554b b33d c992 c9bd 6c3d 463f
00000270: f7e0 f23b 1a11 b93a 30aa 083d f112 42bb
00000280: 3b88 ffc0 f950 9cbf ac84 04bd 85a8 613c
00000290: 0b42 3cbf d731 fc3d 0047 643e eb09 0a3f
000002a0: b99a ad3c da32 b83a fea7 1ebe 8e3f b7bd
000002b0: e6ef 083f cccd 013e 7f72 683e dee9 003d
000002c0: feef f43d d37a 753d 37e5 193e b457 83bd
000002d0: 0215 dd39 6758 8c3c ed22 843d b42c 4ebd
000002e0: 3239 c5bc d729 94b9 2dd7 ca3e d363 77bd
000002f0: 7067 dc3e 53aa 6ebc f3f6 853f cb7b 663e
00000300: 160d 0a3e 8c61 863c cf2b 7a3e 2c90 6b3d
00000310: 36ca 03bf 2e60 063e d8c6 0abd 42bc 08b8
00000320: 5974 4a3e 0160 273e efcf 81be 053d 71be
00000330: ab9b a9be 2180 bbbd d844 a13d 3a79 213e
00000340: 9eaf 65bf d22b eebd 82e4 00be dbd4 c2bc
00000350: b56d 16be 1da1 3d3d a01d 623e 8686 1e3f
00000360: 9a5a 0f3d d4dc 58be bf80 0fbe 5a43 863d
00000370: d78b c03d 39b8 fd3d 9fc0 14bd 5465 bbbd
00000380: f754 25bf 8d3a 8abe 1b67 14bf 767b 193e
00000390: 7270 223d 06e4 ab3b a2a6 77bf 46a9 b53e
000003a0: 6581 813f 6edf bebe 6b52 d63d 79e1 e4bd
000003b0: 3239 483e 68e9 2d3e 5242 0d3b a2b4 f4bd
000003c0: f277 23bc dfea a13a 781b c4be 5e8b 03be
000003d0: 7208 8ebd 1695 863e b235 e1bc 4279 1b39
000003e0: 03e9 513f 1776 0bbf 3ff5 4fbf 28fb 0d3f
000003f0: bb2c ad3c 1556 203c 2a68 cc3d 9087 9fbc
0.46015447 0.1396705 -0.006793013 -0.024573108 0.13456367 -0.0016191647 0.00905823 0.0162702
0.6675726 0.16397361 1.9636006 0.61702394 -0.119753 -0.037687305 0.059706096 -0.027473414
1.2444109 -0.5526897 0.35274547 0.092482485 0.023600323 0.12983494 -1.918694 0.57291806
-0.037344445 0.05756671 0.12031614 -0.29420924 0.07776323 -0.27984837 -0.12790903 -0.21264842
-0.22354181 0.08420952 -1.0615356 -0.15325753 -0.096396334 0.02712594 -0.07658786 0.026308136
0.77335095 0.5531609 -0.0010163797 -0.012725877 0.18580806 -0.04381736 0.0689111 1.9767442
0.3249405 0.004629132 -0.16251837 0.102655254 -0.7747805 0.57317823 0.10583819 -0.14406772
0.7637618 -0.04914 1.3874205 0.61723423 -0.020449925 0.05138288 -0.9862585 0.27335846
0.46239743 -0.24074894 -0.00425851 0.021540772 1.2314348 0.3835547 -1.2494087 -0.39744473
-0.005603838 0.061277326 -0.17675976 0.029299438 -2.26976 -0.014731327 -0.29465067 0.12862004
-0.19451189 0.07156433 -0.1282456 0.21941182 0.0054162284 0.13015476 0.11051939 0.051970303
-0.023205908 -0.10005769 -0.0037565336 -0.0047390736 -0.04021493 0.1294648 0.54124993 0.5766088
-0.05882239 0.01443837 0.6070448 0.21148042 -0.45240882 -0.334518 0.014110393 0.060770366
0.10714722 0.07584311 -0.2696544 0.024736503 -0.055905197 -0.0670415 1.2177328 0.16940434
-1.2180463 -0.25819618 0.16921166 0.038080584 0.08739696 -0.08914688 1.9775294 0.9734018
0.097030945 0.003000467 -0.34623954 0.012745831 -0.039950036 -0.7333064 0.07109797 0.08301563
-0.42101368 0.33771586 1.435433 0.51342577 0.0040285606 -0.021135122 0.22941698 0.28422782
-1.7169305 -0.0628355 -0.082558736 -0.011575406 -1.0718551 0.25934288 0.83244747 -0.30377987
-0.0013531932 -0.062278908 -0.82138795 0.096215315 0.73404604 -0.3344093 -0.26740152 -0.006526748
0.14407827 0.08754603 -0.0984245 0.7743747 0.007412072 0.0014119477 0.03336543 -0.002961334
-7.9853797 -1.2212211 -0.03235309 0.013773088 -0.73538274 0.12314194 0.2229271 0.53921384
0.021191942 0.0014053241 -0.15493771 -0.08947669 0.53491056 0.12676162 0.22699927 0.031473033
0.119598374 0.059931587 0.15028845 -0.064132124 0.00042168057 0.017131997 0.06451974 -0.0503356
-0.024075124 -0.00028259933 0.3961729 -0.060397934 0.43047667 -0.014566976 1.0465988 0.22508161
0.13481554 0.016403936 0.24430774 0.05751054 -0.51480424 0.13122627 -0.03388104 -3.2600256e-05
0.19770946 0.16345216 -0.25353953 -0.23558433 -0.33126578 -0.09155298 0.07874459 0.157689
-0.89721096 -0.11629452 -0.12587169 -0.023783138 -0.14690287 0.046296228 0.22081614 0.61924016
0.034998514 -0.21177989 -0.14013956 0.06555815 0.09401672 0.12388653 -0.03631651 -0.09150186
-0.6458277 -0.26997796 -0.57969826 0.14988503 0.039658017 0.0052456884 -0.96738636 0.35480708
1.0117613 -0.37279838 0.10464939 -0.11175818 0.19553068 0.16983569 0.0021554423 -0.119485155
-0.009977328 0.0012353322 -0.38302207 -0.12846133 -0.069352046 0.2628562 -0.027491424 0.00014827124
0.8199617 -0.54477066 -0.8123359 0.5546136 0.021139493 0.009786149 0.09980805 -0.01947382

critic.0.bias f4 [64]
00000000: 25e3 bebf 2231 6fbf 4dee 8cbf 6fee b5be
00000010: b302 b5bf 2572 94bf 0ae0 b5bf 6a62 aabe
00000020: 0f50 773f 34db 1dbf 2cb5 41bf bf9d e8bd
00000030: 05ca f0bf 3375 153f 9354 a5be a6a5 11c0
00000040: 1fcf efbe c060 783f 6165 5cbf 92f6 33bf
00000050: 8b86 09c0 3053 d4bf df8d 9dbf 679e 363e
00000060: 9fff 2abf 4c85 d43e 74a4 b3bd bfe9 b0bf
00000070: d675 58bf 8eae 3dbe e121 4fbf 5679 3dbf
00000080: 5599 8dbe b4be 0c40 4657 4dbf da6a ecbf
00000090: a825 8ebd 398d 2fbf 34f7 bdbd 304b 51bf
000000a0: e201 7cbf a1ee 66bd c204 14bf 8121 19c0
000000b0: 556b 84bd 1dbd e63b 96b6 d23d ff25 fbbe
000000c0: 1a7d 853e 218e cabd 5165 4bbe f35e 0ebd
000000d0: 9748 9b3e bd3c b3bf 73b2 0dc0 8106 69be
000000e0: 73ea 55bf 36e9 e93d f8dd 05c0 bc98 e1bf
000000f0: ca48 30bf dc21 b4bd be49 e6bf 46f4 c2bf
-1.4913069 -0.93434346 -1.1010224 -0.35533473 -1.4141449 -1.1597334 -1.4208996 -0.3327821
0.96606535 -0.616626 -0.7566707 -0.11358213 -1.8811651 0.58381957 -0.32291088 -2.2757354
-0.46837708 0.9702263 -0.8609219 -0.7029811 -2.1488369 -1.6587887 -1.2308921 0.17833863
-0.66796297 0.41507947 -0.08771601 -1.3821334 -0.84554803 -0.18523619 -0.8091107 -0.7401327
-0.27656046 2.1991396 -0.80211294 -1.8470109 -0.06940776 -0.68574864 -0.09275666 -0.8175535
-0.9844037 -0.056379918 -0.5781976 -2.39267 -0.064657845 0.007041587 0.10288732 -0.49052426
0.26072007 -0.0989039 -0.19862868 -0.03475852 0.3032882 -1.4002911 -2.2140167 -0.22756387
-0.83560866 0.114214346 -2.091673 -1.7624736 -0.6886107 -0.08795521 -1.7991254 -1.5230796

critic.2.weight f4 [64, 64]
00000000: 32f0 93bf 56d9 80be 6b28 b4be 5a4d 22bc
00000010: ddd5 0abf f1eb a1bd a6d4 4cbf 60b8 8dbf
00000020: 11e0 333e d34b 823f fa4d 753d ce72 20bf
00000030: f9fe 44be 776f 0dbf fc08 a8bf d72b 093e
00000040: 2f34 883d 3f83 a8be 18d8 3e3e f9ed 26bf
00000050: c62a b6bf 0242 7a3e 9c89 26bf b5d6 47be
00000060: 9a7d 603e 7d02 44bf 4d4f 20bf c0fa b9bf
00000070: 3cb6 52bc be05 d9be 733e e53e cced 103e
00000080: 0249 063c 02bc 4a3e b894 59bf cc71 343e
00000090: 9083 5fbf 2de2 b63e 09d0 1c3e d97f b83e
000000a0: 8d5b e4be 745b 12c0 7051 1f3f b850 e1be
000000b0: 0274 fbbe 9f32 0b3f 50db 4fbe 9811 62be
000000c0: 5553 3d3e 80c3 5dbf 1d18 b4be bb6c 1fbf
000000d0: 32da 49bf 0eaf 92bf b820 6bbf b611 23be
000000e0: 23e3 52bf 643c 36bd 3ea3 9bbe bf5e 47bf
000000f0: a267 8bbf 9f89 ebbe d8e9 9e3d 8238 62bf
00000100: a105 fdbd 56bd a5be b0f1 54be 5e33 c3bd
00000110: a627 eabd 2c74 25bd 9227 9bbe 895f 4dbe
00000120: 30b1 01be fec8 853d 23d4 3b3d 5534 5bbe
00000130: cd98 183d e630 83be 4c98 6dbe 0a68 49be
00000140: 8289 9dbd e5c8 04bd 060d 6bbe 867c 24bf
00000150: bf09 96bd d4e8 0cbf 3c85 1dbd 5745 32be
00000160: bce3 51be b4a0 76bd 2d0f d7bc a2f1 babe
00000170: 9562 42be 439e 663e edee 253e 7dd8 71bd
00000180: bdcc 403e 2025 d0be b16c 003d 03b4 48bd
00000190: 8f75 51be 36ab 78be 2fb9 02bd 9edb dcbd
000001a0: f9a1 4bbd e55f 8ebe 5298 3b3e b33e fdbe
000001b0: 7a1a ef3c 2e08 d3be 50c2 90be 4a4f 8bbe
000001c0: 0bec 8fbd f63a b83d 5c26 65bc 2796 82be
000001d0: 2cd0 e8be 308e f53c fbe3 60bd 6e1f aabe
000001e0: b551 20be abf8 533c 8073 abbe 2020 30be
000001f0: 9aeb 1c3c ae5a 343e 7a4e 86be d891 a33b
00000200: 6fd2 e9be 63c6 8fbf e72e 00bf 6a5e 8abf
00000210: c63b 67be 9a25 bfbd 7767 abbe be03 77be
00000220: 4c92 34bf 2c94 0fbf 48b5 58be 27ce 963f
00000230: f238 44be def6 69be d63c 82bf 7813 c5bd
00000240: 8dd7 1dbc 56bf 05be 252d e8be c3a0 edbe
00000250: fcea 253e fb57 853d 56d5 98bf 8002 f9be
00000260: 4f72 dfbd c871 ebbd fd98 0dbe 14fb bb3d
00000270: 1379 6bbe 0828 9fbd 0146 acbe 0ed9 fdbd
00000280: d52f d1bc ae8c 25bb 6c82 55bf fc77 85be
00000290: e279 41bf aff9 a7bf 39ca 8a3e 8549 4ebf
000002a0: 87d6 80be 657d e13e 0bbf efbd 4357 e6bd
000002b0: 05af 41bf 845b 29bf 697c 94be a0dc a3be
000002c0: af2c a5be 191a 85bf 6a57 5fbf a9b6 57bf
000002d0: 2d4c 09be 5d99 20bf e7de 83bd 9bcb 1abe
000002e0: 3163 fe3d 2a37 48bf 2683 59be 4882 97be
000002f0: 36d5 6abf 8780 7dbf 9990 00c0 2d7a 39be
00000300: 2266 913d a92e aebf ad63 2fbe 9d11 cbbe
00000310: e714 6ebf 388c 36bf 92f9 19bf 71a8 edbd
00000320: 3118 b0bd 5889 0fbf accf 213e d863 733e
00000330: 8fc6 3e3c a1f1 793d 5534 413e f36b 06be
00000340: bfcf 70bf 7d42 533e fff7 9ebf 9ad2 7dbe
00000350: 2646 2abf d7c1 0dbf 4f1c 06bf 6e9b 8abe
00000360: 255d 943d fde2 de3d a247 63bf c084 62be
00000370: 7363 67bd 71af 58be e9db 43bf fc53 243e
00000380: 355c 63be 9c8a 2abd d336 1b3d ada4 43be
00000390: 6c63 8ebe c1c7 a63e 252c cdbd 964b 81bd
000003a0: 78d3 f8bd ab0f 19bf 029d f0be d79d 3fbf
000003b0: 1b87 ffbf 7cf1 3d3f 7c29 ffbf 840b a5bd
000003c0: c4f1 e1bf 824b 43c0 728e 263d d9d9 723e
000003d0: ae18 31bd f2e7 c4be 99be 82be e4d4 1bbf
000003e0: 2ea9 c5bd 03bc b83d 79db 2bbf ceca 07bf
000003f0: 282a 93bd f6fa 81bf f1b1 023f 1efe 31bf
-1.1557677 -0.25165814 -0.35187086 -0.009906137 -0.5423258 -0.079063304 -0.80011976 -1.1071892
0.17565943 1.017939 0.059888817 -0.6267518 -0.1923789 -0.55248207 -1.3127742 0.1339563
0.06650578 -0.32912633 0.1863712 -0.6520687 -1.4231803 0.24439242 -0.65053725 -0.19515498
0.21922913 -0.76566297 -0.62621003 -1.4529648 -0.012860831 -0.42387193 0.44774207 0.14153212
0.008196117 0.19798282 -0.8499255 0.17621535 -0.87310123 0.35719433 0.15313734 0.3603504
-0.44601098 -2.2868319 0.6223364 -0.44006896 -0.49111944 0.54374117 -0.20298505 -0.22077024
0.1848882 -0.86626434 -0.35174647 -0.62275285 -0.78848565 -1.1459672 -0.918468 -0.15924725
-0.82377833 -0.044491187 -0.3039798 -0.77878946 -1.0891001 -0.46003434 0.07759446 -0.88367474
-0.12354589 -0.32371014 -0.20795321 -0.09531282 -0.114333436 -0.040393993 -0.30303627 -0.20055975
-0.12665248 0.06532477 0.045856606 -0.21406682 0.037255097 -0.25623244 -0.23202628 -0.19668594
-0.07692243 -0.03241815 -0.22954187 -0.6425251 -0.07326078 -0.5504277 -0.03845714 -0.17409264
-0.2049703 -0.060211852 -0.026252354 -0.36512476 -0.18982919 0.2252131 0.16204424 -0.05904435
0.18828101 -0.40653324 0.031353656 -0.048999798 -0.20455001 -0.24284062 -0.031914886 -0.10784076
-0.049715016 -0.27807537 0.18319824 -0.49461898 0.02918743 -0.41217178 -0.2827325 -0.2720893
-0.070274435 0.08995621 -0.013986196 -0.25505182 -0.45471323 0.029975027 -0.05490492 -0.33227104
-0.15656169 0.012937705 -0.33486557 -0.17199755 0.009577656 0.17612717 -0.26231748 0.004991751
-0.4566836 -1.1232418 -0.5007157 -1.0810063 -0.22581396 -0.09333344 -0.33477375 -0.24122521
-0.7053573 -0.5608547 -0.21162903 1.1781663 -0.19162348 -0.22848079 -1.0174816 -0.09622854
-0.009633911 -0.1306127 -0.45346943 -0.46411714 0.1620292 0.065109216 -1.1940105 -0.4863472
-0.109104745 -0.114963114 -0.13827892 0.09178749 -0.22995405 -0.07771307 -0.3364716 -0.123949155
-0.025535503 -0.0025260854 -0.83402133 -0.26068103 -0.75576603 -1.3123072 0.2710741 -0.8058093
-0.2516367 0.4404098 -0.117063604 -0.112471126 -0.75657684 -0.66155267 -0.29001167 -0.3200426
-0.32260653 -1.0398589 -0.8724276 -0.8426309 -0.13407965 -0.62734014 -0.064389996 -0.15116732
0.12421263 -0.78209174 -0.21241435 -0.29591584 -0.91731584 -0.9902424 -2.0088255 -0.18113013
0.070995584 -1.360799 -0.17127867 -0.39661875 -0.93000644 -0.71307707 -0.6014644 -0.11604393
-0.08598364 -0.56068945 0.15801877 0.23768556 0.01164402 0.06102145 0.1886762 -0.13127117
-0.94066995 0.20630832 -1.2419432 -0.2478737 -0.6651329 -0.553739 -0.52386945 -0.27071708
0.072443284 0.10883138 -0.8878118 -0.22120953 -0.056491327 -0.21160676 -0.7650743 0.16047662
-0.22203143 -0.041636094 0.03789408 -0.19105788 -0.27810228 0.32574275 -0.100181855 -0.06313245
-0.121497095 -0.5978953 -0.46994787 -0.7485022 -1.9963106 0.741966 -1.9934535 -0.08058837
-1.7651906 -3.0514836 0.04066319 0.23715915 -0.043236427 -0.3845821 -0.2553604 -0.6087172
-0.09651409 0.090202354 -0.67131764 -0.5304383 -0.07185775 -1.0154712 0.5105277 -0.6952838

critic.2.bias f4 [64]
00000000: 3e80 293e 2f7d 29bf e14a 68bd 837e 573f
00000010: 59f5 88bf 0266 96bd 11f2 223f 77dc 323e
00000020: 4a5b c0bc ca8d ea3d a0d2 4fbd 0d2b 5dbe
00000030: 24cb 2abe 0d03 fe3d 4e7f e2bd 9747 3ebe
00000040: def9 6abf e95e cfbe 8b78 4cbe ae41 37bf
00000050: 03f8 1bbd ae37 053f c2c8 ed3e f30a b1be
00000060: 0aaa 0fbf 78f8 f83d f663 02be 0d87 edbd
00000070: 3849 353d 7612 2f3e ef33 a33e 8780 cfbf
00000080: badc 243f 00d6 0ebe 90ad 01bf 7f7a 8ebe
00000090: 61fa 9b3e 8da3 893f 94d9 0a3f 2732 dcbe
000000a0: f503 19be f2f5 b83d 6a9d bb3e 4018 803d
000000b0: cc6d febc 6c8a a8be 0086 19bd 9c2f 013f
000000c0: 4835 2abf 969b 01bf 09fd 5cbf 1b66 7b3d
000000d0: b6a9 7cbb 7b65 8cbe f619 ba3e 57c6 11bf
000000e0: 9804 903f fa35 b93e e1b5 f9bd d41a 283f
000000f0: 7d2d 00c0 15da 4f3f 243b d23e cef4 80be
0.16552827 -0.6620664 -0.056712035 0.84177417 -1.0699874 -0.07343675 0.63650614 0.17466913
-0.02348103 0.11452825 -0.050737977 -0.21598454 -0.16679054 0.12402926 -0.11059438 -0.18581997
-0.9178752 -0.40502098 -0.19967858 -0.71584594 -0.03807832 0.52038085 0.4644223 -0.34578666
-0.56118834 0.12156767 -0.12733445 -0.115980245 0.04425928 0.17096886 0.3187556 -1.6211098
0.643993 -0.13948822 -0.5065546 -0.27827832 0.3046446 1.0753037 0.5423825 -0.43007013
-0.14942916 0.09031285 0.36643535 0.06254625 -0.031058215 -0.32918108 -0.037481308 0.5046327
-0.6648755 -0.5062803 -0.863236 0.061376672 -0.0038553304 -0.27421173 0.36347932 -0.5694327
1.1251402 0.36173993 -0.12192894 0.65665936 -2.0027764 0.8119214 0.41060746 -0.2518677

critic.4.weight f4 [1, 64]
00000000: 7eba db3f 4a17 02bd a444 c03e 3546 0a3f
00000010: 3a2c f3bc e1aa 5ebd 662d 52bf ef84 2bbf
00000020: e821 fc3d bd00 7f3f c7a3 bdbe 34e5 2b3c
00000030: 0123 013d bd60 ce3d a150 dc3d 18e6 8abd
00000040: 9e67 e23b 75d0 553c 8aee 423e 49e5 103e
00000050: eb66 e3bd f75c 6abd 4981 b9be bd11 993e
00000060: 39a2 ad3b 91b1 89be cc1a b33f e13b 41bd
00000070: d122 e5bc a734 f2bc 927c d03e a0e2 10bd
00000080: b8f4 bf3e e750 9d3f f478 45be acbc 93bb
00000090: e997 0c3d 0731 ce3e 47ad f03e b56a 1e40
000000a0: 5e3f 5640 fb69 54bc 20e0 f23e ad35 3f3f
000000b0: 01e9 333f 0352 b9be c746 68be f8b4 4f3f
000000c0: 10fb 45be e858 953e d462 ccbf 390a c5bf
000000d0: bf1d 1cbe 444b 813e 7b46 a8be 5692 e43f
000000e0: cf03 4c3e df7a e9bd 0536 cd3f 2216 bf3f
000000f0: a0ce c2bc a2ac 1ebe 4311 463f 9c2c 78bd
1.7166288 -0.03176049 0.3755237 0.5401338 -0.029684175 -0.05436218 -0.8210052 -0.66999716
0.123111546 0.996105 -0.37039015 0.010491658 0.031527523 0.10077045 0.10757566 -0.06782168
0.006909325 0.013050188 0.19036308 0.14149965 -0.111036144 -0.057217564 -0.3623145 0.29896346
0.0052988795 -0.26893285 1.3992553 -0.047176246 -0.027970703 -0.029566122 0.4072004 -0.035372376
0.37491393 1.2290314 -0.19284421 -0.0045085754 0.03432456 0.4027178 0.470072 2.4752629
3.3476176 -0.012964721 0.4743662 0.7469128 0.7027741 -0.36195382 -0.2268325 0.8113551
-0.19334054 0.29169393 -1.596766 -1.5393745 -0.15245722 0.25252736 -0.32866272 1.7857158
0.19923328 -0.11400389 1.603211 1.4928629 -0.023780167 -0.15495542 0.7737009 -0.060589418
