model/Pendulum-v1/3level/HAC_Pendulum-v1_solved_level_2_actor.pth (torch, 20875 bytes, 6 tensors)

actor.0.weight f4 [64, 4]
00000000: 17ac bf3e 1197 a1bd 3438 e7be 227b 0d3f
00000010: 7973 46bd 7ed4 ddbd 6e21 aabe 75c1 e338
00000020: 9837 8e3e 3a82 573e 0f1a 5a3f d096 aabe
00000030: 39ac 0a3e 744b 173b fe71 223f e05c a8bd
00000040: af97 e63e 5e60 443d d8c5 c53e ae99 bf3e
00000050: 745c be3d 7418 e53b 6c19 c4bf eec7 e23e
00000060: c9b8 9bbe 33b4 163e 9045 89be 512f 08bf
00000070: b7af bdbe 13a2 353e 4a29 b83e 2aa1 8e3f
00000080: aaa3 fa3c 1122 afbc b678 8e3e ce9e 59be
00000090: e687 fabd acd0 0abc 0632 f7bf c5c2 373f
000000a0: e543 49bd a09e 16bd fa40 833f f710 95be
000000b0: 28bd fa3e 5d4c 003d 56ee bfbd 7d6d 0ebe
000000c0: ba6f ebbe 2831 723e 4d8e 48bf fb78 75bf
000000d0: 41a6 053d e33c b03c b16e 15bf 05d1 6fbe
000000e0: 2dbb 80be 5e8a 223e 06b3 f6bf b280 813e
000000f0: 7834 b8be 9c5d 303e e70d d73e 88ff 25bf
00000100: 3ede 223d 4371 67bd 834f edbc 8ef8 3b3f
00000110: 9ae2 fe3d f479 10bd f728 4d3f b013 a53e
00000120: 5e4c 863c f355 89bb 14b6 56bf cb17 b6bc
00000130: f987 443e 405f c7bd f41e 103f baac 813f
00000140: 1686 c8bd 7328 a4bc 3978 5a3e 2061 88bc
00000150: 3462 c1bd 7119 55bd a8db debf 7418 e3be
00000160: b4d7 46be 7688 213d ea21 3bbf a29a 1f3e
00000170: 72be aebc 9933 243d f0ad cfbf 95d3 5fbd
00000180: 0fbb 66be 3d92 1e3e 905c 6dbf b914 56be
00000190: 80f4 803d 97e3 e0bc c11f 4f3f 3d53 b33e
000001a0: cef6 9e3d 0daf 45bd fd1b 593f 4562 ac3e
000001b0: e643 d23c d419 82be cd4e ab3d b21b ddbd
000001c0: 5cd1 59bd 4e11 d83c 8cbd 0ec0 418c 0e3f
000001d0: 473b f03e 7b42 40be 30b3 59be 69f8 3d3f
000001e0: 192d 0cbf 3e12 2b3e ea5e ef3b 3995 0bbf
000001f0: a787 a1be 57f3 3b3d 107d 8f3f e9ba 103e
00000200: 5fe2 103e 8502 13be 78b4 783f 4944 913d
00000210: 5987 ebbe 4462 103e fc20 28bf cad2 573b
00000220: 7ac2 ebbe 53fb 35bd dcb9 05be 60b3 a43d
00000230: 64da 983d 34b4 28bd e53f a73f b736 d23d
00000240: 3665 43bc 087d d03c 0f58 6bbf d175 b33c
00000250: 808d b4bc df72 ce3c 0cb7 a8bf 3d5a 35bf
00000260: b8ad 213f 42ea 42bd 3c85 533e f767 133f
00000270: 8e2e 55bc 375c 413a d6ec 09bd 965f a0be
00000280: 3730 743e fb12 18be 99e4 f23e 0a67 993d
00000290: 5f21 173f 4a73 46be 53bd 29bf 36f6 e53d
000002a0: 4d83 85be 660b 39bc b1bb 883f 7265 89bc
000002b0: 6da0 283f b617 2abe a9a1 1abf efa5 303f
000002c0: 7ae0 63be e1ff dd3d 4f61 18bf 8a8c ffbf
000002d0: 36fc db3d a4b2 c13b 9231 b13e 6f81 d5be
000002e0: c468 bfba 7189 4b3d f369 abbe 9b87 83bd
000002f0: a6f0 013e 3372 f3bc f41f 143f dc52 c0be
00000300: 810b 933c 56fd 993c 1903 c93e 4c8a 8d3f
00000310: c591 afbe b283 ee3e 96d5 1b3e d3f0 0440
00000320: 1074 4abc cd88 a1bd 04cb 83be a3f3 283f
00000330: 1d70 bdbe 0873 51bd a91f aebe 2163 fa3d
00000340: ff5e ccbc bfe4 7abd 713b 05be 374b c13e
00000350: 92db da3e 75cb f63d 5c59 e6be f091 4c3f
00000360: 9680 b9bd 78f9 60be 7b20 2bbf fbf9 f63e
00000370: 5dc0 12bd 5d77 213c f01e 803d fd27 033f
00000380: 9e0b 6f3d b9fa 513e be33 a73f ea87 7c3e
00000390: b2b7 953d f395 fd3c 7356 8d3f f6ba 6fbb
000003a0: 058b e4be 681b 0f3e 0e62 973f 80b3 463f
000003b0: 6048 10bd 2ff9 ad3c 8817 25c0 08ab 51be
000003c0: eaf0 ccbe f05c 21bd 5297 cc3e 5085 383f
000003d0: 8324 653d 9042 cf3c 1327 adbf ba10 debd
000003e0: 48aa 113e 14cc 31bd ba3b 2b3d 5b8f 963e
000003f0: 9227 acbe 9f53 4a3d e9e2 64be f1a2 b03e
0.37435982 -0.07890142 -0.45160067 0.5526601 -0.048449967 -0.10831545 -0.3322863 0.00010860238
0.2777679 0.21045771 0.8519601 -0.33318186 0.1354226 0.0023085745 0.6345519 -0.082208395
0.450376 0.047943465 0.38627505 0.37421936 0.09294978 0.0069914404 -1.5320258 0.4429316
-0.30414417 0.14717178 -0.26810884 -0.531972 -0.37048122 0.17737608 0.35969 1.1142933
0.03059562 -0.021378549 0.2782647 -0.21251985 -0.12232952 -0.008472603 -1.9312141 0.7178157
-0.049137015 -0.03677237 1.0254204 -0.29114506 0.4897244 0.031322826 -0.09371631 -0.13908954
-0.45983678 0.23651564 -0.78342134 -0.95887727 0.032629255 0.021513408 -0.58372027 -0.23419578
-0.25142804 0.15873095 -1.9273384 0.252935 -0.3597753 0.17223209 0.42002794 -0.64843035
0.039762728 -0.0565045 -0.028968578 0.7342614 0.124455646 -0.035272554 0.8014063 0.32241583
0.016393837 -0.004191154 -0.8387158 -0.022228142 0.19192494 -0.09734964 0.5629723 1.0130837
-0.097912 -0.020038819 0.21334924 -0.016647875 -0.09442559 -0.052026216 -1.7410784 -0.44354594
-0.19418222 0.03943678 -0.73098624 0.15586331 -0.021331046 0.04008827 -1.6224957 -0.05464514
-0.22532295 0.15485473 -0.92719364 -0.20906343 0.06296635 -0.027452273 0.8090783 0.35024443
0.07761918 -0.048262645 0.8480833 0.33668724 0.025667142 -0.2541033 0.083646394 -0.10796298
-0.053178176 0.026375439 -2.230319 0.5568276 0.46920225 -0.1877536 -0.21259761 0.7420717
-0.54756314 0.16706178 0.007305016 -0.5452457 -0.31548807 0.045886364 1.1210041 0.141338
0.14148854 -0.1435643 0.97150373 0.070931025 -0.460017 0.14099985 -0.6567533 0.0032932037
-0.4604681 -0.044429135 -0.13059181 0.080420256 0.0746353 -0.04118748 1.3066374 0.10264342
-0.011925986 0.025450245 -0.9193124 0.021906765 -0.022040129 0.02520126 -1.3180861 -0.7084082
0.631557 -0.047586687 0.20656294 0.5758051 -0.013011588 0.0007376107 -0.03367313 -0.31322926
0.23846518 -0.1485099 0.4744003 0.07490356 0.59035295 -0.19379917 -0.6630451 0.11228602
-0.26076737 -0.0112942215 1.0682279 -0.016772006 0.6586979 -0.16610608 -0.60402924 0.69003195
-0.222536 0.10839821 -0.5952348 -1.9964764 0.10741465 0.005911188 0.34608132 -0.41700312
-0.0014603366 0.04969162 -0.3347927 -0.06422349 0.12689456 -0.02971754 0.57861257 -0.37563217
0.017949821 0.018797558 0.39260176 1.105783 -0.342909 0.4658485 0.15218195 2.0771987
-0.012356773 -0.07887421 -0.25740826 0.6599676 -0.36999598 -0.051135093 -0.3400853 0.122259386
-0.024947641 -0.061253306 -0.13010956 0.37752697 0.42745644 0.12050525 -0.4499005 0.7991018
-0.09057729 -0.21970165 -0.66846436 0.48237595 -0.035827983 0.009855119 0.06255901 0.5123289
0.05836069 0.205058 1.3062665 0.24661222 0.07310428 0.03095529 1.1042007 -0.0036579943
-0.44637313 0.13975298 1.1826799 0.77617645 -0.035225272 0.021236984 -2.5795612 -0.204754
-0.40027553 -0.039395273 0.39959198 0.7207842 0.055943023 0.025300294 -1.352755 -0.10843034
0.14225113 -0.043407515 0.041805007 0.29406247 -0.3362394 0.049396154 -0.22352184 0.34499314

actor.0.bias f4 [64]
00000000: 01ef 0f3f 6a34 c03e baf6 73bf 681a b43e
00000010: b7b8 87be 0771 933f 5f30 da3e ced4 023f
00000020: 3d22 e6bf 4d75 6a3d bc0b 353e 5a95 473e
00000030: 5212 433f db3b dd3e c058 d73e b7e9 fd3e
00000040: a4a9 17bf 5acf 1d3f 77bd d5bf a08f 96be
00000050: 9e9c 903f 773d a03e 7af6 9dbf c9f5 143f
00000060: 212b e33e c4f5 1c3c fdf0 ee3d 5b4b 68bf
00000070: 97fa f2bd ff64 463e c7e9 a43d 9f38 c5be
00000080: eca9 2ebf 0c24 903d 7f92 b3bf d7a4 0ebe
00000090: a245 fabf 90d6 cabe 72fa 60be 0975 c6bf
000000a0: a174 44be e5fd a43e 482c 48bf e906 b03c
000000b0: 4402 a23e 0e74 c5bf 2f47 2abf 793a 493d
000000c0: 8f68 4c3d 0897 1a3d 8b1b 52bf 89d1 a4bf
000000d0: b3a2 efbf ea29 d2bf 4c83 11bf 1ed9 33c0
000000e0: 46ee 0dbf e63f afbe d230 6d3d 32a7 92be
000000f0: 44c4 9cbf d1ff 19c0 60f0 c43c c472 1abf
0.56224066 0.3753999 -0.9529835 0.35176396 -0.26508114 1.1518868 0.4261503 0.51105964
-1.7979199 0.057240773 0.17680258 0.19490567 0.7619983 0.4320973 0.42059898 0.49592373
-0.59243226 0.6164452 -1.6698445 -0.29406452 1.1297796 0.31296894 -1.2340844 0.5818754
0.44368842 0.0095800795 0.116670586 -0.90739983 -0.118642025 0.19374464 0.08052402 -0.3851976
-0.6822803 0.070381254 -1.4029082 -0.13930069 -1.95525 -0.39616823 -0.21970537 -1.5504466
-0.19185115 0.32224956 -0.7819257 0.02148767 0.31642354 -1.5426042 -0.6651487 0.04912803
0.049904402 0.03774169 -0.8207328 -1.2876445 -1.8721527 -1.6419041 -0.5684097 -2.8101268
-0.554417 -0.34228438 0.057907887 -0.28643185 -1.2247396 -2.4062388 0.024040401 -0.6033137

actor.2.weight f4 [64, 64]
00000000: 1167 bbbe adb6 803d 54c6 ed3d ed83 87be
00000010: 7c80 c8bd 94f5 f43c c4b8 6fbe 5a5e 8bbe
00000020: 472f 63bd 0843 ac3b a093 1bbe 2cd3 eabe
00000030: 8447 a73d 78e0 cbbd 2318 01ba 8088 e5be
00000040: 36ab 83bd 99a6 2dbe c3f3 053a 6c63 813d
00000050: cf45 d0be c146 13bd cac8 3cbe f7b2 2cbe
00000060: 7187 d1bd 41e8 9ebe 1512 a0be 2ece 55be
00000070: d24d 5b3d 043c cfbe 59af e0bd 3c74 a2be
00000080: fac1 243e 11fc 96be 0e93 b3be 1d85 29be
00000090: cd1d 99bd 5635 3e3c 3e80 ddbe 07fa 5fbe
000000a0: bdd9 93be 097c 2dbe 554d 133e 1575 de3b
000000b0: 2eef 7cbe 6039 eb3d 26e6 02bd 7c38 17be
000000c0: 3bcc 1fbe 605f 60bc 90f8 723e a7eb 8b3c
000000d0: 33eb 22bd 04bf aa3b 1db3 c63d b082 893c
000000e0: b68d 7abe f614 883e 6259 acbe ee95 eb3b
000000f0: c69c e8bd 103c 1abc a2cf a5bd cc77 97bd
00000100: c882 91bd ed04 8ebc 288f 13be 6aff 4dbd
00000110: 3c27 1fbe 21fd 91bd 35fa 31bd 8f98 80bb
00000120: a306 1abd afd9 f2bd 7475 ccbd a401 14be
00000130: ee16 8dbd f4e5 bb3c d69a 25bb 02fd f6bd
00000140: a550 d83a 3d17 8b3d bbd6 76bd 3b7b 823d
00000150: 28ad 68bd 3516 dbbd 3675 edbd effd a4bd
00000160: 4196 3dbd 16bd 3fbd 2057 843d ccde fcbd
00000170: fc6f f4bd e00d 59bd 4360 60bc e730 02be
00000180: 4c26 dd3b 1880 3fbd 41d2 5f3d 74f3 33bd
00000190: 82a9 12be 2ddc 00be 9698 893d 7fff a83c
000001a0: 3d38 04be d914 a4bd 3c43 8d3c 5ac7 edbd
000001b0: bbac b3bc 85c5 41bc 3f27 ef3c c391 9c3c
000001c0: c8f8 963d 2fc6 903d 60de afbd b2e9 b53d
000001d0: 1efa 3bbd 9c30 11be 3110 813d 466d 1dbd
000001e0: 8e06 fcbd f42b ea3d ba03 cdbd 0473 32bd
000001f0: 7219 c5bc c045 e83b d722 163d f937 f1bd
00000200: 75bc 6dbd 7970 f7bd 8045 9dbe a45f 0dbe
00000210: ab0f 9fbc 9223 0cbe 8c7c b0bd 7483 f93c
00000220: d8ea 683d 87d4 a13b 6f06 96bd 3949 c3bd
00000230: 773e 5fbe 1fdb 89be 29e1 d8bd ba56 31be
00000240: 6e6f babb b0b6 89be a185 143c e8fc 0abd
00000250: e51e 8cbd 69af 1bbe 6fe6 37be 2118 09bd
00000260: 7885 ecbb 8228 7abe c0fb 443d 54da bebd
00000270: a0a5 b3bd eac1 3dbe 77a8 113d 625e 80bd
00000280: 9b65 e5bb a8e2 8dbb 2f1d 24bd d88d 0cbe
00000290: 6e95 faba 4480 edbd 949b 3ebd d4f1 4abe
000002a0: 21e1 aabb ad4c e0bd 1442 50be 57db 5fbe
000002b0: d983 f9bd 0581 b1bb a9f0 efbc d7ac 99bd
000002c0: 33a8 0e3d 85c4 d33d 5ed8 f13b 9425 5dbe
000002d0: 9b6f 4abe f83b 603b 30d7 74be d345 fe3c
000002e0: 6bf1 2dbb bc0a d3bc c482 323d d89f f5bd
000002f0: 7cf5 4bbd 72b8 fdbc ca33 6ebd ec0c 06be
00000300: 8f47 14be 66ad 86be dee2 0d3e 8b1a 813e
00000310: 753b 1fbf f834 80bf 6666 15bc 2fad a6bc
00000320: 855a 4e3f 08a7 45bf 7c88 f63d dc45 cfbd
00000330: 7305 2ebe 9432 19bf 2ce7 db3e bfa0 253e
00000340: 1dbc 0abf 9abb 23bc 60a3 c3be ab5d 2a3e
00000350: f9f8 6dbe 4666 43be 6209 96bd e57a 9d3d
00000360: ab75 b2bc d67a 933e decd 443e 13c6 bbbd
00000370: 7c26 ba3e 645e d9be 78ca 933e 631b 463e
00000380: cb4d 903d 462a cb3d 79d3 5dbe cec4 363e
00000390: 961f ce3d 6517 10bf 9d9f 2f3f 9532 adbc
000003a0: aae2 fe3d e73e a9bd b543 3dbb c144 1abe
000003b0: f26b 08be b444 c1ba 67c3 b2bc 6bcf 5f3d
000003c0: 7111 ea3d ca90 1abe 0374 0fbe 4742 31be
000003d0: dd13 e63e 65f8 113f c278 e7bd 3e99 e03f
000003e0: 7339 143e 9701 e23e 2ad6 4fbe 5de9 10be
000003f0: 1e83 533e 66d3 b5be 07e0 063e f8f0 85be
-0.3660207 0.06284843 0.11610094 -0.2646784 -0.097901314 0.029902257 -0.23410326 -0.27220422
-0.05546501 0.005257014 -0.15193033 -0.45864236 0.081679374 -0.099549234 -0.0004924556 -0.44830704
-0.0642914 -0.16958083 0.00051098707 0.06317791 -0.4067826 -0.035956148 -0.1843597 -0.16865145
-0.102309115 -0.3103657 -0.31263795 -0.20879433 0.053541012 -0.40475476 -0.10970945 -0.31729305
0.16089621 -0.29489186 -0.3507313 -0.16554685 -0.07476387 0.011609396 -0.43261904 -0.21872722
-0.2887706 -0.16941847 0.14384969 0.0067888596 -0.24700615 0.11485553 -0.031957768 -0.14767641
-0.15605251 -0.013694614 0.23727632 0.017080141 -0.039775085 0.005210759 0.09702132 0.01678595
-0.24468121 0.26578492 -0.33661944 0.007189504 -0.11358027 -0.009413734 -0.080962434 -0.07395896
-0.07105023 -0.017336333 -0.14410079 -0.05029241 -0.1554231 -0.07128359 -0.043451507 -0.0039244364
-0.037603986 -0.11857926 -0.0998334 -0.14453751 -0.06889139 0.022936799 -0.0025269291 -0.12059976
0.0016503526 0.06791542 -0.060263377 0.063711606 -0.05680576 -0.10697595 -0.11594622 -0.080562465
-0.04628587 -0.046811186 0.0646193 -0.12347183 -0.11935422 -0.052991748 -0.013694826 -0.12713967
0.00674895 -0.04675302 0.054643873 -0.043933347 -0.14322475 -0.1258399 0.067185566 0.020629643
-0.12912078 -0.08011789 0.017243974 -0.11610289 -0.02193295 -0.0118268775 0.029193519 0.019112473
0.0737167 0.070690505 -0.085873365 0.088824645 -0.045892827 -0.141787 0.063019164 -0.03843429
-0.12305938 0.11434165 -0.100104764 -0.04356672 -0.024059985 0.007088393 0.03665432 -0.11778254
-0.058041055 -0.12081999 -0.30717087 -0.13806015 -0.01941665 -0.13685444 -0.086175054 0.03045819
0.05686459 0.0049386653 -0.07325446 -0.095354505 -0.21801172 -0.2692499 -0.10589821 -0.1731824
-0.005689553 -0.26897192 0.009065063 -0.033932596 -0.0684183 -0.15203632 -0.17958997 -0.033470277
-0.007218059 -0.24429515 0.04809165 -0.093189865 -0.08771825 -0.18531004 0.03556105 -0.06268002
-0.0070006377 -0.004329998 -0.040066894 -0.13725984 -0.001911802 -0.1159673 -0.04653509 -0.19818813
-0.0052148257 -0.10952125 -0.20337707 -0.21861015 -0.12183351 -0.0054169917 -0.02928956 -0.0750367
0.034828376 0.103402175 0.0073805293 -0.21596366 -0.19769137 0.0034215432 -0.23910213 0.031039154
-0.0026541601 -0.025761954 0.04358174 -0.119933784 -0.04979466 -0.03097174 -0.05815486 -0.13090867
-0.14480422 -0.26304168 0.13856074 0.25215563 -0.622001 -1.0016165 -0.009118652 -0.020346252
0.8060687 -0.77207994 0.12037751 -0.101207465 -0.16994266 -0.598428 0.42949808 0.16174601
-0.5419329 -0.009993458 -0.38210583 0.16637294 -0.23239507 -0.19081983 -0.073260084 0.07689456
-0.021784624 0.28804654 0.19219157 -0.09168639 0.36357486 -0.42454827 0.2886541 0.19346385
0.07046088 0.099201724 -0.21662702 0.17848513 0.10064618 -0.562857 0.68602926 -0.021142283
0.124455765 -0.08263951 -0.0028879468 -0.1506529 -0.13322428 -0.0014745207 -0.02182169 0.05464117
0.11429108 -0.15094295 -0.14009099 -0.17310439 0.4493703 0.57019645 -0.113023296 1.7546766
0.1447504 0.44141838 -0.20296541 -0.14151521 0.20655486 -0.35512847 0.13171397 -0.26160407

actor.2.bias f4 [64]
00000000: fc44 edbe d914 1cbe 84fe 08be ff0c 083d
00000010: 8337 383e 392c 1bbe 786f 6cbd 8cde 15be
00000020: b379 7ebd 7ef8 8abc 1827 c7bd 9be0 5cbd
00000030: c2d4 babd a215 cebe 8f58 cfbe fe61 07be
00000040: e674 7c3e 35eb c2be 58b4 b1bd b8d3 e1bc
00000050: c789 913e 7c6e 403e 012b d7be cd03 06bf
00000060: 9524 82be da72 4ebc 7976 1dbf 3c6e 7dbe
00000070: 1753 d9bf 9196 87bd 00bb b0ba 8407 6ebe
00000080: 1c84 56bd 8406 46be b3ce 1bbb 3a7e 09be
00000090: edc1 88bd 2d48 94be 8040 01bf 5134 f9bd
000000a0: fe09 383c 7e7d fcbd 0002 e43c 5b4c 8abf
000000b0: ee7c cdbe 1836 11bd 9207 4dbd 62e9 b83b
000000c0: 6e33 253c c379 77be b425 c73d e86a 9cbd
000000d0: 9f67 86bf 5956 b9be 1d76 033d 4ab6 d73e
000000e0: e484 73bc fec6 b7bd 65fa 21bc 86d5 cbbe
000000f0: 9207 48bf 5587 d63d a038 8bbe 4dfa c9bc
-0.46341693 -0.15242328 -0.1337834 0.03321552 0.17989926 -0.15153588 -0.057723492 -0.14635676
-0.06212778 -0.016964193 -0.097242534 -0.053925138 -0.091226116 -0.4025088 -0.40497252 -0.13220975
0.24653968 -0.38070074 -0.08676976 -0.027566776 0.28425428 0.18792146 -0.42024997 -0.5234955
-0.25418535 -0.012600625 -0.615089 -0.24749082 -1.6978482 -0.06620515 -0.0013483465 -0.23245054
-0.052372083 -0.19338423 -0.0023774325 -0.13427058 -0.066776134 -0.28961316 -0.50489044 -0.12168182
0.011232851 -0.12328623 0.027832985 -1.0804552 -0.40134376 -0.03545198 -0.050056048 0.005643056
0.010083063 -0.24167542 0.09723988 -0.07637578 -1.0500373 -0.3619869 0.032095063 0.42131263
-0.014863227 -0.089735016 -0.009886359 -0.39811343 -0.7813655 0.10475031 -0.2719164 -0.024655486

actor.4.weight f4 [2, 64]
00000000: 284e 1c3d adc7 97bc 6c39 0cbd a3f3 b43d
00000010: c18a 48bd ef17 a93c 6f7b 6cbe 203a 90bc
00000020: e518 0f3e c725 f7bb f885 70be 0064 9bbd
00000030: c3e3 3abc 6f85 75bc 0760 243d 76b0 8c3c
00000040: 2e4d 423d 9b4e 4e3d 705d 1cbf d0fc 923e
00000050: 9b98 b7bf 1f52 15be e057 cb3c 5190 b33b
00000060: c3f4 54bc c971 23bc a7e1 38be 8fc6 693d
00000070: 39d3 c2ba e8f5 7e3e ad3d 013d 32d0 a1bd
00000080: 1afd eb3c cdcc ff3e ed93 21bd 0419 1a3e
00000090: d4a3 a73c e008 1d3a 9176 4c3e d757 6bc0
000000a0: fd09 0c3c fe6d 2cbe 2888 21be 7b62 6dbe
000000b0: 419b 9d3e cec0 813d a10e 4ebd 1648 1f3e
000000c0: c815 243c fe69 c53f 82e1 16bf 413f dd3f
000000d0: 9236 c53e c0e7 ed3e f3dc 17be 9a59 99bf
000000e0: 93c7 94bd 0480 29ba b9ab 2fbd 0b6c 343f
000000f0: 7753 fa3d 5e16 133d 168f f33e 5038 a7bf
00000100: c569 e3be 222a c5bc 944b bb3d 426c a33c
00000110: a7af ba3c d2da 913d 0f95 9fbc d7d4 b83d
00000120: 0ce3 f2bd 9e5d 0d3f c504 16be 915c 853e
00000130: 50a2 8dbd 739c 10bd 77e3 083f 1ea9 3b3d
00000140: 2314 acbd e5a8 45bd 2867 ed3e 1d04 3ebe
00000150: ef4c 0ac1 4e62 40bd a0b6 9bbe 5635 14bf
00000160: e1a3 213e 8f90 03bd 0e42 9d3e 244c 61be
00000170: ed5a 3f3f eee0 21bd f3e6 973d c4f0 ba3e
00000180: 2449 05bd 2399 1d3f 593a 27be 2194 243e
00000190: 7d3b 603e 35b8 ebbe 923c 423e 6c52 89c0
000001a0: 0a4d d13d 80e4 183b 8f11 ed3c 782a 82bb
000001b0: 897e 6d3e 99a5 9ebd 90e9 a93d 66aa 1bbd
000001c0: c65f d03f 5194 af3e efe5 22bf e5ba 0640
000001d0: 805f fe3a 26f8 0c3e b4e6 4dba cd46 e4bf
000001e0: 5978 a03d 9a54 6cbd de9a be3d fcad 38be
000001f0: b026 11c0 03d4 76bc 6022 3640 0eb4 5040
0.038160473 -0.01852783 -0.03423445 0.088355325 -0.04896045 0.020641295 -0.23093961 -0.017605841
0.1397434 -0.007542345 -0.23488605 -0.07587433 -0.011406842 -0.014985426 0.04013064 0.017173987
0.047436886 0.050367933 -0.61080074 0.28708506 -1.4343446 -0.14582108 0.024822176 0.0054798503
-0.012997809 -0.009975859 -0.1805483 0.057074126 -0.0014863975 0.24898493 0.03155296 -0.07901038
0.028807212 0.49960938 -0.039447714 0.15048605 0.020463862 0.0005990397 0.19967104 -3.6772363
0.008547303 -0.16838834 -0.15774596 -0.23182099 0.30782512 0.06335603 -0.05030692 0.15554842
0.010014959 1.5422971 -0.5893785 1.7284929 0.38518196 0.46465874 -0.14830379 -1.1980469
-0.07264628 -0.0006465914 -0.042888377 0.7047736 0.12222951 0.035910003 0.47570103 -1.306406
-0.44416633 -0.024067942 0.09145275 0.019949082 0.022788836 0.07121815 -0.019480256 0.09024971
-0.11859712 0.55220973 -0.14650257 0.26047185 -0.06915724 -0.03530545 0.53472084 0.04581558
-0.08402278 -0.048256774 0.46367764 -0.18556257 -8.643783 -0.04696875 -0.3041277 -0.57893884
0.15785171 -0.032120284 0.30714458 -0.22001702 0.74748117 -0.03952115 0.07417097 0.36511815
-0.032540455 0.61561793 -0.16330852 0.16072132 0.21897693 -0.46038976 0.18968418 -4.2913113
0.10219772 0.0023329556 0.028939037 -0.003972348 0.231928 -0.07746429 0.08296502 -0.0380043
1.6279228 0.34292844 -0.636321 2.1051571 0.0019407123 0.13766536 -0.0007854507 -1.7834107
0.078354545 -0.05769787 0.09306882 -0.1803512 -2.2679863 -0.015065196 2.845848 3.2609897

actor.4.bias f4 [2]
00000000: 549a d73c 1a74 3c3d
0.026318707 0.04600916
