model/Pendulum-v1/3level/HAC_Pendulum-v1_level_2_actor.pth (torch, 20875 bytes, 6 tensors)

actor.0.weight f4 [64, 4]
0.38679296 -0.07373153 -0.4540823 0.55481994 -0.06314953 -0.11471708 -0.31359008 -0.009084326
0.283267 0.20209058 0.8580051 -0.33242813 0.11939444 -0.0051312726 0.63765347 -0.08254261
0.4636444 0.05089482 0.37706643 0.37846693 0.10375497 0.011423029 -1.537756 0.43523577
-0.3177028 0.13425075 -0.27910736 -0.52892804 -0.3804222 0.16949886 0.3596381 1.1181188
0.032443684 -0.0168644 0.27475387 -0.21009701 -0.12940055 -0.019937709 -1.9361074 0.7108987
-0.04967161 -0.035697367 1.0269821 -0.29593113 0.49289936 0.017056115 -0.105329745 -0.13483874
-0.4728845 0.22468115 -0.79115134 -0.9574367 0.016853658 0.012000687 -0.57976764 -0.23704614
-0.24775383 0.16032743 -1.9271388 0.25247705 -0.3717769 0.16308993 0.42022488 -0.64396465
0.02628829 -0.059580795 -0.027535962 0.7287363 0.12486339 -0.031973127 0.78436166 0.33045012
0.03431484 -0.016942715 -0.8394721 -0.022234838 0.19125988 -0.09317256 0.55862445 1.011042
-0.11082052 -0.023680558 0.21116056 -0.020212999 -0.10629708 -0.061510004 -1.7388697 -0.44936794
-0.17530164 0.049178574 -0.72268623 0.16156633 -0.029673818 0.03312363 -1.6218312 -0.053185724
-0.24051629 0.13593869 -0.92953753 -0.21644567 0.062256455 -0.028269874 0.8058182 0.36034173
0.09440546 -0.036887314 0.8372495 0.33591196 0.007513595 -0.26117453 0.069538265 -0.11621839
-0.05307929 0.018850686 -2.2231948 0.55578405 0.4805314 -0.1828685 -0.22055237 0.7448368
-0.5593638 0.15613861 0.012266671 -0.5415036 -0.31201077 0.04957942 1.1230893 0.15429154
0.14922284 -0.14715742 0.9681289 0.07975589 -0.47012326 0.13080767 -0.66019696 0.006303823
-0.46269536 -0.04556877 -0.13298003 0.10504987 0.072553135 -0.036332797 1.3078796 0.10990911
-0.0096055735 0.01647475 -0.918144 0.01582397 -0.028210696 0.02345607 -1.3185761 -0.7112415
0.63534695 -0.05942416 0.21677342 0.58258384 -0.020159144 -0.0021967946 -0.039052084 -0.31538194
0.24831884 -0.14475545 0.46404472 0.08426011 0.6024209 -0.18853442 -0.6686386 0.11472714
-0.26016966 -0.010109263 1.0603511 -0.016559282 0.65439624 -0.15947586 -0.609645 0.6792305
-0.23728904 0.09450824 -0.60327476 -1.9927236 0.10426301 -0.002563 0.3518195 -0.41277292
-0.0048976145 0.040407967 -0.32309753 -0.063932136 0.118315294 -0.035730913 0.58737886 -0.37307483
0.017846376 0.020022849 0.3885962 1.1054556 -0.34411934 0.46473193 0.15662093 2.0677993
-0.015801257 -0.07711365 -0.23841432 0.6598692 -0.36649713 -0.047946483 -0.33739066 0.11892383
-0.01357017 -0.04757661 -0.12237518 0.37646538 0.43413007 0.12468421 -0.4366997 0.80259067
-0.07220109 -0.21357952 -0.6659466 0.478319 -0.026906705 0.004206497 0.07094651 0.50599694
0.0575974 0.20682679 1.3090893 0.24521127 0.047432363 0.0263198 1.1053123 0.0024893342
-0.43795025 0.14750162 1.1849531 0.776262 -0.01822538 0.026208263 -2.5780735 -0.21204208
-0.39914867 -0.038568355 0.4007711 0.7270563 0.068356276 0.0136089455 -1.3510563 -0.110368714
0.13567245 -0.04626404 0.032898962 0.29521984 -0.3282846 0.05497983 -0.21710072 0.3406145
00000000: ba09 c63e 8e00 97bd 7a7d e8be ae08 0e3f
00000010: 8a54 81bd caf0 eabd e18e a0be 6dd6 14bc
00000020: 5f08 913e d5f0 4e3e 39a6 5b3f 0534 aabe
00000030: 1285 f43d 3c24 a8bb 423d 233f 1a0c a9bd
00000040: cc62 ed3e 1677 503d da0e c13e 6bc6 c13e
00000050: 7c7d d43d a827 3b3c 30d5 c4bf 39d7 de3e
00000060: f1a9 a2be 0779 093e 29e7 8ebe d467 07bf
00000070: b3c6 c2be 1c91 2d3e 7c22 b83e 841e 8f3f
00000080: abe3 043d 3627 8abc 8aac 8c3e ac23 57be
00000090: 9481 04be 6854 a3bc 5ed2 f7bf 75fd 353f
000000a0: 7574 4bbd 6737 12bd 2674 833f 4984 97be
000000b0: 4e5d fc3e 44b9 8b3c 1fb7 d7bd 2b13 0abe
000000c0: eb1d f2be d112 663e e588 4abf 921a 75bf
000000d0: af10 8a3c 889e 443c a76b 14bf 39bc 72be
000000e0: 2eb3 7dbe e02c 243e 7cac f6bf ac44 813e
000000f0: 8b59 bebe 0c01 273e b727 d73e deda 24bf
00000100: 8a5a d73c fe0a 74bd 1993 e1bc 768e 3a3f
00000110: 61b8 ff3d 41f6 02bd edcb 483f c230 a93e
00000120: b88d 0c3d 73cb 8abc a5e7 56bf d625 b6bc
00000130: a1d9 433e 41d1 bebd 0302 0f3f d369 813f
00000140: def5 e2bd bbfd c1bc 793a 583e bb95 a5bc
00000150: 49b2 d9bd eaf1 7bbd 4893 debf 8e13 e6be
00000160: 4682 33be 796f 493d f701 39bf a571 253e
00000170: 8216 f3bc a5ac 073d 2a98 cfbf 46d9 59bd
00000180: e749 76be 8333 0b3e 2cf6 6dbf efa3 5dbe
00000190: a000 7f3d 3996 e7bc 1a4a 4e3f b67e b83e
000001a0: a657 c13d 2717 17bd fc55 563f a7fc ab3e
000001b0: 9a34 f63b abb8 85be 146a 8e3d e803 eebd
000001c0: ab69 59bd c16c 9a3c d348 0ec0 dd47 0e3f
000001d0: 3608 f63e e141 3bbe 7bd8 61be a0ad 3e3f
000001e0: 7732 0fbf cde2 1f3e 26fa 483c fb9f 0abf
000001f0: e0bf 9fbe ca13 4b3d 64c1 8f3f 9afe 1d3e
00000200: dfcd 183e 6fb0 16be 4cd7 773f 0e57 a33d
00000210: ffb3 f0be 72f2 053e ab02 29bf 4d90 ce3b
00000220: 68e6 ecbe 52a6 3abd eb2b 08be 6324 d73d
00000230: bd96 943d b3d1 14bd 9968 a73f 0718 e13d
00000240: b260 1dbc 0ef6 863c 7c0b 6bbf 45a1 813c
00000250: 1e1a e7bc f226 c03c 1ac7 a8bf ec13 36bf
00000260: 19a6 223f bf66 73bd daf9 5d3e 3724 153f
00000270: ca24 a5bc 19f8 0fbb 14f5 1fbd be79 a1be
00000280: 4b47 7e3e c63a 14be 4597 ed3e 9190 ac3d
00000290: 4238 1a3f 2b0f 41be e62b 2bbf 10f6 ea3d
000002a0: f534 85be 52a1 25bc 96b9 873f 55a7 87bc
000002b0: 8386 273f a44d 23be b211 1cbf 0de2 2d3f
000002c0: e6fb 72be 898d c13d 3770 1abf 9111 ffbf
000002d0: d887 d53d 01f8 27bb af21 b43e f956 d3be
000002e0: 2b7c a0bb d382 253d 0a6d a5be daee 82bd
000002f0: 4a4f f23d 945a 12bd 765e 163f aa03 bfbe
00000300: 9032 923c f506 a43c 15f6 c63e 927f 8d3f
00000310: 6930 b0be 58f1 ed3e 3d61 203e d356 0440
00000320: a371 81bc c3ed 9dbd e222 74be 30ed 283f
00000330: 83a5 bbbe 8863 44bd 78be acbe 568e f33d
00000340: 6b55 5ebc b1df 42bd d79f fabd 12c0 c03e
00000350: 4c46 de3e 6f5a ff3d 1a97 dfbe 9576 4d3f
00000360: 2ade 93bd 97b4 5abe 7a7b 2abf 3ae6 f43e
00000370: 736b dcbc a8d6 893b 674c 913d 0489 013f
00000380: 40eb 6b3d 67ca 533e 3d90 a73f aa18 7b3e
00000390: 7048 423d 9f9c d73c e07a 8d3f 1924 233b
000003a0: 043b e0be aa0a 173e 8bac 973f 1bb9 463f
000003b0: 644d 95bc b6b2 d63c 28ff 24c0 8f21 59be
000003c0: 375d ccbe daf9 1dbd df31 cd3e 5d20 3a3f
000003d0: 60fe 8b3d 0ef8 5e3c 6aef acbf fe08 e2bd
000003e0: b8ed 0a3e 5d7f 3dbd 10c1 063d 0e27 973e
000003f0: eb14 a8be 8832 613d a74f 5ebe 0665 ae3e

actor.0.bias f4 [64]
0.55298406 0.38599545 -0.9594458 0.3611054 -0.25133008 1.1438848 0.43780646 0.5204129
-1.8014147 0.058913168 0.17714685 0.20133422 0.7727758 0.4432075 0.42074448 0.50598806
-0.5912148 0.6104688 -1.6694316 -0.29316527 1.1386789 0.3215057 -1.2316208 0.5904624
0.45852745 0.009867139 0.10408777 -0.89674765 -0.121242635 0.18431523 0.09399435 -0.38821292
-0.6774505 0.0835783 -1.4013813 -0.138339 -1.9569446 -0.39642105 -0.21089388 -1.5505348
-0.19951704 0.3133207 -0.7839816 0.019149786 0.32893643 -1.5454957 -0.6804807 0.05448105
0.05130288 0.03705576 -0.82391137 -1.2908741 -1.8739909 -1.6309202 -0.5773736 -2.8184848
-0.55498105 -0.34864834 0.052462254 -0.28632382 -1.2254896 -2.4100585 0.025117004 -0.6075067
00000000: 5d90 0d3f 32a1 c53e 3d9e 75bf cfe2 b83e
00000010: 56ae 80be d16a 923f 2b28 e03e c839 053f
00000020: c294 e6bf ef4e 713d fc65 353e 8f2a 4e3e
00000030: a3d4 453f 18ec e23e d26b d73e 6f88 013f
00000040: da59 17bf af47 1c3f efaf d5bf c219 96be
00000050: 3bc0 913f 659c a43e c0a5 9dbf 8b28 173f
00000060: 1cc4 ea3e c8a9 213c f82b d53d 4191 65bf
00000070: 0f4e f8bd 22bd 3c3e 1c80 c03d d8c3 c6be
00000080: 656d 2dbf 1a2b ab3d 7660 b3bf bda8 0dbe
00000090: 297d fabf b3f7 cabe 91f4 57be ed77 c6bf
000000a0: 324e 4cbe 926b a03e 05b3 48bf 03e0 9c3c
000000b0: 5b6a a83e ced2 c5bf fc33 2ebf 8627 5f3d
000000c0: f822 523d c8c7 173d dbeb 52bf 5d3b a5bf
000000d0: efde efbf fec1 d0bf c2ce 13bf 0e62 34c0
000000e0: 3d13 0ebf 0982 b2be a9e2 563d 0999 92be
000000f0: d8dc 9cbf 663e 1ac0 2dc2 cd3c 8f85 1bbf

actor.2.weight f4 [64, 64]
-0.3660207 0.06284843 0.11610094 -0.2646784 -0.097901314 0.029902257 -0.23410326 -0.27220422
-0.05546501 0.005257014 -0.15193033 -0.45864236 0.081679374 -0.099549234 -0.0004924556 -0.44830704
-0.0642914 -0.16958083 0.00051098707 0.06317791 -0.4067826 -0.035956148 -0.1843597 -0.16865145
-0.102309115 -0.3103657 -0.31263795 -0.20879433 0.053541012 -0.40475476 -0.10970945 -0.31729305
0.16089621 -0.29489186 -0.3507313 -0.16554685 -0.07476387 0.011609396 -0.43261904 -0.21872722
-0.2887706 -0.16941847 0.14384969 0.0067888596 -0.24700615 0.11485553 -0.031957768 -0.14767641
-0.15605251 -0.013694614 0.23727632 0.017080141 -0.039775085 0.005210759 0.09702132 0.01678595
-0.24468121 0.26578492 -0.33661944 0.007189504 -0.11358027 -0.009413734 -0.080962434 -0.07395896
-0.07105023 -0.017336333 -0.14410079 -0.05029241 -0.1554231 -0.07128359 -0.043451507 -0.0039244364
-0.037603986 -0.11857926 -0.0998334 -0.14453751 -0.06889139 0.022936799 -0.0025269291 -0.12059976
0.0016503526 0.06791542 -0.060263377 0.063711606 -0.05680576 -0.10697595 -0.11594622 -0.080562465
-0.04628587 -0.046811186 0.0646193 -0.12347183 -0.11935422 -0.052991748 -0.013694826 -0.12713967
0.00674895 -0.04675302 0.054643873 -0.043933347 -0.14322475 -0.1258399 0.067185566 0.020629643
-0.12912078 -0.08011789 0.017243974 -0.11610289 -0.02193295 -0.0118268775 0.029193519 0.019112473
0.0737167 0.070690505 -0.085873365 0.088824645 -0.045892827 -0.141787 0.063019164 -0.03843429
-0.12305938 0.11434165 -0.100104764 -0.04356672 -0.024059985 0.007088393 0.03665432 -0.11778254
-0.058041055 -0.12081999 -0.30717087 -0.13806015 -0.01941665 -0.13685444 -0.086175054 0.03045819
0.05686459 0.0049386653 -0.07325446 -0.095354505 -0.21801172 -0.2692499 -0.10589821 -0.1731824
-0.005689553 -0.26897192 0.009065063 -0.033932596 -0.0684183 -0.15203632 -0.17958997 -0.033470277
-0.007218059 -0.24429515 0.04809165 -0.093189865 -0.08771825 -0.18531004 0.03556105 -0.06268002
-0.0070006377 -0.004329998 -0.040066894 -0.13725984 -0.001911802 -0.1159673 -0.04653509 -0.19818813
-0.0052148257 -0.10952125 -0.20337707 -0.21861015 -0.12183351 -0.0054169917 -0.02928956 -0.0750367
0.034828376 0.103402175 0.0073805293 -0.21596366 -0.19769137 0.0034215432 -0.23910213 0.031039154
-0.0026541601 -0.025761954 0.04358174 -0.119933784 -0.04979466 -0.03097174 -0.05815486 -0.13090867
-0.14225373 -0.2702794 0.15081176 0.2512222 -0.607677 -1.0019064 -0.0066450625 -0.014318503
0.80076545 -0.7716182 0.11420883 -0.09356468 -0.16741577 -0.59934366 0.42775834 0.16192117
-0.5384827 -0.008893842 -0.38210583 0.16851309 -0.23557758 -0.20108959 -0.073260084 0.077635765
-0.0070208735 0.28873897 0.19249766 -0.10719738 0.36219707 -0.42432687 0.29109722 0.19423287
0.055956244 0.11343783 -0.21852542 0.17525068 0.10064618 -0.5656633 0.6946642 -0.025421368
0.110153615 -0.081284925 -0.00911117 -0.15215498 -0.13519356 -0.0052534794 -0.02182169 0.05036858
0.11868446 -0.14084429 -0.13684262 -0.17319804 0.45115143 0.576953 -0.11849509 1.7600605
0.1571952 0.44141468 -0.19815423 -0.14151521 0.20595372 -0.35512847 0.13432288 -0.25249857
00000000: 1167 bbbe adb6 803d 54c6 ed3d ed83 87be
00000010: 7c80 c8bd 94f5 f43c c4b8 6fbe 5a5e 8bbe
00000020: 472f 63bd 0843 ac3b a093 1bbe 2cd3 eabe
00000030: 8447 a73d 78e0 cbbd 2318 01ba 8088 e5be
00000040: 36ab 83bd 99a6 2dbe c3f3 053a 6c63 813d
00000050: cf45 d0be c146 13bd cac8 3cbe f7b2 2cbe
00000060: 7187 d1bd 41e8 9ebe 1512 a0be 2ece 55be
00000070: d24d 5b3d 043c cfbe 59af e0bd 3c74 a2be
00000080: fac1 243e 11fc 96be 0e93 b3be 1d85 29be
00000090: cd1d 99bd 5635 3e3c 3e80 ddbe 07fa 5fbe
000000a0: bdd9 93be 097c 2dbe 554d 133e 1575 de3b
000000b0: 2eef 7cbe 6039 eb3d 26e6 02bd 7c38 17be
000000c0: 3bcc 1fbe 605f 60bc 90f8 723e a7eb 8b3c
000000d0: 33eb 22bd 04bf aa3b 1db3 c63d b082 893c
000000e0: b68d 7abe f614 883e 6259 acbe ee95 eb3b
000000f0: c69c e8bd 103c 1abc a2cf a5bd cc77 97bd
00000100: c882 91bd ed04 8ebc 288f 13be 6aff 4dbd
00000110: 3c27 1fbe 21fd 91bd 35fa 31bd 8f98 80bb
00000120: a306 1abd afd9 f2bd 7475 ccbd a401 14be
00000130: ee16 8dbd f4e5 bb3c d69a 25bb 02fd f6bd
00000140: a550 d83a 3d17 8b3d bbd6 76bd 3b7b 823d
00000150: 28ad 68bd 3516 dbbd 3675 edbd effd a4bd
00000160: 4196 3dbd 16bd 3fbd 2057 843d ccde fcbd
00000170: fc6f f4bd e00d 59bd 4360 60bc e730 02be
00000180: 4c26 dd3b 1880 3fbd 41d2 5f3d 74f3 33bd
00000190: 82a9 12be 2ddc 00be 9698 893d 7fff a83c
000001a0: 3d38 04be d914 a4bd 3c43 8d3c 5ac7 edbd
000001b0: bbac b3bc 85c5 41bc 3f27 ef3c c391 9c3c
000001c0: c8f8 963d 2fc6 903d 60de afbd b2e9 b53d
000001d0: 1efa 3bbd 9c30 11be 3110 813d 466d 1dbd
000001e0: 8e06 fcbd f42b ea3d ba03 cdbd 0473 32bd
000001f0: 7219 c5bc c045 e83b d722 163d f937 f1bd
00000200: 75bc 6dbd 7970 f7bd 8045 9dbe a45f 0dbe
00000210: ab0f 9fbc 9223 0cbe 8c7c b0bd 7483 f93c
00000220: d8ea 683d 87d4 a13b 6f06 96bd 3949 c3bd
00000230: 773e 5fbe 1fdb 89be 29e1 d8bd ba56 31be
00000240: 6e6f babb b0b6 89be a185 143c e8fc 0abd
00000250: e51e 8cbd 69af 1bbe 6fe6 37be 2118 09bd
00000260: 7885 ecbb 8228 7abe c0fb 443d 54da bebd
00000270: a0a5 b3bd eac1 3dbe 77a8 113d 625e 80bd
00000280: 9b65 e5bb a8e2 8dbb 2f1d 24bd d88d 0cbe
00000290: 6e95 faba 4480 edbd 949b 3ebd d4f1 4abe
000002a0: 21e1 aabb ad4c e0bd 1442 50be 57db 5fbe
000002b0: d983 f9bd 0581 b1bb a9f0 efbc d7ac 99bd
000002c0: 33a8 0e3d 85c4 d33d 5ed8 f13b 9425 5dbe
000002d0: 9b6f 4abe f83b 603b 30d7 74be d345 fe3c
000002e0: 6bf1 2dbb bc0a d3bc c482 323d d89f f5bd
000002f0: 7cf5 4bbd 72b8 fdbc ca33 6ebd ec0c 06be
00000300: f6aa 11be 1062 8abe 666e 1a3e 32a0 803e
00000310: b890 1bbf 783e 80bf d3be d9bb 2898 6abc
00000320: f7fe 4c3f c588 45bf 52e6 e93d d79e bfbd
00000330: 0a6f 2bbe 966e 19bf 2403 db3e aace 253e
00000340: 01da 09bf 7ab7 11bc 60a3 c3be b28e 2c3e
00000350: 403b 71be 6eea 4dbe 6209 96bd 80ff 9e3d
00000360: 5b0f e6bb 98d5 933e 1b1e 453e 4d8a dbbd
00000370: e571 b93e 5f41 d9be b20a 953e fbe4 463e
00000380: 6032 653d 1852 e83d 21c5 5fbe ea74 333e
00000390: 961f ce3d 4fcf 10bf 83d5 313f 7940 d0bc
000003a0: 3898 e13d b678 a6bd 0447 15bc 84ce 1bbe
000003b0: 2e70 0abe 6125 acbb 67c3 b2bc 494f 4e3d
000003c0: d710 f33d 7c39 10be 7920 0cbe d45a 31be
000003d0: 52fd e63e 31b3 133f 8ead f2bd aa49 e13f
000003e0: c7f7 203e 1b01 e23e f1e8 4abe 5de9 10be
000003f0: 88e5 523e 66d3 b5be f08b 093e 7e47 81be

actor.2.bias f4 [64]
-0.46341693 -0.15242328 -0.1337834 0.03342555 0.18132453 -0.15153588 -0.057723492 -0.14635676
-0.06212778 -0.016964193 -0.097242534 -0.053925138 -0.091226116 -0.39710447 -0.40497252 -0.13220975
0.24953572 -0.38070074 -0.08676976 -0.027566776 0.27482182 0.18273191 -0.42024997 -0.52666676
-0.25418535 -0.012600625 -0.615089 -0.24749082 -1.6951959 -0.06620515 -0.0013483465 -0.23245054
-0.052372083 -0.19338423 -0.0023774325 -0.13427058 -0.066776134 -0.28961316 -0.50489044 -0.122434445
0.014417525 -0.12328623 0.027832985 -1.0864742 -0.40134376 -0.03545198 -0.050056048 0.005643056
0.010083063 -0.24167542 0.09723988 -0.07637578 -1.0568937 -0.3619869 0.032095063 0.42131263
-0.014863227 -0.089735016 -0.009886359 -0.39811343 -0.78672504 0.103603065 -0.2719164 -0.024655486
00000000: fc44 edbe d914 1cbe 84fe 08be 3be9 083d
00000010: 23ad 393e 392c 1bbe 786f 6cbd 8cde 15be
00000020: b379 7ebd 7ef8 8abc 1827 c7bd 9be0 5cbd
00000030: c2d4 babd 4751 cbbe 8f58 cfbe fe61 07be
00000040: 4b86 7f3e 35eb c2be 58b4 b1bd b8d3 e1bc
00000050: 72b5 8c3e 131e 3b3e 012b d7be a2d3 06bf
00000060: 9524 82be da72 4ebc 7976 1dbf 3c6e 7dbe
00000070: 2efc d8bf 9196 87bd 00bb b0ba 8407 6ebe
00000080: 1c84 56bd 8406 46be b3ce 1bbb 3a7e 09be
00000090: edc1 88bd 2d48 94be 8040 01bf e9be fabd
000000a0: 7c37 6c3c 7e7d fcbd 0002 e43c 9611 8bbf
000000b0: ee7c cdbe 1836 11bd 9207 4dbd 62e9 b83b
000000c0: 6e33 253c c379 77be b425 c73d e86a 9cbd
000000d0: 4b48 87bf 5956 b9be 1d76 033d 4ab6 d73e
000000e0: e484 73bc fec6 b7bd 65fa 21bc 86d5 cbbe
000000f0: d066 49bf d82d d43d a038 8bbe 4dfa c9bc

actor.4.weight f4 [2, 64]
0.038160473 -0.01852783 -0.03423445 0.08899041 -0.046772465 0.020641295 -0.23093961 -0.017605841
0.1397434 -0.007542345 -0.23488605 -0.07587433 -0.011406842 -0.014310778 0.04013064 0.017173987
0.0479017 0.050367933 -0.61080074 0.28708506 -1.4297664 -0.14880951 0.024822176 0.00030407668
-0.012997809 -0.009975859 -0.1805483 0.057074126 -0.0016017319 0.24898493 0.03155296 -0.07901038
0.028807212 0.49960938 -0.039447714 0.15048605 0.020463862 0.0005990397 0.19967104 -3.6894875
0.00689815 -0.16838834 -0.15774596 -0.21268016 0.30782512 0.06335603 -0.05030692 0.15554842
0.010014959 1.5422971 -0.5893785 1.7284929 0.39410844 0.46465874 -0.14830379 -1.1980469
-0.07264628 -0.0006465914 -0.042888377 0.7047736 0.100891255 0.034810964 0.47570103 -1.306406
-0.44416633 -0.024067942 0.09145275 0.018878894 0.024134913 0.07121815 -0.019480256 0.09024971
-0.11859712 0.55220973 -0.14650257 0.26047185 -0.06915724 -0.033760972 0.53472084 0.04581558
-0.08103005 -0.048256774 0.46367764 -0.18556257 -8.667244 -0.045254435 -0.3041277 -0.5975995
0.15785171 -0.032120284 0.30714458 -0.22001702 0.7559301 -0.03952115 0.07417097 0.36511815
-0.032540455 0.61561793 -0.16330852 0.16072132 0.21897693 -0.46038976 0.18968418 -4.284474
0.10011272 0.0023329556 0.028939037 -0.013296162 0.231928 -0.07746429 0.08296502 -0.0380043
1.6279228 0.34292844 -0.636321 2.1051571 -0.007881145 0.13766536 -0.0007854507 -1.7834107
0.078354545 -0.05769787 0.09306882 -0.1803512 -2.2482789 -0.01513017 2.845848 3.2609897
00000000: 284e 1c3d adc7 97bc 6c39 0cbd 9b40 b63d
00000010: 7c94 3fbd ef17 a93c 6f7b 6cbe 203a 90bc
00000020: e518 0f3e c725 f7bb f885 70be 0064 9bbd
00000030: c3e3 3abc c177 6abc 0760 243d 76b0 8c3c
00000040: 9334 443d 9b4e 4e3d 705d 1cbf d0fc 923e
00000050: 9602 b7bf 8561 18be e057 cb3c 7b6c 9f39
00000060: c3f4 54bc c971 23bc a7e1 38be 8fc6 693d
00000070: 34f1 d1ba e8f5 7e3e ad3d 013d 32d0 a1bd
00000080: 1afd eb3c cdcc ff3e ed93 21bd 0419 1a3e
00000090: d4a3 a73c e008 1d3a 9176 4c3e 9020 6cc0
000000a0: e009 e23b fe6d 2cbe 2888 21be d4c8 59be
000000b0: 419b 9d3e cec0 813d a10e 4ebd 1648 1f3e
000000c0: c815 243c fe69 c53f 82e1 16bf 413f dd3f
000000d0: 95c8 c93e c0e7 ed3e f3dc 17be 9a59 99bf
000000e0: 93c7 94bd 0480 29ba b9ab 2fbd 0b6c 343f
000000f0: 13a0 ce3d f195 0e3d 168f f33e 5038 a7bf
00000100: c569 e3be 222a c5bc 944b bb3d e9a7 9a3c
00000110: 95b6 c53c d2da 913d 0f95 9fbc d7d4 b83d
00000120: 0ce3 f2bd 9e5d 0d3f c504 16be 915c 853e
00000130: 50a2 8dbd f248 0abd 77e3 083f 1ea9 3b3d
00000140: 15f3 a5bd e5a8 45bd 2867 ed3e 1d04 3ebe
00000150: 08ad 0ac1 b75c 39bd a0b6 9bbe 48fc 18bf
00000160: e1a3 213e 8f90 03bd 0e42 9d3e 244c 61be
00000170: a384 413f eee0 21bd f3e6 973d c4f0 ba3e
00000180: 2449 05bd 2399 1d3f 593a 27be 2194 243e
00000190: 7d3b 603e 35b8 ebbe 923c 423e 691a 89c0
000001a0: e607 cd3d 80e4 183b 8f11 ed3c 25d8 59bc
000001b0: 897e 6d3e 99a5 9ebd 90e9 a93d 66aa 1bbd
000001c0: c65f d03f 5194 af3e efe5 22bf e5ba 0640
000001d0: eb1f 01bc 26f8 0c3e b4e6 4dba cd46 e4bf
000001e0: 5978 a03d 9a54 6cbd de9a be3d fcad 38be
000001f0: cde3 0fc0 88e4 77bc 6022 3640 0eb4 5040

actor.4.bias f4 [2]
0.024406927 0.04482212
00000000: 09f1 c73c 6697 373d
