model/Pendulum-v1/3level/HAC_Pendulum-v1_level_0_crtic.pth (torch, 20865 bytes, 5 tensors)

critic.0.weight f4 [64, 5]
00000000: 8a22 9fbe 1534 a0bd 43ae 12be 94e2 fc3d
00000010: 7786 853c cc2e aabe 445f 1fbe c9ed d2bc
00000020: ef89 3abf 5756 9e3d 9c52 b83e 3d99 103e
00000030: 1fff 5f3e d098 4bbe 125e ad3c 303d 86be
00000040: 5e5f 063f aaf7 e2bb 5ca4 703d 4776 07bf
00000050: e45f 113e 9cfb 7d3b 2c51 84bc a19d 293f
00000060: efce 463c 38d8 7f3e 98bb 5f3e 1567 fa3c
00000070: e507 f5be d5cf fa3d 18c8 ba3e efe5 1e3e
00000080: 59f6 513d 9eb9 20bf 5f99 543d 585a 1b3f
00000090: 3656 263e fd42 ea3c a5e2 17bf 0f27 9a3e
000000a0: e710 8d3f 5ee1 733e 444a b43c 54dd 8cbf
000000b0: 7a43 3bbe 7e2e 4d3f fcb7 1b3e 0fa5 823d
000000c0: 9c96 8f3e de8a 8c3c 1efc 64bf 12e2 8dbe
000000d0: ff78 1bbd 8028 593f 7e70 743e af58 663f
000000e0: d806 c03e 80e2 4e3d 1e07 4bbf 6e30 b2be
000000f0: b5ff 55be 051a 92bd 80a0 58bc 17b4 7a3f
00000100: 2a9b abbe 2a0c 393f 7ee9 863e 41de 023d
00000110: fa84 00bf 31b6 1b3e 9b25 b2bf 6a88 9ebc
00000120: 97d4 18bb 1530 b03f d426 44bd 20f3 843f
00000130: d857 3ebd 4a2e 19bc 8406 86bf d9ff c43d
00000140: 10c8 813f 3ac8 fe3d 3ff8 f33c 1c95 8abd
00000150: 710a cd3c cdea 9c3d 7caf 0e3f a965 073b
00000160: 5fdf 863e 0d47 0ebf 2203 edbe 6752 1abe
00000170: 8d30 4ebc dd31 653f 286c 843e 97c6 093f
00000180: 91fc 4f3e cd16 9c3c 955e f03b 77f1 143d
00000190: 39b3 61bf e026 2a3e f56a 26bc 6c13 783f
000001a0: 8120 fa3d 43f5 163f bc99 013f c316 7b3d
000001b0: 5a3e aabe d6ea ffbe 8853 1ebf 1de8 45be
000001c0: 561b 3fbd bbd5 ce3d b000 14bd a931 cdbe
000001d0: f46c 1fbe 5695 c7bb c568 7bbd 7dc1 2dbd
000001e0: ac9f a8be df9b 973e becf 573d 6a0c a53c
000001f0: d726 a8be 1749 c8bd 8ed4 ad3d eb56 b53c
00000200: a134 893d 3871 47be 6d22 513e 8a0b c93d
00000210: 8fbb 8dbd f64b a0be f0e0 4abd 2e06 773d
00000220: ea2d 8a3c 49fe ea3b ce5e 80bf 5c55 bb3e
00000230: 7935 3c3d d15f 85bc ef7a bdbb df6a b13e
00000240: a36d 743e 9d0a 2abf 39bc 57be b2de f3bc
00000250: 0698 fa3e f435 903e 6d3e 3bbe 7e9d ac3e
00000260: b178 e23d e3de 863e ac7f 603e fd34 2dbe
00000270: d14c 8dbd 0175 50bd 790a 773e a12c c43d
00000280: 0162 35bd cd5c bbbc ddb2 88ba 9cf8 5bbf
00000290: ae3c 52be 5476 303e e412 893e a848 893c
000002a0: d4b1 053f 0b9a a3be 5778 b33e dde4 c33e
000002b0: 0691 943d 0835 16bf 0541 9cbe ce3e 883e
000002c0: f7c5 453c a7eb b1bc da4e a23e ee60 953d
000002d0: ede4 98be c223 babd 69c2 a7bc 9319 3c3f
000002e0: 2643 a1be 102b eebe 379c 05be ee67 99bc
000002f0: c819 053f 9058 69be ffbb 26bf 7499 3ebe
00000300: 4209 f5bc 1a99 b8be b5e4 5f3d 40da 4bbd
00000310: 98b3 85bd 9fdf 1b3b 9389 a93f 2ca3 0b3e
00000320: 622c c93e e747 793d 50c6 123d 896c 9cbe
00000330: 717c 4e3e 40f3 08bf f7ed 24be 4834 15bc
00000340: c939 693f 3b9f 453e 1cc0 243d 1c3d 853d
00000350: 31e7 e23c 45ab 043e 8fca c2be 4733 c0bd
00000360: 6f5a 8abd 3b5b 2cbd 3c21 8cbd d2ca 63bd
00000370: 1880 6c3e aba7 a93d c09f 083d 22bb 7f3e
00000380: 5636 bbbe 4ff4 593f 7c7a 743e ecbd e53c
00000390: 5dcd 6c3e 5003 24bc a49a 62be 2edb 89be
000003a0: e5ff 88bd 993d 03bf 82fc 813e 3633 d1be
000003b0: bb99 6d3e 47d6 4e3c 355f 483e c430 dcbe
000003c0: e086 203f a8d8 8c3e f51a d43c ab15 86bf
000003d0: 690d 57be 068a 443e b07d 803e 5939 5f3d
000003e0: 1107 313e e331 2ebe d7cb 073e d23c 2dbe
000003f0: 94b2 ddbc 66db 4fbd 34db f03e 46e2 5c3d
-0.3108104 -0.07822434 -0.14324288 0.12347904 0.01629947 -0.33238828 -0.15563685 -0.02574815
-0.7286672 0.07731312 0.36000526 0.14120956 0.21874665 -0.19882512 0.02116302 -0.26218557
0.5248927 -0.0069264965 0.058750495 -0.5291485 0.14196736 0.0038754707 -0.016151987 0.6625615
0.012134298 0.24984825 0.21848905 0.030566731 -0.47857586 0.12246672 0.36480784 0.155174
0.051260326 -0.6278323 0.05190408 0.6068473 0.16243824 0.028596396 -0.5933021 0.30107924
1.1020783 0.2381644 0.022008069 -1.1005044 -0.18287459 0.80149066 0.15206903 0.06379139
0.28044593 0.01715606 -0.894472 -0.2771154 -0.037957188 0.84827423 0.23871037 0.8997907
0.3750522 0.050508976 -0.79307735 -0.34802574 -0.20898326 -0.07133869 -0.01322186 0.97931045
-0.33516818 0.72284186 0.26350015 0.03195024 -0.50202906 0.1520622 -1.3917726 -0.019352157
-0.0023320073 1.3764673 -0.047888592 1.0386696 -0.046470493 -0.009349415 -1.0470738 0.096191116
1.0139179 0.12440534 0.029781459 -0.067667216 0.025029393 0.07661972 0.5573652 0.002065996
0.26342294 -0.55577165 -0.46291453 -0.15070496 -0.012584818 0.8952921 0.25863767 0.5381865
0.2031119 0.019053841 0.007335494 0.03636309 -0.881641 0.16616392 -0.0101573365 0.96904635
0.12213231 0.5896799 0.50625205 0.061301004 -0.33250695 -0.49983853 -0.6184621 -0.19326825
-0.04665693 0.100993596 -0.03613347 -0.4007695 -0.15568906 -0.0060908003 -0.061379213 -0.042420853
-0.3293432 0.29611108 0.052688353 0.020147521 -0.32842132 -0.09779566 0.08487807 0.022136172
0.06699491 -0.19476783 0.20423289 0.09816654 -0.069205396 -0.31307954 -0.049530923 0.060308628
0.016867597 0.0071714264 -1.0028932 0.36588562 0.045949433 -0.01628104 -0.005782477 0.3465185
0.23869948 -0.66422445 -0.21067895 -0.029769275 0.4894411 0.28166163 -0.18285532 0.33713907
0.11058176 0.26341924 0.21923703 -0.16914745 -0.06899417 -0.050892834 0.24125089 0.09578825
-0.044282917 -0.0228714 -0.0010429282 -0.8592622 -0.2053096 0.17232639 0.26772225 0.016758278
0.5222447 -0.31953463 0.3505275 0.38260546 0.072542235 -0.5867467 -0.30518356 0.26610416
0.012071124 -0.021718813 0.31700784 0.072938785 -0.29862157 -0.090888515 -0.020478444 0.73476523
-0.31496543 -0.4651723 -0.13047872 -0.018726315 0.51992464 -0.2278769 -0.6513061 -0.18613225
-0.029911641 -0.36054307 0.05466147 -0.049768686 -0.065283954 0.0023784412 1.3245109 0.13636464
0.39291674 0.060859587 0.035833657 -0.30551556 0.20164658 -0.5349617 -0.16106401 -0.009106703
0.911038 0.19299023 0.040222272 0.06505796 0.027698131 0.12955959 -0.38045165 -0.093847804
-0.0675553 -0.04207919 -0.068422765 -0.055613346 0.23095739 0.08283933 0.033355474 0.24973729
-0.36564893 0.8513841 0.23874849 0.028044663 0.23125215 -0.010010555 -0.22129303 -0.26925033
-0.06689433 -0.51265866 0.2538796 -0.40859383 0.23203175 0.01262433 0.19567569 -0.43005955
0.627058 0.27509046 0.02589176 -1.0475363 -0.2100121 0.19193277 0.25095892 0.05449805
0.17287852 -0.17011218 0.13261352 -0.16917732 -0.027062692 -0.050746344 0.4704224 0.05392673

critic.0.bias f4 [64]
00000000: 3eef 4dbf 4d8f adbf f0d3 1bbf 33ed 333c
00000010: 1843 bfbf 3f6a c2bf b1e7 8cbf f4dc 04be
00000020: 6348 3abe c8b0 0d3f 77fc 06be 181b c33d
00000030: 6d20 b4bd 0905 e83d f218 91bc 0bab 1439
00000040: 52de abbf 0253 30be 20d2 b0bf c0c3 463e
00000050: cf3c c23c 5f8f dcbc fbaf 2ebe 3522 01bd
00000060: 149a ff3e 66d1 833e e07a 2bbf 0470 c9bd
00000070: d471 e7bd 6f6a 1a3e c431 b1bf 40cc cb3d
00000080: 10ae b63d e1fc 313e c0e0 ecbe f99e 233e
00000090: 6330 52bf f44d ecbe 421b 9cbe a6f6 97bf
000000a0: 21d5 10bf 5e5b 28bf ac0d c2bf bb2c 373e
000000b0: 0179 a43e 3e80 b2be d104 4c3e f2bf a8bf
000000c0: 1c99 77bf 2974 7c3f da42 b7bf 78bf 38be
000000d0: 6cd3 38bf 505f 94be c9a6 39be e414 c23e
000000e0: 1ff7 b4bc 6077 8bbf ecf7 04bf b982 a9be
000000f0: 17fb 9fbe 23fe 20ba 7c3d b4bf 88b7 86bd
-0.8044318 -1.3559357 -0.60870266 0.010981846 -1.494235 -1.5188674 -1.1008207 -0.12974912
-0.18191676 0.5534787 -0.13182245 0.09526652 -0.08795247 0.113290854 -0.01771209 0.00014178098
-1.3427222 -0.17219165 -1.3814125 0.1941061 0.023710636 -0.026923833 -0.17059319 -0.031526763
0.4992224 0.25745696 -0.6698437 -0.098358184 -0.11301008 0.15079664 -1.3843312 0.09951067
0.089199185 0.17381622 -0.4626522 0.15978612 -0.8210508 -0.46153224 -0.30489546 -1.1872146
-0.5657521 -0.65764415 -1.5160422 0.17888157 0.3212357 -0.34863466 0.19923712 -1.3183577
-0.96718 0.98614746 -1.4317276 -0.1804179 -0.72197604 -0.28978968 -0.1813003 0.37906563
-0.022090493 -1.0895805 -0.519408 -0.33107546 -0.31246254 -0.0006141385 -1.4081264 -0.065779746

critic.2.weight f4 [64, 64]
00000000: 12a8 07bd b625 43be 0f8e 963b af89 5abe
00000010: 5f15 4bbc d105 703d 543a b2bc 35dd 913c
00000020: fe22 3fbe 688a 93be 62e2 a8bd 6375 c3be
00000030: 4148 8fbd 0121 fb3c 3626 adbe c352 aebe
00000040: e932 e83b 11f7 d4bd 7864 173e 7b72 68be
00000050: 4a58 4abe dcb5 21be 67b8 99bd 31e1 1b3e
00000060: 4440 7cbe 6f5f 833d f85e 7c3d c72b ba3d
00000070: 2f6e 3abe 4dc2 453d 4048 ee3b e242 4dbe
00000080: 0564 18be a1ec 37be 62b2 05be dd8b 60be
00000090: 882b 57bd 9d87 e3bd 0ef9 f6bd 2ec5 48be
000000a0: 8ca1 38be 4d07 25bd ff07 90bd 1880 83bc
000000b0: ea5f 3dbc cb9d 73be 0917 dbbd a6dc ecbe
000000c0: 03da 3b3d 87a0 5bbe 6fa7 0cbe 17ad 88bd
000000d0: ff01 cebd f141 88bd 7f15 0cbe 1303 4ebe
000000e0: 30de 323d db85 8dbb df47 d0bc 2ec2 85bd
000000f0: 9631 95bb f1fc aebd 22ce 80bd cdb5 b33d
00000100: bea8 9c3e fe03 74bf be2b 323e e86a e5bd
00000110: 85e5 6a3f 9f24 80be 672c fe3d b02b b3bf
00000120: 3fd3 353f baf3 b0bd a8f6 013e 4718 0bc0
00000130: 6b0d 5b3e a2bb 41be 762a 8fc0 d1b8 4cbf
00000140: 0872 2b3f fb96 5cbf 8791 f6be f70d e8be
00000150: 46e8 f23e 5820 86bf c63d 64bd 1f10 bebe
00000160: c845 0cbe 2974 4dbe b8f5 07be 0ebc f3be
00000170: b221 12be d693 663c 7023 babe 4316 193e
00000180: f73f 8dbd c1f9 34be 2d1c 73be 0eef 103e
00000190: 4679 d13e fece 25bd 727d 16bf 5249 363f
000001a0: 617a 0bbc d74a 21bf 4f3c 5fbe ffd7 93bd
000001b0: 924f 0bbe f6a9 523d f7c8 c33e 052b 3a3e
000001c0: dc32 9a3e f84a c7be e76e 25bd 9502 8e3c
000001d0: 8c02 493e 7620 2cbe 6f7c 3fbf 5863 e7be
000001e0: 82b3 dbbf 003e be3e 08bc 303e fa1a 663e
000001f0: 08c5 19bf 644e cebc 90f2 d13e cdee 533f
00000200: 3e6c 31bf afc9 16bd 03ca 25bf fd04 bbbe
00000210: e38c 34bf 13a2 62be 5a4c 88bf 92b5 27be
00000220: 5931 04c0 62ba 463e a514 babf 789b 2ebf
00000230: f0e7 30bd 8c5d 94be a8a4 7c3e 4277 a93e
00000240: be9b 26be 497b a83e 5c25 d3be 3bca 3f3d
00000250: 1064 2c3d f214 a73c fdaf 1bc0 ad4d 5cbf
00000260: d491 09bf e7e1 2bbd 8bb5 343e 97ac 60be
00000270: faeb 893d 6d21 d33a b464 b4be 5ec0 703e
00000280: 6bef 13be 7493 aa3e 7328 24bf 01d6 903e
00000290: 177b 8c3c 9845 9cbf 0416 08bf 43be 8bbf
000002a0: ea69 04bf 0a92 8c3e ab0a 853e 7d8a a4be
000002b0: 48fb 773e 2995 8e3e b90c 443d 49fb 423e
000002c0: bb7e 49bf a270 82bd 0dd0 0abf 7b7f 3d3e
000002d0: 643e 503d b86b d13d c126 2fbe 0d7d fcbd
000002e0: 1f6a a83d a9f5 ffbe a8fc 123e 159e 743e
000002f0: 12cc c43e b5a7 c83e d4b7 42bf 05e3 b73d
00000300: 6673 86be 1856 a4bd e5a4 37bd ad9a ca3e
00000310: 333d 2b3e 5257 55be e7ec d7bd 4f47 06bd
00000320: 9b55 49c0 0e4b 27bd 8499 d3be 7d41 63bc
00000330: 7061 adbe 688a 5abe 92af 9bbf 244c c1c0
00000340: e1cc cbbd 6ca7 4e3e b028 f3be cc0f d53d
00000350: a6c3 843e 915b c0bd 1332 4dbe 8937 223e
00000360: f48f 6a3e d10e 933e 470b 333b ff99 933d
00000370: 64c6 a6be 20af 25be 351b 8b3e 4c0a 903d
00000380: bcc4 703e 4b7d ddbe 8c45 94be 77db 66bd
00000390: e962 6bbc fabe 31be d3ec a93e 6de7 9e3d
000003a0: fc90 01be 3b1d 303f de70 133e a480 1abd
000003b0: 94f9 93be e318 b2be 4712 fcbd a606 61be
000003c0: 84f9 acbf c09b 013e b07c 10c0 bb15 c4be
000003d0: 5684 d13e 9ec8 5ebc 2e92 dbbe d52b 5b3e
000003e0: 8e2f b2be 039d f1be 4727 5a3e e987 073e
000003f0: 029d 12be dca3 b93e 7319 9fbe 0f89 1d3e
-0.03311927 -0.19057354 0.0045945714 -0.21341585 -0.012395232 0.058599297 -0.021756329 0.017805675
-0.18665692 -0.28816533 -0.08246304 -0.38175496 -0.06996203 0.030655386 -0.33818215 -0.34047517
0.007086147 -0.10398687 0.1478442 -0.22699921 -0.19760242 -0.1579203 -0.07505875 0.15222622
-0.2463389 0.06414687 0.061614007 0.09090381 -0.18206094 0.048281003 0.0072717965 -0.20045045
-0.14881904 -0.1796136 -0.13056329 -0.21928354 -0.05253175 -0.111098506 -0.12059222 -0.19606468
-0.18030375 -0.040290166 -0.07032775 -0.01605229 -0.011558512 -0.23790662 -0.10697753 -0.4626209
0.04586221 -0.21447955 -0.13735746 -0.06673639 -0.100589745 -0.06653202 -0.13680075 -0.2011836
0.043668926 -0.0043189353 -0.025424896 -0.065311775 -0.0045530302 -0.085443385 -0.06289317 0.0877491
0.3059749 -0.9531859 0.17399499 -0.112020314 0.9175647 -0.2502794 0.12410813 -1.3997707
0.7102546 -0.08640237 0.12691748 -2.1733568 0.21391837 -0.18919232 -4.473933 -0.7996951
0.6697087 -0.8616788 -0.48157904 -0.45323154 0.47442836 -1.047862 -0.055722974 -0.37121674
-0.13698494 -0.20063843 -0.13277328 -0.47604412 -0.14270666 0.014073333 -0.36355162 0.14949898
-0.06896966 -0.17673399 -0.23741217 0.14153692 0.40912837 -0.040480606 -0.58785164 0.7120563
-0.008513064 -0.6300482 -0.2180035 -0.07218932 -0.13604572 0.05143162 0.38239262 0.18180473
0.30116928 -0.38924384 -0.040388968 0.017335216 0.19629878 -0.16809258 -0.74799246 -0.4519298
-1.7164156 0.37156677 0.17259228 0.22471228 -0.6006627 -0.025183864 0.41005373 0.82786256
-0.6930579 -0.036813434 -0.6476137 -0.36527243 -0.70527476 -0.22132139 -1.0648301 -0.16377857
-2.065512 0.19407037 -1.453755 -0.68205976 -0.043189943 -0.2897762 0.24672186 0.330988
-0.16270348 0.3290656 -0.4123944 0.04682372 0.042087615 0.02039573 -2.4326165 -0.86056024
-0.5373814 -0.041963484 0.17647378 -0.21940838 0.06734462 0.0016107984 -0.3523308 0.23510882
-0.144468 0.33315623 -0.6412422 0.28288272 0.017148538 -1.2208738 -0.53158593 -1.0917438
-0.5172411 0.2745517 0.25984702 -0.32136908 0.2421695 0.27848175 0.047863696 0.1904117
-0.78709 -0.06369139 -0.5422371 0.18505661 0.05084075 0.10225624 -0.17104627 -0.12328539
0.08223366 -0.4999211 0.14354193 0.23888429 0.38436943 0.3919045 -0.7606175 0.089788474
-0.26259917 -0.080242336 -0.04483499 0.39571133 0.16722564 -0.20834091 -0.105432324 -0.03278285
-3.14585 -0.040843062 -0.4132806 -0.013870594 -0.338634 -0.2134186 -1.2162955 -6.0405445
-0.09951187 0.20181054 -0.4749198 0.10403404 0.25930518 -0.09392465 -0.20038633 0.15841497
0.22906476 0.28722242 0.0027319954 0.07207107 -0.32573235 -0.16180086 0.27169195 0.07033214
0.23512548 -0.43259653 -0.2895931 -0.05636164 -0.014366844 -0.17358008 0.33188495 0.07758985
-0.12652963 0.687946 0.14398524 -0.037720338 -0.2890135 -0.34784612 -0.123081736 -0.21975192
-1.3513646 0.1265707 -2.2576103 -0.3829783 0.40921277 -0.013597636 -0.42884964 0.2140344
-0.34801906 -0.47190103 0.21304046 0.1323544 -0.14317706 0.36257827 -0.31074104 0.15384315

critic.2.bias f4 [64]
00000000: d4f0 e8bd a062 e6be 9aba b63d 9ed5 653e
00000010: 08b1 b4be c87d c93e d248 f23e 1e85 6b3d
00000020: 7f60 3bbe 4420 a2be 61f4 00be 4e72 413d
00000030: 8985 ccbd 2963 943e 0fff cc3d 4eaf 06bf
00000040: 92e9 fc3d 2e3b d53e ee62 e73e 9155 283f
00000050: a4f5 0fbe 6771 49be 7e0c e63a a148 233f
00000060: e700 033f ac6b 553f e361 e13d 5ab4 c33e
00000070: a9bc 0abe b708 4fbf 0b5e 153e c6c3 cc3e
00000080: dbfa f23e 4a51 363f 92c0 0ebf 7c7f c4bc
00000090: 5599 943e 111e 1fbe 3e86 70be f10b 4e3e
000000a0: ed8a adbd 8c65 f9be 17b3 71be d41c fc3e
000000b0: 0dd6 193f c21e 343f b31b 473f b0ee 1b3f
000000c0: d56f 9cbe 029c 0cbf 9e4c 85be 8a68 183f
000000d0: 7177 1e3e 47e1 dd3e e40d 0fbe d896 9b3e
000000e0: 55a3 26be f7c3 c33d f61e db3e 636b 51be
000000f0: e84a 0ebe c296 af3e 17b0 ef3e e83e 133f
-0.11374059 -0.4499712 0.0892231 0.2244477 -0.35291314 0.39353776 0.47321182 0.057499997
-0.18298529 -0.31665242 -0.12593223 0.04722815 -0.09986407 0.28981903 0.10009586 -0.52611244
0.123492375 0.41646713 0.45192665 0.65755564 -0.14058548 -0.19672166 0.001755133 0.637827
0.5117325 0.8336742 0.110049985 0.38223535 -0.1354853 -0.8087267 0.14586656 0.39993113
0.47457013 0.7121779 -0.5576259 -0.02398657 0.29023233 -0.15538813 -0.2348871 0.20121743
-0.084737636 -0.48710287 -0.23603474 0.49240744 0.6009224 0.7035943 0.7777664 0.60911083
-0.3055407 -0.5492555 -0.26035017 0.59534514 0.15475251 0.43335935 -0.13970143 0.30388522
-0.16273244 0.09558862 0.4279706 -0.20451121 -0.13895762 0.34294707 0.46814033 0.5751786

critic.4.weight f4 [1, 64]
00000000: 0c19 a83b cd45 f03f 8e87 113f 5a03 fdbe
00000010: dcd2 a73f ffa7 c4bd a9fa fb3e 5d06 333f
00000020: d217 e33e 79f0 be3e 641e 8bbd cc34 4ebe
00000030: 1996 42bd c658 583f 1e1f 5cbe 5c47 53be
00000040: 7a33 c03d 0ccd 00bf 0260 e83d d706 e8be
00000050: 860f 9d3e a176 bcbe 04da 83be 3ba9 53be
00000060: e24b b9be 73f2 acbe 2dcf 713f 1e6d 873e
00000070: d374 90bc 4619 ddbe 5f17 dc3e 3a3c a4bf
00000080: 6ce0 1fbf f534 f8be a9ca 7ebe e96b 15bf
00000090: fa84 37be 625a c93c 9370 33be f780 d33f
000000a0: b76b 093e 5488 ea3e 3351 8fbe 4b32 d63f
000000b0: 7fc9 e03e b58f 5bbe 5b84 113f 5233 a8be
000000c0: c384 023f 54f3 ea3e da9a 94be 919a 0bbf
000000d0: a070 573d dd96 fcbe ddba b73d 8fcf 253e
000000e0: 1de6 933d b881 9c3e 5d94 ae3e 9733 783e
000000f0: 9ff9 fbbd e532 1c3e 37d6 893f 7d2b 65bf
0.005129939 1.8771302 0.56847465 -0.4941662 1.3111224 -0.09602355 0.49214676 0.69931585
0.4435411 0.3729284 -0.06792906 -0.20137328 -0.047506426 0.8451046 -0.21496245 -0.2063269
0.093848184 -0.50312877 0.11346437 -0.45317718 0.30675906 -0.36809257 -0.2575227 -0.20670025
-0.36190706 -0.33778724 0.9445675 0.26450437 -0.017633831 -0.43183345 0.4298658 -1.283088
-0.62451816 -0.48477903 -0.24881996 -0.5836778 -0.1792182 0.02457923 -0.17523412 1.6523732
0.13419996 0.45807135 -0.27991638 1.6734098 0.4390373 -0.21441539 0.56842583 -0.32851654
0.5098383 0.4588877 -0.29024392 -0.54532725 0.052597642 -0.4933385 0.08971188 0.16192459
0.07221625 0.30567718 0.34097567 0.2423843 -0.12303471 0.1525379 1.0768498 -0.8951948
