model/Pendulum-v1/3level/HAC_Pendulum-v1_solved_level_1_crtic.pth (torch, 21121 bytes, 5 tensors)

critic.0.weight f4 [64, 6]
00000000: d18c 64ba 0f65 4e3a d73f a73f 5958 143a
00000010: fd57 a6bf db39 0fbc ff34 de3e c3df 14be
00000020: 5c2e bfbf f357 adbd 240a 713e 007c ccbd
00000030: 472a f33d 7fd3 8a3e b526 2b3e 55e0 9e3e
00000040: 42a1 263e a746 033e 84fe 07be aca0 143d
00000050: d524 8fbe da71 ff3d 6880 72bf b1c9 913d
00000060: a191 b2bd 5063 2bbd 00a0 023f 20ca c3bd
00000070: 40ba 5fbf cec8 97bd cfd9 d43d c968 93be
00000080: 075d f0bd f9eb 2abe 4c1f cfbd 30e7 833e
00000090: 777e 273e 2c81 38bd 5b6a 223f f007 2abd
000000a0: a028 68bf 36c9 b6bc ca69 34bd 7936 c03c
000000b0: 2006 5ebf c4fb f43c 4001 423f f424 29bc
000000c0: 7e73 96bc 2d6c e13c d32c 3f3e 74c1 2d3d
000000d0: c706 debe a369 323f bf0a 3ebe e2b3 5bbd
000000e0: c2f4 e13e 415e 30be 0350 073e 5d22 693d
000000f0: 3546 a6bf 871c bdbe 5e85 133f c68f 093e
00000100: 654b 1f3e c453 133c fbd7 b4bc c23f 0d3e
00000110: 35ee 8c3e 7a90 ac3d 3919 f23d 14c4 abbe
00000120: a94a 82bd 782c 8db8 772b 8dbd 0d83 06bc
00000130: cad1 c6bf 5466 1bbf f75b 05b9 c06c fd3a
00000140: 8c7d 253d fc56 3dbf 2fa4 3ebd 78d5 3b3f
00000150: 02f6 b3be adc8 ddbd dbb6 863f ee69 793d
00000160: 0bf9 9a3d 4d36 213d d4fb 823e 16b7 613e
00000170: 31a2 303f cc12 e3be 6d94 91be 650a a23e
00000180: 4198 0a3e de9c 3a3e e5d3 10be 8324 c1be
00000190: b605 b43d a0f7 6b3e 321e a8be 89af 52be
000001a0: e069 23bf ae43 2d3e b69d bbbc ed5a 91be
000001b0: 7dc3 963c 4b09 793c fe87 38bf e5dc 1bbf
000001c0: e6c9 473f 4491 1a3f eccd 2ebd 77b8 48be
000001d0: 412d 713f 9120 3abe 602c 9abc cc11 773d
000001e0: 5821 ca3c 2cc7 513d 6725 993f dc5d acbe
000001f0: 6fec 813c 9daf 203c f744 963d 0893 a73c
00000200: d7b7 d7bd 8ec0 c73c 4aad 3a3f df9b 443f
00000210: 6b00 70bd c956 b0bb cbd2 38bf f69b 94bd
00000220: f37d 5c3f ca8d 06be 81ea cdbd af46 893d
00000230: 620f 63bf ff6c cfbd 4a64 863f 16fa ce3e
00000240: ab7d 3bbe 8602 1a3e b1a8 12bf f888 abbe
00000250: 8491 c5bd 54bf c03e fff4 4abb 6383 a33c
00000260: 2f52 58bd 49d5 21be 5cbf a83f e1a8 ecbe
00000270: c088 3abc 6fcd e8be ddbd 9dbd 85f7 ea3e
00000280: 9c45 153d 2f58 33bd d1ed dcbd bfe5 67bc
00000290: f783 503f 360a 92be ed4e 82be 1e32 c5bd
000002a0: 453b 793e 2db2 863d 509c bd3e 1ddb 183e
000002b0: 25e1 043f a01b 9bbe 4ce5 673d 6186 24bc
000002c0: 977b 4e3f 7cec 283d e1b7 69bf 8aab 993e
000002d0: fa8e 78bb ce99 f23c 78b4 d53c 37af b4bc
000002e0: 2119 47bf 2d48 f8be 544c 41bc 8bfa 323b
000002f0: 877b a73f 96d0 a63c 9cd0 a8bf faf6 4fbb
00000300: 296d acbc 967a fd3b 4d74 3c3d 13d8 57bd
00000310: 0192 09bf cdf5 c4be 7a55 de3b 7834 e7bb
00000320: 3a81 11bf 6ee2 31bf 9a9d 123f 3a2b 323f
00000330: 5e10 b83e c9af 0b3e 779a 1bbf 4bc7 033e
00000340: cc84 893d a918 acba 1651 473f 8467 38bc
00000350: 4ec6 b03e 8d2d 0ebe 44a5 b43d 2429 a03c
00000360: d67e 1abc a480 8bbb 70d2 913c 7834 303d
00000370: 0fa1 b93f 63cf b5be a4fb d8bd 6b2b 613d
00000380: 246b 6bbe 56f3 a43d 22ef d13f d9ec 4c3d
00000390: e30d 403c ff68 853d 2fa7 24bf d978 14be
000003a0: 872b 8ebf 9b63 033e 5681 a03c 0620 fbbb
000003b0: ac91 24bf 55bb 9bbd 983d f83e d2b3 efbd
000003c0: 6ce6 193e ad8e 9a3d d236 cdbd cb79 cfbd
000003d0: c11c 833f 2a49 aebd be6a 1f3f e36a 5d3e
000003e0: 265a 11bf 8dff 023f 759c 573d 0ce4 52be
000003f0: e272 3f3d bf73 b2bc 932c ac3e 2ccf bf3e
-0.0008718493 0.0007873335 1.3066357 0.0005658917 -1.2995602 -0.008741821 0.43399808 -0.14538483
-1.4936023 -0.084640406 0.23539025 -0.099845886 0.11873298 0.27114484 0.16713984 0.31030527
0.16272452 0.1281992 -0.13280684 0.03628604 -0.27957788 0.12472887 -0.9472718 0.07118548
-0.08719183 -0.04184276 0.5102539 -0.09560037 -0.8739357 -0.07411347 0.10393106 -0.28790882
-0.117364936 -0.16691579 -0.10113391 0.2576232 0.16356836 -0.045045063 0.63443536 -0.041511476
-0.9068699 -0.022312742 -0.0440462 0.023463475 -0.86728096 0.029905207 0.7578316 -0.010323752
-0.018365618 0.027517403 0.18669443 0.04242082 -0.43364546 0.6969244 -0.18558787 -0.053638346
0.44132048 -0.17223455 0.13214116 0.056917537 -1.2990175 -0.36935827 0.5762538 0.13433751
0.15556104 0.008992139 -0.022075644 0.13793853 0.27525488 0.08425994 0.11821217 -0.33548033
-0.063618965 -6.731687e-05 -0.06893056 -0.008209956 -1.5532773 -0.60703015 -0.00012718128 0.0019334778
0.040402934 -0.7396085 -0.046543296 0.733726 -0.35148627 -0.108292915 1.0524553 0.060892038
0.075670324 0.039358426 0.25582755 0.22042498 0.68997484 -0.44350278 -0.28433552 0.31648555
0.13534643 0.18223903 -0.14143331 -0.3772317 0.08790152 0.2304368 -0.32835537 -0.20574774
-0.6383343 0.16920349 -0.02290235 -0.28389683 0.018403763 0.0151999695 -0.7208251 -0.60883933
0.7804245 0.6037791 -0.04267685 -0.19601618 0.94209677 -0.18176486 -0.018819988 0.060319707
0.024674103 0.051215336 1.1964539 -0.3366536 0.01585981 0.0098074945 0.07337373 0.020455852
-0.105331115 0.02438381 0.7292067 0.7680034 -0.05859415 -0.0053814393 -0.72196645 -0.0725631
0.86129683 -0.13140026 -0.10054494 0.06702935 -0.8869535 -0.10128211 1.0499356 0.40425175
-0.18309657 0.15040025 -0.5728865 -0.33502936 -0.096468955 0.37645972 -0.0030968783 0.019960111
-0.05281275 -0.15804018 1.3183398 -0.46222594 -0.011385143 -0.45469233 -0.07702229 0.45891967
0.036443338 -0.04378527 -0.107875474 -0.014153897 0.8145136 -0.28523415 -0.2545084 -0.096287
0.24339016 0.06576953 0.3703332 0.14927335 0.51906043 -0.30294514 0.05661516 -0.010041804
0.80657333 0.041241154 -0.912962 0.30013686 -0.0037927018 0.029614355 0.02608703 -0.022056205
-0.7777272 -0.48492566 -0.011797983 0.002730998 1.3084573 0.020363133 -1.3188663 -0.0031732903
-0.021048145 0.0077355606 0.04600935 -0.0526963 -0.5373841 -0.3846878 0.006785092 -0.0070558153
-0.5683781 -0.6948613 0.5727173 0.6959721 0.35949987 0.13641275 -0.6078257 0.12868993
0.06714782 -0.0013129908 0.778581 -0.011255149 0.34526294 -0.13884564 0.088205844 0.019550867
-0.009429654 -0.0042572785 0.01780054 0.043018788 1.4502276 -0.35509786 -0.10594872 0.054973047
-0.2299009 0.08054225 1.6401103 0.050030563 0.011722061 0.06514167 -0.643176 -0.14499225
-1.1107033 0.12830965 0.019592922 -0.0076637296 -0.6428478 -0.0760409 0.48484492 -0.1170422
0.15029305 0.075467445 -0.10020222 -0.10130652 1.024315 -0.08510049 0.6227225 0.21622805
-0.5677818 0.5117119 0.052639443 -0.20594805 0.04674042 -0.021783708 0.33627757 0.37462747

critic.0.bias f4 [64]
00000000: 4e44 0e3b e3d5 a93e 4f9d 1cbf c245 733f
00000010: f50e bc3e 543d 89bf 0554 0ebf 5214 57be
00000020: b61b 97be 1a94 883f 3733 fc3d d688 0b3e
00000030: 5cc4 703f ce7b b5bc da66 fcbf 0ee2 273f
00000040: 4ad7 60bf ffd6 a4bf b119 1bbe c078 533f
00000050: 81ac 0cbd 0391 9abf 332e 81bc 7828 fc3e
00000060: 29bc cfbe 10f7 8abf cbd4 8f3d 794f a9bf
00000070: 2b76 4e3d b560 a63e 7ca9 77bf 7eb6 a63e
00000080: 10e3 d7bd af98 bf3d 9cd6 9a3f fbb3 8fbf
00000090: 35da a5bb c4a1 f1bd 8942 50bf 1199 b5bf
000000a0: a0c9 0a3f a44f 71bf ca07 2dbf 0409 b13e
000000b0: 55bf 12c0 821c 873e 6919 373e 947b cc3d
000000c0: 21cc 60be 977e febe 6ecf 85bf 11c2 a2bf
000000d0: ffd0 99bd fc47 8c3d a601 ecbe c81a 85bf
000000e0: ea28 773f 78c7 793f 549c 2ebf bf5f 94bf
000000f0: 902d 7dbd 0a4a 8b3d ffc5 d13e 6b4d 343f
0.0021708193 0.33170995 -0.61177534 0.95028317 0.3673016 -1.0721841 -0.55596954 -0.21003845
-0.2951333 1.0670197 0.12314456 0.13626418 0.9404962 -0.022153761 -1.9718888 0.6557931
-0.87828505 -1.2878112 -0.15146519 0.82606125 -0.0343442 -1.2075504 -0.0157691 0.49249625
-0.40573242 -1.0856647 0.07023009 -1.3227378 0.050405663 0.32495657 -0.9674299 0.32561105
-0.105413556 0.09355294 1.2096744 -1.1226801 -0.0050614127 -0.117984325 -0.81351525 -1.4187337
0.54213905 -0.94262147 -0.6759001 0.3457719 -2.292928 0.26388937 0.17880787 0.09984508
-0.21952869 -0.49705955 -1.0453928 -1.2715474 -0.07510566 0.068496674 -0.46095008 -1.0398798
0.96546805 0.9756999 -0.6820729 -1.1591719 -0.06181103 0.06801231 0.40971372 0.7043063

critic.2.weight f4 [64, 64]
00000000: 0cee 4f3f 5a0a e0be 92c5 3dbe 1dd4 c8bd
00000010: 210a 13bf ada5 6bbc f143 2b3e 3744 23bf
00000020: 79df f1bc b1b0 f7bd 32ab b7be a0b6 2cbe
00000030: 9a10 b4be 2739 19be fd8c a63c bcc6 01bf
00000040: 3839 85bd 2f1f d3be f145 68be 0ff1 abbe
00000050: d3d2 cb3c 7006 04bf 72e7 3bbf 49e8 88be
00000060: ad75 b9be ed1c e4bd f80a b5be aaed 08be
00000070: 7ab4 18bf 21fa 58bf d42d 81be 4855 1d3f
00000080: c41f 64be 69b3 55bf 629d 88be 7c70 0dbe
00000090: aa7c d7bd 4c11 61be 738c b2be d3bb 8abc
000000a0: dd20 3cbe d1c1 30bd 3bde c5be 90bd d7be
000000b0: bd2e cbbd 0734 26be db36 dcbe 1000 4f3e
000000c0: 68b4 ce3e 72d0 72be e9ad 46be a5e3 2fbe
000000d0: 95b2 55bd 56cd c5be f409 43be 2d99 e9be
000000e0: 8a88 f4be e862 50bd 5d78 08be 6b63 bf3d
000000f0: 202f 8cbe 9c54 7ebe 37d3 88bc 7c70 f9be
00000100: bacd d83d 82a1 883d 1a46 00be c323 3ebe
00000110: 4c05 4d3e 144b fdbd 1399 88bd f35a bebd
00000120: 8865 51be eae6 24be 9ed9 efbd 45a1 b93d
00000130: 048b 13be 9d53 0ebd bcf7 c3bd 324f 65bc
00000140: 4625 cbbd 0166 a53d 3b3a 5abe af36 a9bd
00000150: f25b 14be aed3 f6bd a2da 3d3c 764b 4dbd
00000160: df5f ed3c 779e 9abd 9a7f 32be 2c2a d83d
00000170: 3671 dbbc d33e 6e3b ab52 51bc d9c1 22be
00000180: 7fb4 893d cf01 9d3c bb2c 1ebe dc89 99bd
00000190: 152e 62be 548a 9fbd 7377 5cbd f33e 25bd
000001a0: f090 80bd 18ca 0c3d 3382 993c cc31 a7be
000001b0: 6af8 893c 34f0 903c a206 f63c 5d15 f3bd
000001c0: 91fa c9bd 1e6f cabd 4825 2d3d 382f 2fbe
000001d0: a81f 123e 2a34 64bd 3b70 f2bd 1e4a 14be
000001e0: 9656 13be f554 92bd d98d 093e 0e0f 763d
000001f0: 109f 443a 7f18 47be 7c09 13be 34e7 69bd
00000200: 834d ce3d acf6 21be ca31 49be 7845 24be
00000210: 61d1 8b3c 01ff dcbd 0523 23bd efa4 09be
00000220: 8217 13be 0167 17bd ad04 54bd 169e c93c
00000230: d229 8f3d 883d 1bbd b619 e1bd 186e 33be
00000240: 7450 673d 5a3d 3bbd 395e 74be 914a e3bd
00000250: e47d b0bd 06a0 1fbe a1f1 63bd c216 15be
00000260: 89e8 bdbd 3521 51bd 4508 af3c dc06 b8bd
00000270: 4ad0 86bd 05ec 043c 6096 b3bd a77a 0fbe
00000280: d9d5 20be b7d3 e4bc 3aac 513d d8b6 efbd
00000290: ff05 21be 7fae 953d def6 babc 4465 b03d
000002a0: 896d 9f3d 64a0 f5bc 442e 843b 8ac9 203c
000002b0: 4f7d 60bc f825 16bd 3fff cebd 8ac7 3abd
000002c0: ad93 723d a2b6 fa3c 3892 16bd 0358 e63b
000002d0: f227 12be 5d64 61be b25f 6fbd 1afc bcbd
000002e0: 39a9 03be f2d5 913d 92b7 efbd d695 97bc
000002f0: 92e9 17be 7114 b8bb 37fa a1bd c90b 00bc
00000300: 862a 1dbd d883 13be a22d c0bb 050a 19be
00000310: 8101 dcbd 8862 5abd ba44 c0bb de09 d23d
00000320: e29e 15bd 4393 32be 5cd2 d53d 47ee 07bd
00000330: e85c 83bc 1cbf d8bd 0350 a7bc ec82 cfbd
00000340: 8049 0fbe 80ac 4ebd 5ec5 a23b 3006 973d
00000350: 03a3 17be f673 7f3d 2b31 313d 1ac0 f7bc
00000360: 0174 dcbd aacb f4bd 030b bf3d 88d2 44bd
00000370: fb8e 823d fb57 babc fbf1 bfbd cb28 ffbc
00000380: eb75 c93c 706f 263d f756 14be 61f9 3bbe
00000390: 055e e2bd b84a 11be 09d7 68bd 5489 713d
000003a0: a66f 433c 90f5 c5bd b7f5 2bbe 06a4 07be
000003b0: fcf2 77bd 85bd c0bc 27bf 273d 9c97 b03d
000003c0: b212 973d 9253 1ebe bef8 75be adfc b1bc
000003d0: d32d ffbd f802 d4bd 9d9e 363d beb1 853d
000003e0: 1f6f ad3c c983 36be 4fe1 b0bb 6460 25be
000003f0: 66e8 36bd 78b7 56bd fb55 52be 7bab 11be
0.81222606 -0.43757898 -0.18532398 -0.098060824 -0.5743733 -0.014382762 0.16725136 -0.6377596
-0.029525505 -0.12094248 -0.358728 -0.16866541 -0.35168916 -0.14963208 0.0203309 -0.5069387
-0.06505054 -0.4123473 -0.2268293 -0.3358235 0.024880802 -0.5157232 -0.7340003 -0.2673972
-0.36222592 -0.1113833 -0.3535993 -0.13371912 -0.59650385 -0.84756666 -0.25230277 0.61458254
-0.22277743 -0.83476883 -0.26682574 -0.1381244 -0.10521825 -0.21979254 -0.3487278 -0.016935265
-0.18371911 -0.043153588 -0.3864611 -0.42136812 -0.09921024 -0.16230784 -0.430106 0.20214868
0.40372014 -0.23712328 -0.19402279 -0.17176683 -0.052172262 -0.3863322 -0.19046766 -0.45624676
-0.4776042 -0.050875574 -0.13327165 0.09345134 -0.27379704 -0.24836963 -0.016702278 -0.4871863
0.10586114 0.0667143 -0.12526742 -0.1856833 0.20021552 -0.12367836 -0.066698216 -0.09294691
-0.20448887 -0.16103712 -0.11711429 0.09063963 -0.14408499 -0.03474771 -0.09568736 -0.013995932
-0.09919219 0.08076096 -0.21311276 -0.08262383 -0.144882 -0.120520934 0.011587771 -0.050120793
0.028976379 -0.07549756 -0.17431489 0.10554919 -0.026787382 0.0036353364 -0.012776057 -0.1589426
0.0672388 0.019165901 -0.15446751 -0.07496998 -0.22087891 -0.07790056 -0.053824853 -0.040343236
-0.06277645 0.03437242 0.018738842 -0.3265518 0.016842086 0.017692663 0.03003246 -0.11869309
-0.09862245 -0.09884475 0.042271882 -0.17107856 0.14269888 -0.05571381 -0.118378125 -0.14481398
-0.14388499 -0.071451105 0.13433017 0.06007295 0.0007500509 -0.19442938 -0.14359087 -0.057105258
0.10073378 -0.15816754 -0.196479 -0.16042125 0.017067613 -0.10790826 -0.03982832 -0.13441823
-0.14364436 -0.036963467 -0.05176227 0.024611514 0.069903985 -0.037900478 -0.10991232 -0.17522466
0.05647321 -0.045712806 -0.23864068 -0.11098207 -0.08617762 -0.15588388 -0.055650357 -0.14559463
-0.09272868 -0.05105706 0.021366248 -0.08985683 -0.06582697 0.008112912 -0.08768916 -0.14011632
-0.15706576 -0.027932985 0.05118964 -0.117047966 -0.15724944 0.07308673 -0.022822794 0.08613065
0.07784564 -0.029983707 0.0040338356 0.009813676 -0.013701751 -0.036657304 -0.10107278 -0.04560045
0.059222866 0.030604664 -0.03676054 0.007029535 -0.1427305 -0.22010942 -0.05844087 -0.09227772
-0.12857522 0.07120885 -0.11704935 -0.018504065 -0.14835194 -0.005617671 -0.07909053 -0.00781531
-0.03837063 -0.14405763 -0.005864815 -0.14945228 -0.10742474 -0.053316623 -0.005867568 0.10255788
-0.036528476 -0.17438988 0.104405135 -0.033186223 -0.016035512 -0.10583326 -0.020423895 -0.10132393
-0.13992882 -0.050457478 0.0049673757 0.07374227 -0.14808278 0.06236645 0.04325978 -0.030242968
-0.107643135 -0.11952908 0.09328272 -0.04805234 0.063749276 -0.02274703 -0.09372326 -0.031147381
0.02459236 0.04063362 -0.144863 -0.18356849 -0.11053089 -0.14188659 -0.0568457 0.058968857
0.0119284745 -0.09665978 -0.16792952 -0.13246164 -0.060534462 -0.02352787 0.04095378 0.08622667
0.07376613 -0.15461567 -0.24020669 -0.02172693 -0.12459912 -0.10352129 0.04458486 0.06528042
0.02117115 -0.1782371 -0.0053979526 -0.16150051 -0.044655226 -0.052421063 -0.20540611 -0.14225571

critic.2.bias f4 [64]
00000000: fe5c 8dbe fc47 b6bd 60f7 26bb febc 1ebe
00000010: 0ccd 093e 28ce 3cbd 35bd 793e 2ac6 213f
00000020: 3b2f b5bc 43ae 4b3c 05c1 0dbd 8ee9 6fbe
00000030: 2708 c3be 6fc1 8abe 0ca1 dbb7 aa40 b8be
00000040: e945 713f d17e 1fbe e0f1 dabe c8ea febc
00000050: 3c0e 473f f092 87be 553f 97bd 809a 213f
00000060: 4d73 053f f337 573d 7dfc 703b d058 39be
00000070: 145a 32be 498d 70be 349a 383e 369a d4be
00000080: 815c 9abe 47b9 033f 975c 0d3e 0d38 053f
00000090: da1a 87be e649 1cbe 735e e73d 182d 12be
000000a0: 0aa1 c4bb a965 9b3f 8594 37be c05c b33e
000000b0: cb3f 0a3f 6298 353e dbe3 3ebe 426a 0bbe
000000c0: 2471 3ebe 8999 29bd c050 fbbd f386 5ebc
000000d0: 7887 28be 85be 103f 996c 8f3e 3c13 30bd
000000e0: 54a1 6fbe a8f1 39bd 7b6c ac3e 50cf 0ebe
000000f0: f4f5 303d 8d88 d8bc 9e30 c43d af78 78be
-0.2761001 -0.08900449 -0.0025477037 -0.15501782 0.13457125 -0.046095043 0.24388583 0.63193
-0.022117248 0.012431684 -0.034607906 -0.23428938 -0.38092157 -0.27100703 -2.6181828e-05 -0.35986835
0.942473 -0.1557572 -0.4276266 -0.031117812 0.77756095 -0.26479292 -0.073851265 0.63126373
0.5212906 0.05254359 0.0036771588 -0.18100286 -0.17417175 -0.23491396 0.18027574 -0.41523904
-0.301487 0.51454586 0.13804851 0.5203865 -0.26387674 -0.15262565 0.11297312 -0.14275014
-0.0060006427 1.2140399 -0.1792775 0.350317 0.5400359 0.1773391 -0.18641607 -0.13614753
-0.18597847 -0.04140619 -0.12271261 -0.013581979 -0.16457927 0.5654071 0.2801254 -0.042987093
-0.23401386 -0.045396477 0.33676514 -0.13946271 0.04320331 -0.0264323 0.095795855 -0.24264787

critic.4.weight f4 [1, 64]
00000000: 6d73 8b3f 466f 3ebd 7b67 ef3b 600c 18bc
00000010: 1f27 983f c6b1 10bf 6dfc 32be 6621 97bf
00000020: c127 1dbd 85d5 803d fbe2 a83f 65fd 8fbc
00000030: 427a 483f 5190 1f3e c369 84bd c9d0 b33f
00000040: fba8 f0be d15e 5dbd b072 e73f 4244 c0bd
00000050: 2feb f8bd 585d 833f 6cc4 6d3d eb00 15bf
00000060: f794 edbe 84a5 d93d 5b8c 87ba 76fc 39bd
00000070: 1e85 0d3f 9d7c 2d3c 6a49 95be cbe6 103f
00000080: 6274 0740 0e9f 1abe ef19 93be 3fd6 d2be
00000090: 3e64 a33f 24c6 8dbd d2eb 123f f63c e93c
000000a0: 943a 943c 66b3 94be 9f8b 37be 60f4 9fbe
000000b0: 4345 0a3f d1d0 12bf d58f 533e f5c6 e13c
000000c0: c009 86bd c493 1a40 fd6b d9bb 0e4e bebe
000000d0: e6cb 6a3f d216 133f b24b 013f 4b7f f3bc
000000e0: a2d5 0340 950b 23bb 4b05 f2be cd52 093e
000000f0: 4657 bb3f 9576 ebbb 8e23 9d3e c127 0f3f
1.08946 -0.046492837 0.007306037 -0.009280294 1.1886939 -0.5652126 -0.17479105 -1.1807067
-0.03836799 0.062907256 1.3194269 -0.017576883 0.7831155 0.15582396 -0.06465485 1.4048091
-0.47003922 -0.054045502 1.8081875 -0.09388019 -0.12154233 1.0262861 0.05804865 -0.58204526
-0.46402714 0.10627273 -0.0010341512 -0.04540678 0.55281246 0.010588792 -0.29157573 0.5660216
2.1164784 -0.15099737 -0.28730723 -0.41179082 1.2764966 -0.06922558 0.57391083 0.028471451
0.018094338 -0.2904312 -0.17924355 -0.3124113 0.54011935 -0.5734988 0.20660336 0.02756069
-0.065448284 2.415269 -0.0066351877 -0.37168926 0.91717374 0.57456696 0.50506127 -0.029723784
2.059914 -0.002487873 -0.47269663 0.13410492 1.4636009 -0.007185767 0.3069119 0.55920035
