model/Pendulum-v1/3level/HAC_Pendulum-v1_solved_level_0_crtic.pth (torch, 20865 bytes, 5 tensors)

critic.0.weight f4 [64, 5]
00000000: 3938 a1be 1e05 a1bd 22ae 1abe 4ea3 ed3d
00000010: 73dd 4e3c 5673 adbe c333 24be ca56 03bd
00000020: b864 3dbf 7935 903d 4bc1 b43e 4435 0c3e
00000030: 2322 583e 8fdf 4dbe 191b 8d3c 31bf 84be
00000040: e051 053f ece7 d8bb 37c7 743d 3668 08bf
00000050: 708f 203e ecd5 edbb e731 6c3b df82 2d3f
00000060: 08a6 473c 933e 843e c44c 5f3e fc87 163d
00000070: a16d eebe 7f6e f83d 4b4a b83e c95b 213e
00000080: adf2 393d 2cd4 21bf e1ab 2a3d 53c8 193f
00000090: e489 253e d3d2 d73c 3b4a 19bf d8e3 983e
000000a0: 356e 8b3f 2e36 703e 46a8 b13c ee5e 8ebf
000000b0: f677 40be 6333 4f3f e7d2 133e a52f 913d
000000c0: 3f06 903e 006e 3e3c 5979 65bf 442c 8fbe
000000d0: 4430 23bd 4592 583f a5d9 723e d2e9 653f
000000e0: c931 c03e 7f70 4f3d d0d9 4bbf d24f b1be
000000f0: b5b5 5cbe b5d9 a4bd 3b63 a0bc 08ae 7a3f
00000100: d6e0 adbe 075f 3a3f 99e8 853e 308d d03c
00000110: 40c2 fdbe 65d8 1b3e ea72 b1bf c9d0 a8bc
00000120: a785 9a39 08e0 b03f d537 48bd 7654 853f
00000130: fb5d 28bd ac6f 4339 1f6b 85bf bdba d33d
00000140: 9ded 813f 7d7f ee3d b9aa d63c fe28 72bd
00000150: fc0a 633c 988c b43d 3099 0f3f 5f5c 2b3b
00000160: 6a80 8c3e ad38 0cbf 436e ebbe 559d 16be
00000170: 8c8c 0cbc 5e7d 653f d02b 833e 857c 0c3f
00000180: 8ad7 483e 0583 1a3d f529 363c d0da 233d
00000190: b94e 62bf a531 2a3e 0a97 703a b332 763f
000001a0: 06de fe3d 8547 153f 499f 033f fde3 7c3d
000001b0: 9b82 abbe c7a6 fbbe 4174 22bf e208 41be
000001c0: dcba 0ebd 6104 bb3d 6aa8 efbc 0798 cfbe
000001d0: 5aba 17be 04f9 61bc 0ab1 76bd 37d0 04bd
000001e0: 93d5 a5be 712b 943e 2cf3 343d b1ef d43c
000001f0: 5449 acbe 75e6 cabd 2192 b53d d3fb 9e3c
00000200: e962 853d 7049 43be 13d1 4e3e 9d36 c73d
00000210: 445a 9bbd 31ce a1be ef82 3bbd 7ee0 763d
00000220: 0059 433c d176 cc3a c7f1 7fbf 0ac4 b83e
00000230: 068d 363d 8cd3 08bb 7611 013c bdaa ab3e
00000240: c209 7d3e b730 29bf f939 52be 597c f5bc
00000250: 1038 fb3e 040e 923e e296 35be 4741 ab3e
00000260: 9111 e23d 6bfe 893e 6082 5b3e 2724 1bbe
00000270: 211c 9ebd dc69 2ebd 07f0 803e 3d5b bc3d
00000280: f2da 11bd 6346 d3bc 15aa 82bb d4ca 5bbf
00000290: 7d79 57be 3ea2 323e e599 8c3e 5f38 5a3b
000002a0: 521d 053f ba8a a0be a7b9 b23e 1f4a c33e
000002b0: c0de 913d 9401 17bf 8144 9dbe 92d0 8a3e
000002c0: 5915 033c e66d 32bc 53c8 a53e 1242 873d
000002d0: 36f6 9ebe 9f07 c2bd 713d a2bc 85f1 383f
000002e0: a6f6 a3be 8cd8 efbe c383 0dbe e620 35bc
000002f0: 2ac8 053f 61ae 70be eaa4 27bf 9707 3dbe
00000300: d353 fbbc 591f b7be fa6a 683d 580e 3abd
00000310: 9eb3 80bd 7651 8d3c 4f4d a93f 0f15 103e
00000320: 007e c93e b81c 823d 7d09 103d 8be6 9bbe
00000330: 08a6 4e3e bcc7 05bf 43f6 20be 4cec cf37
00000340: f0a9 693f 9400 483e 363b 0c3d 5a6c 8e3d
00000350: 68f9 c73c e499 f53d 9f7c c3be ae87 d7bd
00000360: 2960 81bd 3932 2fbd 3abb 9ebd 9037 3bbd
00000370: 0e34 683e 8497 b13d 7b9f ce3c 8f79 823e
00000380: 62fd babe fb85 563f f48b 803e 197b 283d
00000390: 533c 683e 86bc 04bc c490 6cbe 7ea5 86be
000003a0: a253 9bbd 820f 03bf ecc6 833e 6bb2 d4be
000003b0: 17ff 6c3e 96b7 57bc 2f82 4b3e b50b ddbe
000003c0: 232a 253f 1104 873e f98c 0a3d 48a8 83bf
000003d0: 6552 61be ed25 4b3e e69b 7d3e fad8 493d
000003e0: 3641 323e 18f6 31be d6e8 0f3e c9db 30be
000003f0: 905b c8bc 34a3 48bd a28b ed3e d375 6b3d
-0.31488207 -0.07862304 -0.15105489 0.116034135 0.01262604 -0.33877057 -0.1603537 -0.03206519
-0.7398181 0.07041449 0.3530372 0.13692194 0.21106772 -0.20104812 0.017224835 -0.25927117
0.52078056 -0.006619444 0.0597603 -0.53284013 0.15679717 -0.0072581675 0.0036040486 0.6777782
0.012185581 0.2582899 0.21806628 0.03675078 -0.46568015 0.121304505 0.3599418 0.1575767
0.04539745 -0.63214374 0.041667823 0.60071295 0.16165882 0.026345646 -0.5987889 0.2986133
1.0893008 0.23458168 0.021686684 -1.112272 -0.18795761 0.80937785 0.14435922 0.070891656
0.28129765 0.011622906 -0.89638287 -0.2796346 -0.03984095 0.8459819 0.23715837 0.89809906
0.37537983 0.050644394 -0.7962923 -0.3463121 -0.2155369 -0.08049337 -0.019578567 0.979218
-0.339606 0.7280125 0.2615402 0.025457948 -0.49562263 0.15219267 -1.3863194 -0.020607369
0.00029472748 1.3818369 -0.04888137 1.04164 -0.04110525 0.0001863825 -1.0423316 0.10338352
1.0150639 0.1164541 0.026204454 -0.059121124 0.013857599 0.08815879 0.5609312 0.0026147587
0.27441722 -0.5477398 -0.4598256 -0.14708455 -0.008578431 0.8964442 0.25619364 0.548775
0.19613472 0.037722606 0.011118402 0.040003598 -0.8840137 0.166205 0.000917778 0.9617111
0.12444691 0.58312255 0.51414925 0.061740864 -0.33498082 -0.4915068 -0.6345864 -0.18851045
-0.03484617 0.091316946 -0.02925511 -0.40545675 -0.14817181 -0.01379228 -0.06022743 -0.03242513
-0.32389507 0.28939393 0.04417722 0.0259932 -0.33649695 -0.099072374 0.088657625 0.019407189
0.06513006 -0.19070983 0.20196943 0.097272135 -0.07585576 -0.31602624 -0.045779165 0.060272686
0.011923075 0.0015599375 -0.999783 0.36087066 0.044568084 -0.0020878045 0.007877698 0.335287
0.24710754 -0.6608996 -0.20529927 -0.02996652 0.4906621 0.28526318 -0.17733338 0.3344824
0.11038507 0.26951918 0.21436453 -0.1515051 -0.07720209 -0.042581424 0.25183126 0.0919709
-0.035609193 -0.025790399 -0.0039875605 -0.85856366 -0.21042438 0.17444703 0.27461162 0.003329776
0.51997864 -0.3135584 0.34907266 0.38142487 0.07122564 -0.58986783 -0.30716327 0.27112252
0.008000695 -0.01089046 0.32379398 0.06604399 -0.3104722 -0.0947411 -0.019804688 0.7224353
-0.32024115 -0.468449 -0.13819794 -0.011055207 0.5225855 -0.2350402 -0.65486014 -0.18459927
-0.030679619 -0.35766104 0.056742646 -0.045423836 -0.06284259 0.017250758 1.3226718 0.14070533
0.39353943 0.06353134 0.0351653 -0.30449328 0.20180523 -0.52257895 -0.15718941 2.4786357e-05
0.9127493 0.1953147 0.034236155 0.0695426 0.024410918 0.11992243 -0.38181016 -0.10523926
-0.06317169 -0.042772505 -0.077505544 -0.045707285 0.22676107 0.086714774 0.02522253 0.25483367
-0.3652144 0.8379819 0.25106776 0.04113302 0.22679262 -0.008101588 -0.23102099 -0.26298136
-0.07584311 -0.5119554 0.25737703 -0.41542372 0.23144184 -0.013166329 0.1987388 -0.43172994
0.6451742 0.2637029 0.03382585 -1.028573 -0.22004087 0.19838686 0.24766502 0.04927919
0.17407688 -0.17379034 0.14053664 -0.17271341 -0.024457723 -0.048983768 0.46395594 0.057485413

critic.0.bias f4 [64]
00000000: bb2f 4dbf ef71 acbf 2bbb 1ebf ead4 1f3c
00000010: b405 bdbf a091 c2bf 3800 8cbf d743 07be
00000020: fabc 2ebe 14aa 0d3f 741f 09be 8ec0 b03d
00000030: 5aa8 90bd e19b f63d d314 10bc 2865 86bb
00000040: 3601 acbf 655a 29be f4aa b0bf 9194 463e
00000050: 9ada a83c c85b 20bd ba0e 2cbe 670b 00bd
00000060: 864c 013f 4f52 833e f67b 2bbf 9499 cdbd
00000070: cd18 e1bd 1b17 1c3e aca4 b1bf 2a2a be3d
00000080: 2682 bd3d 9d85 3d3e 59b1 eabe bc77 263e
00000090: 3f14 51bf 1eda e7be 5cad 9cbe 709b 98bf
000000a0: f846 11bf 0adf 27bf faa8 c1bf 9683 2e3e
000000b0: 1d5d a23e 0b0d b6be c286 4c3e 54e0 a7bf
000000c0: dc03 7cbf 39c3 7b3f 4e56 b8bf 5237 34be
000000d0: bde2 37bf db77 94be f978 3dbe f36d be3e
000000e0: b255 98bc 90d4 8abf 03fa 02bf 4ca4 a7be
000000f0: 7ddc 9dbe 4230 803b 7ca7 b4bf 82aa 83bd
-0.80150956 -1.347227 -0.62004346 0.0097553525 -1.4767365 -1.5200691 -1.0937567 -0.13209473
-0.17064276 0.55337644 -0.13390905 0.08630477 -0.070633605 0.1204145 -0.008794027 -0.0041014142
-1.343787 -0.16538389 -1.3802171 0.19392611 0.02061205 -0.03915003 -0.16802493 -0.031260874
0.5050739 0.25648734 -0.66986024 -0.10039058 -0.109910585 0.15243189 -1.3878379 0.09285386
0.092533395 0.18508 -0.4583843 0.16256613 -0.8167152 -0.45283598 -0.30601013 -1.1922436
-0.56748915 -0.65574706 -1.5129693 0.17042384 0.31711665 -0.35556826 0.19973281 -1.3115335
-0.9844339 0.9834476 -1.4401338 -0.17599228 -0.7183035 -0.28997692 -0.18503179 0.3719326
-0.01859555 -1.0846119 -0.5116274 -0.32742536 -0.30832282 0.003912003 -1.4113612 -0.06429006

critic.2.weight f4 [64, 64]
00000000: 12a8 07bd b625 43be 0f8e 963b af89 5abe
00000010: 5f15 4bbc d105 703d 543a b2bc 35dd 913c
00000020: fe22 3fbe 688a 93be 62e2 a8bd 6375 c3be
00000030: 4148 8fbd 0121 fb3c 3626 adbe c352 aebe
00000040: e932 e83b 11f7 d4bd 7864 173e 7b72 68be
00000050: 4a58 4abe dcb5 21be 67b8 99bd 31e1 1b3e
00000060: 4440 7cbe 6f5f 833d f85e 7c3d c72b ba3d
00000070: 2f6e 3abe 4dc2 453d 4048 ee3b e242 4dbe
00000080: 0564 18be a1ec 37be 62b2 05be dd8b 60be
00000090: 882b 57bd 9d87 e3bd 0ef9 f6bd 2ec5 48be
000000a0: 8ca1 38be 4d07 25bd ff07 90bd 1880 83bc
000000b0: ea5f 3dbc cb9d 73be 0917 dbbd a6dc ecbe
000000c0: 03da 3b3d 87a0 5bbe 6fa7 0cbe 17ad 88bd
000000d0: ff01 cebd f141 88bd 7f15 0cbe 1303 4ebe
000000e0: 30de 323d db85 8dbb df47 d0bc 2ec2 85bd
000000f0: 9631 95bb f1fc aebd 22ce 80bd cdb5 b33d
00000100: bea8 9c3e fe03 74bf 81a8 303e e86a e5bd
00000110: b78d 6c3f 9f24 80be 672c fe3d ef19 b2bf
00000120: cc0d 343f 5aaf a7bd 79d6 ff3d 2fd0 0ac0
00000130: 0d6d 5e3e 0e0e 4abe 0324 8fc0 9705 4dbf
00000140: 8c2f 2b3f 0a24 5ebf 7225 eebe 5e9a e7be
00000150: e395 ed3e c6b1 85bf 6e62 77bd 3789 bcbe
00000160: ad19 0cbe e925 49be b8f5 07be 0ebc f3be
00000170: 7297 0cbe 4a11 8e3c 7023 babe 0d80 183e
00000180: 4912 98bd 7fb1 30be 2d1c 73be 8497 133e
00000190: a687 d33e e372 15bd 727d 16bf d3c9 373f
000001a0: bf50 633c 66d0 1fbf 13d2 5cbe 799f 96bd
000001b0: 8de6 07be ff54 5a3d a949 c43e 052b 3a3e
000001c0: dc32 9a3e d644 c5be 2994 b7bc e912 a83c
000001d0: 27df 4c3e 4dac 23be 288f 3dbf caff e4be
000001e0: a216 dbbf b268 c13e 630c 333e 356a 673e
000001f0: e39a 15bf 3d6c 5fbc 90f2 d13e 7526 563f
00000200: 3e6c 31bf afc9 16bd 17ef 24bf b359 bbbe
00000210: 3cb6 34bf 13a2 62be 5a4c 88bf 1b01 22be
00000220: f44f 04c0 9f3e 493e 9b1e b9bf 8449 30bf
00000230: 3b9d 31bd ed8c 91be b263 823e ba9d a33e
00000240: 4b03 29be 1601 a63e 2afc d3be 8b83 573d
00000250: 2b12 4c3d bc08 963c 3a8a 1bc0 3468 5dbf
00000260: 204f 09bf 0de1 36bd 8bb5 343e f814 61be
00000270: 44d0 993d 8c57 d53b ff5f b2be aade 753e
00000280: 4037 10be ebdb ab3e b000 29bf fb87 923e
00000290: 976f 2c3c 9ebd 9cbf 845a 07bf cf46 8abf
000002a0: 3313 03bf beeb 963e ab0a 853e 53a7 a7be
000002b0: efc0 763e 3d54 923e 3177 103d 49fb 423e
000002c0: bb7e 49bf 6ab3 78bd 2702 0dbf 4dff 343e
000002d0: 2557 513d b7d4 e23d 6c45 26be 64fd fbbd
000002e0: edd9 a03d b04c fdbe a6e2 0a3e 39fc 6a3e
000002f0: 2d28 bb3e 8809 cd3e d4b7 42bf f2c2 c33d
00000300: 0d3a 86be 26b5 a5bd 0917 5bbd 029e c93e
00000310: 333d 2b3e ec35 50be d5af cbbd 1911 01bd
00000320: 8b51 49c0 ca62 36bd 994e dcbe a6fd 8bbc
00000330: 907f aebe 1623 5abe d247 9dbf 94f5 c0c0
00000340: e1cc cbbd aa77 443e dd97 f4be a86f c53d
00000350: 1f2a 833e d4cd cbbd 5adf 4fbe 52a4 1f3e
00000360: 20a6 673e 3f63 913e dc95 273c 6d09 993d
00000370: cddc a9be b67d 26be 1d6f 8a3e d6db 6f3d
00000380: 0edb 6f3e 7e7d e4be dbf5 91be 3cb3 71bd
00000390: a5dc 8cbc b21f 34be ca5a aa3e 7ce7 9e3d
000003a0: c7e7 00be ea0a 2f3f 2c2d 103e 5aa6 24bd
000003b0: 0559 95be 2c21 b3be 53f9 f9bd 437f 63be
000003c0: 0156 abbf 6565 f43d 4a48 11c0 3c2c c8be
000003d0: 5f73 d03e 3ec1 a6bc 8de9 dcbe eace 533e
000003e0: 4779 b6be 039d f1be c01f 5a3e ac38 053e
000003f0: db99 11be ea86 b83e 52fc a0be 8cd3 1c3e
-0.03311927 -0.19057354 0.0045945714 -0.21341585 -0.012395232 0.058599297 -0.021756329 0.017805675
-0.18665692 -0.28816533 -0.08246304 -0.38175496 -0.06996203 0.030655386 -0.33818215 -0.34047517
0.007086147 -0.10398687 0.1478442 -0.22699921 -0.19760242 -0.1579203 -0.07505875 0.15222622
-0.2463389 0.06414687 0.061614007 0.09090381 -0.18206094 0.048281003 0.0072717965 -0.20045045
-0.14881904 -0.1796136 -0.13056329 -0.21928354 -0.05253175 -0.111098506 -0.12059222 -0.19606468
-0.18030375 -0.040290166 -0.07032775 -0.01605229 -0.011558512 -0.23790662 -0.10697753 -0.4626209
0.04586221 -0.21447955 -0.13735746 -0.06673639 -0.100589745 -0.06653202 -0.13680075 -0.2011836
0.043668926 -0.0043189353 -0.025424896 -0.065311775 -0.0045530302 -0.085443385 -0.06289317 0.0877491
0.3059749 -0.9531859 0.17251779 -0.112020314 0.9240374 -0.2502794 0.12410813 -1.3914164
0.7033355 -0.081877425 0.12492079 -2.1689565 0.21721287 -0.19731924 -4.473146 -0.80086654
0.66869426 -0.8677374 -0.46512944 -0.4523496 0.46403417 -1.0444877 -0.060396604 -0.36823437
-0.1368167 -0.19643368 -0.13277328 -0.47604412 -0.13729647 0.017342228 -0.36355162 0.14892597
-0.074253626 -0.1725521 -0.23741217 0.14413267 0.4131443 -0.036486518 -0.58785164 0.71792334
0.013874232 -0.62427366 -0.21564512 -0.07354636 -0.13271542 0.053303715 0.38337448 0.18180473
0.30116928 -0.3852908 -0.022409515 0.02051683 0.20007001 -0.15983696 -0.74046564 -0.44726402
-1.7116282 0.3777519 0.17485194 0.22599109 -0.58439463 -0.013636646 0.41005373 0.8365243
-0.6930579 -0.036813434 -0.6442732 -0.36591873 -0.7059057 -0.22132139 -1.0648301 -0.15820734
-2.06738 0.19652794 -1.4462465 -0.68862176 -0.043362837 -0.2842783 0.25466686 0.31956273
-0.16505162 0.32422704 -0.41403323 0.052615684 0.049822014 0.018314712 -2.4303117 -0.86487126
-0.5363636 -0.04464822 0.17647378 -0.21980655 0.07510427 0.0065106805 -0.34838864 0.24010721
-0.14083576 0.33566222 -0.66016674 0.2861937 0.010524652 -1.2245367 -0.5287249 -1.0802859
-0.5120117 0.29476732 0.25984702 -0.32744846 0.24097036 0.28579894 0.03526992 0.1904117
-0.78709 -0.060717978 -0.5508141 0.17675515 0.051108498 0.110757284 -0.1623742 -0.1230419
0.07854066 -0.4947257 0.13563022 0.22947778 0.3655409 0.40046334 -0.7606175 0.09558667
-0.26216164 -0.08091192 -0.053488765 0.39378363 0.16722564 -0.2033307 -0.09945647 -0.031510446
-3.145602 -0.044527806 -0.43028715 -0.017088722 -0.34081697 -0.21302447 -1.2287543 -6.029978
-0.09951187 0.19186273 -0.47772112 0.09640437 0.25618073 -0.09951368 -0.20300046 0.15590027
0.22621965 0.2839603 0.0102286 0.07472501 -0.3317627 -0.16258892 0.27037898 0.05855926
0.23423406 -0.44626993 -0.28507885 -0.05900882 -0.017195055 -0.17590216 0.33272392 0.07758996
-0.12588416 0.6837603 0.14079732 -0.040197708 -0.2916948 -0.34986246 -0.12205758 -0.22216515
-1.3385621 0.11933402 -2.2700372 -0.39096248 0.4071302 -0.020355817 -0.43146935 0.206844
-0.35639402 -0.47190103 0.21301174 0.130099 -0.14218847 0.3604043 -0.31442505 0.15315074

critic.2.bias f4 [64]
00000000: d4f0 e8bd c544 e5be 3f13 b83d 25f2 623e
00000010: edb3 b6be 1419 cd3e 38f0 f43e 1e85 6b3d
00000020: 7f60 3bbe 4420 a2be 61f4 00be d123 563d
00000030: 8985 ccbd 31bc 923e bed6 d83d 9327 06bf
00000040: 92e9 fc3d b8e6 d23e d85f e73e 4ae3 283f
00000050: fdb5 13be 06d5 45be 7e0c e63a d4d0 223f
00000060: c9b9 003f ed19 553f 668f 093e 4f78 c03e
00000070: a9bc 0abe 9758 4ebf 6d92 1f3e 8796 cd3e
00000080: 02dd f23e 6c96 363f 0db4 10bf fdf7 bfbc
00000090: 3603 973e 111e 1fbe 1f0f 6fbe 6ea2 543e
000000a0: 8e80 adbd 8c65 f9be 4167 65be 3725 fb3e
000000b0: e80b 193f 0565 343f e71b 453f 5bd8 1c3f
000000c0: 1f72 a0be fe8b 0abf 2fbe 83be f489 183f
000000d0: 7177 1e3e 3d46 db3e e40d 0fbe 8ac8 9b3e
000000e0: 55a3 26be a08e cd3d f447 dc3e 0ebf 57be
000000f0: e84a 0ebe 7ee7 ac3e e0c7 f23e 5d04 113f
-0.11374059 -0.4477903 0.08988046 0.22162683 -0.35684147 0.40058196 0.47839522 0.057499997
-0.18298529 -0.31665242 -0.12593223 0.05228025 -0.09986407 0.28659204 0.10587834 -0.52404135
0.123492375 0.4119165 0.4519031 0.65971816 -0.14424892 -0.19319543 0.001755133 0.63599896
0.50283486 0.83242685 0.13433608 0.37591788 -0.1354853 -0.8060393 0.15583201 0.40153906
0.4743424 0.71323276 -0.56524736 -0.02343368 0.29494637 -0.15538813 -0.23345612 0.20765087
-0.084717855 -0.48710287 -0.2240267 0.4905183 0.5978379 0.70466644 0.769957 0.6126763
-0.31337067 -0.5411986 -0.25731036 0.595855 0.15475251 0.42827025 -0.13970143 0.30426437
-0.16273244 0.10036969 0.43023646 -0.21068975 -0.13895762 0.33770365 0.47418118 0.5664728

critic.4.weight f4 [1, 64]
00000000: 0c19 a83b 7cf1 f03f a3a8 0f3f 5b2f ffbe
00000010: 38af a73f 9538 cabd a995 003f 5d06 333f
00000020: d217 e33e 79f0 be3e 641e 8bbd edf2 55be
00000030: 1996 42bd b25c 553f 582c 61be a065 53be
00000040: 7a33 c03d 5d65 00bf f3a2 e43d ef5f edbe
00000050: 7872 9b3e 5d9a bcbe 04da 83be 2e23 4dbe
00000060: 3f1a b7be 5fc8 abbe a3d9 733f 0377 843e
00000070: d374 90bc a03d d6be 9374 df3e 9982 a4bf
00000080: 8ba0 21bf 15fa f6be 82f9 71be e988 16bf
00000090: 96fb 3fbe 625a c93c 9d30 36be 2eac d23f
000000a0: 9450 083e 5488 ea3e 0b4b 91be 48e1 d53f
000000b0: 1af4 e63e 6b97 58be b686 113f d68c a9be
000000c0: 960b 033f 012e ee3e a742 96be 2f65 0ebf
000000d0: a070 573d 0b83 fbbe ddba b73d 206d 263e
000000e0: 1de6 933d 897b 9e3e a230 af3e 50d5 6d3e
000000f0: 9ff9 fbbd 085d 1b3e 231f 8b3f 5d53 62bf
0.005129939 1.8823695 0.56116694 -0.49840817 1.3100348 -0.098740734 0.50228363 0.69931585
0.4435411 0.3729284 -0.06792906 -0.2089345 -0.047506426 0.83344567 -0.21989572 -0.20644236
0.093848184 -0.5015467 0.111638926 -0.46362254 0.3036077 -0.3683652 -0.2575227 -0.20032951
-0.35762212 -0.3355131 0.9525396 0.2587205 -0.017633831 -0.4184389 0.43643627 -1.2852355
-0.63135594 -0.48237672 -0.23630336 -0.5880266 -0.18748316 0.02457923 -0.17791982 1.6458795
0.13311988 0.45807135 -0.28377566 1.6709375 0.4510811 -0.21151511 0.5684618 -0.33115262
0.51189554 0.46519473 -0.29347727 -0.55623144 0.052597642 -0.49123415 0.08971188 0.16252565
0.07221625 0.30953625 0.3421679 0.23225904 -0.12303471 0.15172207 1.0868877 -0.8840845
