model/Pendulum-v1/3level/HAC_Pendulum-v1_solved_level_1_actor.pth (torch, 20865 bytes, 6 tensors)

actor.0.weight f4 [64, 4]
00000000: 5c1a 8d3d fffa 94bc 30ec 9f3e a2ab 6f3e
00000010: 16d5 eb3a c409 983c 1d58 77be 9b6c 02bd
00000020: a7a1 74be 3e38 a83c ae0d 833f 6d7d 98be
00000030: af9d 38be 5083 5f3e 3250 843e 8aa0 f83d
00000040: 2b73 b0bc 1d02 f6bd 4578 bd3f 3d60 f4be
00000050: 239c cb3e a533 ec3d 1a2d 363f a23f 5abd
00000060: 54ab 963d 26cb b33d 6b78 5c3e 2762 37be
00000070: 3272 44bb d01a 0e3b 2a36 2fbc ae09 8f3e
00000080: 6d02 b3bb 4f46 af3a 5cd6 08bc e88a 52be
00000090: 3349 f8bb a3e0 febb 6535 03bf 1556 143e
000000a0: 8ea9 4d3e bd29 ecb8 e8c9 783e fbf1 983e
000000b0: 6753 ddbe 7138 35bd 6246 5c3f 9736 2cbe
000000c0: 1199 40bd 69c6 c03c f810 eabd 56ec 0dbe
000000d0: f6be 073d 0eef 7f3c 233a 60be 0661 a1be
000000e0: 6d6f d23b c287 00bb fa12 8ebd ede8 85be
000000f0: 7d23 cebb b055 9d3a 2a78 c03e 4b15 193c
00000100: bf04 943e 24a1 983d ff59 d7be 09a7 183e
00000110: 879a 85be 8723 13be 9ffb 383f 9849 01be
00000120: d2d3 fa3d 452f ad3c 4e22 e23d 840e 1ebe
00000130: 7a97 283d 63c1 cd3d 3ac5 e9be 7f33 b33d
00000140: f58e ae3c 3a67 1b3d 4703 83be 516a 4abe
00000150: 6e94 90bd 2247 c6bc 2a50 06bf 7f9e 863d
00000160: 59e4 2dbd f734 933c 8095 20bf 0c78 e23c
00000170: a4cf 11be 3f2e 09be 0040 c03d f3f2 1c3d
00000180: d413 c33a 3944 f7bd 5f8c 723f 7e47 89be
00000190: 474e 083f 9d1e d6bd 472b c63e be05 9abc
000001a0: eb02 b03c a474 6dbc 2128 10bf 7014 7dbc
000001b0: 64f2 b3bb 1745 0eb8 1723 0e3b df5b 69be
000001c0: 871d ab3e e93f ca3d ebe5 97bd 5fb5 453e
000001d0: 0324 9abd a499 95bd a9ba 11be e201 2c3e
000001e0: b986 d53e a04b 073e 0d25 bb3e 03b5 e4be
000001f0: a789 ebbc 8ccb a8bc 1d3b 91bd cea0 35be
00000200: 97ea 993c d14e 4cbd 992e 853e 7b40 95bb
00000210: ba58 1fbe 386c ee3d 9439 f23e 63a0 fa3d
00000220: 24e4 e93d 05b9 c13c 7b52 0bbf 7f40 16bd
00000230: d6af 29bd 6d8e cbbc e15a b03e 9db0 f23e
00000240: d97d 5f3e 9c11 773d 54e0 b53e 2215 cd3c
00000250: a3fa 4dbe 45ee a1bd 7365 4f3f e095 6cbe
00000260: d86e 93bc e68c 55bb 5692 443f 461b 8cbb
00000270: c06d 523e 9dce 243e 9290 be3d 5d77 a4be
00000280: f025 22bd bf6c 98bc cfff d7bc 92dd c9bd
00000290: 44c8 7e3e b265 7c3d 8449 01be 9218 163e
000002a0: 7465 633e 3a86 003d ad19 ccbe c71f 73bd
000002b0: b162 2ebc 6c61 00bb 293b 97bc 0d5a a23e
000002c0: 6a25 963c 2210 3a3d e474 70be c6eb 0fbc
000002d0: b43c 8dbc 597b 9cbc 8df5 c3be e79b dcbd
000002e0: cd23 903d a6d9 52bc 2e06 b73e 6f8f 143e
000002f0: 8a0a 2d3c d7ca 25bd e3cb a23d 6f63 283b
00000300: 401d 373d 63f7 213d 49e6 b73d 39d0 903e
00000310: 0815 f83c fe6c e33b 84b0 9cbe 055c adbe
00000320: c6a2 b0be 156f 81bd 2c04 d0be c2e7 6dbe
00000330: cbb3 863c 7752 1b3a 65d5 94bb 51c9 cabe
00000340: 702f 3bbf a54e 56bd bcf6 c13f 50bc 81be
00000350: 00be 8d3d 6c4d ba3d ec48 e73e dbeb 273e
00000360: 9627 edbd 02df 0a3c e992 353f a35a 1d3d
00000370: 7013 ecbd b789 2a3c 0ab3 8d3e b4ce 98be
00000380: cdb1 ca3e 45ed 4f3e 24ab 49be 4316 81be
00000390: 6c77 84be 632f fc3b 9b56 1f3e b41c 663e
000003a0: 6877 aa3d a64f 063d baa1 143f 5f18 8c3d
000003b0: addf 8dbb 04d2 8bba 2f7f 91bb a1f7 7dbe
000003c0: b31e 5fbe 5b4e 743d 1fbc 603e 9e4a a43c
000003d0: 3d11 33be 7853 e5bd 61df 7b3e 52c3 4cbe
000003e0: 1027 dc3e 395b b33d e627 97be f255 b93c
000003f0: d7be e6bd b3eb 7fbd 1f31 613e e989 51bd
0.06889793 -0.01818609 0.31234884 0.23405316 0.0017992582 0.018559344 -0.24154706 -0.031841855
-0.2388979 0.02053463 1.023855 -0.29783192 -0.18028902 0.21827435 0.25842434 0.121399954
-0.021539291 -0.12012122 1.4802328 -0.47729674 0.3976756 0.11533288 0.7116257 -0.05328334
0.07356897 0.08778982 0.21530311 -0.17908536 -0.0029975292 0.0021683462 -0.010694066 0.27937073
-0.0054629357 0.0013372394 -0.0083518885 -0.20560801 -0.0075770854 -0.0077782436 -0.5125335 0.14485963
0.20084211 -0.00011261131 0.24295771 0.29872116 -0.43227693 -0.04424328 0.86044896 -0.168177
-0.047020976 0.02353211 -0.11429018 -0.13859686 0.0331411 0.01562096 -0.21897177 -0.31519336
0.0064219744 -0.0019612168 -0.06937213 -0.2615427 -0.0062908516 0.0012003686 0.37591678 0.009343456
0.2890987 0.0745261 -0.4206085 0.14907469 -0.26094458 -0.14369021 0.72258943 -0.1262573
0.12247433 0.021140704 0.11041699 -0.15435225 0.041160084 0.10046651 -0.45658284 0.087500565
0.021308402 0.03794024 -0.25588438 -0.19767119 -0.07059561 -0.02420384 -0.5246607 0.065731995
-0.042454097 0.017969592 -0.6272812 0.027645133 -0.14239365 -0.13396548 0.09387207 0.038317632
0.0014883229 -0.12073559 0.9474544 -0.26812357 0.5324444 -0.10455058 0.38704893 -0.018801566
0.021485766 -0.014493141 -0.5631123 -0.015446767 -0.0054915417 -3.3919783e-05 0.0021688396 -0.22788952
0.33420965 0.09875471 -0.074169 0.19307469 -0.075264 -0.07304695 -0.14231361 0.16797593
0.41704348 0.13212442 0.36551705 -0.4466935 -0.028752161 -0.020604871 -0.07091353 -0.17737123
0.018788619 -0.049879853 0.26012114 -0.004554806 -0.1556119 0.11641735 0.47309554 0.122376226
0.114204675 0.023647794 -0.5442273 -0.036682602 -0.041427456 -0.024848187 0.34444335 0.4740037
0.21825351 0.060319528 0.3552271 0.025034491 -0.20115142 -0.079067744 0.81014174 -0.23104048
-0.01799719 -0.0032585203 0.7678579 -0.004275712 0.20549679 0.16094442 0.09304918 -0.32122317
-0.03958696 -0.018606542 -0.026367096 -0.09856714 0.24881083 0.06162042 -0.126257 0.1465781
0.2220667 0.03137801 -0.3986334 -0.059356477 -0.010643647 -0.0019589318 -0.018460827 0.31709328
0.018328387 0.04542554 -0.2348209 -0.00878424 -0.01724086 -0.019101785 -0.38273278 -0.107719235
0.070380785 -0.012869274 0.35746902 0.1450784 0.010561595 -0.040476646 0.079490446 0.0025694033
0.04470563 0.039542567 0.0897947 0.2828386 0.030283466 0.006940483 -0.3060342 -0.33859268
-0.34499186 -0.06320015 -0.40628183 -0.2323294 0.016443154 0.0005925069 -0.00454204 -0.39606717
-0.7311926 -0.052321095 1.5153422 -0.25338984 0.06921005 0.09096798 0.45172822 0.16398565
-0.11579816 0.008476021 0.7092729 0.038416516 -0.11527145 0.01040881 0.27675658 -0.29845202
0.39588776 0.20305355 -0.19694191 -0.25212297 -0.25872362 0.0076960786 0.15560381 0.22471887
0.08323556 0.032790802 0.58059275 0.06840586 -0.0043296427 -0.0010667448 -0.0044402103 -0.24801494
-0.21789055 0.059645038 0.21946763 0.020055111 -0.17487045 -0.11197561 0.24596931 -0.19996384
0.42998552 0.08757634 -0.29522628 0.02262399 -0.112668686 -0.06248064 0.21991394 -0.051156912

actor.0.bias f4 [64]
00000000: 13df 16be 9864 9abf d8bc 933e 7195 a6bf
00000010: cf29 dcbe e0e5 e53e 1d10 9abd b914 c4bf
00000020: 40cc 8abf 1688 873c 6ea2 dcbf 0381 673e
00000030: 47cf c4be acea 143c af37 30bf 4852 1dbf
00000040: d2bb 47bf e47f 0cbf 4cf2 d7bf 6302 a9bf
00000050: dcfd 563e d422 2fbf f562 a7bf d37e e4be
00000060: c61a fbbe 8843 b63d b060 afbf 6f15 bbbf
00000070: 4b84 fdbf 3c60 aebf dbce afbf 91cb 643e
00000080: b569 a9bf a07e 6bbf dbed 47bf 73c0 ecbc
00000090: f46b 513e 83fc 94bf fe48 f4bf 7807 8fbf
000000a0: c4d7 98bf 28ba e2bf c266 9cbf 8782 9dbf
000000b0: ed97 3ebe ea89 95bf 6439 6abf 5d05 4bbf
000000c0: d508 cbbe 9e2c bb3d f5f9 4dbf 850f dcbf
000000d0: e26d a03e f0e1 95bf b78a 32bf a31c 93bf
000000e0: 412a 9fbf 54f5 93be 28b5 47bf 7af0 e1bf
000000f0: 3974 fc3e e14e 1bbf 5d13 8bbf 3ddd e53e
-0.14733534 -1.2061949 0.28855014 -1.3014356 -0.43000647 0.44901943 -0.075226046 -1.5318824
-1.0843582 0.016544383 -1.723707 0.22607808 -0.3843939 0.009089153 -0.68834966 -0.61453676
-0.78020966 -0.54882646 -1.6870818 -1.3203853 0.20995277 -0.6841252 -1.3077074 -0.4462801
-0.49043864 0.08899599 -1.3701382 -1.4615916 -1.9805998 -1.3623118 -1.3735002 0.2234328
-1.3235384 -0.9199009 -0.78097314 -0.02890036 0.20451337 -1.163956 -1.9084775 -1.1174154
-1.1940846 -1.771306 -1.2218859 -1.2305459 -0.18612643 -1.1682713 -0.9149382 -0.7930506
-0.39655176 0.091393694 -0.8045953 -1.7192236 0.31333834 -1.1709576 -0.6974291 -1.1493114
-1.243477 -0.28898108 -0.780108 -1.7651513 0.4930742 -0.60667235 -1.0865284 0.44895354

actor.2.weight f4 [64, 64]
00000000: ca2d 7ebf f198 29bf a3ca ef3d c79d 2cbc
00000010: a8ba 8f3d e14d a1bd b305 c1bd 847f 273e
00000020: 00dc 05c0 0f62 32bf 69d3 72be 89d1 b33d
00000030: 70fa 40be c3af 33be 0f86 98bf 9372 c73d
00000040: 38b4 15be e0ac 2bbe 9a63 cfbf a43f d0be
00000050: 767c 9d3e f694 01bf 8978 ddbd 2eac b9be
00000060: f4bb 90bd b4b0 053e 50d2 c0bd b12f 233e
00000070: 851a d1bd f288 be3e c4c7 b7be c1ba 61be
00000080: 02e8 4e3e 2ec4 96be 29bf 47bf 16c3 05bf
00000090: 9047 2cbf f09e 65bf 94da 1abf de75 65be
000000a0: ef10 1fbd 7005 2bbe b05d b5be 29fe 8abc
000000b0: 7827 913d 6764 3dbf a849 cebf d04d 4dbd
000000c0: 5913 373c 33eb 5dc0 f421 4bbe 0c0f a4be
000000d0: fd4b 07bf 3aaa 9cbc eb42 1bbe 1401 9ebd
000000e0: d3b7 50bf fc06 87be f358 80bf a302 7abf
000000f0: dd98 1fbe d5d6 4c3e 8622 1ebe c8e7 a7bc
00000100: 78ea a63d cd09 09bf ffe4 03be 2ed7 903c
00000110: 492e 75bf 435a 96bf c466 e3be 8f39 b93d
00000120: 5701 85be c08c d03e 66f2 333e 50a4 91bf
00000130: 37c9 57be b4c2 f8be 71cd df3e 1e00 6abf
00000140: 7d4b 3f3e f9f7 d3be cafa 0dbf 60cb e43b
00000150: 9f59 18bf 295f c5be 1a2d 7cbb 1609 243d
00000160: b75d b23c d178 e8bf 7a11 343f f86d cf3c
00000170: c366 ca3e 7d2a fe3d 4821 83be 273a ffbe
00000180: 9c4b 983d 7565 423e 6379 1abe bf00 1b3d
00000190: 266f 8e3e 2287 d63c 5091 f13d 18c7 59bf
000001a0: 1621 9abe 8c65 ee3e 8009 b23e 9e1b 493d
000001b0: ffa7 953e 6476 0fbf 7a04 f53e 5eb0 053d
000001c0: 7cff 6bbe 2930 2ebf 54ab aebd c3cf 00bf
000001d0: c313 e8be 83aa 4abe 19e9 b53e d2da f4bc
000001e0: b64b 16bf 3747 863d ab8f 2fbf e5e4 96bd
000001f0: 2558 8bbd d45f 09bd 9fe3 d53e 2696 87bf
00000200: 7108 59bf 4436 013f d05a 9dbf 5268 5cbf
00000210: ba9c 8bbf 01fd 84be 6ec4 cbbd 2cd3 52bf
00000220: e6fa a23e 0573 f0be 06c4 5abf 9552 4ebf
00000230: 2bc8 82bb 7405 89be c2fa 843c 228b b0be
00000240: b543 3bbd c4e5 ba3e 7148 923f e375 9b3e
00000250: 03b2 ffbd 99d1 873e 8c3a f43e 7987 57be
00000260: b2bf a4be d8c4 35bd 7171 5f3f c081 063f
00000270: 9d76 0e3e 36dc 7ebe d633 bcbe e574 17be
00000280: bfff 5dbe 19b4 923e c4ae 3bbe 2f88 2e3e
00000290: c607 e5be 2658 433e 4030 993f 2380 3c3d
000002a0: 7d1e 0a3f 94c2 00bd d1b4 65bd ec61 a2be
000002b0: 1582 f8be 8ea3 363f 4468 013e 58a9 b9bd
000002c0: 4e8d 603f f8bf 833d db6b 1f3e b49f 63be
000002d0: f7b9 44bd 31fa f0bd 09fa a73e 9264 31bf
000002e0: e9ab 123f 9c65 06bf 4481 463e dd7f c23f
000002f0: 446f 0ebf 1748 6cbe 5627 853e 8a9e 973d
00000300: 6d75 87bd 0f4c a8be b9b9 a1bd f9f4 7bbd
00000310: cd2b 2d3d bb9e 8dbe 19af 5bbe 1e5a 4bbd
00000320: d038 623d b0cd ccbd 7976 fcbd 8859 ef3d
00000330: 8e41 4dbe b272 54be 98e2 1f3c 1ad1 63bd
00000340: 6a68 bcbc 1584 dcbc 0b03 36bd 6f3a a13d
00000350: 4376 44bd 4caf 50bc cf87 253e 076d 51be
00000360: 19ab 56be 352e 04be 4bbb 80bd 5b2c 04be
00000370: 6cfe cf3c 59bd c5bd 9b03 a4be 6a9c b4bd
00000380: 0efb 93bd 8392 723d 7f3d d53d 4111 b4bd
00000390: 7907 1ebe 42ad 3f3e 4bcb 77bd 5033 d33d
000003a0: e648 eebd b7d3 cfbd 41a0 abbd c2df 17be
000003b0: 6877 00bd 3448 d63b 040b 1fbe 0a7f b2bd
000003c0: fdff 85bd 3a0a dabc 395b 913d bbc5 28bd
000003d0: 9023 cbbd 2d4f fdbd 73ac c2bd 77e6 f7bd
000003e0: 837b 5dbd 84e5 00bd 0114 66be dbbb 433e
000003f0: 61ae 9abc d1b5 1cbe cd18 793d c8bb 1d3d
-0.9928862 -0.66248995 0.11708572 -0.010535664 0.07018024 -0.07876182 -0.09424915 0.16357237
-2.0915527 -0.69680876 -0.23713459 0.087802 -0.18845534 -0.17547517 -1.1915911 0.0973865
-0.14619529 -0.16765165 -1.6202271 -0.40673554 0.3075902 -0.5061792 -0.10814006 -0.36264175
-0.07067099 0.13055688 -0.09415114 0.15936162 -0.10210136 0.37213856 -0.35894597 -0.22043897
0.20205691 -0.29446548 -0.7802606 -0.522508 -0.67296696 -0.89695644 -0.60489774 -0.22408244
-0.03883451 -0.16701293 -0.3542304 -0.016966896 0.07087606 -0.73981327 -1.6116228 -0.050123036
0.011174046 -3.4674804 -0.19837171 -0.3204273 -0.52850324 -0.01912414 -0.15162246 -0.077150494
-0.81530493 -0.26372516 -1.0027145 -0.97660273 -0.15585656 0.20003827 -0.15442857 -0.020496264
0.0815019 -0.5353058 -0.12880324 0.01768073 -0.9577375 -1.1746296 -0.4441434 0.090441816
-0.25977585 0.40732384 0.17572936 -1.1378269 -0.21072851 -0.48586047 0.43711427 -0.9140643
0.1868114 -0.41400126 -0.554608 0.006982252 -0.5951175 -0.38549164 -0.003847903 0.040047728
0.021773202 -1.816187 0.7033917 0.025320992 0.39531526 0.12410448 -0.2561133 -0.49849054
0.07436296 0.18984015 -0.15085368 0.03784251 0.27819175 0.026187483 0.11795294 -0.8506942
-0.30103368 0.4656185 0.34772873 0.049098603 0.29229733 -0.56040025 0.47854978 0.0326389
-0.23046678 -0.68042237 -0.08528772 -0.5031702 -0.45327577 -0.19791608 0.35529402 -0.029889498
-0.58709276 0.06556552 -0.68578595 -0.07367877 -0.068039216 -0.033538654 0.41775224 -1.0592697
-0.84778506 0.5047343 -1.2293339 -0.8609668 -1.0907204 -0.25974277 -0.09949575 -0.8235347
0.31832045 -0.46962753 -0.8545536 -0.8059476 -0.003991147 -0.26761973 0.016232852 -0.3448115
-0.045718867 0.36503422 1.1428357 0.30363378 -0.12485125 0.26527098 0.47700918 -0.21047772
-0.32177502 -0.044377178 0.8728247 0.5254173 0.13912435 -0.24888691 -0.36758298 -0.14790685
-0.2167959 0.2865303 -0.18328387 0.17044137 -0.44732493 0.19076595 1.196785 0.04602064
0.5395277 -0.031435564 -0.056080643 -0.31715333 -0.48536745 0.71343315 0.1263743 -0.09065503
0.87715614 0.064330995 0.15568487 -0.2222889 -0.048028912 -0.1176647 0.3280795 -0.69294083
0.57293564 -0.52498794 0.19385248 1.5195271 -0.5563853 -0.23074375 0.26006573 0.07403286
-0.06614194 -0.32870528 -0.07896752 -0.06151292 0.0422781 -0.27660164 -0.21453513 -0.04964649
0.055229962 -0.10000169 -0.12327284 0.116869986 -0.20044538 -0.20746878 0.009758614 -0.055619337
-0.022999007 -0.02691845 -0.044436496 0.078724734 -0.047964346 -0.0127371065 0.16165088 -0.20451747
-0.20963706 -0.12908252 -0.06285723 -0.12907545 0.025389872 -0.09655256 -0.32034 -0.08818896
-0.07225619 0.059221756 0.1041212 -0.087923534 -0.15432538 0.18718436 -0.06049661 0.103125215
-0.11634998 -0.10147803 -0.083801754 -0.1483145 -0.031363875 0.006539369 -0.15531546 -0.08715637
-0.065429665 -0.026616205 0.070974775 -0.041204195 -0.099188924 -0.12368617 -0.09505548 -0.121045046
-0.054072868 -0.031468883 -0.22468568 0.1911463 -0.018881978 -0.15303732 0.060814667 0.03850916

actor.2.bias f4 [64]
00000000: 0b5d 94be 6918 21be aa81 18bf c4ca 18be
00000010: 68a7 2abe dd9c 6fbd 8c6e 34be 83a3 74be
00000020: 0fcd 0ebe d814 e0bd 0951 17be 5f08 91bd
00000030: de8a 79bd e7bc 22be bb92 253d 228c 4cbd
00000040: 1ce3 a2bd ba2f 31bf 2833 4fbe 9a8c 2bbe
00000050: 59a2 4cbe 6cc8 843d 6004 89be 4f24 91be
00000060: 4622 83bb 8d61 963c 4976 8bbd 8bd4 38be
00000070: 792a cfbe 6e54 16bd ec13 953d 3b07 6e3e
00000080: 4f13 cabc 8f92 eebd 1aff f3bd 73dc 8c3d
00000090: a8bd 9ebc f434 c8bd 7b4d 59bc c76a 99be
000000a0: 7477 1dbe 8395 68bd 683e 263e d4b7 1ebf
000000b0: 52e7 97be c076 c8bd 438e c1bd b798 5ebe
000000c0: 1a08 a13d 01aa cfbe 930f 543e 7e13 94bd
000000d0: 6df4 dbbe 3c20 83be b351 a63d 94cf 85be
000000e0: c9d5 b2be 1e0a 1ebe 9daa 52bd 61f5 41be
000000f0: 6e0e 17be 0ea6 c0bd 0e5a 54bf e612 a2be
-0.28977236 -0.15731968 -0.5957285 -0.14921099 -0.16665423 -0.058499206 -0.17620295 -0.238905
-0.13945411 -0.10941476 -0.14777006 -0.07081675 -0.06092345 -0.15892373 0.040423136 -0.04993833
-0.07953474 -0.6921345 -0.20234358 -0.16752854 -0.19983806 0.0648354 -0.2676115 -0.28348014
-0.0040018884 0.018357063 -0.068096705 -0.18049829 -0.40462092 -0.036701612 0.072791904 0.23244946
-0.02466741 -0.116490476 -0.11913891 0.06877985 -0.019377545 -0.09775725 -0.013263102 -0.29964277
-0.15377599 -0.05678321 0.16234744 -0.6199925 -0.2966867 -0.09788275 -0.094509624 -0.21737944
0.078628734 -0.4055939 0.20709066 -0.0723028 -0.4295992 -0.2561053 0.08121052 -0.26134932
-0.3492873 -0.15433547 -0.05143224 -0.18941261 -0.14751598 -0.094066724 -0.8294991 -0.31655043

actor.4.weight f4 [2, 64]
00000000: 5f18 04c0 732a 2840 7bcd 3abf fa3e 5abc
00000010: 9d9a babb 1cd8 d53c 1230 0bbb 5c10 c23d
00000020: 26db 393b 8950 003d 1f1b 46bc 172b 0cbd
00000030: d46e 83bc a87f 69bd 7a73 1340 1b61 37be
00000040: 166b 72be 8693 06bf 3209 e83c fdf3 373b
00000050: 555d 2a3e 33ba c2bc c1f9 c6bf 066c c73f
00000060: 6345 96bc 73ee bebd af45 f7bf f785 dbbd
00000070: 1eb6 6dbd 84f8 343d 2bb4 c13d b01f 29be
00000080: 5478 12bd 386b 35bb 061c 9fbe b899 f03d
00000090: 9bfc 8e3f f16d aa3d 999a 8c3c e947 383d
000000a0: f43e df3d d264 a7bd bfe2 6abf b7ae 163e
000000b0: 89d7 6bc0 35bc 94bf 54b4 2abd 2632 843f
000000c0: db62 273e 0417 6d3e 1a35 abbc e7f6 7e3d
000000d0: b6c3 36bf d959 ae3a a936 c83f f244 3fbd
000000e0: f6f3 f63e 208d 41bc 9af2 1f3e 161c 4bbd
000000f0: 647f 2e3d 77e8 2e3b 9781 4dbd 679d 34bf
00000100: ccc7 b73f 8e43 6dc0 d293 4abd c283 6abe
00000110: ee1a 84bc 5278 ce3c bb6a 45bd 8d46 5abc
00000120: bf44 1dbd ad8b 7f3d 9cf4 59bd c0c4 46bd
00000130: a97b 493c 12fb bc3a e210 603d eb5d 053d
00000140: ba10 c33d 8fd5 34c0 ab2b 6ebe 7280 b8bc
00000150: 34e6 33bd 00a1 3cbe a98e a9bc 105f 04bf
00000160: cd71 4d3d a064 66bd 2f51 953f cf07 b23b
00000170: c5fc 07bf e43a ee3c 4545 40bd 49fe 5d3d
00000180: 3736 963d 906a 463c 83f1 33c0 027e ab3b
00000190: 2470 31bf fcbf 323e 3eae 55bd ea14 19bc
000001a0: 5f50 59ba 32ec 7d39 b61a 433e de22 c03f
000001b0: 3d58 903b 6a06 d6bd f66a 743d c2df 9dbd
000001c0: afbf 903b f9cd 863b 13ae 5c3e 49dc 81bc
000001d0: b39d c9bf 4c5b abbb 8a85 1a40 858d 9d3c
000001e0: b456 8f3e 7f84 68be 32a7 4bbe cb71 d33c
000001f0: c1a5 26bc b070 183e 4161 69c0 dff8 103f
-2.0639875 2.627591 -0.7296979 -0.013320679 -0.005694701 0.026104026 -0.002123837 0.094757766
0.0028359382 0.031326804 -0.012091427 -0.03422078 -0.016044058 -0.057006508 2.3039231 -0.17908137
-0.23673663 -0.5256885 0.028324697 0.0028069012 0.16637166 -0.023770427 -1.5544969 1.5579841
-0.018343633 -0.09322824 -1.9318141 -0.10718911 -0.05803501 0.044182315 0.094581924 -0.16515994
-0.035759285 -0.0027682316 -0.31076068 0.117480695 1.1170839 0.08321751 0.017163562 0.044990454
0.10900679 -0.08173527 -0.9175224 0.14715086 -3.6850302 -1.1619936 -0.04167588 1.0327804
0.16346304 0.23153311 -0.020899344 0.062247183 -0.7139238 0.0013301923 1.5641681 -0.04669661
0.48233002 -0.011813432 0.15619889 -0.04958733 0.042601958 0.0026688853 -0.050172415 -0.70552677
1.4357848 -3.7072482 -0.04945738 -0.22901824 -0.016126122 0.025203858 -0.04819749 -0.013322485
-0.03839564 0.062389065 -0.053211793 -0.04852748 0.012297549 0.0014418087 0.0547036 0.03256027
0.09524675 -2.8255346 -0.23258846 -0.022522185 -0.04392071 -0.18420792 -0.020697908 -0.51707554
0.050157357 -0.056248307 1.16654 0.0054330598 -0.5312007 0.029080816 -0.04694106 0.054197583
0.073345594 0.012110367 -2.8116157 0.005233527 -0.6931174 0.17456049 -0.052168123 -0.009343365
-0.00082898693 0.0002421595 0.19053158 1.5010641 0.00440505 -0.10450442 0.05967232 -0.07708694
0.0044173817 0.0041139093 0.21550779 -0.01585211 -1.5751251 -0.0052293893 2.4144006 0.01923252
0.27995837 -0.22706793 -0.19887999 0.025811097 -0.010171355 0.14886737 -3.646561 0.5662975

actor.4.bias f4 [2]
00000000: 5d06 9f3c 7c2c 5bbc
0.019412214 -0.013377305
