model/Pendulum-v1/3level/HAC_Pendulum-v1_level_1_actor.pth (torch, 20865 bytes, 6 tensors)

actor.0.weight f4 [64, 4]
00000000: d2d2 823d 0d2e a1bc 7423 a03e ffce 6c3e
00000010: 16d5 eb3a c409 983c 1d58 77be 9b6c 02bd
00000020: a5fe 7abe 898b aa3c 9759 823f 0911 9dbe
00000030: c064 37be 74ad 593e 73af 823e 57be eb3d
00000040: f2db f3bc a9a3 e4bd f8b1 bd3f ec3c f6be
00000050: 5f27 cc3e 2f67 eb3d d1bc 353f b8aa 6dbd
00000060: 4854 b73d da36 b23d 92d0 603e 25c0 33be
00000070: 9ee2 29bb 6e02 01bb 2073 6abc 1f2f 8d3e
00000080: 1b0c 043c 6d25 143b e455 21bc 733c 50be
00000090: dd7c 19bc e954 26bc 3ea7 02bf fb8c 1f3e
000000a0: 1ad6 453e 7e49 bbbb c728 773e 9e18 983e
000000b0: 12ce debe 3da1 70bd e18c 5b3f 3ac2 23be
000000c0: fcf8 36bd e989 a03c 332a f1bd 3521 0cbe
000000d0: 0b74 033d f6f7 6c3c 4b99 5ebe 504a a1be
000000e0: 9ec1 a63c 3d30 a9ba 3978 9fbd 5443 86be
000000f0: 0dd2 92bc 52ac 5e3b 4363 c13e 2918 513b
00000100: 7aa9 943e b83c a83d 608f d9be c122 143e
00000110: 1897 84be 6dbc 11be e7e1 383f 3c01 00be
00000120: e783 e63d 33ac 573c 5417 d43d aa25 18be
00000130: a68b 263d 8eb2 db3d eccb edbe 971c bf3d
00000140: cf96 c43c 461e 193d 544d 82be a19e 48be
00000150: 15df a4bd 5e27 c8bc 6118 08bf dc88 9b3d
00000160: b8fc 01bd 25b6 303c 4d22 20bf 866d 1f3d
00000170: 441a 07be c548 0fbe ea33 c83d 0e26 253d
00000180: 7372 31bc 35b4 debd 8dd2 743f ff27 85be
00000190: be98 093f 2e0d d4bd 4961 c53e 2aef a2bc
000001a0: 2645 3d3d 42c6 bcbb e890 0ebf b9b1 03bc
000001b0: c3e7 a03a 66d0 6fba 1179 e8ba a771 69be
000001c0: 47c3 aa3e fa7b d03d 9fdc a3bd dc80 473e
000001d0: 3fe1 a6bd 1402 9cbd dd6d 06be 7fef 2e3e
000001e0: 95bc d93e 60aa 043e 5a86 bc3e 42a1 e9be
000001f0: 064a e5bc 1639 97bc 50a4 8bbd 6ed1 35be
00000200: 97ea 993c d14e 4cbd 992e 853e 7b40 95bb
00000210: da8a 24be d100 ee3d dc36 f13e 414c f13d
00000220: d597 f73d 14e0 b33c 5f2f 0cbf 5bec 04bd
00000230: 9acd 36bd a2be d1bc d335 b23e 9864 f23e
00000240: 11cb 643e b0de 723d 648b b23e 0877 0c3d
00000250: 0132 59be da04 b3bd 5a95 4d3f 4b1c 69be
00000260: fdf4 c0bc 6638 113a 4a59 473f 0adf 02bb
00000270: 629d 4b3e 01a5 173e f4d0 a43d 8147 aabe
00000280: f025 22bd bf6c 98bc cfff d7bc 92dd c9bd
00000290: ce37 813e 6b69 833d 86e7 03be 2003 1c3e
000002a0: 2ce8 5d3e 4bb8 003d 2c8e cabe f25e 67bd
000002b0: 5ba6 cbbc 3939 84bb 120e 4ebc dfa5 9e3e
000002c0: f31b 413c 8b02 413d f968 68be baec adba
000002d0: 037c bbbc 80e0 52bc a4b8 c4be aad6 d2bd
000002e0: 54b1 833d def3 2bbc 6022 b53e 756a 113e
000002f0: 8a0a 2d3c d7ca 25bd e3cb a23d 6f63 283b
00000300: b884 3f3d 8b00 223d cde8 b63d 644e 8f3e
00000310: 6dc7 f13c c2d0 023c 006b 9bbe 5be0 acbe
00000320: 2ba0 aabe 8a6e 66bd c50f cfbe 14ef 6abe
00000330: d100 633c cb46 e6ba 4917 d5b9 683a cbbe
00000340: 0d9f 3ebf 8aff 5bbd 1c36 c13f 8cd7 82be
00000350: df1e 833d e214 bd3d 6f59 e63e cb53 223e
00000360: 08da 02be d891 3a3c 2bd2 343f fea2 f53c
00000370: c5c4 f0bd fe70 843c ff55 8e3e f7ed 97be
00000380: 772b c93e cdcb 583e 2772 41be e8c9 77be
00000390: 5db3 80be 1a80 9e3b bde5 233e 8e23 6a3e
000003a0: cdb0 933d f836 1d3d 1f79 133f ba51 813d
000003b0: 6085 5e3b 0bc8 3dbb 707b f4bb fc1f 7dbe
000003c0: 1be2 5abe f2cb 823d 3917 643e addc a73c
000003d0: a996 2dbe 214d eebd 0927 793e 0c4d 4bbe
000003e0: f93f dc3e cefb c53d d405 99be 546f 6d3c
000003f0: 164d d7bd fdd8 85bd 18f5 5d3e c38e 4bbd
0.06387867 -0.019675279 0.3127705 0.23125838 0.0017992582 0.018559344 -0.24154706 -0.031841855
-0.24511202 0.020818489 1.0183591 -0.3067706 -0.17909527 0.21257573 0.25524482 0.11510914
-0.029767964 -0.11164028 1.4819937 -0.48093355 0.39873788 0.1149429 0.70991236 -0.05802414
0.08951622 0.08701868 0.21954563 -0.17553766 -0.0025922428 -0.0019685286 -0.0143096745 0.27575013
0.008059527 0.0022605315 -0.009847138 -0.2033556 -0.009368149 -0.01015208 -0.5103644 0.15581124
0.19319955 -0.005715548 0.24136649 0.2970628 -0.43516594 -0.05874752 0.8576184 -0.1599206
-0.044671044 0.01959701 -0.11775627 -0.13684542 0.03209309 0.014463415 -0.21738164 -0.31502008
0.020355996 -0.0012908053 -0.077866025 -0.26223242 -0.017922426 0.0033977223 0.37771043 0.003190527
0.2903555 0.08214706 -0.424922 0.14466383 -0.25896525 -0.14232035 0.722197 -0.12500471
0.11255627 0.013163614 0.10356012 -0.14858118 0.040660523 0.10727416 -0.46444643 0.09331625
0.023997692 0.037382387 -0.25449622 -0.19591762 -0.08050362 -0.024432834 -0.531622 0.07594463
-0.031735152 0.010785614 -0.6255234 0.03892281 -0.13193613 -0.13992603 0.09775527 0.040319495
-0.0108305095 -0.108742155 0.95633775 -0.26007077 0.5374869 -0.10354076 0.38550785 -0.019889433
0.046208523 -0.005760939 -0.5568986 -0.008037978 0.0012276102 -0.000914818 -0.0017736276 -0.22797261
0.3335211 0.10179897 -0.080010645 0.1948275 -0.08148431 -0.07617584 -0.13127847 0.17083548
0.4252669 0.12955618 0.36821252 -0.45630842 -0.027989399 -0.018459838 -0.068184495 -0.17755672
0.018788619 -0.049879853 0.26012114 -0.004554806 -0.16068593 0.116212495 0.47112167 0.117821224
0.120895065 0.021957435 -0.5475978 -0.03245197 -0.04462967 -0.025603596 0.3480669 0.47342372
0.22343089 0.059294403 0.34871972 0.034293205 -0.21210481 -0.0874116 0.8030602 -0.22764699
-0.02355432 0.0005539715 0.7787062 -0.0019969367 0.19884256 0.14809038 0.08047667 -0.33257678
-0.03958696 -0.018606542 -0.026367096 -0.09856714 0.25237888 0.06416591 -0.12881288 0.15235567
0.21670598 0.031425755 -0.39561594 -0.05648703 -0.024859598 -0.004035142 -0.012576597 0.30985925
0.011786449 0.047121566 -0.22696294 -0.0013269403 -0.022886282 -0.012870908 -0.3842212 -0.1029485
0.06430307 -0.010495154 0.3537779 0.14200766 0.010561595 -0.040476646 0.079490446 0.0025694033
0.04675743 0.0395513 0.08931122 0.27989495 0.029514039 0.007984342 -0.30355072 -0.3376492
-0.33325323 -0.056257762 -0.4044172 -0.22942764 0.013855175 -0.0017568705 -0.00040643875 -0.39692998
-0.7446144 -0.053710498 1.5094638 -0.25555074 0.064023726 0.09232499 0.44990107 0.15852277
-0.12778485 0.011387311 0.7063319 0.029984947 -0.11756281 0.01616716 0.27799985 -0.2967374
0.39290974 0.21171494 -0.18891202 -0.24198115 -0.25136843 0.0048370482 0.16005607 0.22865126
0.072114564 0.0383825 0.5760669 0.06314416 0.003395401 -0.0028958346 -0.007461004 -0.24719232
-0.21375315 0.06386556 0.22274484 0.020490969 -0.16952004 -0.11635805 0.24331297 -0.1985361
0.43017557 0.096671686 -0.2988726 0.014491875 -0.1051275 -0.06535528 0.21675527 -0.049696695

actor.0.bias f4 [64]
00000000: 25bb 1abe 9864 9abf c076 923e af3d a7bf
00000010: afe7 debe ac26 e53e 256e 8fbd b2aa c4bf
00000020: 0546 8bbf 2744 933c 57e3 dcbf b336 673e
00000030: bc38 c5be cd62 1c3c a015 30bf cba6 1dbf
00000040: d4be 46bf 288f 0dbf 6cd1 d8bf 491e a8bf
00000050: 4b74 583e 5e42 2cbf f59b a7bf 3c4c e2be
00000060: 419c 00bf bf5e b53d 9349 b0bf 6a29 bbbf
00000070: bf45 fdbf 9636 aebf f92c afbf 747e 633e
00000080: b569 a9bf a9a5 6cbf a557 47bf 6e82 dabc
00000090: 385c 583e 0036 95bf e9f1 f2bf 9945 8fbf
000000a0: c4d7 98bf 9c30 e2bf 1bf7 9cbf c65b 9ebf
000000b0: c7c1 3fbe a3e3 95bf 1b01 6bbf 5d05 4bbf
000000c0: a639 cbbe 407f ba3d 4f7a 4fbf 9e0c dcbf
000000d0: a772 9e3e 185d 96bf 17f2 33bf 58f0 92bf
000000e0: ddbd 9ebf ea1e 92be 705d 49bf d319 e2bf
000000f0: ae14 fb3e 440b 1abf 86b1 8abf 4fff e73e
-0.15110452 -1.2061949 0.28606224 -1.3065699 -0.43536136 0.44756067 -0.0700343 -1.5364592
-1.0880743 0.017976834 -1.7256879 0.2257946 -0.38519847 0.00954504 -0.68783 -0.6158263
-0.7763493 -0.55296564 -1.693891 -1.3134242 0.21138112 -0.6728877 -1.3094469 -0.44198787
-0.50238425 0.08855962 -1.3772453 -1.4622014 -1.978691 -1.3610408 -1.36856 0.22216207
-1.3235384 -0.9244028 -0.7786811 -0.026673522 0.21128929 -1.1657104 -1.8980075 -1.1193115
-1.1940846 -1.7671084 -1.2262911 -1.2371757 -0.18726264 -1.1710094 -0.9179856 -0.7930506
-0.3969242 0.09106302 -0.81046003 -1.719135 0.30946848 -1.174716 -0.70291275 -1.1479597
-1.2401692 -0.2853921 -0.786582 -1.7664131 0.49039215 -0.6017344 -1.0835426 0.45311972

actor.2.weight f4 [64, 64]
00000000: ca2d 7ebf f198 29bf a3ca ef3d c79d 2cbc
00000010: a8ba 8f3d e14d a1bd b305 c1bd 847f 273e
00000020: 00dc 05c0 0f62 32bf 69d3 72be 89d1 b33d
00000030: 70fa 40be c3af 33be 0f86 98bf 9372 c73d
00000040: 38b4 15be e0ac 2bbe 9a63 cfbf a43f d0be
00000050: 767c 9d3e f694 01bf 8978 ddbd 2eac b9be
00000060: f4bb 90bd b4b0 053e 50d2 c0bd b12f 233e
00000070: 851a d1bd f288 be3e c4c7 b7be c1ba 61be
00000080: 02e8 4e3e 2ec4 96be 29bf 47bf 16c3 05bf
00000090: 9047 2cbf f09e 65bf 94da 1abf de75 65be
000000a0: ef10 1fbd 7005 2bbe b05d b5be 29fe 8abc
000000b0: 7827 913d 6764 3dbf a849 cebf d04d 4dbd
000000c0: 5913 373c 33eb 5dc0 f421 4bbe 0c0f a4be
000000d0: fd4b 07bf 3aaa 9cbc eb42 1bbe 1401 9ebd
000000e0: d3b7 50bf fc06 87be f358 80bf a302 7abf
000000f0: dd98 1fbe d5d6 4c3e 8622 1ebe c8e7 a7bc
00000100: a219 be3d cd09 09bf ffe4 03be 0323 893c
00000110: 492e 75bf 0c2d 96bf c466 e3be a31a c73d
00000120: 5701 85be 171a d13e a33e 303e 51a4 91bf
00000130: 37c9 57be b4c2 f8be 71cd df3e 1e00 6abf
00000140: deb4 403e f9f7 d3be cafa 0dbf 5584 8239
00000150: 4f1e 19bf bada c8be 6ed5 70bc 87f2 143d
00000160: b75d b23c 485e e9bf 8cfe 323f f86d cf3c
00000170: 820c ca3e a2f0 013e 4821 83be 93a3 00bf
00000180: 9c4b 983d db87 443e 9b82 20be e964 363d
00000190: a1b8 913e 2287 d63c 5091 f13d 18c7 59bf
000001a0: 1621 9abe c2fa ec3e a9d9 ae3e 6a5b 523d
000001b0: f9f1 913e 6476 0fbf 1c7f f53e 5eb0 053d
000001c0: e6c8 65be 569a 2ebf c82c c8bd c3cf 00bf
000001d0: 2afd e7be 8341 4bbe 04cd b53e d2da f4bc
000001e0: ca3f 18bf 18fe 8c3d ab8f 2fbf e5e4 96bd
000001f0: 559e 87bd d45f 09bd a683 d53e 81ae 87bf
00000200: 45e4 58bf 4436 013f d05a 9dbf 5268 5cbf
00000210: ba9c 8bbf a0fb 84be c907 cfbd b0e6 52bf
00000220: c972 a23e 23a6 edbe 06c4 5abf 9552 4ebf
00000230: aa47 abbb eb89 89be 00be 783c 228b b0be
00000240: f9f3 24bd c4e5 ba3e 7148 923f ac6a 9e3e
00000250: 5d74 00be cf1d 893e 77e2 f53e 7987 57be
00000260: b2bf a4be 0c06 36bd 5d6e 5f3f 6842 063f
00000270: 90ba 133e 36dc 7ebe fa14 bdbe b55d 18be
00000280: bfff 5dbe 19b4 923e 3da0 3abe 9704 323e
00000290: d71c e2be 2658 433e 4030 993f 60f6 353d
000002a0: 7d1e 0a3f ae7d e8bc 5d8f 66bd 4702 a2be
000002b0: 09a5 f7be d079 363f 4468 013e 58a9 b9bd
000002c0: c8d1 613f b3d7 813d 4504 1f3e 65be 64be
000002d0: f7b9 44bd 31fa f0bd 09fa a73e 5b7c 31bf
000002e0: b187 123f 9067 06bf 4481 463e a35f c23f
000002f0: 3264 0ebf 9645 6cbe 179e 863e 1fa5 973d
00000300: 6d75 87bd 0f4c a8be b9b9 a1bd f9f4 7bbd
00000310: cd2b 2d3d bb9e 8dbe 19af 5bbe 1e5a 4bbd
00000320: d038 623d b0cd ccbd 7976 fcbd 8859 ef3d
00000330: 8e41 4dbe b272 54be 98e2 1f3c 1ad1 63bd
00000340: 6a68 bcbc 1584 dcbc 0b03 36bd 6f3a a13d
00000350: 4376 44bd 4caf 50bc cf87 253e 076d 51be
00000360: 19ab 56be 352e 04be 4bbb 80bd 5b2c 04be
00000370: 6cfe cf3c 59bd c5bd 9b03 a4be 6a9c b4bd
00000380: 0efb 93bd 8392 723d 7f3d d53d 4111 b4bd
00000390: 7907 1ebe 42ad 3f3e 4bcb 77bd 5033 d33d
000003a0: e648 eebd b7d3 cfbd 41a0 abbd c2df 17be
000003b0: 6877 00bd 3448 d63b 040b 1fbe 0a7f b2bd
000003c0: fdff 85bd 3a0a dabc 395b 913d bbc5 28bd
000003d0: 9023 cbbd 2d4f fdbd 73ac c2bd 77e6 f7bd
000003e0: 837b 5dbd 84e5 00bd 0114 66be dbbb 433e
000003f0: 61ae 9abc d1b5 1cbe cd18 793d c8bb 1d3d
-0.9928862 -0.66248995 0.11708572 -0.010535664 0.07018024 -0.07876182 -0.09424915 0.16357237
-2.0915527 -0.69680876 -0.23713459 0.087802 -0.18845534 -0.17547517 -1.1915911 0.0973865
-0.14619529 -0.16765165 -1.6202271 -0.40673554 0.3075902 -0.5061792 -0.10814006 -0.36264175
-0.07067099 0.13055688 -0.09415114 0.15936162 -0.10210136 0.37213856 -0.35894597 -0.22043897
0.20205691 -0.29446548 -0.7802606 -0.522508 -0.67296696 -0.89695644 -0.60489774 -0.22408244
-0.03883451 -0.16701293 -0.3542304 -0.016966896 0.07087606 -0.73981327 -1.6116228 -0.050123036
0.011174046 -3.4674804 -0.19837171 -0.3204273 -0.52850324 -0.01912414 -0.15162246 -0.077150494
-0.81530493 -0.26372516 -1.0027145 -0.97660273 -0.15585656 0.20003827 -0.15442857 -0.020496264
0.09282233 -0.5353058 -0.12880324 0.016740328 -0.9577375 -1.1732497 -0.4441434 0.097218774
-0.25977585 0.40840217 0.17211394 -1.137827 -0.21072851 -0.48586047 0.43711427 -0.9140643
0.18818995 -0.41400126 -0.554608 0.00024894127 -0.5981187 -0.39229375 -0.014699323 0.036364105
0.021773202 -1.8231897 0.6991966 0.025320992 0.39462668 0.1268945 -0.2561133 -0.50249594
0.07436296 0.1919245 -0.15674822 0.04452983 0.28461173 0.026187483 0.11795294 -0.8506942
-0.30103368 0.46285063 0.34150437 0.05135671 0.28504923 -0.56040025 0.4794854 0.0326389
-0.22439918 -0.6820425 -0.09774166 -0.5031702 -0.45310336 -0.1984921 0.35507977 -0.029889498
-0.59472334 0.06884402 -0.68578595 -0.07367877 -0.06621996 -0.033538654 0.41702002 -1.0600129
-0.8472331 0.5047343 -1.2293339 -0.8609668 -1.0907204 -0.25973225 -0.10108907 -0.8238325
0.317282 -0.46415815 -0.8545536 -0.8059476 -0.005227049 -0.26863036 0.015182018 -0.3448115
-0.040271733 0.36503422 1.1428357 0.3094076 -0.12544389 0.26780555 0.4802434 -0.21047772
-0.32177502 -0.04443936 0.87277776 0.5244508 0.14426637 -0.24888691 -0.36930066 -0.14879496
-0.2167959 0.2865303 -0.18225189 0.17384563 -0.44162628 0.19076595 1.196785 0.044424415
0.5395277 -0.028380241 -0.056289066 -0.31642362 -0.483681 0.7127962 0.1263743 -0.09065503
0.88210726 0.063399695 0.15528972 -0.22338255 -0.048028912 -0.1176647 0.3280795 -0.69330376
0.572383 -0.52501774 0.19385248 1.5185436 -0.55621636 -0.2307342 0.26292488 0.07404541
-0.06614194 -0.32870528 -0.07896752 -0.06151292 0.0422781 -0.27660164 -0.21453513 -0.04964649
0.055229962 -0.10000169 -0.12327284 0.116869986 -0.20044538 -0.20746878 0.009758614 -0.055619337
-0.022999007 -0.02691845 -0.044436496 0.078724734 -0.047964346 -0.0127371065 0.16165088 -0.20451747
-0.20963706 -0.12908252 -0.06285723 -0.12907545 0.025389872 -0.09655256 -0.32034 -0.08818896
-0.07225619 0.059221756 0.1041212 -0.087923534 -0.15432538 0.18718436 -0.06049661 0.103125215
-0.11634998 -0.10147803 -0.083801754 -0.1483145 -0.031363875 0.006539369 -0.15531546 -0.08715637
-0.065429665 -0.026616205 0.070974775 -0.041204195 -0.099188924 -0.12368617 -0.09505548 -0.121045046
-0.054072868 -0.031468883 -0.22468568 0.1911463 -0.018881978 -0.15303732 0.060814667 0.03850916

actor.2.bias f4 [64]
00000000: 0b5d 94be ff34 1dbe af2e 18bf c4ca 18be
00000010: 68a7 2abe dd9c 6fbd 8c6e 34be 1160 6fbe
00000020: 0fcd 0ebe d814 e0bd 0951 17be 5f08 91bd
00000030: de8a 79bd e7bc 22be a519 0f3d 271f 57bd
00000040: 1ce3 a2bd 60f7 31bf 2833 4fbe 9a8c 2bbe
00000050: b907 4fbe d742 853d 51a0 8abe 4f24 91be
00000060: a858 7abb ac7e 953c ae61 87bd 8bd4 38be
00000070: 792a cfbe 6e54 16bd ec13 953d 3072 703e
00000080: 4f13 cabc 8f92 eebd 9488 fdbd 6463 8a3d
00000090: 4e31 85bc f434 c8bd 7b4d 59bc c76a 99be
000000a0: b8b2 24be 277b 85bd 0445 253e 3227 1fbf
000000b0: 1888 94be 4c73 dbbd 438e c1bd c4d9 5cbe
000000c0: 4eb1 9a3d df96 ccbe 73ca 533e 7e13 94bd
000000d0: 6df4 dbbe 3c20 83be 21d8 ab3d 94cf 85be
000000e0: c9d5 b2be 7a94 1dbe 71c4 53bd a101 42be
000000f0: 6e0e 17be 0ea6 c0bd e318 54bf be47 9ebe
-0.28977236 -0.15352248 -0.59446234 -0.14921099 -0.16665423 -0.058499206 -0.17620295 -0.2337649
-0.13945411 -0.10941476 -0.14777006 -0.07081675 -0.06092345 -0.15892373 0.034936566 -0.052519944
-0.07953474 -0.6951809 -0.20234358 -0.16752854 -0.2021779 0.06506889 -0.27075437 -0.28348014
-0.0038199816 0.018248878 -0.06610428 -0.18049829 -0.40462092 -0.036701612 0.072791904 0.23481059
-0.02466741 -0.116490476 -0.12379566 0.067572385 -0.016258862 -0.09775725 -0.013263102 -0.29964277
-0.16083801 -0.0651763 0.16139609 -0.6216918 -0.2901008 -0.107153505 -0.094509624 -0.21567446
0.075533494 -0.39958856 0.20682697 -0.0723028 -0.4295992 -0.2561053 0.08390833 -0.26134932
-0.3492873 -0.1538867 -0.051701013 -0.18945934 -0.14751598 -0.094066724 -0.82850474 -0.3091411

actor.4.weight f4 [2, 64]
00000000: 5f18 04c0 0f03 2840 98af 3abf fa3e 5abc
00000010: 9d9a babb 1cd8 d53c 1230 0bbb c4a6 d73d
00000020: 26db 393b 8950 003d 1f1b 46bc 172b 0cbd
00000030: d46e 83bc a87f 69bd d792 1240 5efe 33be
00000040: 166b 72be 771c 07bf 3209 e83c fdf3 373b
00000050: 8734 2a3e 6464 abbc 59f4 c5bf 066c c73f
00000060: 6fcd a8bc fb40 b9bd f1c0 f8bf f785 dbbd
00000070: 1eb6 6dbd 84f8 343d 2bb4 c13d f93b 29be
00000080: 5478 12bd 386b 35bb 7f04 a1be 9434 ec3d
00000090: ea11 8f3f f16d aa3d 999a 8c3c e947 383d
000000a0: b0b2 d03d e98e 9dbd a63e 6cbf 2a30 183e
000000b0: 3e14 6dc0 2437 9abf 54b4 2abd e748 843f
000000c0: 164c 293e 4dfe 6a3e a4d5 aabc e7f6 7e3d
000000d0: b6c3 36bf d959 ae3a 771d c83f f244 3fbd
000000e0: f6f3 f63e c11a 10bc 6411 223e 24e0 48bd
000000f0: 647f 2e3d 77e8 2e3b 68c8 ffbc b613 34bf
00000100: ccc7 b73f 1107 6ec0 18f2 4abd c283 6abe
00000110: ee1a 84bc 5278 ce3c bb6a 45bd e643 4dbc
00000120: bf44 1dbd ad8b 7f3d 9cf4 59bd c0c4 46bd
00000130: a97b 493c 12fb bc3a ab24 4b3d 947b fe3c
00000140: ba10 c33d 3940 35c0 ab2b 6ebe 7280 b8bc
00000150: f54d 36bd 9251 3cbe 6ec8 9ebc 105f 04bf
00000160: 9cf3 4a3d 4072 67bd c5d4 933f cf07 b23b
00000170: c5fc 07bf e43a ee3c 4545 40bd b5ed 5f3d
00000180: 3736 963d 906a 463c 5bf4 33c0 caca ba3b
00000190: 215c 33bf fcbf 323e 3eae 55bd ea14 19bc
000001a0: 11ea 553a 81df b4bb f8b8 3f3e 282e c13f
000001b0: 836f 9abb 520e febd f66a 743d 18ce 9fbd
000001c0: 03a1 8f3b 01da d03a 818c 5c3e 49dc 81bc
000001d0: b39d c9bf 4c5b abbb cfda 1a40 858d 9d3c
000001e0: b456 8f3e 64f6 67be 565a 4bbe 0e27 c63c
000001f0: c1a5 26bc b070 183e 0d22 69c0 1eb3 163f
-2.0639875 2.6251867 -0.72924185 -0.013320679 -0.005694701 0.026104026 -0.002123837 0.10529855
0.0028359382 0.031326804 -0.012091427 -0.03422078 -0.016044058 -0.057006508 2.2902124 -0.17577502
-0.23673663 -0.5277781 0.028324697 0.0028069012 0.166216 -0.020921893 -1.5465194 1.5579841
-0.02060577 -0.09045597 -1.9433881 -0.10718911 -0.05803501 0.044182315 0.094581924 -0.16526784
-0.035759285 -0.0027682316 -0.31448743 0.11533466 1.1177342 0.08321751 0.017163562 0.044990454
0.10190332 -0.076932736 -0.92283094 0.14862123 -3.7043605 -1.2048078 -0.04167588 1.0334748
0.1653293 0.2294857 -0.020853825 0.062247183 -0.7139238 0.0013301923 1.5633992 -0.04669661
0.48233002 -0.008795441 0.15826946 -0.049041882 0.042601958 0.0026688853 -0.03122349 -0.70342577
1.4357848 -3.7191813 -0.049547285 -0.22901824 -0.016126122 0.025203858 -0.04819749 -0.012528395
-0.03839564 0.062389065 -0.053211793 -0.04852748 0.012297549 0.0014418087 0.049595516 0.031064786
0.09524675 -2.8320448 -0.23258846 -0.022522185 -0.04450794 -0.18390492 -0.019382682 -0.51707554
0.04954873 -0.05650544 1.1549307 0.0054330598 -0.5312007 0.029080816 -0.04694106 0.054670054
0.073345594 0.012110367 -2.8117893 0.005700444 -0.7006245 0.17456049 -0.052168123 -0.009343365
0.0008160184 -0.005519808 0.18722904 1.5092211 -0.0047130003 -0.12405075 0.05967232 -0.07802981
0.0043832078 0.0015934111 0.21537973 -0.01585211 -1.5751251 -0.0052293893 2.419605 0.01923252
0.27995837 -0.22652584 -0.19858679 0.024188545 -0.010171355 0.14886737 -3.6427033 0.5886706

actor.4.bias f4 [2]
00000000: 13fb 9b3c 8f98 5dbc
0.01904062 -0.013525142
