model/MountainCarContinuous-v1/1level/HAC_MountainCarContinuous-v1_level_0_crtic.pth (torch, 20865 bytes, 5 tensors)

critic.0.weight f4 [64, 5]
0	0x3f8a73ff	1.0816649
1	0x41178d94	9.472065
2	0x3cd992f7	0.026559336
3	0xbf7b6f36	-0.9821657
4	0x406bb6c4	3.6830301
5	0x3e53c76d	0.20681544
6	0xc0aa0e69	-5.314259
7	0xbd40cd7b	-0.04707096
8	0x3e9b8e72	0.30382115
9	0xbff2705e	-1.8940542
10	0xbebfcb7d	-0.37459937
11	0xc0c1ff8a	-6.0624437
12	0xbc8ec0b0	-0.017425865
13	0x3e707ece	0.23485872
14	0xbfea5b45	-1.8309103
15	0x3e2e6595	0.17030938
16	0x407ba924	3.9321985
17	0xbc7952ea	-0.015217522
18	0x3cc52e70	0.024069995
19	0x3f34bed6	0.7060369
20	0xbee0579b	-0.43816838
21	0x3ef1b20f	0.4720616
22	0xbcbf1706	-0.023326408
23	0xbe904138	-0.28174758
24	0x3ea5c2bd	0.32375136
25	0x3e74d2fe	0.23908612
26	0xbf6df3c6	-0.92950094
27	0xbd4e6916	-0.050393187
28	0x3e8cb5f8	0.2748258
29	0xbef21e00	-0.47288513
30	0xbeb052e5	-0.34438244
31	0xc0c4f5f9	-6.155026
32	0x3ce7a927	0.0282789
33	0x3f48e423	0.7847311
34	0xbfcda31d	-1.6065403
35	0x3e4a5b56	0.19761404
36	0x40c5af23	6.177629
37	0x3d09889c	0.033577546
38	0x3ec69c74	0.3879124
39	0x4047fd3b	3.124831
40	0x3edbd22c	0.42933786
41	0x412ab83a	10.669977
42	0x3d1b14ef	0.03786176
43	0xbe8d3df4	-0.2758633
44	0x40bf3f07	5.976444
45	0xbdadb618	-0.08481997
46	0x3d391240	0.04518342
47	0x3dd70886	0.104996726
48	0x3f72816a	0.9472872
49	0xba928947	-0.0011179828
50	0xbe84d652	-0.25944763
51	0xbf8dbdb5	-1.1073519
52	0x3d7c6601	0.061620716
53	0xbe935d39	-0.2878206
54	0xbedf5f5b	-0.43627438
55	0xbd902a5c	-0.070393294
56	0xc097e870	-4.7471237
57	0xbcd55ab3	-0.026044225
58	0x3e5f61c0	0.21814632
59	0xbff3a2dc	-1.9034076
60	0xbdd87334	-0.10568848
61	0xbe94c4c7	-0.2905638
62	0xbc25d963	-0.01012263
63	0x3cd3334d	0.025781298
64	0xbea0e1c4	-0.31422246
65	0x3f96d1c0	1.1782761
66	0x41157aaf	9.342452
67	0x3ceec495	0.029146472
68	0xbf9110c0	-1.1333237
69	0x408c52c2	4.3851023
70	0xbeb70172	-0.3574329
71	0xc099a1ff	-4.801025
72	0xbdef7368	-0.11691934
73	0x3ebf95cf	0.37418982
74	0xbfc85507	-1.5650948
75	0xbfc6c73d	-1.5529553
76	0x3f847d01	1.0350648
77	0xbd8c25b1	-0.068431266
78	0x3ef154b6	0.47134942
79	0xbeba680f	-0.36407515
80	0xbddc6aaf	-0.10762536
81	0x3d803dbf	0.06261777
82	0xbbf2daa3	-0.0074113174
83	0xbcc354e5	-0.023844192
84	0x3db42e03	0.087978385
85	0x3e980d74	0.29697764
86	0x4002de6b	2.0448253
87	0xbd810056	-0.06298892
88	0xbe1fb6d6	-0.1559709
89	0x3dc234e1	0.09482742
90	0x3ed90521	0.42386726
91	0xbd635c11	-0.055507723
92	0xbd8fe1da	-0.070255
93	0xbe558781	-0.20852472
94	0xbe7c9684	-0.24666792
95	0xbda58fd4	-0.08084074
96	0xbc8b979c	-0.017040066
97	0x3d80c67d	0.06287859
98	0x3e816175	0.25269666
99	0xbe1bc675	-0.15212424
100	0x3be35840	0.0069380105
101	0x3f044c73	0.5167915
102	0xbc772309	-0.015084037
103	0xbeb2a8e4	-0.34894478
104	0xbd4877fe	-0.04894256
105	0x3d400b18	0.04688558
106	0xc00278b5	-2.0386174
107	0xbe4bc5c3	-0.19899659
108	0x3e1f8575	0.15578254
109	0xbddf8f8f	-0.109160535
110	0x3db00652	0.085949555
111	0x3eea2719	0.45732954
112	0xbdb1c49c	-0.086800784
113	0x3ef0df4d	0.47045365
114	0x3ecca377	0.39968464
115	0x3f8bc228	1.0918627
116	0x40f71f25	7.722552
117	0xbcb99750	-0.02265516
118	0xbf6527fd	-0.8951414
119	0x4069bfde	3.6523356
120	0xbeb3d8a0	-0.3512621
121	0x3def3bf9	0.11681361
122	0xbc466efe	-0.012111424
123	0xbb16a5e9	-0.0022987074
124	0x3ec28c53	0.37997684
125	0x3db7cb18	0.08974284
126	0xbe989d99	-0.29807737
127	0xbc99f230	-0.018792242
128	0x3dd2e465	0.10297469
129	0x3d2f11a5	0.042741437
130	0xbde618a7	-0.11235171
131	0xc0ac5efb	-5.3865943
132	0xbd9e9722	-0.0774367
133	0x3e1421d0	0.14466023
134	0xbfd8108b	-1.6880049
135	0xbe36ae9a	-0.17840043
136	0xbf20e96b	-0.6285617
137	0xbe069b69	-0.13145222
138	0x3dfe7f28	0.12426597
139	0xbf016a45	-0.5055278
140	0xbe8e30a8	-0.27771497
141	0xc0838157	-4.1095386
142	0x3c83f2cc	0.016106986
143	0x3e14cfa6	0.14532337
144	0xc008054b	-2.125323
145	0x3e462b86	0.1935254
146	0xbe808f12	-0.25109154
147	0xbde66c07	-0.11251073
148	0x3edd009a	0.4316452
149	0xbec8c938	-0.39216018
150	0x3dfa0e5d	0.12209771
151	0xbee4cbec	-0.4468683
152	0x3e6e7710	0.23287606
153	0x3e564fcc	0.20928878
154	0xbeeb7020	-0.45983982
155	0xbef37118	-0.4754722
156	0xbf96364f	-1.1735324
157	0xbde7663e	-0.11298798
158	0x3c40eebe	0.011775671
159	0xbe13181a	-0.14364663
160	0xbdd3a531	-0.10334242
161	0x4111d6cf	9.1149435
162	0xbc31ed98	-0.010859869
163	0x3f47f6e7	0.7811112
164	0x40a41578	5.1276207
165	0x3e86e583	0.2634698
166	0xbee3b8c8	-0.44476914
167	0xbdc41577	-0.095744066
168	0x3ec2c225	0.38038746
169	0xbf0a8b40	-0.5411873
170	0x3cc5be91	0.02413872
171	0x40e16c52	7.0444727
172	0xbd357b11	-0.04430682
173	0xbe6ecdb3	-0.23320656
174	0x40177f72	2.3671536
175	0x3ebdb244	0.37050068
176	0x3ecf1c58	0.40451312
177	0xbdeb670c	-0.11494264
178	0xbea96371	-0.3308368
179	0x3e7a4bac	0.24442929
180	0x3e8949ba	0.2681406
181	0x400c9890	2.1968117
182	0xbd35b387	-0.044360664
183	0xbea7a6d1	-0.32744458
184	0x3f3c6ffb	0.7360837
185	0x3b3e5419	0.0029041825
186	0x3d33c6fc	0.04389094
187	0xbd1396f0	-0.036032617
188	0x3e910140	0.28321266
189	0x3d5b4e4d	0.05354147
190	0x3e95720e	0.2918858
191	0xc0ee194f	-7.4405894
192	0xbc13cd47	-0.00902111
193	0x3f23b198	0.6394286
194	0xbf9850a5	-1.1899611
195	0xbcf2cf16	-0.029639762
196	0xbf35709d	-0.7087496
197	0xbd15f8ac	-0.036614105
198	0x3e8a1a0c	0.26972997
199	0xbf37b3c1	-0.7175866
200	0x3e37d591	0.17952563
201	0x40381d39	2.8767836
202	0xbdc7ecf0	-0.09761989
203	0xbec640e0	-0.3872137
204	0x4029fec2	2.6561742
205	0x3e85de74	0.2614628
206	0x3e83e6f9	0.25762156
207	0x3dc3c00b	0.09558114
208	0xbe97d6a3	-0.29655942
209	0xbecd00bd	-0.40039626
210	0x3ec02753	0.37530002
211	0x3c4226ca	0.011850068
212	0xbd5436c9	-0.05181006
213	0x3f323e22	0.6962606
214	0xbeabb741	-0.3353825
215	0x3db20b4f	0.08693563
216	0x40515add	3.2711709
217	0xbbbc06e6	-0.005738127
218	0xbeae1a0b	-0.34004244
219	0x4005e251	2.0919383
220	0x3e6fe945	0.23428829
221	0xbe5a36b3	-0.21309929
222	0xbcd048fe	-0.02542543
223	0x3e3d0094	0.18457252
224	0xbe703ee1	-0.23461486
225	0x3f90bb14	1.1307092
226	0x40e2051b	7.063123
227	0xbdabdca8	-0.08391696
228	0xbf7e04c6	-0.99226034
229	0x407f0af9	3.9850447
230	0x3ec06981	0.37580493
231	0x3eaf21f7	0.342056
232	0x3d8f279e	0.06989978
233	0x3e9ff47f	0.31241223
234	0xbede17a2	-0.43377405
235	0x3f0ae62a	0.5425745
236	0x3e4716e4	0.19442326
237	0xbe83713f	-0.25672337
238	0x3e2affab	0.16699092
239	0xbe85f84d	-0.26166
240	0x3eb2e8d5	0.34943262
241	0xbe9066b3	-0.28203353
242	0xbea665b3	-0.32499465
243	0xbdf11fbc	-0.11773631
244	0x3e9beb05	0.30452743
245	0xbebf7e16	-0.37400883
246	0x40d8e421	6.777848
247	0x3c890b04	0.016728885
248	0x3f155cab	0.58344525
249	0x401ed4be	2.4817348
250	0x3e94b7fc	0.2904662
251	0xbe47e55b	-0.19521086
252	0xbab4bfcc	-0.001379007
253	0x3e0de635	0.13857348
254	0xbf0bfd7b	-0.54683656
255	0x3f124706	0.57139623

critic.0.bias f4 [64]
0	0x3e9ab0cd	0.30213013
1	0xbd0c000e	-0.03417974
2	0xbe8d641e	-0.27615446
3	0xbd858b90	-0.0652076
4	0xbecac8e3	-0.3960639
5	0xbd9b39cf	-0.075793855
6	0x3c8df236	0.01732741
7	0xbede6027	-0.43432733
8	0x3d83a4d4	0.06427923
9	0x3dd53231	0.10409964
10	0xbebb5138	-0.36585402
11	0xbdc18c5c	-0.094505996
12	0xbe17988a	-0.14804283
13	0x3e7d4879	0.24734677
14	0xbe4f1489	-0.20222677
15	0xbf5a373d	-0.85240537
16	0xbdb0f817	-0.086410694
17	0xbd6619aa	-0.05617682
18	0xbec8d646	-0.39225978
19	0xbecb0354	-0.39650977
20	0xbe438689	-0.1909429
21	0xbe812739	-0.25225237
22	0x3dec6fd5	0.11544768
23	0x3e0b9854	0.13632327
24	0xbee38bd9	-0.44442633
25	0xbd18c7a5	-0.03729977
26	0xbe10d81f	-0.14144944
27	0xbe8c5095	-0.2740523
28	0xbe2c7679	-0.16842069
29	0xbd028191	-0.031861845
30	0xbe94d118	-0.29065776
31	0xbecfbcba	-0.40573674
32	0x3dc32a2f	0.0952953
33	0xbe268a55	-0.16263707
34	0xbe9740c1	-0.2954159
35	0xbdd63986	-0.104601905
36	0xbdea0ced	-0.11428247
37	0xbe38878b	-0.18020456
38	0x3eaae6ab	0.3337911
39	0xbe3c38e0	-0.18381071
40	0xbe859e91	-0.2609754
41	0xbeb710f9	-0.35755137
42	0x3e67ead2	0.2264817
43	0xbe8aeb3c	-0.27132595
44	0xbdab09a9	-0.08351452
45	0x3d29a0de	0.04141318
46	0xbe4e39fc	-0.20139307
47	0xbe37fd97	-0.1796783
48	0xbea35d55	-0.31907144
49	0xbeb566cf	-0.3543
50	0x3d382daf	0.044965442
51	0xbc00e89b	-0.007867957
52	0xbe108600	-0.14113617
53	0xbeb88810	-0.36041307
54	0x3e21cc7f	0.15800665
55	0x3f2df3bd	0.6795004
56	0xbec63e59	-0.38719442
57	0xbd02b1a0	-0.031907678
58	0xbe04eec3	-0.12981705
59	0xbcd334a6	-0.02578194
60	0xbdd4708b	-0.10373028
61	0xbcb3181a	-0.021862078
62	0xbebe1cc2	-0.37131315
63	0xbe29074f	-0.16506694

critic.2.weight f4 [64, 64]
0	0x3dbee5c0	0.09321165
1	0xbd6882fd	-0.056765545
2	0xbc174192	-0.009231942
3	0xbdfa2ebc	-0.12215945
4	0xbe261c29	-0.1622168
5	0xbd2daed0	-0.042403042
6	0xbe33837f	-0.1753063
7	0x3d88dfd4	0.06683317
8	0xbd6e9a86	-0.058252834
9	0x3d16a861	0.036781672
10	0xbe11e806	-0.14248666
11	0x3c9d8a4d	0.019230986
12	0x3dc94314	0.09827247
13	0xbdaa1033	-0.08303871
14	0xbd88ae56	-0.06673877
15	0x3dd17df1	0.102290995
16	0xbdc37ec3	-0.09545662
17	0xbd662792	-0.05619008
18	0xbd8c29c6	-0.06843905
19	0x3cd8b568	0.026453689
20	0xbe1431f4	-0.1447218
21	0x3af91885	0.00190045
22	0xbe0d4bec	-0.13798493
23	0x3d6131aa	0.054979004
24	0x3bf97c60	0.0076137036
25	0xbaab7703	-0.0013081733
26	0xbde76409	-0.11298377
27	0x3d6aab05	0.057292003
28	0xbe14f3a3	-0.14546065
29	0xbd9715fa	-0.073772386
30	0xbc9b26f0	-0.018939465
31	0xbdf4060b	-0.11915215
32	0xbb983d9b	-0.004646016
33	0xbcece2c8	-0.028916731
34	0xbc14d4e1	-0.009083957
35	0x3d64b795	0.05583914
36	0xbd974213	-0.073856495
37	0x3d0ed920	0.034875035
38	0xbd9df438	-0.07712597
39	0x3d67f43f	0.056629416
40	0xbe115613	-0.14192991
41	0x3dc3a23a	0.09552427
42	0xbdf0c3c3	-0.117560886
43	0xbd4cf21f	-0.050035592
44	0x3d66d0ce	0.056351475
45	0x3d79e59f	0.06101
46	0x3bb69500	0.0055719614
47	0x3ccda636	0.02510367
48	0xbd4ca05c	-0.049957618
49	0xbe00f9b2	-0.12595251
50	0xbdfa97a0	-0.122359514
51	0xbe317ec3	-0.17333512
52	0xbdae48e8	-0.085099995
53	0xbcf8037f	-0.030275105
54	0x3de33f54	0.11096063
55	0xbdbc9489	-0.09208018
56	0xbd2267c8	-0.039649755
57	0xbdf1a7ac	-0.11799559
58	0x3d552477	0.05203673
59	0x3d0bb7f7	0.03411099
60	0xbd14e50a	-0.03635124
61	0xbd9fb88c	-0.077988714
62	0x3daeb1b2	0.085299864
63	0xbd143a65	-0.036188502
64	0x3bd5e248	0.006527219
65	0x3d794152	0.06085331
66	0x3dbe5c88	0.09294993
67	0x3da7bd6d	0.08190427
68	0xbbfc5754	-0.00770084
69	0xbd76336c	-0.060107633
70	0xbdf97c92	-0.12181963
71	0xbd2faf25	-0.04289164
72	0xbe009d94	-0.12560111
73	0xbd7c9304	-0.061663643
74	0x3dac7067	0.084198765
75	0xbde26fb5	-0.11056463
76	0x3dec91de	0.115512595
77	0xbe16ee1c	-0.14739269
78	0xbccec2a7	-0.025239302
79	0xbd2abd26	-0.041684292
80	0x3d803d82	0.06261732
81	0xbdb6cb60	-0.089255095
82	0xbd9f205c	-0.07769844
83	0x3db8f908	0.09031874
84	0xba912200	-0.0011072755
85	0xbd8ed9c6	-0.06975131
86	0x3d4f3b28	0.050593525
87	0xbe12af61	-0.14324714
88	0x3c023b30	0.007948682
89	0xbdc23ba0	-0.09484029
90	0xbcaf2246	-0.021378648
91	0xbdaa94b2	-0.08329143
92	0xbe08958e	-0.133383
93	0x3df7e276	0.12103741
94	0x3ddfa4d8	0.10920113
95	0x3d4e94c4	0.050434843
96	0xbd9dfe4a	-0.077145174
97	0xbca09550	-0.019602448
98	0x3dc4ff24	0.09618977
99	0xbca796c0	-0.020457625
100	0x3d954052	0.07287659
101	0xbdb6cad6	-0.08925407
102	0x3da8da3c	0.0824475
103	0xbba46e60	-0.0050180405
104	0xbde6ba26	-0.11265974
105	0x3dfa9b0a	0.122366026
106	0x3d4edd28	0.05050388
107	0xbdf11d41	-0.11773158
108	0xbdf04a84	-0.11732963
109	0xbe49f3f2	-0.19721964
110	0x3c912968	0.01771994
111	0xbce69940	-0.028149247
112	0x3c291340	0.010319531
113	0xbe017170	-0.12640929
114	0xbbfd57a0	-0.007731393
115	0xbd6dd1e8	-0.05806151
116	0xbe0450c3	-0.12921433
117	0x3d932b04	0.07185939
118	0xbda223b8	-0.07916969
119	0xbd8441bd	-0.06457851
120	0x3daae43e	0.08344315
121	0xbd01754c	-0.031606004
122	0x3d2b58f8	0.041832894
123	0x3d157b28	0.036494404
124	0xbdfdd3a8	-0.12393886
125	0x3cb918d1	0.022594841
126	0x3d3b7224	0.04576315
127	0xbd6dd9a5	-0.05806889
128	0x3e0c151c	0.13679928
129	0x3e9f6190	0.31129122
130	0xbe5d473b	-0.21609204
131	0xbdc8d0a8	-0.09805423
132	0xbeb9d99c	-0.36298835
133	0x3e1ae7d7	0.15127502
134	0x3e252012	0.16125515
135	0xbe88bb43	-0.2670537
136	0xbf655fc1	-0.89599234
137	0x3ec6b674	0.38811076
138	0xbf54e9d7	-0.8316931
139	0xbf2618bc	-0.6488149
140	0xbe048c5b	-0.12944166
141	0xbfae923b	-1.3638376
142	0xbe81fdaf	-0.25388858
143	0x402d52ed	2.7081864
144	0x3c0fa9d4	0.0087685175
145	0x3d3c8d6c	0.046033308
146	0xbd376340	-0.044772387
147	0x3dd76c56	0.1051871
148	0xbda604fa	-0.08106418
149	0xbe8f1e0a	-0.27952605
150	0x3e256dc3	0.16155152
151	0xbf948d11	-1.160555
152	0xbd11c3ac	-0.035586998
153	0x3e32421c	0.17408031
154	0x3e841dbb	0.25803933
155	0x3daca2d1	0.08429492
156	0xbe85c6b6	-0.26128167
157	0x3dcb7a11	0.09935392
158	0x3dd02af6	0.10164444
159	0xbecf74ac	-0.405187
160	0xc047af59	-3.1200774
161	0xbdd83923	-0.10557773
162	0x3e8c68ea	0.27423793
163	0x3d78b9e2	0.060724147
164	0x3bee6779	0.0072755185
165	0xbdcfe124	-0.10150364
166	0xbe8ece8e	-0.27891964
167	0xbe7bbc3a	-0.24583521
168	0xbd8cc079	-0.06872649
169	0x3dc13c18	0.0943529
170	0x3f28cabb	0.6593434
171	0xbda39643	-0.079876445
172	0x3df4a89e	0.11946224
173	0x3bd0e74c	0.006375229
174	0x3de12836	0.10993998
175	0x3d85d7aa	0.06535275
176	0xbd9c8899	-0.076432414
177	0x3e908298	0.28224635
178	0xbf7829f6	-0.9693903
179	0x3e59c57b	0.21266739
180	0x3d23b20d	0.039964724
181	0xbdb87d94	-0.09008327
182	0x3f0fc9e5	0.5616744
183	0xbfeebffc	-1.8652339
184	0xbaab6009	-0.0013074885
185	0xbf5549aa	-0.8331553
186	0x3f946632	1.1593688
187	0xbc774b89	-0.015093693
188	0x3e983f67	0.29735872
189	0xbeb2cef8	-0.3492353
190	0xbcb97d86	-0.022642862
191	0xbd8d72e0	-0.06906676
192	0xbe49f23f	-0.19721316
193	0x3d95bd92	0.07311548
194	0x3dfced53	0.123499535
195	0x3d47a82d	0.04874437
196	0xbd010f78	-0.031508893
197	0x3e15848f	0.14601348
198	0xbd439868	-0.047752768
199	0xbe31fe62	-0.17382196
200	0xbe2123e3	-0.15736346
201	0xbc7dd1ea	-0.015491942
202	0xbdb083de	-0.08618902
203	0xbe00e9a5	-0.12589128
204	0x3c235f20	0.00997141
205	0xbe2d1164	-0.16901165
206	0x3dbe53d5	0.092933334
207	0x3ab39055	0.001369963
208	0xbb29b67c	-0.0025896123
209	0xbe1b01af	-0.15137361
210	0xbc6f1cf0	-0.014594302
211	0x3d2984e4	0.0413865
212	0xbe1d37b4	-0.1535328
213	0xbd2427ca	-0.04007701
214	0x3e488729	0.1958281
215	0xbdcab9aa	-0.09898694
216	0x3d620fdc	0.055190906
217	0xbc40d4d1	-0.011769489
218	0xbddab894	-0.10679737
219	0xbcdab8ce	-0.02669945
220	0x3db1e953	0.08687081
221	0x3dd8abd8	0.105796516
222	0xbdaa6b2b	-0.08321222
223	0xbdb113ac	-0.0864633
224	0xbe298a63	-0.16556697
225	0x3da34c74	0.07973567
226	0xbddb560e	-0.10709773
227	0xbe3c9fb8	-0.18420303
228	0xbc9ffc01	-0.019529345
229	0x3df0bdf9	0.117549844
230	0xbdcd4d87	-0.10024553
231	0xbce11f34	-0.0274807
232	0xbe17dcd8	-0.14830339
233	0x3d995bec	0.07488236
234	0x3d8cfda4	0.068843156
235	0xbe60b12d	-0.21942587
236	0x3cffa4f7	0.031206591
237	0xbda65ad6	-0.08122794
238	0x3db632a4	0.08896378
239	0xbe9ba736	-0.3040101
240	0xbc138a65	-0.009005164
241	0xbe8cbc80	-0.27487564
242	0xbdc3324e	-0.09531079
243	0xbdf423fa	-0.119209245
244	0x3bc76517	0.006085049
245	0x3df707bd	0.12062023
246	0xbddcc3a2	-0.107795015
247	0x3e9d52b6	0.30727166
248	0x3de19fa2	0.11016776
249	0x3c5f9d2b	0.013648312
250	0xbe784120	-0.24243593
251	0xbe247e0c	-0.16063708
252	0xbe16563e	-0.14681336
253	0x3b3a7ebb	0.0028456885
254	0xbdd6573b	-0.10465857
255	0xbddb8d44	-0.10720304

critic.2.bias f4 [64]
0	0xbe113b8d	-0.14182873
1	0xbc9d6ec9	-0.019217866
2	0xbe889778	-0.2667806
3	0xbe0c70b5	-0.1371487
4	0xbe066144	-0.13123041
5	0xbe34e621	-0.17665912
6	0xbe2be77d	-0.16787525
7	0xbdd54f21	-0.10415483
8	0xbd9d5173	-0.07681551
9	0xbde6a90a	-0.112627104
10	0xbe1dbaf7	-0.15403353
11	0xbd81404e	-0.06311093
12	0xbde492c9	-0.111608095
13	0x3c197bd6	0.009367904
14	0xbd122a45	-0.035684843
15	0xbda26ee8	-0.0793131
16	0xbdbf6644	-0.093456775
17	0xbc552d1c	-0.013011243
18	0xbe90fb94	-0.2831694
19	0xbe2ff834	-0.17184526
20	0x3e7f5ea5	0.24938448
21	0xbe5b6682	-0.21425822
22	0xbd2a9b82	-0.04165221
23	0xbe882361	-0.26589492
24	0xbe491395	-0.19636376
25	0xbe86fb08	-0.26363397
26	0xbd6bd3fa	-0.057575203
27	0xbe59a392	-0.21253803
28	0xbd82bbea	-0.06383498
29	0xbe98a2d4	-0.29811728
30	0xbd57d976	-0.05269762
31	0xbe6940d6	-0.22778639
32	0xbe28a523	-0.16469245
33	0xbe8783c1	-0.26467708
34	0xbdb5b19a	-0.088717654
35	0xbeb4f142	-0.35340315
36	0xbf2bc793	-0.671014
37	0xbdc63ae0	-0.09679198
38	0xbe7863bc	-0.24256796
39	0xbdf9c83e	-0.12196396
40	0xbd72c8c5	-0.0592735
41	0xbe1e9450	-0.15486264
42	0xbebc93b3	-0.36831436
43	0xbe8ba094	-0.2727095
44	0xbcab57b4	-0.020915844
45	0xbea50f4e	-0.3223824
46	0xbdf301ad	-0.11865554
47	0xbd12bf97	-0.035827246
48	0xbea604cc	-0.32425535
49	0xbdf98ee2	-0.12185456
50	0xbd4ba1ce	-0.049714856
51	0xbd32de84	-0.04366924
52	0xbda27276	-0.07931988
53	0xbeaeaa7a	-0.34114438
54	0x3d48d496	0.049030863
55	0xbe16564a	-0.14681354
56	0xbcc4a5eb	-0.024004897
57	0xbd52e57f	-0.051488396
58	0xbd92a1b7	-0.07159751
59	0xbe59eec5	-0.2128249
60	0xbcb7c8a1	-0.022434535
61	0xbd973637	-0.073833875
62	0xbd959e5a	-0.07305594
63	0xbdcddbfa	-0.10051723

critic.4.weight f4 [1, 64]
0	0x3d0363dd	0.03207766
1	0x3d5e82ef	0.054324087
2	0xbe933ff5	-0.28759733
3	0x3dabc2b3	0.08386745
4	0x3e2a1ebd	0.16613288
5	0xbceab03e	-0.028648492
6	0xbe3588ff	-0.17728041
7	0xb9e51df2	-0.00043700595
8	0xbca13961	-0.01968068
9	0xbd8a66fc	-0.06757924
10	0xbd0511fe	-0.03248786
11	0x3cbfeba5	0.023427794
12	0x3bba52c3	0.0056861355
13	0xbcac0085	-0.020996341
14	0x3e6eab9e	0.23307654
15	0xbd40dc27	-0.047084954
16	0xbda930eb	-0.082612835
17	0xbd57a2b9	-0.05264542
18	0x3f1c947b	0.61164063
19	0xbeea10f0	-0.45716047
20	0x3edd5c8c	0.4323467
21	0xbdb2963f	-0.087200634
22	0x3d7741df	0.060365554
23	0xbf65fdfd	-0.8984068
24	0x3d33f309	0.04393295
25	0x3f7fbd99	0.9989868
26	0xbb83e896	-0.004025529
27	0xbe898c23	-0.26864728
28	0xbdb13cd0	-0.08654177
29	0xbe676f6e	-0.22601101
30	0x3dee56e3	0.11637666
31	0x3e0f7560	0.14009619
32	0xbe80ea21	-0.25178626
33	0x3e30e36c	0.17274255
34	0x3c8fb09b	0.017540267
35	0xbf1970de	-0.59937847
36	0xbff84f57	-1.9399213
37	0x3d6a50b5	0.057205874
38	0xbcf5f484	-0.03002382
39	0x3d556298	0.05209598
40	0xbcdfaa62	-0.027302925
41	0x3d5dd665	0.05415954
42	0xbd7f2507	-0.06229117
43	0x3e0ce264	0.13758236
44	0xbca58317	-0.02020411
45	0x3fb7bc2a	1.4354298
46	0xbde73af0	-0.11290538
47	0xbcbcacfe	-0.023031708
48	0xbec7d658	-0.3903072
49	0x3d304387	0.04303315
50	0x3e194d0f	0.14970802
51	0x3de1efbe	0.11032055
52	0x3ca7d201	0.02048588
53	0xbf336d7a	-0.7008892
54	0x3f51130a	0.81669676
55	0x3d762e8d	0.060102988
56	0xbab9e3da	-0.0014182285
57	0xbf94613a	-1.1592171
58	0x3bb6bd5f	0.005576774
59	0xbeb0db15	-0.34542146
60	0x3ecdc391	0.40188268
61	0x3acbfa3f	0.001556225
62	0xbdc3b22f	-0.0955547
63	0xbd69b744	-0.05705954
